results/MLDriver/MLDriver.onnx (onnx, 404427 bytes, 7 tensors)

action_model._continuous_distribution.log_sigma f4 [1, 3]
00000000: 9cb0 3c3d f113 053d 22ca 223d
0.046066865 0.03248972 0.03974355

action_model._continuous_distribution.mu.bias f4 [3]
00000000: d3ae 803a 64a7 9c3b 70e5 693a
0.0009817727 0.0047806967 0.00089224335

action_model._continuous_distribution.mu.weight f4 [3, 256]
00000000: 301e 8cbc 3a4c 93ba cbc8 74bc 1bd2 be3b
00000010: 418d c1bc 975c 9d3b c3f1 40bc 161f 323b
00000020: aeb6 32bb 862d dd3a e0bf 493b 1619 3bbc
00000030: acd1 a13a d317 e5bc 3bbd f13c d753 cdbc
00000040: 2197 97bc 6a90 06bc f583 13bc a27c 883c
00000050: 456c 06bb c0f9 1d3c cea5 0b3b 1682 20bb
00000060: bb8d a2ba e243 073c 0810 e5bb 2686 debc
00000070: ed92 3e3b 90cc 94ba eccc 223b d7c3 f53a
00000080: 2b35 a03c 502b 09bb 86bf f73c 2e2e 21bc
00000090: f6d1 6fbb 54b0 313b 11d1 d73b f80c bdbb
000000a0: 932e 0bbb 5236 6e3b 41f0 4a3a d68a b2bb
000000b0: 0803 4e3c e4a3 36bc 29bc 03bb 97f3 7e3c
000000c0: 76d4 8bbb 37a1 f23b ff81 dd3a 543d e5ba
000000d0: 09e5 d5bb 0217 823c 961a e839 1116 0b3c
000000e0: 1bd1 97bb c285 6cba b00f 58bb fb36 eeba
000000f0: 26e4 f639 d04e 62bc a080 573c e492 efbb
00000100: e617 983b e2a8 e1b8 f8d8 8d3b 29dc 903c
00000110: a337 ce3b 0e22 84bc 483f d639 4d8a 553c
00000120: 2ed4 95bc 8583 3bbc 585b 65bc 1a11 afba
00000130: 1aa4 b8bb ccac 50bb 3369 2cbc eeaf ecbb
00000140: 0aba 12bc 1550 0fbc d16e 743c 6751 2e38
00000150: e478 733c 3fff 663c 2c7c 64bc a01e 9abc
00000160: 9ae4 4e3b ff1c 073c 8176 6c3c 17bc 953b
00000170: 3e02 be3c 2a52 843c 0965 c93c 798c 453c
00000180: 23db d83b da1b 10b9 dbd4 b53b 58f7 9f3c
00000190: b3fb 0fbc 97c0 623c c5fd 85bc 3e23 a53c
000001a0: 013e 9e3b d8de 76bb 52b4 3c3c 1f2a 543c
000001b0: f00c eebb db1b 883b bbc7 cabb 844c dd3c
000001c0: e012 0c3c fbcf 69bc fe25 80bc 7447 7a3b
000001d0: b636 d73b 5fa3 8ebb a3b3 963b c8b0 f639
000001e0: 03f5 333c 5b63 6ebc 57c7 de3c 9076 c13b
000001f0: 3197 26bc 71f2 9dbb 8718 d2b8 d5dc d43c
00000200: daf5 2bbc 5758 823b f591 ed39 51e6 e7ba
00000210: d571 aebc 4e33 7e3b a7aa 1fbc a955 cdba
00000220: 3292 5bbb e53e 623c 82fc d93c 7acb 1bbc
00000230: 9f89 2e3c 03ab 9d3b a0b7 28ba 83aa 763c
00000240: a1bb eebb f6a1 113c 9ada 0ebc 650a 15bc
00000250: 36ec de3b 8d15 a1bb 381b a3bb 1d7b b9bb
00000260: 0931 5eba 8871 b4bc 18d5 84bc 7092 383a
00000270: 8216 cdbb 9d16 0bbb 0752 043b 1990 7a3c
00000280: 4aa1 b1bc 974b 063c 7d0f 60bc f808 4539
00000290: eb9b 39bb 6d1f 0abb 5057 b0bb c312 3dbc
000002a0: 3cdf 2cbc 7ada 9abc e14d 8ebc cbcb 2dbc
000002b0: 6847 c6ba 9ec5 d63b b0e0 9939 ce42 c0bc
000002c0: d83d 813b f549 ddbb f7ee 363b b6b1 713a
000002d0: 7038 2f3b 64c4 253c ff65 173c c482 fdbb
000002e0: 39d1 a73c 5917 44bb b14f d6ba 6362 04bc
000002f0: 4d3a 2c3c d7b7 b33b f1e7 b8bb c20d cf3b
00000300: f307 d3bc 8810 613b 8caa f63b edab 8f3c
00000310: fdcc c23a 97dd a5bc b0ac ccbc 50a2 59b9
00000320: 11db b537 d659 223b 0b30 f5bb 4700 e83b
00000330: 2835 793b 0045 01bc 93a4 c53b 95f4 06bc
00000340: 4087 303b c31a 133c f4a4 b23b 847a 543b
00000350: 816c 3ebb 5df3 33bb 9e1c 563c 14a0 1f3c
00000360: 4674 573c eb0b c2bc b86b d8bb eadb 1aba
00000370: 5c1c 7abb 0b62 bf3c f43c 04b9 43cf 75ba
00000380: ed4a a4bb 4d9c 51ba d5cf 74bb 853a f038
00000390: a430 133b 9533 4dbc 594b 1bbc 20bd 10bc
000003a0: 95ae 89ba 9beb 0b3c 81cb 8dbb 5eeb 113c
000003b0: 97b7 8abc 29a3 b83c 3bd1 e6bc 56b0 153c
000003c0: f867 b53a 696d 373b 70ae 063c c76d 0fbc
000003d0: 4352 313c 71aa 1a3c 903e f6ba b1e2 a43c
000003e0: ccb6 8bbc a0bb 5e3a e866 b63b e7f8 4b3b
000003f0: beef 223c b910 073b 060f 10bc ff61 763c
-0.017104238 -0.0011237927 -0.014940451 0.0058233864 -0.023626925 0.0048022973 -0.0117763905 0.0027179173
-0.002726953 0.0016874529 0.0030784532 -0.011419555 0.0012345812 -0.027965462 0.029509177 -0.025064392
-0.018504681 -0.008213142 -0.009003629 0.016660992 -0.002051131 0.009642065 0.0021308544 -0.00244916
-0.0012401858 0.008255931 -0.0069904365 -0.027163576 0.0029079274 -0.0011352468 0.0024841381 0.0018750381
0.019556602 -0.0020930357 0.030242693 -0.00983767 -0.0036593652 0.0027113156 0.006586202 -0.0057693683
-0.0021237477 0.0036348295 0.0007741489 -0.0054486794 0.012573965 -0.011147473 -0.0020101166 0.015561006
-0.0042672707 0.007404472 0.0016899704 -0.0017489591 -0.0065275473 0.015880112 0.00044270296 0.008489148
-0.0046330816 -0.0009022617 -0.0032968335 -0.0018174344 0.0004709076 -0.013812736 0.013153225 -0.007311212
0.004641521 -0.00010760293 0.004328843 0.017683106 0.0062932535 -0.01612952 0.0004086441 0.013033462
-0.018289652 -0.011444931 -0.013998829 -0.0013356537 -0.005634797 -0.0031841276 -0.010523128 -0.007223121
-0.008955488 -0.00874712 0.014918999 4.1560645e-05 0.014860366 0.014098941 -0.0139456205 -0.018813431
0.0031569363 0.008246659 0.01443255 0.004569541 0.023194429 0.01615246 0.02458431 0.012057417
0.00661792 -0.00013743286 0.005549056 0.019527122 -0.008788037 0.013839862 -0.016356358 0.020158406
0.004829169 -0.0037669446 0.011517601 0.012949496 -0.007264726 0.0041537113 -0.0061883605 0.027014025
0.008549422 -0.014270778 -0.015643116 0.0038189562 0.0065678013 -0.0043529714 0.004599051 0.0004705249
0.010983708 -0.014550055 0.027194662 0.0059040263 -0.010167883 -0.004820161 -0.00010018149 0.025984207
-0.010495627 0.003977816 0.0004531291 -0.0017692541 -0.021294514 0.0038787904 -0.0097452765 -0.0015665788
-0.0033503887 0.013808941 0.026609663 -0.009508962 0.010652929 0.004811646 -0.00064360537 0.015055302
-0.0072855507 0.008888712 -0.008719111 -0.0090967165 0.006803061 -0.004915899 -0.00497761 -0.005660428
-0.0008475935 -0.022026792 -0.016214892 0.0007040864 -0.0062587867 -0.0021223195 0.0020190494 0.015293145
-0.021683354 0.008196733 -0.013675568 0.00018790725 -0.0028321694 -0.002107586 -0.005381502 -0.011540118
-0.01055127 -0.018903006 -0.01737112 -0.01060767 -0.0015127482 0.0065543195 0.0002934984 -0.023469355
0.00394414 -0.006753201 0.002791343 0.00092199014 0.002673652 0.010117624 0.009240626 -0.0077365357
0.020485507 -0.0029921143 -0.0016350654 -0.008080098 0.010511947 0.005484562 -0.005642884 0.0063187787
-0.025760626 0.0034342129 0.007527655 0.017538035 0.0014862117 -0.020247264 -0.024984688 -0.00020755199
2.1678892e-05 0.0024772785 -0.007482534 0.007080111 0.0038026068 -0.007889986 0.0060315817 -0.008237024
0.0026936084 0.008978548 0.005451793 0.0032421658 -0.0029056373 -0.0027458288 0.013068346 0.009742755
0.01315028 -0.023687324 -0.006604638 -0.00059074035 -0.0038163876 0.02336218 -0.00012611208 -0.00093768927
-0.0050138147 -0.0007996008 -0.0037355323 0.00011454992 0.0022459412 -0.012524505 -0.0094784135 -0.008834153
-0.00105043 0.008540059 -0.004327238 0.008906214 -0.016933246 0.022538738 -0.02817594 0.00913628
0.0013840189 0.0027988798 0.0082203 -0.0087542 0.010822835 0.00944005 -0.0018786956 0.020127626
-0.017054938 0.0008496586 0.0055664666 0.00311237 0.009944854 0.0020609333 -0.008792644 0.0150380125

network_body._body_endoder.seq_layers.0.bias f4 [256]
00000000: 574d a6bb b05d 9dbb 912d 9f3b 4950 4f3b
00000010: 014c 28bb 24dd 3fbb 2d81 2aba c60a 4fbb
00000020: d196 6fba 875e 28bb d83e 25bb eb41 993b
00000030: cd78 ec3a 0464 93bb 1cac 59bb 1e06 bbbb
00000040: cca0 9abb 809a 1dbb e5af f8b9 4c6f 1ebc
00000050: a03b d3ba 022c b4bb 0d54 17b9 98f9 88ba
00000060: ae14 f8bb 55b8 dbba 4124 04bc 4aea c3bb
00000070: 9b70 6e3b c0d2 32bb 80a4 7a3b 8db0 bdbb
00000080: 118d 93ba 6d0d 913c eb3d 08bb 2075 cdbb
00000090: 6027 763a ebb1 85bb fed4 613b 425d fdbb
000000a0: b8a4 43b6 04ff 5cbb 1886 f7b9 b863 ae3a
000000b0: 1ba6 8ebb 52b9 e6ba 1731 473a 0005 cbb9
000000c0: 731e e1bb fe79 72ba 52f7 d1bb 5ad8 59bb
000000d0: c1ff 2abb 814b 4fbc 3f99 853a 7206 84bb
000000e0: 1336 3cbb c5d8 7cbb 21f2 babb 258c 8a3c
000000f0: fd79 cebb 294d 9bbb e65d bbbb c2b4 96bb
00000100: 3e21 55bb 4ff2 b4bb 3b1a d1bb bae2 92bb
00000110: 53ae 2cbb 48dd a4b9 a0b6 203c 0dc3 11bc
00000120: a057 493b 1259 20bb cafa 8dbb 011e 3fbb
00000130: e7f5 953b a7ca 8c37 feb6 b9bb 1d56 0d3b
00000140: 8ba9 3f39 d9fd 84ba 6263 fcba ad3f ca38
00000150: a9c7 86bb d01f e5bb cb81 e93a 0b17 87bb
00000160: 3d2e 65bb 3d8c 843b 3084 a2bb 2bfd b5bb
00000170: c316 c1bb 0101 ca3b 9448 e33a 602a 9a3b
00000180: 615e 84bc cec3 6bbb 7d6a 14bc 5b83 35bb
00000190: 8a86 59bc deb5 8aba 756a 97bb 9e2d 833b
000001a0: 000f 08bc b5c2 69bb d621 18bb c9e6 973a
000001b0: 48a3 8bbb 8603 14bb 7396 f6ba 8333 923a
000001c0: 13cf 8fbb b790 b9bb 8683 36bb a8ac 903a
000001d0: d2e3 c5bb c6af b93b 583b 17bb cf08 8bba
000001e0: b9fa acba fda8 c0bb d8ee b0bb ee4e b5bb
000001f0: ca78 8fbb de1f 07bc c1da 523b 1561 09bc
00000200: ae4a a2bb d3da a4bb cb77 a4bb cb85 b039
00000210: a7fb 01bb e99f 68bb 47cf 85bb 1d93 44bc
00000220: 9132 b8bb 5855 3e3b caee c0bb 0f5d 2c3c
00000230: beca c0bb 5410 873a 7fbe 42bb adbd f0bb
00000240: e536 d6bb ff63 b7b8 2f92 42bb bcc7 4bbb
00000250: 60ef c8b9 4c24 4ebc 6064 1a38 3a4d 07bc
00000260: b465 84bb c7c0 0abb aa18 c33b 3290 12bb
00000270: 505d 25bb acf9 363b 27b8 57bb 4f7c f9bb
00000280: b756 73bb 64d4 3abc 9f34 2ebb 2ef1 fbba
00000290: e1bf 81bb ecd1 883b 1fa1 093c ea7d 46bb
000002a0: 896f 00bb adfe 6238 f283 08bb c86f 853a
000002b0: 50f4 c0bb c5fc 82b9 9e5b c6bb 353c ebbb
000002c0: 9e2a 5f3c 00cb b03a f38d 89bb f7ed 11ba
000002d0: 59b7 d5ba 41cb 7bbb dbd2 a4ba c643 9eba
000002e0: 67fe a5b8 f5d7 80bb 61d6 57ba 8fef 0cbc
000002f0: c87e 30bb 9362 52ba b70f 61ba 6c57 c8bb
00000300: 4dd7 5e3b df98 4eba 170e e3bb cfcf babb
00000310: a814 0fbb b8b4 2bbb 95e1 8ebb 37cb 71bb
00000320: e4ad 8db8 0ea9 aebb 6445 98bb 9b5c ba3a
00000330: e712 87bb da32 d6ba c3b5 66bb 8edc 8a3b
00000340: 4999 bcbb 5eb2 5abb b033 6c3b 4abf bbb7
00000350: fe8f 6039 5e61 62ba 9a45 3dba ea1c 7fbb
00000360: 8e27 f8bb f5c1 4fba 1f8d 5a3b 3470 cebb
00000370: 504e 90bb 0e42 8cbb 4a0c b1ba 5604 8fba
00000380: d041 53bc f184 563b 83f5 ba3b f817 6ab9
00000390: d078 98ba 64ac b23b b79a 973b ddc2 a2ba
000003a0: 2ec6 fdbb 1c46 233c 1a66 33ba d495 2cbb
000003b0: 9ceb 21bb 9680 f8bb 2817 e13a 6d63 56bb
000003c0: 2207 83ba e8b2 e1bb fa30 f1b9 f42c 24bb
000003d0: ec6d 2abb ac8f 95ba b0af ffbb 9a94 8abb
000003e0: 1ac3 1cbb c580 6e3a 6d77 89bb 7e45 0cbc
000003f0: 5c28 773b 0043 a2bb 210c 9e3b 7b3b d03a
-0.0050751376 -0.004802428 0.004857727 0.0031633547 -0.0025680067 -0.0029276097 -0.0006504234 -0.0031592115
-0.00091396 -0.0025691108 -0.002521446 0.0046770475 0.0018041373 -0.004498007 -0.0033214157 -0.0057075163
-0.0047188755 -0.0024048388 -0.00047433298 -0.00967009 -0.0016115792 -0.00549841 -0.00014431794 -0.0010450361
-0.0075708246 -0.0016763309 -0.008065284 -0.005978857 0.0036383036 -0.0027286261 0.0038245022 -0.0057888688
-0.0011257251 0.017706597 -0.002078886 -0.006270066 0.00093900226 -0.0040800474 0.0034459229 -0.0077320645
-2.9153143e-06 -0.0033721337 -0.0004721142 0.0013304865 -0.0043532974 -0.0017602837 0.00075985625 -0.00038722903
-0.006870085 -0.00092497456 -0.0064076567 -0.0033240528 -0.0026092383 -0.012652279 0.0010192766 -0.0040290887
-0.0028718754 -0.0038581353 -0.0057051335 0.01691253 -0.006301163 -0.004739423 -0.0057179807 -0.0045991847
-0.0032521035 -0.0055220495 -0.0063813007 -0.0044825943 -0.0026349023 -0.00031445385 0.009809166 -0.008896601
0.0030722395 -0.0024467153 -0.004332875 -0.002916217 0.004576433 1.6783668e-05 -0.0056675663 0.002156622
0.00018278339 -0.0010146453 -0.0019255693 9.643971e-05 -0.004113157 -0.0069923177 0.001781517 -0.00412262
-0.0034970187 0.004045038 -0.0049596056 -0.0055538616 -0.005892606 0.0061646705 0.0017340356 0.0047047585
-0.016158285 -0.0035974863 -0.009058592 -0.0027696702 -0.0132767055 -0.0010582765 -0.004620845 0.0040032407
-0.0083043575 -0.0035669033 -0.0023213527 0.0011589165 -0.004261408 -0.0022585108 -0.0018813148 0.0011154268
-0.004388699 -0.0056630033 -0.002784939 0.0011037784 -0.006039121 0.005666706 -0.0023076143 -0.0010607484
-0.001319728 -0.00587952 -0.005399566 -0.005533091 -0.004378413 -0.008247344 0.0032173845 -0.008384963
-0.00495275 -0.0050309687 -0.0050191632 0.0003366902 -0.0019833834 -0.0035495705 -0.0040835473 -0.011997965
-0.0056212624 0.0029042568 -0.005887841 0.010520234 -0.0058835438 0.0010304549 -0.0029715595 -0.00734683
-0.0065373057 -8.744746e-05 -0.0029689183 -0.0031094393 -0.0003832532 -0.012581896 3.6809943e-05 -0.008258158
-0.0040404443 -0.0021172033 0.005953868 -0.002236378 -0.002523262 0.0027919812 -0.003291616 -0.0076136957
-0.0037130543 -0.011403177 -0.0026581658 -0.0019221657 -0.0039596413 0.0041754153 0.008400231 -0.0030287453
-0.001959773 5.4119784e-05 -0.0020830599 0.0010180408 -0.0058884993 -0.0002498386 -0.006053402 -0.007178808
0.013621001 0.0013488233 -0.00419783 -0.00055667706 -0.0016305252 -0.003842071 -0.0012575047 -0.0012074641
-7.915199e-05 -0.003931994 -0.0008233544 -0.008602037 -0.0026931036 -0.0008025553 -0.00085854105 -0.006113937
0.003400284 -0.0007881056 -0.00692917 -0.0057010422 -0.002183238 -0.0026200246 -0.0043603876 -0.0036894807
-6.7557936e-05 -0.0053302115 -0.004646944 0.0014218272 -0.0041221264 -0.0016342059 -0.0035203553 0.004237718
-0.0057555777 -0.0033370475 0.003604155 -2.2381213e-05 0.00021415946 -0.00086357247 -0.0007220149 -0.0038927146
-0.0075730747 -0.0007925325 0.0033348275 -0.0062999967 -0.004403867 -0.0042803353 -0.0013507691 -0.0010911326
-0.012894109 0.0032733048 0.005705537 -0.00022324908 -0.0011632685 0.0054526795 0.0046265977 -0.0012417693
-0.007744572 0.009965446 -0.00068435224 -0.0026334422 -0.0024707085 -0.007583688 0.0017173039 -0.003271307
-0.0009996633 -0.0068877824 -0.00046003592 -0.0025051208 -0.002600546 -0.0011410615 -0.007802926 -0.0042291405
-0.002392 0.00090981676 -0.004195145 -0.00856149 0.0037713265 -0.0049518347 0.004823223 0.0015886867

network_body._body_endoder.seq_layers.0.weight f4 [256, 132]
00000000: 8bea d1bd f2cd 9d3d 8271 0439 b0d1 9b3d
00000010: 5021 143d 18f5 1e3d 4bee 19bd cef5 33bd
00000020: 8bd2 4b3d 4853 1f3e 96f9 58bd 7711 a53d
00000030: 120b e13c c2ea 143d 9126 8abd 4989 143e
00000040: cf8e f7bd df2e a8bd 0c72 a4ba 4064 ecbd
00000050: f26d 0bbd 5d94 b03d 127a e53d 24bd 2dbe
00000060: 5006 c8bd b61f 583d 085e 803d 7bf2 24bc
00000070: 5c94 233e 0064 c9bc 09be 2a3e d4ea dabd
00000080: 66bf b83d 0770 883d b9e1 543c 9db3 ab3c
00000090: e41b adbc f0e3 a9bd 82f1 6cbb 9ff7 78bd
000000a0: 1f4c 543d abf2 9d3c f8c2 303e 1855 073d
000000b0: 72ab 0cbd 0b59 e8bd 4471 823d 1171 073d
000000c0: c483 0dbd 98d4 553d 0646 88bd fa4d 2ebd
000000d0: dddb 89bd 850c 3f3d d783 383e 0f15 e4bc
000000e0: 13ab 353d 2309 5dbe 0d1e 83bd 52d4 093d
000000f0: 0d6c e73c 12d2 063d ccbd 003a 594a 5dbd
00000100: 4349 9cbd f696 f5bd 5da4 f0bd bb35 36bc
00000110: 453c f4bc 2ced b43d 6095 cd3d 5481 d23b
00000120: cf0f acbd 4c00 103d 34f1 023d c4c8 52bd
00000130: 3d21 afbd 8c71 5fbd d072 103e d385 02bd
00000140: 8e88 fabc 41cb be3d 55cf 9dbd 1e5e d73d
00000150: 1197 89bd 9a17 5a3c 826b aa3d eae9 0cbd
00000160: 4a57 ca3d 6f07 dd3d f43b 9ebc bc69 1f3b
00000170: 01e9 44bd 35d7 80bc 6ebc 9dbd d51c 753c
00000180: a304 aebd bf78 ca3c c097 86bc c367 e4bc
00000190: 552f d0bd 4d88 fbbd bc19 8cbc 964d 9f3d
000001a0: 15c6 ce3b c8fe cd3c 9af2 c1bd 1a76 083e
000001b0: 9e4d 03bb eb51 333e e63a e8bd 9138 eabc
000001c0: d8e7 33bd dfac 46bd 4c8d 44be 5d6a c0bd
000001d0: 12c1 0d3c 8fe4 67bd 0ae6 0d3d 2d70 89bd
000001e0: f7c5 aabd 01bd 93bd 7298 35bc 0f31 a2bc
000001f0: 2676 7cbc a75f 84bd b5ba 4c3e b13a 83bd
00000200: 8df9 6bbd 8335 f43d 8a03 153d 9153 7c3c
00000210: c9fe 1d3d 6570 bfbc 035d 35be 61e1 503c
00000220: f8d7 29bd 0452 473d e4ee 1fbd 692b c4bc
00000230: a931 bc3d 8ba5 28be e16b 3c3d 9c10 5f3d
00000240: 9409 a53d 6292 c43d e66b 913d 01ee 4c3e
00000250: 8b44 083d 542b d13b 6629 a5bd c7c3 02bc
00000260: d5f9 773e 2b99 9c3b 2b18 bc3d 80ab cabc
00000270: cc71 86bc c703 2ebe ac92 fd3c 0ea6 acbd
00000280: 0300 5c3d be6b 163e f816 ed3b 78a0 8a3c
00000290: 74c3 75bc 3687 0b3e 6181 0cbe 3b00 c3bc
000002a0: 0d36 0b3e da01 e33d af80 4e3d 51b3 14bd
000002b0: e1fe b5bd 620c cebd ebc9 ee3c 717d d13c
000002c0: 5c22 023d 2103 ef3d 7656 3e3d c41a 883d
000002d0: 8c9a 91bd 067b 293d 48d6 55bd c4aa 2abe
000002e0: acf6 eabd 276f b63c 1264 9dbc 841e b3bd
000002f0: f174 13bd 7a86 0a3e 40df 193b a13f 67bd
00000300: 0759 90bd 027e fc3c 1f99 b1bd e67e 85bc
00000310: 8dd5 08be 5950 3b3b 7574 65bd e548 0bbe
00000320: ab1e 19bd 9fbb 3ebe 3f2d 60bd 6bfc 823d
00000330: 130e 073e 61cb 853d cefa 9d3d 999a 2abe
00000340: 3d69 d1bc 08bc b03c 7c9c 31ba 9dbd 81bd
00000350: 40c0 cf3c 4c4d a73c 2eb4 a93c 8f92 c53d
00000360: f36c 853d f0ae febc 0f1e 73bd 99ac 97bd
00000370: b677 a9bc 6e90 a63c 9252 b83c 6463 dbbd
00000380: 3c9d d5bd 625c 333d 41b8 833d acbc 8f3d
00000390: 8db7 cb3c 9895 fdbc 8194 943d 5bd6 cd3c
000003a0: b6be c03c 1b3d 3aba fcbf 1abd e2f4 eabd
000003b0: 9b81 373d c561 c3bd 67bc c53c 2a43 373d
000003c0: 7562 593d 608b aa3d 2c07 2f3d 5003 33be
000003d0: b49c db3c a7ee c13d 6e78 c9bc 00ac 02be
000003e0: 8344 16bd 1aa4 0e3d 0f0b 0f3e 7fe9 4fbd
000003f0: fdab 3abd e6ed 3abe 5982 fc3c 8cb2 783d
-0.10249814 0.077052966 0.00012630786 0.07608354 0.03616458 0.03880796 -0.03758077 -0.04393559
0.049761336 0.15559113 -0.0529724 0.08059972 0.027471099 0.036356695 -0.06745637 0.14505495
-0.120877855 -0.08212065 -0.0012546196 -0.11542559 -0.0340404 0.08622048 0.11204924 -0.16966683
-0.09766829 0.052764617 0.06267935 -0.0100675775 0.15974563 -0.024583817 0.16674055 -0.10689321
0.09020881 0.066619925 0.01299327 0.02095967 -0.021131463 -0.08295429 -0.0036154692 -0.060783025
0.051830407 0.019280752 0.17261875 0.033040136 -0.03434319 -0.113451086 0.0636926 0.033066813
-0.03454949 0.0522047 -0.06653981 -0.042554833 -0.06731389 0.0466428 0.18019043 -0.027842073
0.044352602 -0.21585517 -0.06402216 0.03364975 0.028249765 0.032915182 0.00049110944 -0.05402598
-0.07631161 -0.11991684 -0.117501 -0.011121209 -0.029813895 0.088342994 0.10038257 0.0064241085
-0.08401453 0.035156533 0.03196831 -0.051460996 -0.085512616 -0.054551646 0.14106297 -0.031865906
-0.030582692 0.09316111 -0.07705561 0.10515998 -0.06718267 0.013311291 0.08321287 -0.034402765
0.0987993 0.107924335 -0.019315697 0.0024324497 -0.048073772 -0.015727619 -0.07701956 0.014960487
-0.08496978 0.02471578 -0.016429782 -0.027881509 -0.10165278 -0.12281857 -0.017102115 0.0777847
0.0063102343 0.025145903 -0.09470101 0.13326302 -0.0020035277 0.17511718 -0.11339359 -0.028591426
-0.043922275 -0.048504706 -0.19194525 -0.09395287 0.008651989 -0.056614455 0.03464321 -0.06710849
-0.0833854 -0.07213784 -0.011083709 -0.019798784 -0.015409028 -0.06463557 0.19993098 -0.06407679
-0.057611037 0.11924269 0.03638033 0.015400783 0.03857306 -0.023369024 -0.17711262 0.012749047
-0.04146573 0.0486622 -0.039046183 -0.02394648 0.091891594 -0.164694 0.04600132 0.0544592
0.080584675 0.09598233 0.07100658 0.20012666 0.033268493 0.006383339 -0.08064537 -0.007981247
0.24216397 0.004779001 0.09184297 -0.02473998 -0.016411684 -0.16993628 0.030953728 -0.0843011
0.05371095 0.14689538 0.007235404 0.01692222 -0.015000213 0.13625798 -0.13721229 -0.02380382
0.13594837 0.110843375 0.05041569 -0.036303822 -0.08886505 -0.100609556 0.029149016 0.02557251
0.03177105 0.11670519 0.046469174 0.0664573 -0.071095556 0.04137709 -0.052206308 -0.16666704
-0.1147283 0.022269798 -0.019212756 -0.08746055 -0.036000196 0.13527861 0.0023479015 -0.056457166
-0.070482306 0.030821804 -0.08671784 -0.016295861 -0.13362713 0.0028581826 -0.056019265 -0.13602026
-0.037382763 -0.1862626 -0.05473065 0.06395801 0.13188963 0.06532932 0.07713853 -0.16660537
-0.025562877 0.021574035 -0.0006775332 -0.06334994 0.025360227 0.0204226 0.0207158 0.096470945
0.06514921 -0.031089276 -0.059354838 -0.07405967 -0.020686965 0.020332541 0.02250031 -0.10712317
-0.10430381 0.043789275 0.06431628 0.07018408 0.024867797 -0.03095512 0.07254887 0.025126627
0.023528438 -0.00071044423 -0.037780747 -0.11472489 0.044801336 -0.095401324 0.024137689 0.044741787
0.05307241 0.08327365 0.04273145 -0.17481732 0.02680812 0.094693474 -0.024593558 -0.12760925
-0.03668643 0.03482447 0.13969062 -0.05075979 -0.045574177 -0.18254814 0.030823873 0.06071715

network_body._body_endoder.seq_layers.2.bias f4 [256]
00000000: 8446 9ebb ed59 8dbb 55ac 6bbb 21fd ac3a
00000010: db4d 2fbb 2a6f 9239 01e2 70bb abe7 e5bb
00000020: ff5e 40bb 5464 96bb ef4f b13a f8e8 acbb
00000030: 200e 8939 ca55 3e3a cf45 a3bb cc0b a4bb
00000040: 93b3 8c39 3773 afba d138 bcbb 39cf 193a
00000050: ffdd 29bb 075a 33bb a1ae dcba f5e4 9fbb
00000060: 6e30 c9bb 9b3b 25bb 9c7b 9cbb 9e8f 8abb
00000070: 594e 8cbb 24f6 6ebb 85a3 0a39 6208 a83a
00000080: 9731 39bb 2122 b7bb 1992 15bb b5ab 7fb8
00000090: 266e 21bb 9763 47bb 2a85 87bb 47c0 aebb
000000a0: 0236 a0bb 003a a0bb 34de 8a3b 6493 59bb
000000b0: 5c1b 6cbb 4d7b abba 006f ba3b 17b8 d2bb
000000c0: 47a7 9839 0717 c7bb 2913 ae3a c4a3 d9bb
000000d0: fd8a 9dbb 9147 a5bb ac56 9cba 9ba0 88bb
000000e0: 6e6f c8ba fd16 68bb 43a9 ff3a 5874 dd3a
000000f0: 1f37 473a 51c3 7cbb ffc8 d3bb fbbe d7ba
00000100: a934 dcbb e455 e7ba 33ab aabb b647 8cbb
00000110: 5432 5ebb 26ab d3b9 cc0c 26bb f602 f13a
00000120: f544 73bb 740d 1b3a 7d3b f93b 7536 de38
00000130: 21ab 393b 6f6b f4bb 83af bcbb 310e b0bb
00000140: 7a72 0abb 4b39 203a b497 0cbb 164a 203a
00000150: cbeb c6bb 8225 29bb 1406 ad3a 004e 1cbb
00000160: 6a01 9ebb 0310 1abb 5443 9d3b b6ea 93bb
00000170: 6d5f 8fbb 1aae 9a3a 89d9 f8ba 27f5 be3a
00000180: 8632 a9bb c68e bdbb bfd3 db39 9d6e ffba
00000190: 4c00 8bbb 0680 8ebb 4561 d3ba dd54 89bb
000001a0: afab 5fbb 2d13 b6bb 92ac 8cbb c5aa 253a
000001b0: 2431 b9bb e4ae 54bb f5d6 e9bb f482 0339
000001c0: 3ae8 b5bb f1b1 6cbb ab3a 48bb 360b bdba
000001d0: 6034 0a3c c7a2 b5bb 7193 aebb 6e19 60bb
000001e0: 28ca 1b39 9fd7 a0b9 e0af feb9 9644 a2bb
000001f0: 80ea 81bb efb0 403b 6d76 61bb 65d8 1d3b
00000200: 3efd edbb 741e 1939 ac87 d6bb a748 8b3a
00000210: 77c7 91ba 770c e1ba 15c9 88bb 81f1 e6bb
00000220: e8fc 08bc 22f0 b0b9 7bef 703a d1ba a4bb
00000230: f675 8c3b 7353 e9bb 5941 d2bb 86d3 313b
00000240: d05f 003b a81d b6ba 8673 97ba e9c7 22bb
00000250: f25e 573a eb76 7abb 8828 77bb 56dd 93bb
00000260: a907 3a3b 1084 55b9 2c5a afbb 6d99 8fbb
00000270: 1e00 053b a9b2 03bb 88de 80bb c977 8f3a
00000280: 4b9c 01bb 64c2 f7bb 51c8 9db9 55e5 ffbb
00000290: 2bee 5dbb 5087 133b 1ca7 a3bb 7bdb 4ebb
000002a0: 44d8 d3bb 285b 6ebb e9ed 8f39 ef2a c6ba
000002b0: 9c22 7cbb 80b8 16bb 22a0 38bb eecd 24bb
000002c0: df01 94bb f3ea 03bb 80e2 b8bb d7bb c9bb
000002d0: 49ac d93b a701 1f3a 4fea 8cbb ab42 dfbb
000002e0: fe74 dcb9 11f5 6cba 7948 bdbb e471 43ba
000002f0: 2337 78bb 61f7 b5b9 3c46 5fbb 6e30 833a
00000300: 65e6 91bb beda 1d3b 14b1 83ba 071a 7ebb
00000310: f8fa ccbb 1643 e6b9 85bd 293a 979d 4abb
00000320: db47 c0bb 9335 cfbb 689c bab9 b051 27ba
00000330: 8171 8dbb ad1b 38bb fd29 77bb 7270 8abb
00000340: 6cab 19bb 33a5 0cbb 7cc1 c4bb 13ed 58ba
00000350: e52f cb3a 2dfc 213a f7fa 393a 34c3 a23a
00000360: feb1 133b 0388 0fbb 6766 c3ba 9b40 8c3b
00000370: 29f1 9bbb 2497 a8bb 369b d8bb 5e64 9fba
00000380: 481c 94bb ccb2 88bb ada8 4abb 87f0 c6bb
00000390: 44f2 89bb 6fec a6bb 057c d1ba 718c 1ebb
000003a0: 2286 6bbb f202 2fbb 97f3 2abb 3521 9dbb
000003b0: 131f 8dbb 43e0 deba 21fa cbba 4f1e 9f3a
000003c0: 60be c2ba 8ff4 81bb 0658 52bb 15c2 e9ba
000003d0: 9f2c afbb d4d1 4e3a 095d dcbb 0434 8ebb
000003e0: 352d 77bb ef30 b9ba 3bd0 d6bb 7d4b 4fba
000003f0: a2e7 963a 79ad 98bb 5def 9fbb 843e 83bb
-0.0048301835 -0.0043136985 -0.0035960872 0.0013197997 -0.0026749286 0.00027930114 -0.0036755803 -0.0070161424
-0.0029353497 -0.0045895968 0.001352785 -0.0052767955 0.000261412 0.00072607084 -0.004982687 -0.005006289
0.00026836674 -0.0013385777 -0.0057440777 0.00058673654 -0.0025919673 -0.0027366893 -0.0016836711 -0.0048795887
-0.0061398065 -0.002521253 -0.0047754776 -0.0042285463 -0.0042818007 -0.003646263 0.00013221621 0.0012819881
-0.0028258318 -0.0055887853 -0.0022822677 -6.0956652e-05 -0.0024632304 -0.003042435 -0.0041357474 -0.00533298
-0.0048892507 -0.0048897266 0.0042379145 -0.0033199424 -0.003602705 -0.0013083011 0.0056895018 -0.0064306366
0.0002911633 -0.006075743 0.0013280857 -0.006641837 -0.0048078285 -0.005043932 -0.0011927686 -0.0041695363
-0.0015291998 -0.0035414093 0.00195054 0.0016895635 0.0007599461 -0.0038568566 -0.0064631696 -0.0016460115
-0.006720145 -0.0017649499 -0.005208397 -0.0042810095 -0.003390451 -0.00040372572 -0.0025337217 0.0018387723
-0.003711996 0.00059147854 0.0076059685 0.00010595928 0.002833076 -0.007459096 -0.0057582273 -0.0053727855
-0.0021125362 0.0006112053 -0.0021452727 0.0006114555 -0.006070589 -0.002580971 0.0013200664 -0.0023850203
-0.004821946 -0.002350808 0.004799286 -0.0045140637 -0.0043753893 0.0011801154 -0.0018985729 0.0014568911
-0.0051634936 -0.005784842 0.00041928698 -0.0019487921 -0.0042419787 -0.0043487577 -0.0016127011 -0.0041910247
-0.003412943 -0.005556485 -0.004293033 0.0006319697 -0.00565161 -0.0032452876 -0.0071362206 0.00012541917
-0.005551365 -0.0036116804 -0.0030552547 -0.0014422897 0.008435339 -0.005543086 -0.005327635 -0.0034194845
0.00014857261 -0.00030678228 -0.00048577692 -0.0049520237 -0.003964722 0.0029402336 -0.0034402863 0.002408528
-0.007262855 0.00014602562 -0.006546935 0.001062651 -0.0011122067 -0.0017169853 -0.0041743615 -0.0070478325
-0.008361079 -0.0003374825 0.0009190959 -0.005027153 0.004286523 -0.0071205436 -0.0064164815 0.0027134134
0.0019588359 -0.0013894336 -0.0011554814 -0.0024838394 0.0008215747 -0.0038217853 -0.0037713367 -0.0045124693
0.0028385913 -0.0002036246 -0.0053513255 -0.0043823035 0.002029426 -0.0020095503 -0.003932778 0.0010945733
-0.0019776996 -0.007561015 -0.0003009462 -0.007809321 -0.0033863883 0.0022511072 -0.004994286 -0.0031563926
-0.00646499 -0.0036370251 0.00027452342 -0.0015118996 -0.0038472777 -0.0022998154 -0.0028171618 -0.0025147158
-0.0045168246 -0.0020129054 -0.0056422353 -0.0061564255 0.0066428524 0.0006065615 -0.0043003927 -0.0068133674
-0.00042048836 -0.0009039203 -0.0057764617 -0.00074556307 -0.003787466 -0.00034707322 -0.0034068963 0.001000894
-0.004452514 0.002408668 -0.001004728 -0.0038772838 -0.0062555037 -0.00043919001 0.0006475079 -0.0030916685
-0.005867941 -0.006323525 -0.00035593216 -0.0006382717 -0.0043165092 -0.0028092668 -0.0037714236 -0.0042248303
-0.0023448123 -0.002146077 -0.0060045104 -0.0008275073 0.0015501945 0.000617924 0.00070945866 0.0012417794
0.0022536512 -0.0021901138 -0.0014907838 0.0042801625 -0.004758973 -0.0051449705 -0.0066102995 -0.0012160649
-0.004519973 -0.004171705 -0.0030923293 -0.0060711536 -0.0042097885 -0.005094103 -0.0015982395 -0.0024192596
-0.0035938104 -0.0026704636 -0.0026085132 -0.0047952184 -0.004306683 -0.0017004091 -0.0015562215 0.001213977
-0.0014857762 -0.0039659212 -0.0032095923 -0.001783433 -0.0053458954 0.0007889543 -0.006724958 -0.004339697
-0.0037716154 -0.0014128963 -0.0065555847 -0.0007907672 0.0011513124 -0.0046593514 -0.0048808292 -0.004005255

network_body._body_endoder.seq_layers.2.weight f4 [256, 256]
00000000: 3356 7ebc 8141 ab3c bb60 453c d245 1a3d
00000010: 4dcc 3cbd 35c5 2f3d 5a13 983d 0424 453d
00000020: c41a 963d 566d a4bc 419f f83c e73b a9bd
00000030: 4607 d4bc 4ed6 a03d e9ee fbbd 30e6 28bd
00000040: 3a09 3fbd 9b31 863c 2339 bbbd d457 063d
00000050: 123c 9a3d a627 883c b787 89bc 52fc ba3a
00000060: c308 b5ba 320a 5b3d 9f8d bdbd 691f 04bd
00000070: 32c2 fbbc 8c61 8e3b 6bc2 c53d bf55 99bb
00000080: 73ab 32bd 3537 d1bd 9607 473d 5cbb a63c
00000090: 508f 6b3c 334d a6bb 249e 86bc d848 18bd
000000a0: 05d9 5e3c 5651 133d f4ae 403d 5fda 753d
000000b0: 61db e13d 71bf 823c 3663 e13d f5c3 97bd
000000c0: eb43 27bb 82f7 b0bd f59e 2dbb 68d2 77bd
000000d0: d961 1bbe 7e33 89bd 65cd 903c 3d5a 4a3d
000000e0: 3795 7c3d 6b1b a8bd e663 5d3d 8aaa 063e
000000f0: 8b32 b33c b89d 3f3d d567 a73c d406 29bd
00000100: b3b1 b039 434a bc3d bbca d7bc 5f48 5a3c
00000110: 67cb 893c 7015 9abd 9101 883d a91a 39bb
00000120: 1a66 243d aa48 04bd 499e ddbb ff4d 8d3c
00000130: 5ef7 dd3b b904 62bd 6b0b fc3b f8fc 8abd
00000140: 49dc 20be 9e90 8abd 3e2c 73bd 9a03 883b
00000150: 91ab ec3c 3bcf a0bc d9cb 713c 434e 853b
00000160: 0d9d 203d ce10 44bc 0625 07bd d4b7 e1ba
00000170: 04f0 683d cd78 c1bd 2a55 57bd 4e35 0e3e
00000180: ed46 063d 2446 3e3d 0fb0 22bd 5fdd 79bd
00000190: d358 10be f981 1a3d 4ba2 173e 193d 563d
000001a0: 3010 f23d d7fa 273d 512b 613c fb22 d43c
000001b0: a5eb 153c d40f 933d 19f0 5c3c d9bc 98bd
000001c0: 1729 61bd b910 f5bc 6ee7 3dbd 3dab e9bc
000001d0: 130f 44bd 50b3 39bd 4c0c d9bb c3b3 c83a
000001e0: 47c6 8b3c 9709 1a3d b693 14bd 228c 153c
000001f0: e209 843c 6945 69bb 964e aebd ffd4 3abc
00000200: 3227 fc3c df33 b93b 0895 8e3d c676 2bbd
00000210: a66a f03d 8fb8 2cbb ba4e 2ebd 31f1 943d
00000220: 5a28 383c 9ceb b7bb b58e 8fbd eb26 3fbc
00000230: 1f76 78bd cd8c 253d e1a2 023e fc8a c4bd
00000240: 5e02 75bd 7532 1d3d 9dbe d13c b134 7ebd
00000250: be30 48bc 7745 dcbc 11fd eebd da77 a5bc
00000260: 11b1 cebd 9ff2 073d 335a 29be 6863 65bd
00000270: c714 adbb 377d afbc df7d 513d 0b7e 973d
00000280: 1908 66bd a410 df3d afe9 babc 77f3 53bd
00000290: 87fe 8b3c 21c9 d5bd 4b8b 8ebc 850f 39bc
000002a0: 3404 a93d 5892 aa3d 94b1 40bd b3a7 a2bd
000002b0: bbcd 89bc 55b0 1bbd da20 bf3c 2a0d 5dbd
000002c0: 4536 7abd a401 173d ca53 353c 6f50 e73d
000002d0: 8c42 0d3d fc76 803b 95c7 a13c b660 a4bd
000002e0: 370a 07bc a5c0 8d3d 46ed bdbb b2b7 27bd
000002f0: 741b 863c 3c0f 3ebd b159 87bc 4865 28bd
00000300: 74c7 5d3c 5b2f a63c 1cca 913b bf12 523d
00000310: 4959 b3bc 4577 c4bc 1269 e7bd 2293 3dbd
00000320: 5a20 433d 317e 06bd b302 fe3c 49df 8bbd
00000330: 89c5 a3bd a928 5cbd 6606 dfbc ad71 60bd
00000340: f1ad 433e 2681 ef3c e0a4 9fbd b5ed 193d
00000350: 4bf6 d8bd 8fa1 ddbd e430 2d3d 5fec ab3d
00000360: 25ef 773c 7b4e 303c 2bbf 393c 0018 dd3c
00000370: 01ce cfbb 8eea c53d d076 b03c 6494 d53c
00000380: 272f a03b 08a5 443d f895 5cbd 96e4 c9bd
00000390: 4849 683d 7658 57bd faa1 b3bd 2f82 cfbd
000003a0: 4d40 a9bd cf93 3d3e e808 9ebd defb 433d
000003b0: d63b 833d 25d2 133d e492 adbc 7b6a 49bd
000003c0: 3d0d a9bd a9cb 96bc ff04 153d 0e4a 31bd
000003d0: 129c bebd cda4 50bd d4fe 62bc a90b 9cbd
000003e0: 4331 63bd f621 e3bc 832c 5fbd 01bd fabd
000003f0: ce85 19bd 3ecb a9bd 1949 473c d9c3 233c
-0.015523481 0.020905258 0.012046988 0.037664242 -0.046093274 0.04291268 0.07425566 0.04813005
0.07329324 -0.020071667 0.030349376 -0.082633786 -0.025882374 0.078533754 -0.12301428 -0.04123515
-0.04663966 0.016381076 -0.09141757 0.032798603 0.07530989 0.016620468 -0.016788347 0.0014265871
-0.0013811815 0.05347652 -0.09255528 -0.032256518 -0.030732248 0.0043451246 0.09656223 -0.004679411
-0.043620538 -0.10215608 0.04859122 0.020353012 0.01437743 -0.005075121 -0.01643283 -0.037178844
0.013601546 0.03596624 0.04704185 0.060022708 0.11028171 0.015960427 0.11005251 -0.07410423
-0.002552266 -0.08640958 -0.002649245 -0.060503393 -0.15174045 -0.066992745 0.017676065 0.049402464
0.06166574 -0.082083546 0.05405035 0.13150993 0.021874687 0.04678127 0.020435253 -0.041266277
0.00033701732 0.09193852 -0.026341787 0.013322919 0.016820623 -0.0752362 0.06640924 -0.002824465
0.040136434 -0.03229586 -0.006763254 0.017249105 0.006773873 -0.055180285 0.007691791 -0.06786531
-0.15709032 -0.06765865 -0.059368365 0.00415082 0.028890403 -0.019630065 0.014758074 0.0040681674
0.039212275 -0.011966897 -0.032994293 -0.0017220923 0.05686952 -0.09446869 -0.052571453 0.13887522
0.032782484 0.04645361 -0.039718684 -0.06100213 -0.14096384 0.037721608 0.14808004 0.05230436
0.11819494 0.041010704 0.013743238 0.025895586 0.00915042 0.07180753 0.013484978 -0.07457895
-0.054970827 -0.0299152 -0.046363287 -0.028524036 -0.04786594 -0.04533702 -0.0066237804 0.0015312362
0.01706232 0.0376068 -0.03627368 0.009127649 0.016117994 -0.003559435 -0.08511083 -0.011403321
0.030780409 0.0056519355 0.06962019 -0.041861318 0.117390916 -0.0026355123 -0.04255555 0.07272566
0.011240089 -0.0056128036 -0.07009641 -0.011666994 -0.060659524 0.04041748 0.12757446 -0.09596822
-0.05981671 0.038378198 0.025603587 -0.06206197 -0.012218652 -0.026888592 -0.11669362 -0.020198751
-0.100923665 0.033190366 -0.16538315 -0.056003004 -0.005282018 -0.021422012 0.05114543 0.07397088
-0.056160066 0.10891846 -0.022816507 -0.051745858 0.017089142 -0.10438753 -0.017400404 -0.011295204
0.08252755 0.08328694 -0.04704435 -0.07942142 -0.016821733 -0.03800996 0.023331095 -0.053967632
-0.06108691 0.0368668 0.01106734 0.11294638 0.034487292 0.003920434 0.019748488 -0.08026259
-0.0082421815 0.0692151 -0.0057961075 -0.04094667 0.016370513 -0.046401247 -0.01652226 -0.041112214
0.013536323 0.020286253 0.004449142 0.05128741 -0.02189316 -0.023982653 -0.112993374 -0.046282895
0.047638275 -0.03283519 0.031007146 -0.06829698 -0.07996661 -0.053749714 -0.02722473 -0.05479591
0.19109322 0.029236387 -0.07795119 0.03758021 -0.10593852 -0.108218305 0.042282954 0.083946936
0.0151327 0.010760899 0.011337082 0.026988983 -0.0063416963 0.096638784 0.02154103 0.026071735
0.0048884335 0.04800895 -0.05385396 -0.098580524 0.05671051 -0.052574597 -0.08771129 -0.101322524
-0.082642175 0.18513416 -0.077165425 0.04784762 0.06407897 0.03608908 -0.021188207 -0.049173813
-0.08254478 -0.01840766 0.036381718 -0.043283515 -0.09307112 -0.050938416 -0.013854701 -0.076194115
-0.0554669 -0.027726155 -0.05448581 -0.12243081 -0.03748112 -0.082907185 0.012163424 0.009995424
