results/MLDriver/MLDriver/MLDriver-12024.onnx (onnx, 137675 bytes, 7 tensors)

action_model._continuous_distribution.log_sigma f4 [1, 3]
000000 3f 3d 38 3b 47 c0 85 b7 1a 00 d6 3a
       0.0028112677 -1.5944372e-05 0.0016326935

action_model._continuous_distribution.mu.bias f4 [3]
000000 60 51 a1 b8 9a da be 38 0e 02 9c 38
       -7.6922355e-05 9.100624e-05 7.4390424e-05

action_model._continuous_distribution.mu.weight f4 [3, 128]
000000 3a 6f ca bc 9a e6 b5 bb 54 e0 de 3c 2f 0c 8c 3c
       -0.02471124 -0.0055511715 0.027206577 0.017095653
000010 9f f3 31 3b a0 65 ea bb c5 ff 7f bc 48 88 82 bc
       0.0027153266 -0.007153228 -0.015624945 -0.015934125
000020 35 01 62 3b 6c 81 bb bb 26 75 91 3c 6c 41 80 3c
       0.0034485583 -0.0057222154 0.017756056 0.015656196
000030 1c 66 76 bc ee 91 56 3b bd 95 5e bc 4a 9a 58 bc
       -0.015038993 0.003274079 -0.013585505 -0.013220379
000040 13 32 6a 3c e8 49 10 bd 83 12 d1 bb 82 4b b8 bc
       0.014294165 -0.035226732 -0.0063803806 -0.022496942
000050 74 2e 11 3c de 4c b5 3c fe 91 5e 3b 97 62 89 3a
       0.008861173 0.02213138 0.003396153 0.0010481653
000060 d1 60 16 bc ee b8 17 3c 77 3e eb b9 24 82 e8 bb
       -0.009178356 0.009260399 -0.00044869233 -0.007095592
000070 b5 dd dc bb cb 4f 12 3b 27 f5 71 3b bd f5 d9 bb
       -0.0067402967 0.0022325392 0.0036919804 -0.0066516087
000080 93 9b e9 bc 1c 03 cc 3a 74 d7 28 3c ec 68 8a 3b
       -0.028516566 0.0015564892 0.010305274 0.0042239334
000090 7c 83 07 bc 69 0b 81 bc 01 af 6c bc a1 79 2b 3c
       -0.008271094 -0.015752511 -0.014446021 0.01046601
0000a0 12 9d c6 bb d1 cf 2f bc 73 bf 92 bc b9 34 b0 bb
       -0.0060612047 -0.0107307 -0.017913556 -0.005377379
0000b0 e0 28 ea bb 65 ba 29 bc 36 0f 41 bd 30 6a 54 3b
       -0.007145986 -0.010359381 -0.047133647 0.0032411925
0000c0 5d 22 1f bd 87 98 00 3c 91 59 ef 3b 92 5a 11 bc
       -0.03885113 0.007848865 0.0073043783 -0.008871691
0000d0 08 c2 62 3c 51 12 58 bc c9 c6 b2 3c 06 b0 00 bb
       0.013840206 -0.013187961 0.021823304 -0.0019636168
0000e0 6b 5c 10 bc 86 77 5a 3c 7c 55 b2 bc b8 fb 0c bd
       -0.008811097 0.013334161 -0.021769278 -0.034419745
0000f0 4d 8a 7d bc 76 de a1 bc 2b 16 eb bb a4 78 c4 bc
       -0.015474868 -0.019759398 -0.0071742735 -0.023983307
000100 0f 8d 10 3b 00 67 a5 3c 14 95 d0 3c af 29 96 3b
       0.0022056734 0.020190716 0.025461711 0.004582606
000110 a4 91 9d bc 25 c8 19 bc b0 8c 1f 3c fa fb cb bc
       -0.019234486 -0.009386097 0.009738132 -0.024900425
000120 65 31 09 3c d8 e9 4b 3d 2b 4f 1e bc c6 ff 94 3c
       0.008373593 0.049783558 -0.00966243 0.018188369
000130 0e 9a c7 3c 21 13 77 bc 67 87 7d bc f3 98 dc 3c
       0.024365451 -0.015080244 -0.015474177 0.0269284
000140 bd 88 06 3c 54 7f 43 bc 4a e0 24 3c fd 42 fa 3a
       0.008211312 -0.011932213 0.01006324 0.001909345
000150 0d 1f 33 3c e9 fe 73 3a bc 5f 91 3c a5 84 f4 3c
       0.010932696 0.0009307699 0.017745845 0.029848406
000160 9f 49 9b 3b 70 c3 07 bc 09 5d 5e 3c d4 b0 87 3c
       0.004739001 -0.008286342 0.013571986 0.01656381
000170 fc b3 26 bc 13 62 82 3c a0 02 b4 3a 93 a1 c5 3c
       -0.010174748 0.015915906 0.0013733692 0.024124896
000180 af af 56 3b 04 cf c4 ba 39 81 91 3c c5 c2 a2 bb
       0.0032758524 -0.0015015309 0.017761813 -0.004967066
000190 19 4e fc bb f8 bc 7b 3c 27 34 40 3c 34 e4 f4 bc
       -0.0076997397 0.015364878 0.011731184 -0.029893972
0001a0 cf 8e 54 bb 1c 35 d6 bc 38 8f b6 bc 47 5a 99 3c
       -0.0032433753 -0.026148371 -0.022285089 0.018719805
0001b0 f0 e1 ec bc 0c 60 2e bb 34 a8 b7 bc 99 36 be 3b
       -0.02891633 -0.0026607541 -0.022419073 0.0058048484
0001c0 f9 52 cf bc 55 d5 8d 3c 75 78 b7 39 69 ea da 3c
       -0.02530812 0.017313639 0.00034994227 0.026723104
0001d0 af 45 4b 3c 18 d1 0c 3c 1e 3f aa 3c 61 a3 10 bc
       0.012406751 0.008594774 0.02078205 -0.008828015
0001e0 3d 85 aa 3a 04 53 ac bb 6d 7c ad bc 85 c5 22 bc
       0.0013009679 -0.0052589197 -0.021177495 -0.009934788
0001f0 19 81 9b bc 95 5f d1 3b f0 b4 ab bc 70 4b 85 bc
       -0.018982457 0.006389568 -0.020960301 -0.016271323
000200 50 91 db 3c 0a ab d7 bb e4 5a d6 bc 92 a4 75 bc
       0.026802689 -0.0065816687 -0.026166387 -0.01499285
000210 db 0f 1e bc b7 a7 33 3c 2a e0 96 3c cb b7 69 3b
       -0.009647335 0.010965279 0.018417437 0.0035662528
000220 c5 d3 b4 bc d3 19 24 3c 90 f9 1b bc f4 76 be bc
       -0.022073636 0.010015923 -0.00951995 -0.02325008
000230 24 69 8a 3b 8f 58 05 bd 74 23 ba 3c 7c 79 cc 3c
       0.0042239595 -0.03255516 0.022721983 0.024960272
000240 43 d1 99 3c 07 66 85 3c 22 5e f0 bb 92 a6 8b 3c
       0.018776542 0.016284002 -0.0073354403 0.0170472
000250 56 0b 0a 3c 3c a7 cf bb 9f 15 0f 3d 60 8e 80 bc
       0.008425554 -0.0063370746 0.03493273 -0.01569289
000260 69 78 84 3c 31 ab c8 3c 74 06 da 3c 18 53 78 3c
       0.016170697 0.024495693 0.026614405 0.01515653
000270 8b 79 01 bd 3b 49 03 bc 51 09 8d 3a ce 84 c0 bb
       -0.031610053 -0.008013065 0.0010760223 -0.0058752066
000280 a5 b4 cd 3c 76 56 f2 bc 29 ad 7a 39 12 da 21 3d
       0.025110552 -0.029582243 0.00023906365 0.03951461
000290 85 35 c7 3c 5c 22 50 3c 9a 7c 99 3c d1 01 b5 3b
       0.024317512 0.012703504 0.018736172 0.005523898
0002a0 88 3e a0 bc 45 a9 14 bc c7 7b db 3b d7 4d 40 3b
       -0.019561067 -0.00907356 0.006698105 0.002934327
0002b0 61 1d 90 3c f4 8f dd bb ea c5 0f bc ff 36 65 3b
       0.017592134 -0.0067615453 -0.008775214 0.0034975407
0002c0 cf 63 e3 bb e9 55 c7 3c 74 09 d2 bc 9d 55 f3 bc
       -0.0069393883 0.024332957 -0.025639273 -0.02970391
0002d0 f8 86 5e 3c 40 99 95 bc ae 7f 28 3b 38 b5 11 39
       0.013581984 -0.018261552 0.0025710869 0.00013895787
0002e0 7b fb 9a bb 1c f6 f5 3b 7f 82 a5 3c f7 a3 ca 3a
       -0.004729686 0.007506145 0.020203827 0.0015460242
0002f0 96 ee f9 bb 82 a9 82 3b 5c 09 5d bc b9 4d 8a ba
       -0.0076273186 0.003987492 -0.013491001 -0.0010551728
000300 38 39 e6 bb 63 78 bb bb 05 5b 93 3c 5b ac d7 3c
       -0.007025864 -0.0057211383 0.017987737 0.026327303
000310 47 1a 41 bb dd d7 f7 3b 7c 1f 92 b9 10 a8 e5 bc
       -0.0029465125 0.0075635747 -0.00027870748 -0.02803424
000320 a8 17 40 ba c1 b4 d0 3c 71 12 2a bb 6b 27 02 3c
       -0.0007327744 0.025476815 -0.0025950933 0.007943968
000330 49 93 d7 bb 44 fe d2 3c f7 80 92 bc 95 bd c9 3b
       -0.006578837 0.025756009 -0.01788376 0.006156633
000340 80 3d 88 3c 48 c7 aa bc 0f b5 4d bc fa 0f 99 bc
       0.016630888 -0.020846978 -0.012555375 -0.018684376
000350 4d 58 1a 3c c3 2e 14 3c 91 9d ed 3c ce 3a 9a 3c
       0.009420467 0.009044352 0.029005798 0.018826868
000360 4e 78 36 3b 95 19 a7 bc 6a 4b 26 ba 08 ba 1e 3c
       0.0027842703 -0.02039794 -0.0006343635 0.009687908
000370 f1 16 22 bc 19 10 71 3c 66 03 90 3b 9e 8a 77 3c
       -0.009893165 0.014713311 0.0043949364 0.0151087325
000380 c9 3c 32 3c 5c 54 b8 3a cf 4f b8 3c 8d 20 ce bc
       0.01087875 0.0014063227 0.022498993 -0.025162006
000390 c5 97 ee bc 08 26 26 ba c7 1e 5f 3c 13 14 01 bc
       -0.029125104 -0.00063380646 0.013618178 -0.007878321
0003a0 f6 ba 2e 3c 8d c3 3d bc 52 48 9c 3a 8c 24 06 3d
       0.010664692 -0.0115822675 0.0011923409 0.032749698
0003b0 89 49 66 bc 64 69 18 3c 4b 46 88 bc 25 1a 81 3b
       -0.014055618 0.009302471 -0.01663508 0.0039398842
0003c0 e2 b5 32 bb f0 00 95 bc e6 7d a8 3a 21 30 dd bc
       -0.0027269055 -0.018188924 0.0012854903 -0.027000489
0003d0 59 a8 9f 3b 54 32 c2 3b e1 18 4d bc e4 6a d7 bc
       0.0048723635 0.0059264097 -0.012518139 -0.026296087
0003e0 75 bf c1 3c 22 07 c3 bc 0c 29 94 3b 14 f8 3a 3d
       0.023650864 -0.023807112 0.0045214947 0.045646742
0003f0 14 c9 da bc 4d 3b cd bb d0 cb ce 3c 2d 27 0a bc
       -0.02670721 -0.0062631727 0.02524367 -0.008432192

network_body._body_endoder.seq_layers.0.bias f4 [128]
000000 4d d1 80 39 61 c6 57 39 a2 3f 15 ba a2 72 9e 38
       0.00024570004 0.000205779 -0.0005693381 7.555379e-05
000010 d7 d5 93 b9 fb 8f c3 38 a4 dc 3c b9 1c da c8 b9
       -0.00028197348 9.325143e-05 -0.00018011272 -0.00038309477
000020 56 5a 42 b9 ae 2f 9d ba 07 b0 33 ba 51 2a ce 38
       -0.00018534934 -0.0011992359 -0.0006854538 9.8307275e-05
000030 ad 6e 45 39 df a4 1c 3a 81 ab f1 b8 d1 c2 55 ba
       0.00018828614 0.00059754954 -0.000115237206 -0.0008154335
000040 61 82 e8 3a bb 8a 9a b9 ec 3e 41 3a ae c1 98 b9
       0.0017739051 -0.0002947653 0.0007371742 -0.00029136002
000050 dc 5d 7b b9 01 0f b2 b8 0e 06 f6 b9 f6 28 cd 3a
       -0.0002397219 -8.490496e-05 -0.00046925287 0.0015652466
000060 0e 64 81 b9 8b 5e ba 39 2b 05 48 b9 ad 55 13 ba
       -0.00024679344 0.00035547125 -0.00019075412 -0.00056203717
000070 a7 38 54 36 c9 3c b2 b8 b4 4d a8 ba ba e0 ee 3a
       3.1623438e-06 -8.4990235e-05 -0.001284054 0.0018224933
000080 4d 56 86 b8 e7 c0 45 ba db fe 8f b9 2f e5 6f b9
       -6.405693e-05 -0.00075436983 -0.00027464968 -0.00022878194
000090 59 13 41 ba 93 29 88 b9 f0 4b 06 b9 6e b2 0f b9
       -0.0007365249 -0.00025970917 -0.00012807525 -0.00013704013
0000a0 f6 af 44 39 15 89 62 b9 8f 25 82 39 8b 26 18 b8
       0.00018757567 -0.00021604107 0.00024823516 -3.627552e-05
0000b0 40 c6 45 b9 e5 19 3a ba 22 60 01 39 0e b2 39 b9
       -0.00018861238 -0.00070991955 0.00012338211 -0.00017709305
0000c0 06 88 34 b9 55 50 b6 b7 dd c0 3f ba 8a c5 8f ba
       -0.0001721681 -2.1733498e-05 -0.00073148106 -0.0010968905
0000d0 85 d2 7d b8 a7 e5 a4 ba 5c 50 14 b8 fe 24 12 3b
       -6.0515962e-05 -0.0012580649 -3.536079e-05 0.002229988
0000e0 74 5c cc b9 d2 99 ae 39 a1 b4 08 3a a5 c4 db b9
       -0.00038978795 0.0003330247 0.0005214904 -0.00041917447
0000f0 18 ee 0a b9 e0 fd 1a 38 c0 b0 8c b9 db 2a 62 b9
       -0.00013249402 3.69529e-05 -0.0002683457 -0.00021569004
000100 9b 91 b8 b9 dc 4b f7 ba c4 c8 85 36 b6 25 ac b9
       -0.000352037 -0.0018867212 3.987081e-06 -0.00032834493
000110 85 1b a8 b9 ea 76 1d b9 61 fd 31 38 b5 a5 90 b8
       -0.0003206396 -0.00015016986 4.2436066e-05 -6.8973204e-05
000120 e0 34 22 39 d4 cc 7d ba 3f f6 bf ba 61 1a 87 3a
       0.00015469221 -0.0009681706 -0.0014645531 0.0010307544
000130 3a 2e d2 b8 5c 87 1a ba 4a 05 8b ba fb 0f 11 b9
       -0.00010022191 -0.0005894804 -0.0010606435 -0.00013834231
000140 1c e2 fb b8 04 80 c3 ba 89 d2 69 3a 2c 09 d8 b7
       -0.00012010729 -0.0014915471 0.0008919617 -2.5753478e-05
000150 51 66 17 b8 ab ee cf b9 bb 0c 17 b9 2d 89 24 39
       -3.6096495e-05 -0.00039659938 -0.00014405225 0.00015691361
000160 5a 92 3c 3b 87 3d b4 b7 a3 e8 c1 b9 23 cf 70 b9
       0.0028773756 -2.1486323e-05 -0.00036985156 -0.00022965348
000170 ae 91 80 b8 53 ee 0c ba bd 1b 31 ba f7 32 37 3a
       -6.1306506e-05 -0.0005376089 -0.00067561475 0.00069884903
000180 36 0f 41 38 f5 bb 79 ba 1f 5c a8 b9 c1 48 ec ba
       4.6028952e-05 -0.0009526604 -0.00032112093 -0.0018027053
000190 f2 1c 2c 3a 9f b0 c7 b9 6c cc 1c b6 4e 09 80 b9
       0.00065655925 -0.0003808783 -2.33648e-06 -0.00024420995
0001a0 86 b7 c2 b8 b3 85 c8 b9 50 72 5d b9 a8 73 99 3a
       -9.284825e-05 -0.00038246586 -0.00021118787 0.0011707442
0001b0 15 05 42 ba 91 dc 36 38 0e c5 84 38 f8 0a 1f bb
       -0.000740127 4.35976e-05 6.330955e-05 -0.0024268012
0001c0 a8 61 cf b8 e6 77 a8 39 67 eb af b9 62 21 94 b8
       -9.888719e-05 0.00032132788 -0.0003355399 -7.063408e-05
0001d0 ae 76 0c b7 1c 83 c6 39 89 2c f8 b9 ba 43 11 3a
       -8.3722825e-06 0.00037863187 -0.00047335427 0.0005541403
0001e0 60 52 2c 39 75 17 15 ba 58 47 4e 39 a4 87 99 b9
       0.00016433885 -0.00056873943 0.00019672269 -0.00029283494
0001f0 f8 58 6b ba 81 a7 3d 38 8a 48 8a 3a bc 15 d5 b8
       -0.0008977796 4.521711e-05 0.0010550183 -0.0001016068

network_body._body_endoder.seq_layers.0.weight f4 [128, 132]
000000 f5 87 76 bd d1 da f6 3d 68 71 09 3c 5a 50 25 be
       -0.060188252 0.12053455 0.008388855 -0.16143933
000010 dd b8 b7 bd 56 42 24 3d b9 4d a2 bc 2b a0 18 bc
       -0.08970807 0.040102325 -0.019812452 -0.009315531
000020 04 cf c5 3c ad 31 b3 bd 61 67 09 bc 88 f8 72 3d
       0.024146564 -0.08749709 -0.008386464 0.05931905
000030 e3 41 84 bd c3 5f cf 3d 59 b6 d2 3d 7f 81 f9 bc
       -0.064578794 0.10125687 0.10288686 -0.030457256
000040 a5 a3 8c bd af 10 87 3d 34 ca 68 3d af b2 04 3e
       -0.0686715 0.06594979 0.05683346 0.12958787
000050 eb 25 37 be b3 50 df 3d 2f fc b4 3d 5a 64 0d 3e
       -0.17885558 0.10904064 0.08837163 0.13807812
000060 e1 cc 9a 3c 65 2c 15 be 60 b1 13 3c ca d4 9a 3d
       0.018896522 -0.14567716 0.009014457 0.075601175
000070 ef f1 dd 39 8e cc 1a bd 8a dd 01 3d 32 f6 ed 3d
       0.0004233266 -0.037792735 0.031705417 0.11619224
000080 a8 4d dd bd 03 11 c2 bc 81 20 76 bd ec 98 1f bd
       -0.108058274 -0.023689752 -0.060089592 -0.038964197
000090 62 7c ae bd 63 e5 65 3d 96 8a d2 bd 14 76 fb 3c
       -0.08519818 0.056126963 -0.102803394 0.030695952
0000a0 d8 46 43 3d 64 b4 fc 3c ba 8d 36 3e 0b 3b 19 bd
       0.047674984 0.030847736 0.17827502 -0.037409823
0000b0 45 6b 37 3e d7 0f 44 bd 52 10 81 bd 60 31 01 be
       0.17912014 -0.04786667 -0.06301941 -0.12616491
0000c0 bb 06 52 3d 36 ab f2 bc b1 88 9c 3d 12 d8 9c 3d
       0.05127595 -0.029622655 0.07643259 0.076584
0000d0 26 0a d5 3d 23 b9 3a bd 19 8d 9b bd d9 cf c7 3b
       0.10402326 -0.045586716 -0.075952716 0.0060977754
0000e0 7c 65 80 bd de 36 0d bd ae 31 f6 bd aa bf 25 be
       -0.062693566 -0.034476154 -0.120211944 -0.16186395
0000f0 20 0e 44 3e 45 67 5a be 06 25 6a bd 81 7a 83 bd
       0.19146013 -0.21328457 -0.057164215 -0.0641985
000100 89 77 d9 3d 33 40 8b bc f3 14 15 3e 62 6f d9 3c
       0.10618503 -0.016998386 0.14558773 0.02654237
000110 f0 ba bb 3c a2 15 c6 3d 0e a5 10 bc 77 b7 5a bc
       0.022916287 0.09672095 -0.008828415 -0.0133494055
000120 67 12 3e bd 62 71 bf bc 3a b4 d8 3d 51 fd 0c be
       -0.04640427 -0.023369495 0.105812505 -0.13768508
000130 0d 69 19 be 22 bd 11 bd 5d b4 b4 bc ad cc b1 bd
       -0.1498148 -0.03558076 -0.02205866 -0.08681617
000140 56 55 b7 bc 6b 75 e6 ba a7 cf 9b 3d af 4b 46 bd
       -0.022379559 -0.0017582601 0.07607966 -0.04841202
000150 6f fd e7 3c fc 46 58 be 92 d4 f7 3d 26 71 f9 bd
       0.028319089 -0.21120828 0.121010914 -0.121797845
000160 26 6f 02 3e 4f b2 ab bc ec 08 0c 3e 63 17 16 bb
       0.12737712 -0.020959048 0.13675278 -0.0022902123
000170 d7 55 e9 bd d1 df d0 bd 26 40 22 be f9 f3 b7 3c
       -0.11393326 -0.101989396 -0.15844783 0.022455202
000180 1e 7f 01 bd fe a1 8e bd bf 61 fd bd e9 8f 84 3d
       -0.03161537 -0.06964491 -0.12372159 0.06472761
000190 3f fc 09 3c 50 77 97 bd 67 da 5d bc 33 da 25 3e
       0.008421957 -0.07395804 -0.013540841 0.16196518
0001a0 05 19 24 3e 3b 67 19 3e ff 29 20 3d 21 6c c6 bd
       0.16025169 0.14980786 0.03910255 -0.09688593
0001b0 59 ba 8d 3d f1 85 6c bd ee e1 8c 3d a8 66 02 3e
       0.069203086 -0.057744924 0.0687903 0.12734473
0001c0 10 27 35 3c 36 52 a2 3d 6d 48 bc 3c 71 c9 3a 3c
       0.0110566765 0.07925837 0.022983754 0.011400566
0001d0 22 92 42 be ac 3e 41 3d 27 fb 63 3d ae 11 09 3e
       -0.19001058 0.04717891 0.05565944 0.1338565
0001e0 08 99 d7 3d 05 16 f4 3d c1 93 e0 3c b7 b8 4e 3d
       0.10527235 0.119182624 0.027414205 0.050469127
0001f0 a6 49 1e 3d 52 c0 73 3d 1e d4 54 3c 55 3f b1 bd
       0.038644455 0.059509583 0.012990026 -0.08654658
000200 48 09 00 3e 1e 1c 0f 3d 56 2b 8b bc 09 bc a3 bd
       0.1250354 0.034938924 -0.016988438 -0.07994849
000210 cd 48 1a be 8c 18 0d be c5 a4 85 3d 77 5a c8 3c
       -0.15066834 -0.13778895 0.06525568 0.0244572
000220 72 20 a2 bd 84 4d 07 3e c3 e2 2c bd 69 f5 c5 3d
       -0.07916345 0.13213164 -0.042208444 0.09665949
000230 4c da f0 3c 47 0c f3 bd af c7 a7 3d 6b 5d bb ba
       0.029400967 -0.11867576 0.081923835 -0.0014294808
000240 a4 97 5c 3d 42 22 ba 3c d2 5a 64 3d df 7f 85 3d
       0.053855553 0.022721414 0.055750675 0.0651853
000250 0b 15 95 3d a1 a6 19 3e 7f 6a 32 bb b2 1b 13 3d
       0.07279404 0.1500497 -0.002722412 0.035915084
000260 a5 b5 e9 bc 6b 4b d5 3d fd 23 30 3e 49 48 8e 3d
       -0.028528998 0.104147755 0.17201228 0.06947381
000270 e4 e4 36 3b 90 8a ba bc 7a d3 a1 3d fd 37 1d bd
       0.0027907426 -0.02277115 0.07901664 -0.038383473
000280 93 ca 01 be 77 cc fd bd 65 36 27 3d 64 55 a4 bd
       -0.12674932 -0.12392514 0.04082336 -0.080240995
000290 36 a2 be bd c9 31 12 3c 26 0c fe bd 09 94 77 3d
       -0.09308283 0.0089230025 -0.12404661 0.06044391
0002a0 eb b2 4d bc 9e 50 03 be 53 be 02 3d 8e c5 b6 3d
       -0.012554864 -0.12823722 0.03191979 0.08924399
0002b0 7a 68 db 3b 4c 00 5d 3d 34 ed 5a bd 9c 6c cd 3d
       0.006695804 0.05395536 -0.05344887 0.10030481
0002c0 fa 18 a1 3d af 96 e5 bb 61 d1 5d be 50 5a 81 bb
       0.07866092 -0.0070064883 -0.21661903 -0.0039475337
0002d0 4d f3 09 3d ee fc 9d bc ea 11 4e bc b1 fd e2 3c
       0.033679295 -0.019285645 -0.012577513 0.02770886
0002e0 23 b9 9f bc 77 4c 15 3c ee e9 19 3e aa 8e d1 bc
       -0.01949746 0.009112469 0.15030643 -0.025580723
0002f0 80 d9 a6 3a 21 6a 5e bd 6b bc 30 be c2 6a 28 3e
       0.0012729615 -0.05430043 -0.17259376 0.16446975
000300 af 22 ec 3d be c1 ee ba 32 e2 00 be b4 0a d8 b9
       0.11530053 -0.0018215699 -0.12586287 -0.00041206705
000310 e2 48 bf bd 88 0a 95 bd 07 3e 90 bc d0 64 71 bd
       -0.09340073 -0.07277399 -0.017607702 -0.058934033
000320 a7 53 bd bd fc 38 a6 bd 4b f6 be bc d7 43 84 bd
       -0.09244471 -0.08116338 -0.023310801 -0.06458252
000330 2d f5 5d 3d e9 d5 22 bd ce f8 c9 3d 63 75 a3 bc
       0.054188896 -0.039754782 0.09861909 -0.019953435
000340 4f f6 b8 3c c0 5a fb 3d 4c a2 ed bd e7 b3 8b bd
       0.022578387 0.122731686 -0.11603221 -0.06821423
000350 a9 35 0b bc e0 fd 1c 3e 38 e5 63 3d ea ef 68 bc
       -0.00849668 0.1533122 0.055638522 -0.014217356
000360 ad 81 31 bd 44 8e 17 bd 18 f8 92 bb 94 81 4a be
       -0.04333656 -0.03700091 -0.0044851415 -0.19775993
000370 d4 f3 5a 3c e1 85 96 3d 79 44 ad bd 4e 5b 12 bd
       0.013363797 0.07349754 -0.08460326 -0.035731606
000380 d2 c8 ef bd 4c 9c c4 3d 38 35 06 3e 3a 97 b7 3d
       -0.11708225 0.09600124 0.13106239 0.08964391
000390 ce 38 5b 3d ac ea ab bd a4 ec 43 3d ed e7 0d 3e
       0.05352097 -0.083943695 0.0478331 0.13858004
0003a0 50 53 08 bd c0 82 8f bd 63 dd ae bc 07 1a 2d 3d
       -0.033282578 -0.070073605 -0.0213458 0.04226115
0003b0 c4 e5 98 3c ca 68 a2 bd 52 86 01 bd df 7e fe 3d
       0.018664248 -0.07930143 -0.03162224 0.124265425
0003c0 fa e5 3f bd 91 54 7d bc 03 63 3a bd f6 d4 9d bc
       -0.046850182 -0.015462057 -0.04550458 -0.019266587
0003d0 f4 55 8b bb 5b b1 26 3e 9c 1f 05 bd 0d f3 5f 3d
       -0.00425219 0.16278593 -0.03250085 0.05467515
0003e0 97 03 5e bd 9a ed 30 3d 89 a7 71 3d 76 51 9c 3c
       -0.054202642 0.043195345 0.058997665 0.019081812
0003f0 2d 39 75 bd b7 20 5a 3d ad ce c2 bb b1 46 08 3c
       -0.05986898 0.053253856 -0.005945048 0.008317635

network_body._body_endoder.seq_layers.2.bias f4 [128]
000000 4b 4c 56 39 cd c0 8a b8 07 1b a3 39 a7 d2 af b9
       0.00020437052 -6.616265e-05 0.0003110992 -0.0003353555
000010 51 72 97 ba 34 21 be b8 7c d6 1c ba dd 0d ce b7
       -0.0011554455 -9.0660906e-05 -0.00059828884 -2.456357e-05
000020 0f 57 81 3a 69 da 06 3a 73 40 84 b9 dd 8b f7 3a
       0.0009867864 0.000514424 -0.0002522502 0.0018886287
000030 01 9e cd 38 31 a1 61 b9 fc 28 b7 b9 d5 bd d4 b9
       9.804592e-05 -0.0002151772 -0.00034935016 -0.00040577227
000040 11 8e c5 b9 9d d0 eb 38 32 84 b2 b9 06 91 06 ba
       -0.00037680616 0.000112445305 -0.000340493 -0.00051333045
000050 d6 84 28 b9 39 99 e5 39 ab 15 3e ba 58 46 22 ba
       -0.00016071214 0.00043792443 -0.00072511536 -0.00061902916
000060 ce 42 47 ba c0 cd 7a b8 8e 7a a9 b7 bf 92 7e b9
       -0.0007601202 -5.9796264e-05 -2.0203439e-05 -0.00024277995
000070 a9 34 96 38 62 20 e0 3a 79 9b ba b8 77 83 28 b9
       7.162366e-05 0.0017099495 -8.89813e-05 -0.00016070703
000080 a2 60 d0 39 b2 41 e8 39 3b a0 ec b9 0c 08 33 ba
       0.0003974485 0.00044299435 -0.0004513281 -0.0006829507
000090 27 e0 91 b9 fd ad a2 b9 cb ef e2 38 3c 8d 15 3a
       -0.00027823562 -0.0003102868 0.00010821185 0.00057049445
0000a0 a5 c5 21 ba 28 52 cb b8 08 01 74 b9 89 01 01 ba
       -0.0006171114 -9.695097e-05 -0.00023270037 -0.0004921188
0000b0 60 b8 9e b9 9d ca dd b8 52 ff f1 37 d9 61 6c b9
       -0.00030273478 -0.00010575841 2.8848332e-05 -0.00022543165
0000c0 a0 ce a5 38 a3 d1 30 ba af 96 0c 3a 8a 9b e1 b8
       7.9063e-05 -0.00067451055 0.000536303 -0.000107578075
0000d0 c0 b2 0d 3a 9c 8b c1 b8 58 96 b6 39 4b 75 15 ba
       0.0005405359 -9.2289614e-05 0.0003482576 -0.0005701377
0000e0 58 39 61 b9 94 97 d3 b8 92 2c 2c 3b 1e 37 83 b9
       -0.00021479034 -0.00010089498 0.0026271683 -0.00025027333
0000f0 88 2a c6 b9 6b 07 b9 38 ec 6e b0 b9 4b 2e ec 37
       -0.0003779719 8.822869e-05 -0.0003365198 2.815495e-05
000100 c5 7e 25 ba a2 10 49 3a 54 8f 87 b7 4f f4 be 39
       -0.00063131406 0.000767002 -1.6159996e-05 0.00036421648
000110 91 9c 23 ba 72 69 ac ba ac 6d ee ba f7 0e c5 b9
       -0.0006241287 -0.0013153984 -0.0018190644 -0.00037585918
000120 94 8d 05 b9 bf 86 4e b8 a8 d1 a6 b8 c2 89 98 b8
       -0.0001273661 -4.923972e-05 -7.954548e-05 -7.273584e-05
000130 af 2e 5b b9 93 13 ec b9 28 3f ca b8 43 94 b8 b8
       -0.00020902859 -0.00045028012 -9.6438744e-05 -8.8014196e-05
000140 67 a4 ad 37 d1 2a 12 ba ac 7a 9f 39 4a b5 53 39
       2.0699763e-05 -0.0005575838 0.0003041824 0.00020190064
000150 fb c0 7a b9 8a f1 87 b9 1f da 0e bb c5 0d eb 39
       -0.00023913749 -0.00025929167 -0.002179749 0.00044832952
000160 74 10 d0 ba 7e e5 3c b9 d1 9a 9c 39 c9 5a 25 bb
       -0.0015874044 -0.0001801457 0.00029869986 -0.0025231114
000170 10 63 32 b9 42 ad 3e b8 90 d6 b4 b9 d9 0c 56 b9
       -0.00017012306 -4.546089e-05 -0.00034492137 -0.00020413416
000180 d1 1d c7 ba 21 18 0a 3b f8 9e ae b9 be 79 46 b9
       -0.0015191381 0.002107151 -0.00033306307 -0.00018928104
000190 cb e4 3b ba 65 d9 46 b9 e7 5a 14 ba 22 bb c9 b5
       -0.00071675767 -0.00018963737 -0.00056592975 -1.503013e-06
0001a0 ae 63 f6 37 59 5b 05 bb 2f 0f 9c b9 52 83 05 ba
       2.9371902e-05 -0.0020348637 -0.0002976595 -0.00050931156
0001b0 7d 9d 3c ba ee 4d aa b9 8f 46 ea b8 7e a6 72 b7
       -0.00071950984 -0.0003248299 -0.00011171132 -1.44630885e-05
0001c0 e4 af db ba a8 df d9 ba 3b d7 fc b9 6e 3d 44 b9
       -0.0016760794 -0.0016622441 -0.00048225545 -0.00018714901
0001d0 90 54 86 b8 e3 d6 df ba ea 8d d0 39 70 d9 01 b9
       -6.405369e-05 -0.0017077591 0.00039778586 -0.000123834
0001e0 94 1b f1 b8 fd 80 8c b9 3d 19 18 ba 59 2b 2d b9
       -0.00011496912 -0.00026798985 -0.00058021006 -0.00016514714
0001f0 4d cd cb b8 ec 63 c1 b9 f6 e8 b1 b9 51 bc 7f b9
       -9.7180346e-05 -0.00036886276 -0.0003393364 -0.00024388848

network_body._body_endoder.seq_layers.2.weight f4 [128, 128]
000000 ae dd 22 bd 2d 57 e4 3d f8 25 29 be b8 a4 1c bd
       -0.03976219 0.1114944 -0.1651839 -0.038243026
000010 a0 a1 b6 3d cb 6f 30 be 6b dd eb 3d 80 93 29 3d
       0.08917546 -0.17230146 0.115168415 0.041400433
000020 c0 b3 02 3e 1b 66 fd 3d 95 44 2f bc 68 12 ad 3c
       0.12763882 0.12372991 -0.010697504 0.02112694
000030 09 58 31 bd 7d 57 8c 3c e1 f2 83 3d 69 36 34 3e
       -0.043296847 0.017131561 0.0644281 0.17598881
000040 2b 3d 8a 3d 5b 98 61 3c f6 19 1e 3e 95 e1 87 3d
       0.06749948 0.0137692345 0.15439591 0.06634823
000050 b0 2d 3d bd e9 7a f0 3c d0 80 03 be b6 6e d1 3d
       -0.04618615 0.029355483 -0.12842107 0.102261946
000060 a8 6d 7e bd b8 57 f8 3d 04 19 ab bd ee a3 95 3d
       -0.062116295 0.12126106 -0.08354381 0.07306658
000070 3d 91 87 bd 16 2a a9 bd fc 56 8c 3d 76 1e 9b 3d
       -0.06619499 -0.082599804 0.068525285 0.07574169
000080 ca 17 80 3b 05 02 b0 bd 51 32 68 3d 34 80 61 bc
       0.003909086 -0.08594135 0.05668861 -0.013763476
000090 b4 91 9b 3c 6f df 37 3d 63 81 18 3e 4a 92 0a be
       0.018990375 0.044890817 0.14893107 -0.13532367
0000a0 3a 07 57 3d f1 82 f0 3d c6 8b 39 be d2 5a bb 3c
       0.052497126 0.11743725 -0.18119726 0.022870455
0000b0 84 de 83 3d 85 8c 4f 3d eb 52 59 bd 36 b8 18 3e
       0.06438926 0.05067112 -0.053057592 0.14914021
0000c0 04 05 ea 3d 5a 5c 81 bd 36 03 5c bd f2 19 73 3c
       0.11426738 -0.06316443 -0.053714 0.014837729
0000d0 d8 2f 46 3c 5b b8 2d be 26 32 92 bd 03 6a f1 bb
       0.012096368 -0.16964857 -0.07138471 -0.007367374
0000e0 8d 56 e2 bd aa af ee bd 16 b0 aa 3d c3 6b d7 3b
       -0.110516645 -0.11654599 0.08334367 0.0065741255
0000f0 8f 96 f5 3d 1b 57 19 3d fa 8c 8c 3d cb 97 3b 3b
       0.119916074 0.037436586 0.06862827 0.0028624411
000100 e7 98 af bd 09 21 ae bc a1 27 09 3d 7a 76 d4 3c
       -0.08574086 -0.021255987 0.03348506 0.0259354
000110 0a 20 16 3d e5 04 dc bc 10 3c 59 bc 33 7c 0d be
       0.03665165 -0.026857803 -0.013258949 -0.1381691
000120 7f 1a 1e be 7c d9 88 bd 47 e6 4f 3d 16 89 2f be
       -0.15439795 -0.06682107 0.05075672 -0.17142138
000130 5d 5e 42 be a6 ea 00 3e b4 62 9b 3d 58 67 8a 3d
       -0.18981309 0.12589511 0.075871855 0.067579925
000140 08 1b a8 3d 64 c0 ae bd 2c a9 3a 3d ff ba cb bb
       0.08208281 -0.08532789 0.04557149 -0.00621736
000150 66 ea a4 3d 59 66 03 bd 0e a7 8f bd 35 3a 3c bd
       0.080525205 -0.03208003 -0.07014285 -0.045953948
000160 18 14 b5 3b 3f 03 65 bd ee ad 07 bd 6e db bd 3b
       0.005526077 -0.0559113 -0.033124857 0.0057939803
000170 42 79 bc bd a0 ea 27 bc d4 b6 c3 3d 41 c0 21 3d
       -0.092028156 -0.01024881 0.09556356 0.03948999
000180 dc bc b4 3d d1 80 f8 bd 00 c3 14 be 94 27 fc 3d
       0.088250846 -0.12133945 -0.14527512 0.123122364
000190 66 24 69 bd 81 69 28 bc 10 ac 2a 3e 6c 89 cd 3d
       -0.056919478 -0.01027906 0.16667199 0.10035977
0001a0 8a 01 82 3c ec 56 c0 bd 1e 76 08 be 6c c7 06 be
       0.015869875 -0.09391579 -0.13326308 -0.13162011
0001b0 02 0d 83 be 70 fc 0c 3e 22 8c 84 bd f4 ba 0d bd
       -0.25595862 0.13768172 -0.06472041 -0.03460212
0001c0 b8 dd 0e 3d 11 23 2d 3c cb c6 e1 bd 94 6c 84 ba
       0.034879416 0.0105674425 -0.11024245 -0.001010316
0001d0 38 02 28 3e 14 bc 36 3e 04 66 05 3d b1 82 25 be
       0.16407096 0.17845184 0.032567993 -0.16163136
0001e0 64 dd ac 3d 29 8a b4 3b af a8 57 3c a1 05 a6 3c
       0.084406644 0.005509634 0.013162776 0.020266356
0001f0 84 f0 84 bd 83 64 23 3c a6 95 98 bd a0 e9 78 bc
       -0.06491187 0.009972694 -0.07450418 -0.015192419
000200 14 b1 5a 3e 4f e0 61 3d 64 23 ef 3c 8d b6 c0 3c
       0.21356612 0.055145558 0.02919168 0.023524547
000210 d7 1f ff bb a6 8b 27 3d 2b d5 d4 bc 2f 1a b1 3d
       -0.007785778 0.040904664 -0.025980553 0.08647572
000220 cd 33 01 be 31 00 2e 3e 6d 10 d6 bd 0e 61 d9 bd
       -0.12617417 0.1699226 -0.10452352 -0.10614215
000230 e0 54 a7 3c f5 aa a8 3d 6e 10 b7 3c bb 7d d4 bd
       0.020426214 0.082357325 0.022346701 -0.10375544
000240 08 59 ef bc f5 b3 de 3d ca 63 06 bd a5 69 a9 bd
       -0.029217258 0.10874168 -0.03281001 -0.08272103
000250 9a 72 0f be f0 5a ed bd 66 f9 28 3d c7 d5 b8 3b
       -0.14008561 -0.115896106 0.04125347 0.0056407186
000260 87 0b 38 be 99 05 05 3d da ce 13 3d 0b d0 a8 3d
       -0.17973147 0.03247604 0.03608594 0.08242806
000270 4d 12 fd bd 72 cb 19 3e c4 35 a9 bd 2b c7 9a 3d
       -0.12357006 0.15019014 -0.08262208 0.075575195
000280 d4 e3 bc 3d 89 b2 1b 3d 02 87 93 bc 2d 91 18 3e
       0.09223142 0.03801206 -0.018008713 0.1489913
000290 34 14 0f 3e 98 a3 b6 3b c2 b1 8e bd 61 33 da bd
       0.1397255 0.005573701 -0.06967498 -0.10654331
0002a0 3f c9 79 3a a6 2c af 3b 48 78 ef 3c 0b 1a be bd
       0.0009528584 0.0053458987 0.02923216 -0.09282311
0002b0 46 43 58 3d 0e e5 97 bb 38 69 6f bd b8 93 39 3c
       0.052798532 -0.0046354597 -0.058449954 0.011326723
0002c0 ac 9b ac 3d 23 5b 03 be fc af ca bd 22 8b 69 3e
       0.084281296 -0.12827735 -0.098968476 0.22806981
0002d0 b0 88 91 3c 2b 35 d2 bd bc fa 6a bc 37 1a ac bb
       0.017765373 -0.10264047 -0.014342006 -0.0052521485
0002e0 a7 00 b2 3d d3 6c 53 3d 85 7d 2b bc 4b 97 ef bd
       0.08691531 0.051617455 -0.010466938 -0.11698779
0002f0 a1 83 76 be 27 9b 45 bd 48 1f 13 3d 01 07 e3 bd
       -0.2407365 -0.048243668 0.035918504 -0.1108532
000300 31 4e 5c bc e9 15 0b be 61 74 12 be be ac 60 bc
       -0.013446377 -0.13582577 -0.14302208 -0.01371306
000310 8c 30 d1 bd 20 e7 8e 3d ab 39 45 3d 26 bc fc bd
       -0.10214338 0.06977677 0.0481507 -0.12340574
000320 1b 6a 48 3e 32 1f e7 bc 4f 07 c0 3d c6 83 29 bd
       0.19571726 -0.028213117 0.09376394 -0.041385435
000330 ae de c6 3d 08 78 8d 3d 58 e8 ab 3c 78 e2 86 3d
       0.097104415 0.0690766 0.020984814 0.06586164
000340 ed fb cc bd 37 0f c5 bd 79 43 80 bd a8 58 46 3d
       -0.100089885 -0.096220426 -0.062628694 0.048424393
000350 f7 cd 31 bd 67 97 55 bd 92 fe 34 3b 34 8e 83 bd
       -0.043409314 -0.05214634 0.0027617556 -0.064236075
000360 81 65 86 3d 2a d3 0b be b7 ac dc bc ff e6 54 3e
       0.06562329 -0.13654771 -0.026937826 0.20791243
000370 7b ba c8 bc 0a 68 76 3e 40 bb e3 bc a2 8a f4 3c
       -0.024502983 0.24063125 -0.027799249 0.029851262
000380 0f a8 2b 3e 36 91 23 3e 10 2c 80 bd 22 be 97 3c
       0.16763328 0.15973362 -0.06258404 0.01852328
000390 84 04 c2 bb 39 e1 2c 3d a6 b9 f3 bc 30 4e 75 ba
       -0.0059209485 0.042206977 -0.02975161 -0.0009357659
0003a0 bd 20 15 3e 49 f2 18 3e 36 a6 90 bc 78 93 22 3d
       0.1456327 0.14936174 -0.01765738 0.03969142
0003b0 89 63 a1 bd c0 7b e8 3b bb 90 18 bc fb 31 b7 3d
       -0.07880313 0.0070948303 -0.00931185 0.0894508
0003c0 c0 a8 de bd 5b cf 66 3d 10 ff f6 bd 06 f8 28 3d
       -0.1087203 0.056350093 -0.12060368 0.04125216
0003d0 00 dd 2d bd b0 dd 8d bd 4a 43 f3 bb 2d 84 89 bd
       -0.04244709 -0.06927049 -0.007423793 -0.06714664
0003e0 2d a0 1b ba fe 6d b3 bc f6 47 84 bd 54 72 13 3e
       -0.0005936649 -0.021903034 -0.06459038 0.14399081
0003f0 a8 c0 3e bd 07 c5 08 3e 84 be 61 bd 9e 8d 8b bd
       -0.04657045 0.1335641 -0.05511333 -0.06814121
