results/MLDriver/MLDriver/MLDriver-2072.onnx (onnx, 137675 bytes, 7 tensors)

action_model._continuous_distribution.log_sigma f4 [1, 3]
0.0 0.0 0.0
00000000: 0000 0000 0000 0000 0000 0000

action_model._continuous_distribution.mu.bias f4 [3]
0.0 0.0 0.0
00000000: 0000 0000 0000 0000 0000 0000

action_model._continuous_distribution.mu.weight f4 [3, 128]
-0.006151079 0.022211187 0.014014815 -0.016791457 -0.02734342 0.008179927 0.011127384 0.0057397205
-0.022266496 -0.018065458 0.026499316 -0.006210029 0.02680122 0.008104193 -0.0199437 0.0033966028
-0.013534263 0.015265497 -0.0028040225 -0.004542151 -0.0068717687 0.01659253 -0.0065925606 0.00970178
0.0036562828 0.024962237 -0.018315917 0.011475591 -0.013388589 0.014788739 -0.0010212102 0.013045894
-0.0062770024 -0.0015081972 -0.017383395 -0.047215786 -0.0072494843 -0.04762528 -0.021778574 0.018975295
-0.0139481295 -3.304501e-05 0.004038732 0.018567283 -0.019856535 -0.007921814 0.029695848 0.010359295
0.019733204 -0.025678128 0.031417932 0.008493646 -0.004392413 0.0051234043 0.0031037687 -0.0035346155
0.023366198 -0.015220361 0.0032920202 -0.004399845 -0.0065244283 0.017116424 -0.015147211 -0.0052028084
-0.024576448 -0.0014400551 -0.00043718267 -0.00055890734 0.01404241 -0.011481425 -0.01498016 -0.013386059
-0.007775792 0.013866517 -0.018506914 -0.018956903 0.010827463 0.008921875 0.012649643 -0.036243852
-0.021604182 -0.023413874 -0.007567413 -0.013226499 -0.041837364 -0.016459199 -0.033226985 0.0024409096
0.0036835128 -0.007935359 0.005906231 0.014339492 3.3063443e-05 -0.012778106 -0.007805099 -0.011588166
-0.010159587 0.009012814 0.0016987385 -0.0028389646 -0.010812655 0.021211205 0.048652347 -0.014530301
-0.012288051 -0.01720501 0.021285832 -0.017395938 0.019212786 -0.008218607 -0.013692762 -0.0053565144
-0.027289068 -0.027761398 -0.0055510174 -0.027884126 -0.0019750844 0.021881644 0.0065879743 0.014300204
0.0017256717 0.022156807 -0.019118015 -0.030128216 -0.017358612 -0.012389304 -0.014042868 0.020419313
-0.0077332663 -0.007251993 -0.0070047164 0.020550232 -0.004191479 -0.020919723 -0.0022599746 -0.0045938003
0.03542604 -0.02368974 0.03375564 -0.020307882 0.025182147 -0.020950234 -0.0018057678 0.024878211
0.0056984695 0.0064782077 -0.046862368 -0.015792375 0.014206151 -0.0041575837 -0.0076576597 0.024702871
-0.012290279 0.0110595375 -0.0067361663 0.010804393 -0.013544127 -0.0109763 0.007114169 0.010460169
0.025136372 0.014085061 -0.024337528 -0.024102215 -0.011996463 -0.012816 -0.024899213 -0.022278516
0.017821673 0.00990559 0.0035932001 0.021107366 0.022009285 0.0007196072 -0.019901058 0.015569011
0.030429775 -0.006230337 -0.019910714 -0.009452979 0.028611472 0.00028323286 0.019321317 0.04175481
0.01962543 0.025045956 -0.002548752 -0.002227449 -0.012238899 0.0039198664 -0.020650698 0.014018667
-0.010100133 -0.010693889 0.03778389 0.009246872 0.015273586 -0.013980383 0.009795088 0.03051543
0.013333741 0.01542455 -0.013432433 0.02828235 -0.019718964 0.029102966 -0.0053256135 0.013542625
-0.008337802 -0.011913997 0.0015362619 -0.021610366 -0.017083224 -0.0061356984 0.0035798554 -0.0100907525
-0.01034198 -0.0028898378 -5.8326288e-05 0.03535834 -0.0025932146 -0.011613046 0.003938638 -0.022469956
-0.009638618 0.007524904 0.00034160307 0.011578053 0.004614239 -0.004873412 -0.023234526 -0.014186683
0.013231972 0.00036430036 0.018104916 -0.0036025674 0.018889427 0.04837445 -0.014794625 -0.028295562
0.02398731 0.03393761 -0.03064608 -0.0023025894 -0.011202031 -0.014783973 0.006889963 -0.0137780635
-0.015475603 -0.007318798 0.010831966 -0.0046385895 0.011974311 -0.0195503 -0.0041214493 -0.006246567
00000000: fe8e c9bb 3cf4 b53c 659e 653c 3d8e 89bc
00000010: 4fff dfbc 1a05 063c a24f 363c 4414 bc3b
00000020: 3a68 b6bc 03fe 93bc 1815 d93c 807d cbbb
00000030: 3b8e db3c 73c7 043c f860 a3bc 8a99 5e3b
00000040: d0be 5dbc 231c 7a3c b1c3 37bb 53d6 94bb
00000050: 932c e1bb 0fed 873c 6806 d8bb 37f4 1e3c
00000060: 3f9e 6f3b 9b7d cc3c 430b 96bc 1e04 3c3c
00000070: d05b 5bbc 784c 723c 21da 85ba 72be 553c
00000080: 50af cdbb b3ae c5ba 9f67 8ebc 5765 41bd
00000090: 158d edbb ba12 43bd fb68 b2bc 1472 9b3c
000000a0: b286 64bc cf99 0ab8 5757 843b 6a1a 983c
000000b0: 2caa a2bc 7fca 01bc b544 f33c 08ba 293c
000000c0: 87a7 a13c f05a d2bc 17b0 003d ef28 0b3c
000000d0: 3bee 8fbb 3be2 a73b 9968 4b3b 02a5 67bb
000000e0: 786a bf3c d25e 79bc efbe 573b 932c 90bb
000000f0: dfca d5bb be37 8c3c 022c 78bc 527c aabb
00000100: 8c54 c9bc 3bc0 bcba aa35 e5b9 a383 12ba
00000110: 2312 663c 961c 3cbc 586f 75bc 3351 5bbc
00000120: 12cc febb 6330 633c d09b 97bc 824b 9bbc
00000130: ac65 313c 0e2d 123c 7340 4f3c 6f74 14bd
00000140: 41fb b0bc 74ce bfbc 10f8 f7bb f5b3 58bc
00000150: a85d 2bbd 71d5 86bc 0519 08bd abf7 1f3b
00000160: 1767 713b 4f03 02bc 0e89 c13b 30f0 6a3c
00000170: 9aad 0a38 435b 51bc eac1 ffbb 4adc 3dbc
00000180: 6574 26bc 7baa 133c 35a8 de3a ec0d 3abb
00000190: 9027 31bc 1fc3 ad3c af47 473d 8010 6ebc
000001a0: d253 49bc 85f1 8cbc a05f ae3c ed81 8ebc
000001b0: 2264 9d3c 56a7 06bc 9b57 60bc b385 afbb
000001c0: 538d dfbc df6b e3bc 4fe5 b5bb 406d e4bc
000001d0: 6b70 01bb 2241 b33c efdf d73b 674b 6a3c
000001e0: ef2f e23a 3182 b53c 629d 9cbc 73cf f6bc
000001f0: a633 8ebc 82fc 4abc 0f14 66bc 6746 a73c
00000200: 5767 fdbb 20a2 edbb d287 e5bb f658 a83c
00000210: ad58 89bb d75f abbc 151c 14bb 9787 96bb
00000220: e51a 113d fc10 c2bc 5b43 0a3d b75c a6bc
00000230: ca4a ce3c d39f abbc 83af ecba 64cd cb3c
00000240: 3aba ba3b 2547 d43b c1f2 3fbd 035f 81bc
00000250: eac0 683c 573c 88bb 1bed fabb ad5d ca3c
00000260: 2b5d 49bc 1033 353c 0fbb dcbb e904 313c
00000270: 30e8 5dbc f0d5 33bc fa1d e93b 2161 2b3c
00000280: cbea cd3c 07c5 663c 7f5f c7bc 0272 c5bc
00000290: d08c 44bc 33fa 51bc 6ff9 cbbc 6f81 b6bc
000002a0: c2fe 913c 0e4b 223c e57b 6b3b 5be9 ac3c
000002b0: d14c b43c 06a4 3c3a 8b07 a3bc 2a15 7f3c
000002c0: dd47 f93c db27 ccbb cb1b a3bc abe0 1abc
000002d0: 9b62 ea3c df7e 9439 bd47 9e3c 1707 2b3d
000002e0: 83c5 a03c 2d2d cd3c f608 27bb 65fa 11bb
000002f0: aa85 48bc 3972 803b a72b a9bc 8dae 653c
00000300: 077b 25bc 6c35 2fbc 48c3 1a3d 3180 173c
00000310: 103e 7a3c fa0d 65bc 947b 203c 7ffb f93c
00000320: c375 5a3c 40b7 7c3c b513 5cbc 63b0 e73c
00000330: aa89 a1bc 5869 ee3c 7c82 aebb e3e1 5d3c
00000340: 479b 08bc ed32 43bc 655c c93a 3908 b1bc
00000350: 1ef2 8bbc f80d c9bb 029c 6a3b af53 25bc
00000360: 6871 29bc 6f63 3dbb 60a3 74b8 e8d3 103d
00000370: ecf2 29bb a544 3ebc b10f 813b ea12 b8bc
00000380: 4beb 1dbc 7893 f63b 3019 b339 e0b1 3d3c
00000390: 0b33 973b 25b1 9fbb 5556 bebc 436f 68bc
000003a0: eaca 583c 91ff be39 c350 943c 0d19 6cbb
000003b0: 00be 9a3c 4a24 463d 2865 72bc 18cc e7bc
000003c0: 0981 c43c 2a02 0b3d 7d0d fbbc 0ae7 16bb
000003d0: b988 37bc 7a38 72bc 33c5 e13b 63bd 61bc
000003e0: 628d 7dbc 87d2 efbb 8f78 313c 4fff 97bb
000003f0: e72f 443c f327 a0bc 390d 87bb 00b0 ccbb

network_body._body_endoder.seq_layers.0.bias f4 [128]
0.0 0.0 0.0 0.0 0.0 0.0 0.0 0.0
0.0 0.0 0.0 0.0 0.0 0.0 0.0 0.0
0.0 0.0 0.0 0.0 0.0 0.0 0.0 0.0
0.0 0.0 0.0 0.0 0.0 0.0 0.0 0.0
0.0 0.0 0.0 0.0 0.0 0.0 0.0 0.0
0.0 0.0 0.0 0.0 0.0 0.0 0.0 0.0
0.0 0.0 0.0 0.0 0.0 0.0 0.0 0.0
0.0 0.0 0.0 0.0 0.0 0.0 0.0 0.0
0.0 0.0 0.0 0.0 0.0 0.0 0.0 0.0
0.0 0.0 0.0 0.0 0.0 0.0 0.0 0.0
0.0 0.0 0.0 0.0 0.0 0.0 0.0 0.0
0.0 0.0 0.0 0.0 0.0 0.0 0.0 0.0
0.0 0.0 0.0 0.0 0.0 0.0 0.0 0.0
0.0 0.0 0.0 0.0 0.0 0.0 0.0 0.0
0.0 0.0 0.0 0.0 0.0 0.0 0.0 0.0
0.0 0.0 0.0 0.0 0.0 0.0 0.0 0.0
00000000: 0000 0000 0000 0000 0000 0000 0000 0000
00000010: 0000 0000 0000 0000 0000 0000 0000 0000
00000020: 0000 0000 0000 0000 0000 0000 0000 0000
00000030: 0000 0000 0000 0000 0000 0000 0000 0000
00000040: 0000 0000 0000 0000 0000 0000 0000 0000
00000050: 0000 0000 0000 0000 0000 0000 0000 0000
00000060: 0000 0000 0000 0000 0000 0000 0000 0000
00000070: 0000 0000 0000 0000 0000 0000 0000 0000
00000080: 0000 0000 0000 0000 0000 0000 0000 0000
00000090: 0000 0000 0000 0000 0000 0000 0000 0000
000000a0: 0000 0000 0000 0000 0000 0000 0000 0000
000000b0: 0000 0000 0000 0000 0000 0000 0000 0000
000000c0: 0000 0000 0000 0000 0000 0000 0000 0000
000000d0: 0000 0000 0000 0000 0000 0000 0000 0000
000000e0: 0000 0000 0000 0000 0000 0000 0000 0000
000000f0: 0000 0000 0000 0000 0000 0000 0000 0000
00000100: 0000 0000 0000 0000 0000 0000 0000 0000
00000110: 0000 0000 0000 0000 0000 0000 0000 0000
00000120: 0000 0000 0000 0000 0000 0000 0000 0000
00000130: 0000 0000 0000 0000 0000 0000 0000 0000
00000140: 0000 0000 0000 0000 0000 0000 0000 0000
00000150: 0000 0000 0000 0000 0000 0000 0000 0000
00000160: 0000 0000 0000 0000 0000 0000 0000 0000
00000170: 0000 0000 0000 0000 0000 0000 0000 0000
00000180: 0000 0000 0000 0000 0000 0000 0000 0000
00000190: 0000 0000 0000 0000 0000 0000 0000 0000
000001a0: 0000 0000 0000 0000 0000 0000 0000 0000
000001b0: 0000 0000 0000 0000 0000 0000 0000 0000
000001c0: 0000 0000 0000 0000 0000 0000 0000 0000
000001d0: 0000 0000 0000 0000 0000 0000 0000 0000
000001e0: 0000 0000 0000 0000 0000 0000 0000 0000
000001f0: 0000 0000 0000 0000 0000 0000 0000 0000

network_body._body_endoder.seq_layers.0.weight f4 [128, 132]
-0.07622152 -0.055822283 0.10386493 0.030856287 0.02658976 -0.120686986 0.07337652 -0.047713682
0.0074677165 -0.1452498 -0.021996634 -0.1532362 0.12074237 0.0483904 0.01861706 -0.15435994
0.06999932 -0.06329637 -0.04868715 -0.13021116 0.06376046 -0.15412332 -0.07662938 -0.029671002
-0.032677487 -0.008375092 0.028297862 0.0011686007 0.01705566 -0.026664529 -0.004748195 0.12840773
0.200987 -0.00905642 -0.03745893 -0.037700914 -0.0030295372 0.2321153 0.10505232 -0.12152997
0.05600411 -0.0035563263 0.0033166278 0.11428312 -0.011325246 0.020095948 0.03450216 -0.02917025
-0.025414074 -0.14855233 0.0011358879 -0.10570011 -0.12028496 0.23507021 0.020580674 0.09491971
0.15724011 0.0021056202 0.0027497574 0.01275031 -0.104141094 -0.19401938 -0.098897114 -0.09525306
0.083894074 -0.10673351 0.08275437 -0.06317407 0.019062338 0.09214346 -0.03899415 0.058793157
0.043576553 -0.08846999 -0.12207858 0.01999495 0.0360668 0.18590553 0.050470475 0.07963735
-0.063462436 0.019396983 0.028294906 0.030082203 0.052622948 -0.039849736 -0.021059804 -0.13320522
0.09667024 -0.04895425 -0.04595558 -0.075077645 0.061750133 0.04692242 0.116095975 -0.090391
-0.11437178 -0.010759102 -0.051364485 -0.08253467 0.019998377 0.03380619 -0.022178808 0.030098189
-0.028324785 -0.041538756 0.16743574 0.08464998 0.10005674 0.18477508 0.0016324059 -0.04324905
0.002043433 -0.044628017 -0.048315525 -0.037214622 0.08473333 0.06383057 -0.08466362 0.08177432
0.028549023 0.021642786 0.099441044 0.10786877 -0.13516894 0.12818281 0.07335267 -0.007911179
0.13937941 -0.073793426 -0.041337967 -0.06656417 0.050569672 0.06482806 -0.16664365 0.061736964
-0.114742815 -0.061370302 -0.093051195 -0.028144144 -0.023899399 -0.034652468 0.062412202 -0.07944268
0.18339743 0.015837884 -0.2338517 -0.0063636317 -0.027097562 0.09087494 0.04972004 -0.09083662
-0.068709604 -0.03134609 0.017473185 -0.0050245244 -0.067894995 -0.17264956 -0.07262682 0.17683627
0.02364962 -0.060515866 -0.058025908 0.022538707 -0.047520235 0.028917959 -0.16701914 -0.031237828
-0.01352356 0.04878015 -0.12469315 0.03956084 0.06637861 -0.028402751 0.05383802 -0.09112148
0.10840027 0.062453132 0.06473867 -0.14707421 0.11067887 -0.004880193 -0.102869764 -0.095348805
-0.012532218 0.10859458 -0.0366192 0.1423043 -0.02399528 0.059336714 -0.11531746 0.04820159
0.14446732 -0.15468824 0.18714422 0.007095034 -0.1708617 -0.10000945 0.065941565 -0.07219707
0.19767621 -0.07646056 -0.03810768 0.08760007 0.16115084 -0.075687215 -0.03995249 0.026172243
0.14182936 -0.0689685 -0.020061966 0.1673094 -0.090183936 0.046818927 0.07134167 -0.019218953
0.11863669 0.07324712 -0.065726064 0.012063882 -0.17435102 0.05493991 -0.0036379257 -0.1518236
0.011256585 0.16778474 0.0775098 0.004740067 -0.024966814 -0.019147346 -0.056904428 0.023918195
0.09410256 0.0070007173 0.006558723 0.006644524 0.042932592 0.010756468 -0.096075445 0.022996943
-0.07881453 0.17061768 -0.09305646 -0.07950999 0.11331896 0.045359045 0.066555485 0.026220473
0.017387908 -0.20841902 -0.0390643 0.040384233 -0.02658931 -0.124990925 0.1369867 0.09621955
00000000: 071a 9cbd e8a5 64bd 23b7 d43d 53c6 fc3c
00000010: c5d2 d93c bd2a f7bd 6e46 963d 6c6f 43bd
00000020: bfb3 f43b 5dbc 14be 4932 b4bc f3e9 1cbe
00000030: c747 f73d 0335 463d ce82 983c 8810 1ebe
00000040: ce5b 8f3d 87a1 81bd 2d6c 47bd 1356 05be
00000050: d894 823d 81d2 1dbe ddef 9cbd 9a10 f3bc
00000060: d4d8 05bd af37 09bc ebd0 e73c bc2b 993a
00000070: 50b8 8b3c 926f dabc bf96 9bbb 517d 033e
00000080: 89cf 4d3e 6161 14bc 896e 19bd 466c 1abd
00000090: 338b 46bb a2af 6d3e ac25 d73d b4e4 f8bd
000000a0: 9164 653d 4111 69bb c85b 593b 450d ea3d
000000b0: 868d 39bc 42a0 a43c 2352 0d3d 73f6 eebc
000000c0: 2d31 d0bc 1a1e 18be 13e2 943a 4d79 d8bd
000000d0: f657 f6bd 3fb6 703e cd98 a83c 4465 c23d
000000e0: 8d03 213e 72fe 093b 4635 343b ade6 503c
000000f0: ed47 d5bd 04ad 46be 928a cabd 0914 c3bd
00000100: a8d0 ab3d 1997 dabd 207b a93d 6861 81bd
00000110: 9f28 9c3c b6b5 bc3d 54b8 1fbd 18d1 703d
00000120: 547d 323d c12f b5bd 5604 fabd 73cc a33c
00000130: c8ba 133d 055e 3e3e 21ba 4e3d e818 a33d
00000140: 98f8 81bd 6ce6 9e3c b8ca e73c f46e f63c
00000150: 298b 573d 7a39 23bd 9c85 acbc f366 08be
00000160: 0cfb c53d 4084 48bd eb3b 3cbd 4fc2 99bd
00000170: b5ed 7c3d b931 403d bac3 ed3d eb1e b9bd
00000180: c03b eabd f246 30bc 9163 52bd f007 a9bd
00000190: a3d3 a33c 5c78 0a3d 55b0 b5bc 7a90 f63c
000001a0: 6109 e8bc 8b24 2abd 4674 2b3e f85c ad3d
000001b0: 8cea cc3d ae35 3d3e 74f6 d53a ea25 31bd
000001c0: 1eeb 053b decb 36bd 80e6 45bd 5c6e 18bd
000001d0: ab88 ad3d 9ab9 823d 1f64 adbd 4b79 a73d
000001e0: a4df e93c 364c b13c bfa7 cb3d 4dea dc3d
000001f0: ba69 0abe 5b42 033e ed39 963d e49d 01bc
00000200: 7ab9 0e3e 0221 97bd 0052 29bd cc52 88bd
00000210: 2522 4f3d 93c4 843d a2a4 2abe e6df 7c3d
00000220: 48fe eabd 6d5f 7bbd a091 bebd 8c8e e6bc
00000230: acc8 c3bc bfef 0dbd f0a3 7f3d d8b2 a2bd
00000240: 89cc 3b3e 73be 813c d276 6fbe 0386 d0bb
00000250: b5fb ddbc a41c ba3d 3ea7 4b3d 8d08 babd
00000260: 9fb7 8cbd c264 00bd ed23 8f3c c4a4 a4bb
00000270: 880c 8bbd 0ccb 30be 5fbd 94bd 9114 353e
00000280: d9bc c13c 7cdf 77bd 93ac 6dbd 18a3 b83c
00000290: 94a4 42bd 5be5 ec3c 1107 2bbe 79e6 ffbc
000002a0: ec91 5dbc b2cd 473d 1f5f ffbd 8c0a 223d
000002b0: 82f1 873d e3ac e8bc 4185 5c3d e69d babd
000002c0: f600 de3d dbce 7f3d b595 843d 9f9a 16be
000002d0: 9aab e23d 07ea 9fbb 62ad d2bd 3c46 c3bd
000002e0: ef53 4dbc d666 de3d 04fe 15bd 38b8 113e
000002f0: c091 c4bc 0e0b 733d 8f2b ecbd 086f 453d
00000300: 3eef 133e 9866 1ebe bca2 3f3e 757d e83b
00000310: 5ff6 2ebe c1d1 ccbd 5f0c 873d 0fdc 93bd
00000320: a26b 4a3e 5b97 9cbd cc16 1cbd aa67 b33d
00000330: ba04 253e e601 9bbd 39a5 23bd 2c67 d63c
00000340: b73b 113e 5b3f 8dbd fe58 a4bc 2853 2b3e
00000350: 5bb2 b8bd 34c5 3f3d 951b 923d 1171 9dbc
00000360: cbf7 f23d 9602 963d 639b 86bd 97a7 453c
00000370: 1389 32be ac08 613d 446a 6ebb a577 1bbe
00000380: 8a6d 383c c3cf 2b3e 75bd 9e3d 9052 9b3b
00000390: 3487 ccbc e5da 9cbc 9e14 69bd 17f0 c33c
000003a0: d8b8 c03d 4666 e53b 8eea d63b 4fba d93b
000003b0: 16da 2f3d e63b 303c 34c3 c4bd 1664 bc3c
000003c0: 8369 a1bd 67b6 2e3e 6394 bebd 22d6 a2bd
000003d0: c513 e83d 68ca 393d 3e4e 883d 51cc d63c
000003e0: 1671 8e3c cc6b 55be e301 20bd f069 253d
000003f0: d3d1 d9bc 3efb ffbd 3e46 0c3e c10e c53d

network_body._body_endoder.seq_layers.2.bias f4 [128]
0.0 0.0 0.0 0.0 0.0 0.0 0.0 0.0
0.0 0.0 0.0 0.0 0.0 0.0 0.0 0.0
0.0 0.0 0.0 0.0 0.0 0.0 0.0 0.0
0.0 0.0 0.0 0.0 0.0 0.0 0.0 0.0
0.0 0.0 0.0 0.0 0.0 0.0 0.0 0.0
0.0 0.0 0.0 0.0 0.0 0.0 0.0 0.0
0.0 0.0 0.0 0.0 0.0 0.0 0.0 0.0
0.0 0.0 0.0 0.0 0.0 0.0 0.0 0.0
0.0 0.0 0.0 0.0 0.0 0.0 0.0 0.0
0.0 0.0 0.0 0.0 0.0 0.0 0.0 0.0
0.0 0.0 0.0 0.0 0.0 0.0 0.0 0.0
0.0 0.0 0.0 0.0 0.0 0.0 0.0 0.0
0.0 0.0 0.0 0.0 0.0 0.0 0.0 0.0
0.0 0.0 0.0 0.0 0.0 0.0 0.0 0.0
0.0 0.0 0.0 0.0 0.0 0.0 0.0 0.0
0.0 0.0 0.0 0.0 0.0 0.0 0.0 0.0
00000000: 0000 0000 0000 0000 0000 0000 0000 0000
00000010: 0000 0000 0000 0000 0000 0000 0000 0000
00000020: 0000 0000 0000 0000 0000 0000 0000 0000
00000030: 0000 0000 0000 0000 0000 0000 0000 0000
00000040: 0000 0000 0000 0000 0000 0000 0000 0000
00000050: 0000 0000 0000 0000 0000 0000 0000 0000
00000060: 0000 0000 0000 0000 0000 0000 0000 0000
00000070: 0000 0000 0000 0000 0000 0000 0000 0000
00000080: 0000 0000 0000 0000 0000 0000 0000 0000
00000090: 0000 0000 0000 0000 0000 0000 0000 0000
000000a0: 0000 0000 0000 0000 0000 0000 0000 0000
000000b0: 0000 0000 0000 0000 0000 0000 0000 0000
000000c0: 0000 0000 0000 0000 0000 0000 0000 0000
000000d0: 0000 0000 0000 0000 0000 0000 0000 0000
000000e0: 0000 0000 0000 0000 0000 0000 0000 0000
000000f0: 0000 0000 0000 0000 0000 0000 0000 0000
00000100: 0000 0000 0000 0000 0000 0000 0000 0000
00000110: 0000 0000 0000 0000 0000 0000 0000 0000
00000120: 0000 0000 0000 0000 0000 0000 0000 0000
00000130: 0000 0000 0000 0000 0000 0000 0000 0000
00000140: 0000 0000 0000 0000 0000 0000 0000 0000
00000150: 0000 0000 0000 0000 0000 0000 0000 0000
00000160: 0000 0000 0000 0000 0000 0000 0000 0000
00000170: 0000 0000 0000 0000 0000 0000 0000 0000
00000180: 0000 0000 0000 0000 0000 0000 0000 0000
00000190: 0000 0000 0000 0000 0000 0000 0000 0000
000001a0: 0000 0000 0000 0000 0000 0000 0000 0000
000001b0: 0000 0000 0000 0000 0000 0000 0000 0000
000001c0: 0000 0000 0000 0000 0000 0000 0000 0000
000001d0: 0000 0000 0000 0000 0000 0000 0000 0000
000001e0: 0000 0000 0000 0000 0000 0000 0000 0000
000001f0: 0000 0000 0000 0000 0000 0000 0000 0000

network_body._body_endoder.seq_layers.2.weight f4 [128, 128]
-0.061798934 -0.05880915 -0.023406113 -0.06290263 0.03433969 0.0543287 0.027409794 0.07737592
-0.034996703 -0.05579505 0.034086633 -0.14575018 -0.19012548 -0.05562261 0.055389017 0.0117759835
0.13450629 -0.024226999 -0.053045068 0.01942334 -0.09292326 -0.22606426 -0.02689331 -0.032863453
0.11032498 -0.07350985 -0.023401408 0.15297258 -0.077323996 0.09631906 -0.12106759 -0.12652738
-0.075327225 -0.046475314 0.054052442 -0.17622308 0.0904694 0.021235896 -0.061602622 -0.11671436
0.0048884074 0.10026166 0.014785074 -0.010842244 -0.0316788 0.002780147 0.044858582 -0.04144606
0.016742209 -0.015361944 0.092282064 -0.044541612 0.13501735 0.113652766 -0.2310076 -0.19503585
-0.1266666 0.05310675 -0.12499525 -0.019536873 -0.09969515 -0.0075034015 0.10526445 0.20942853
-0.17952883 -0.15558833 0.18378662 -0.01953172 0.0066295955 -0.08644686 -0.0057703764 0.0077246237
0.12053043 0.04531233 0.008504519 0.012478569 -0.16287006 -0.040488847 -0.075568974 -0.027267372
-0.05752994 -0.05251568 -0.06351891 0.11515071 -0.03939193 0.09996757 -0.078190245 -0.10379345
0.053301718 0.19099255 0.14652798 -0.044795804 0.10060168 0.039154302 -0.026754094 0.18372196
-0.08317126 0.036617048 0.010022597 0.0032504057 0.04064465 -0.13838014 0.102989644 -0.057744175
0.019726314 -0.1217573 -0.12363749 -0.09441504 -0.00094251975 -0.15562339 -0.017479885 -0.18986315
-0.081123196 -0.040349204 0.13765071 -0.050608184 0.04010101 0.09646012 -0.11910306 0.03934897
0.03103637 -0.09129413 -0.09885557 0.0091443965 0.0024173807 -0.0833354 -0.08548983 0.06444096
-0.026980527 -0.051520206 -0.022713484 -0.050693534 -0.00090111856 0.019212825 0.17769974 -0.08451956
-0.07604998 -0.059247978 0.068095066 0.0064142426 -0.084934324 0.008743815 -0.051474597 -0.23791116
-0.0049024313 0.11260371 0.009785794 -0.1036548 0.103321314 0.07240186 0.11273689 0.09104098
0.13338877 -0.13776217 0.047938935 0.090713575 -0.045505 -0.19277665 0.04066526 -0.087035045
0.12795356 -0.08248204 -0.034636717 0.10274233 0.1081758 -0.018351201 -0.12439233 -0.0077629075
0.008512083 -0.061102 -0.06702007 0.018548299 0.10917976 -0.04958265 0.042969268 0.051468804
-0.11151877 -0.102516666 -0.0953739 -0.01614987 -0.021177208 0.03006868 0.17128837 0.06025136
0.012918749 0.0192526 0.07255711 -0.07899335 -0.11198874 0.11851253 -0.19285814 0.025290202
-0.003075989 -0.012130078 -0.035308845 -0.12842673 0.12863927 0.0435841 -0.09649942 -0.04074134
-0.25591856 -0.007829591 -0.018556867 -0.07032423 0.00592246 -0.004829587 0.049633346 -0.12124627
0.09282263 -0.10630589 -0.026986334 0.014011117 -0.025029985 -0.06627573 0.17656311 0.11144681
-0.011953897 -0.022708176 -0.11701122 0.21226421 0.16374767 -0.037156463 0.010383995 0.058671415
0.21740946 -0.10141722 0.010372008 0.08799569 0.008888131 -0.16255414 -0.022054413 0.07909659
0.08265009 -0.03342526 0.10053532 0.12473558 0.08087497 0.00428463 0.032208078 -0.008365647
-0.033907585 -0.061373223 -0.094722174 -0.070254184 0.047952954 -0.026376918 -0.024195576 0.15803356
0.051461898 -0.13064344 -0.02220502 -0.1716168 -0.069122635 0.038293257 0.16451257 -0.06558278
00000000: e120 7dbd dde1 70bd 2dbe bfbc 18d3 80bd
00000010: c6a7 0c3d c587 5e3d 818a e03c 4477 9e3d
00000020: b458 0fbd 5a89 64bd 6d9e 0b3d 893f 15be
00000030: 41b0 42be 89d4 63bd 98df 623d 0ef0 403c
00000040: 04bc 093e b377 c6bc c945 59bd b21d 9f3c
00000050: 8d4e bebd 647d 67be 5c4f dcbc d49b 06bd
00000060: 10f2 e13d 558c 96bd 4fb4 bfbc d8a4 1c3e
00000070: 0b5c 9ebd ed42 c53d 49f2 f7bd 6590 01be
00000080: 2945 9abd e65c 3ebd 1866 5d3d d373 34be
00000090: 0548 b93d e7f6 ad3c 0853 7cbd f007 efbd
000000a0: ef2e a03b fc55 cd3d 183d 723c aba3 31bc
000000b0: a1c1 01bd 2033 363b a2bd 373d 58c3 29bd
000000c0: f526 893c aab0 7bbc 61fe bc3d 4471 36bd
000000d0: fd41 0a3e c8c2 e83d 428d 6cbe 7ab7 47be
000000e0: e4b4 01be 7786 593d 82fd ffbd cb0b a0bc
000000f0: f92c ccbd 18df f5bb e394 d73d 6f74 563e
00000100: 68d6 37be 8c52 1fbe 8f32 3c3e fc00 a0bc
00000110: 143d d93b 0d0b b1bd 6d15 bdbb d71e fd3b
00000120: a8d8 f63d 6c99 393d 8a56 0b3c e972 4c3c
00000130: 69c7 26be a2d7 25bd e8c3 9abd d35f dfbc
00000140: 84a4 6bbd af1a 57bd 3416 82bd 23d4 eb3d
00000150: 6f59 21bd ccbb cc3d 3522 a0bd a991 d4bd
00000160: e752 5a3d 8d93 433e 6e0b 163e ce7b 37bd
00000170: 4108 ce3d 4360 203d 672b dbbc 9c21 3c3e
00000180: b255 aabd c2fb 153d d235 243c c204 553b
00000190: 017b 263d 86b3 0dbe 3cec d23d 2885 6cbd
000001a0: 1499 a13c e45b f9bd a735 fdbd ac5c c1bd
000001b0: 6e13 77ba bd5b 1fbe fa31 8fbc 7c6b 42be
000001c0: eb23 a6bd 3545 25bd 4ff4 0c3e 874a 4fbd
000001d0: f540 243d e28c c53d 4eec f3bd 632c 213d
000001e0: fc3f fe3c 6bf8 babd ca74 cabd 61d2 153c
000001f0: eb6c 1e3b c0ab aabd 4b15 afbd 9ff9 833d
00000200: 4406 ddbc da06 53bd a111 babc 06a4 4fbd
00000210: 0b39 6cba 3764 9d3c ecf6 353e 9718 adbd
00000220: 18c0 9bbd 02ae 72bd 6d75 8b3d 912e d23b
00000230: 0cf2 adbd 3842 0f3c 07d7 52bd fc9e 73be
00000240: 93a4 a0bb c69c e63d 9854 203c f848 d4bd
00000250: 209a d33d 6d47 943d 99e2 e63d b173 ba3d
00000260: 1197 083e 8711 0dbe 9e5b 443d 0ac8 b93d
00000270: 7363 3abd 3e67 45be 9e90 263d 6e3f b2bd
00000280: 4206 033e 58ec a8bd 3bdf 0dbd 926a d23d
00000290: 468b dd3d 4255 96bc 68c1 febd fd5f febb
000002a0: 4476 0b3c 1746 7abd d241 89bd 9af2 973c
000002b0: a399 df3d 2d17 4bbd 8b00 303d f4d0 523d
000002c0: f463 e4bd 42f4 d1bd 6453 c3bd bb4c 84bc
000002d0: d37b adbc 9852 f63c 3866 2f3e 21ca 763d
000002e0: 29a9 533c a1b7 9d3c d298 943d 44c7 a1bd
000002f0: 5a5a e5bd b3b6 f23d 9b7c 45be 662d cf3c
00000300: 8896 49bb 3cbd 46bc 02a0 10bd 4c82 03be
00000310: 03ba 033e 3e85 323d 7da1 c5bd 64e0 26bd
00000320: c207 83be af47 00bc 9204 98bc 2606 90bd
00000330: 3211 c23b 8341 9ebb 564c 4b3d f74f f8bd
00000340: cb19 be3d e7b6 d9bd 7212 ddbc e28e 653c
00000350: af0b cdbc 92bb 87bd f6cc 343e 3a3e e43d
00000360: 47da 43bc 7f06 babc 94a3 efbd ca5b 593e
00000370: 78ad 273e 6031 18bd a221 2a3c 7051 703d
00000380: 96a0 5e3e d5b3 cfbd 5bef 293c 1637 b43d
00000390: 869f 113c 9874 26be 75ab b4bc 65fd a13d
000003a0: 7344 a93d ede8 08bd 76e5 cd3d 5e75 ff3d
000003b0: c7a1 a53d 1566 8c3b 9eec 033d 1110 09bc
000003c0: aee2 0abd 7d62 7bbd b3fd c1bd 6de1 8fbd
000003d0: 516a 443d 6814 d8bc cd35 c6bc 8dd3 213e
000003e0: b6c9 523d 65c7 05be 4de7 b5bc 50bc 2fbe
000003f0: 2b90 8dbd 64d9 1c3d fc75 283e 4450 86bd
