results/MLDriver/MLDriver/MLDriver-2072.pt (torch, 279055 bytes, 12 tensors)

network_body._body_endoder.seq_layers.0.weight f4 [128, 132]
000000 07 1a 9c bd e8 a5 64 bd 23 b7 d4 3d 53 c6 fc 3c
       -0.07622152 -0.055822283 0.10386493 0.030856287
000010 c5 d2 d9 3c bd 2a f7 bd 6e 46 96 3d 6c 6f 43 bd
       0.02658976 -0.120686986 0.07337652 -0.047713682
000020 bf b3 f4 3b 5d bc 14 be 49 32 b4 bc f3 e9 1c be
       0.0074677165 -0.1452498 -0.021996634 -0.1532362
000030 c7 47 f7 3d 03 35 46 3d ce 82 98 3c 88 10 1e be
       0.12074237 0.0483904 0.01861706 -0.15435994
000040 ce 5b 8f 3d 87 a1 81 bd 2d 6c 47 bd 13 56 05 be
       0.06999932 -0.06329637 -0.04868715 -0.13021116
000050 d8 94 82 3d 81 d2 1d be dd ef 9c bd 9a 10 f3 bc
       0.06376046 -0.15412332 -0.07662938 -0.029671002
000060 d4 d8 05 bd af 37 09 bc eb d0 e7 3c bc 2b 99 3a
       -0.032677487 -0.008375092 0.028297862 0.0011686007
000070 50 b8 8b 3c 92 6f da bc bf 96 9b bb 51 7d 03 3e
       0.01705566 -0.026664529 -0.004748195 0.12840773
000080 89 cf 4d 3e 61 61 14 bc 89 6e 19 bd 46 6c 1a bd
       0.200987 -0.00905642 -0.03745893 -0.037700914
000090 33 8b 46 bb a2 af 6d 3e ac 25 d7 3d b4 e4 f8 bd
       -0.0030295372 0.2321153 0.10505232 -0.12152997
0000a0 91 64 65 3d 41 11 69 bb c8 5b 59 3b 45 0d ea 3d
       0.05600411 -0.0035563263 0.0033166278 0.11428312
0000b0 86 8d 39 bc 42 a0 a4 3c 23 52 0d 3d 73 f6 ee bc
       -0.011325246 0.020095948 0.03450216 -0.02917025
0000c0 2d 31 d0 bc 1a 1e 18 be 13 e2 94 3a 4d 79 d8 bd
       -0.025414074 -0.14855233 0.0011358879 -0.10570011
0000d0 f6 57 f6 bd 3f b6 70 3e cd 98 a8 3c 44 65 c2 3d
       -0.12028496 0.23507021 0.020580674 0.09491971
0000e0 8d 03 21 3e 72 fe 09 3b 46 35 34 3b ad e6 50 3c
       0.15724011 0.0021056202 0.0027497574 0.01275031
0000f0 ed 47 d5 bd 04 ad 46 be 92 8a ca bd 09 14 c3 bd
       -0.104141094 -0.19401938 -0.098897114 -0.09525306
000100 a8 d0 ab 3d 19 97 da bd 20 7b a9 3d 68 61 81 bd
       0.083894074 -0.10673351 0.08275437 -0.06317407
000110 9f 28 9c 3c b6 b5 bc 3d 54 b8 1f bd 18 d1 70 3d
       0.019062338 0.09214346 -0.03899415 0.058793157
000120 54 7d 32 3d c1 2f b5 bd 56 04 fa bd 73 cc a3 3c
       0.043576553 -0.08846999 -0.12207858 0.01999495
000130 c8 ba 13 3d 05 5e 3e 3e 21 ba 4e 3d e8 18 a3 3d
       0.0360668 0.18590553 0.050470475 0.07963735
000140 98 f8 81 bd 6c e6 9e 3c b8 ca e7 3c f4 6e f6 3c
       -0.063462436 0.019396983 0.028294906 0.030082203
000150 29 8b 57 3d 7a 39 23 bd 9c 85 ac bc f3 66 08 be
       0.052622948 -0.039849736 -0.021059804 -0.13320522
000160 0c fb c5 3d 40 84 48 bd eb 3b 3c bd 4f c2 99 bd
       0.09667024 -0.04895425 -0.04595558 -0.075077645
000170 b5 ed 7c 3d b9 31 40 3d ba c3 ed 3d eb 1e b9 bd
       0.061750133 0.04692242 0.116095975 -0.090391
000180 c0 3b ea bd f2 46 30 bc 91 63 52 bd f0 07 a9 bd
       -0.11437178 -0.010759102 -0.051364485 -0.08253467
000190 a3 d3 a3 3c 5c 78 0a 3d 55 b0 b5 bc 7a 90 f6 3c
       0.019998377 0.03380619 -0.022178808 0.030098189
0001a0 61 09 e8 bc 8b 24 2a bd 46 74 2b 3e f8 5c ad 3d
       -0.028324785 -0.041538756 0.16743574 0.08464998
0001b0 8c ea cc 3d ae 35 3d 3e 74 f6 d5 3a ea 25 31 bd
       0.10005674 0.18477508 0.0016324059 -0.04324905
0001c0 1e eb 05 3b de cb 36 bd 80 e6 45 bd 5c 6e 18 bd
       0.002043433 -0.044628017 -0.048315525 -0.037214622
0001d0 ab 88 ad 3d 9a b9 82 3d 1f 64 ad bd 4b 79 a7 3d
       0.08473333 0.06383057 -0.08466362 0.08177432
0001e0 a4 df e9 3c 36 4c b1 3c bf a7 cb 3d 4d ea dc 3d
       0.028549023 0.021642786 0.099441044 0.10786877
0001f0 ba 69 0a be 5b 42 03 3e ed 39 96 3d e4 9d 01 bc
       -0.13516894 0.12818281 0.07335267 -0.007911179
000200 7a b9 0e 3e 02 21 97 bd 00 52 29 bd cc 52 88 bd
       0.13937941 -0.073793426 -0.041337967 -0.06656417
000210 25 22 4f 3d 93 c4 84 3d a2 a4 2a be e6 df 7c 3d
       0.050569672 0.06482806 -0.16664365 0.061736964
000220 48 fe ea bd 6d 5f 7b bd a0 91 be bd 8c 8e e6 bc
       -0.114742815 -0.061370302 -0.093051195 -0.028144144
000230 ac c8 c3 bc bf ef 0d bd f0 a3 7f 3d d8 b2 a2 bd
       -0.023899399 -0.034652468 0.062412202 -0.07944268
000240 89 cc 3b 3e 73 be 81 3c d2 76 6f be 03 86 d0 bb
       0.18339743 0.015837884 -0.2338517 -0.0063636317
000250 b5 fb dd bc a4 1c ba 3d 3e a7 4b 3d 8d 08 ba bd
       -0.027097562 0.09087494 0.04972004 -0.09083662
000260 9f b7 8c bd c2 64 00 bd ed 23 8f 3c c4 a4 a4 bb
       -0.068709604 -0.03134609 0.017473185 -0.0050245244
000270 88 0c 8b bd 0c cb 30 be 5f bd 94 bd 91 14 35 3e
       -0.067894995 -0.17264956 -0.07262682 0.17683627
000280 d9 bc c1 3c 7c df 77 bd 93 ac 6d bd 18 a3 b8 3c
       0.02364962 -0.060515866 -0.058025908 0.022538707
000290 94 a4 42 bd 5b e5 ec 3c 11 07 2b be 79 e6 ff bc
       -0.047520235 0.028917959 -0.16701914 -0.031237828
0002a0 ec 91 5d bc b2 cd 47 3d 1f 5f ff bd 8c 0a 22 3d
       -0.01352356 0.04878015 -0.12469315 0.03956084
0002b0 82 f1 87 3d e3 ac e8 bc 41 85 5c 3d e6 9d ba bd
       0.06637861 -0.028402751 0.05383802 -0.09112148
0002c0 f6 00 de 3d db ce 7f 3d b5 95 84 3d 9f 9a 16 be
       0.10840027 0.062453132 0.06473867 -0.14707421
0002d0 9a ab e2 3d 07 ea 9f bb 62 ad d2 bd 3c 46 c3 bd
       0.11067887 -0.004880193 -0.102869764 -0.095348805
0002e0 ef 53 4d bc d6 66 de 3d 04 fe 15 bd 38 b8 11 3e
       -0.012532218 0.10859458 -0.0366192 0.1423043
0002f0 c0 91 c4 bc 0e 0b 73 3d 8f 2b ec bd 08 6f 45 3d
       -0.02399528 0.059336714 -0.11531746 0.04820159
000300 3e ef 13 3e 98 66 1e be bc a2 3f 3e 75 7d e8 3b
       0.14446732 -0.15468824 0.18714422 0.007095034
000310 5f f6 2e be c1 d1 cc bd 5f 0c 87 3d 0f dc 93 bd
       -0.1708617 -0.10000945 0.065941565 -0.07219707
000320 a2 6b 4a 3e 5b 97 9c bd cc 16 1c bd aa 67 b3 3d
       0.19767621 -0.07646056 -0.03810768 0.08760007
000330 ba 04 25 3e e6 01 9b bd 39 a5 23 bd 2c 67 d6 3c
       0.16115084 -0.075687215 -0.03995249 0.026172243
000340 b7 3b 11 3e 5b 3f 8d bd fe 58 a4 bc 28 53 2b 3e
       0.14182936 -0.0689685 -0.020061966 0.1673094
000350 5b b2 b8 bd 34 c5 3f 3d 95 1b 92 3d 11 71 9d bc
       -0.090183936 0.046818927 0.07134167 -0.019218953
000360 cb f7 f2 3d 96 02 96 3d 63 9b 86 bd 97 a7 45 3c
       0.11863669 0.07324712 -0.065726064 0.012063882
000370 13 89 32 be ac 08 61 3d 44 6a 6e bb a5 77 1b be
       -0.17435102 0.05493991 -0.0036379257 -0.1518236
000380 8a 6d 38 3c c3 cf 2b 3e 75 bd 9e 3d 90 52 9b 3b
       0.011256585 0.16778474 0.0775098 0.004740067
000390 34 87 cc bc e5 da 9c bc 9e 14 69 bd 17 f0 c3 3c
       -0.024966814 -0.019147346 -0.056904428 0.023918195
0003a0 d8 b8 c0 3d 46 66 e5 3b 8e ea d6 3b 4f ba d9 3b
       0.09410256 0.0070007173 0.006558723 0.006644524
0003b0 16 da 2f 3d e6 3b 30 3c 34 c3 c4 bd 16 64 bc 3c
       0.042932592 0.010756468 -0.096075445 0.022996943
0003c0 83 69 a1 bd 67 b6 2e 3e 63 94 be bd 22 d6 a2 bd
       -0.07881453 0.17061768 -0.09305646 -0.07950999
0003d0 c5 13 e8 3d 68 ca 39 3d 3e 4e 88 3d 51 cc d6 3c
       0.11331896 0.045359045 0.066555485 0.026220473
0003e0 16 71 8e 3c cc 6b 55 be e3 01 20 bd f0 69 25 3d
       0.017387908 -0.20841902 -0.0390643 0.040384233
0003f0 d3 d1 d9 bc 3e fb ff bd 3e 46 0c 3e c1 0e c5 3d
       -0.02658931 -0.124990925 0.1369867 0.09621955

network_body._body_endoder.seq_layers.0.bias f4 [128]
000000 00 00 00 00 00 00 00 00 00 00 00 00 00 00 00 00
       0.0 0.0 0.0 0.0
000010 00 00 00 00 00 00 00 00 00 00 00 00 00 00 00 00
       0.0 0.0 0.0 0.0
000020 00 00 00 00 00 00 00 00 00 00 00 00 00 00 00 00
       0.0 0.0 0.0 0.0
000030 00 00 00 00 00 00 00 00 00 00 00 00 00 00 00 00
       0.0 0.0 0.0 0.0
000040 00 00 00 00 00 00 00 00 00 00 00 00 00 00 00 00
       0.0 0.0 0.0 0.0
000050 00 00 00 00 00 00 00 00 00 00 00 00 00 00 00 00
       0.0 0.0 0.0 0.0
000060 00 00 00 00 00 00 00 00 00 00 00 00 00 00 00 00
       0.0 0.0 0.0 0.0
000070 00 00 00 00 00 00 00 00 00 00 00 00 00 00 00 00
       0.0 0.0 0.0 0.0
000080 00 00 00 00 00 00 00 00 00 00 00 00 00 00 00 00
       0.0 0.0 0.0 0.0
000090 00 00 00 00 00 00 00 00 00 00 00 00 00 00 00 00
       0.0 0.0 0.0 0.0
0000a0 00 00 00 00 00 00 00 00 00 00 00 00 00 00 00 00
       0.0 0.0 0.0 0.0
0000b0 00 00 00 00 00 00 00 00 00 00 00 00 00 00 00 00
       0.0 0.0 0.0 0.0
0000c0 00 00 00 00 00 00 00 00 00 00 00 00 00 00 00 00
       0.0 0.0 0.0 0.0
0000d0 00 00 00 00 00 00 00 00 00 00 00 00 00 00 00 00
       0.0 0.0 0.0 0.0
0000e0 00 00 00 00 00 00 00 00 00 00 00 00 00 00 00 00
       0.0 0.0 0.0 0.0
0000f0 00 00 00 00 00 00 00 00 00 00 00 00 00 00 00 00
       0.0 0.0 0.0 0.0
000100 00 00 00 00 00 00 00 00 00 00 00 00 00 00 00 00
       0.0 0.0 0.0 0.0
000110 00 00 00 00 00 00 00 00 00 00 00 00 00 00 00 00
       0.0 0.0 0.0 0.0
000120 00 00 00 00 00 00 00 00 00 00 00 00 00 00 00 00
       0.0 0.0 0.0 0.0
000130 00 00 00 00 00 00 00 00 00 00 00 00 00 00 00 00
       0.0 0.0 0.0 0.0
000140 00 00 00 00 00 00 00 00 00 00 00 00 00 00 00 00
       0.0 0.0 0.0 0.0
000150 00 00 00 00 00 00 00 00 00 00 00 00 00 00 00 00
       0.0 0.0 0.0 0.0
000160 00 00 00 00 00 00 00 00 00 00 00 00 00 00 00 00
       0.0 0.0 0.0 0.0
000170 00 00 00 00 00 00 00 00 00 00 00 00 00 00 00 00
       0.0 0.0 0.0 0.0
000180 00 00 00 00 00 00 00 00 00 00 00 00 00 00 00 00
       0.0 0.0 0.0 0.0
000190 00 00 00 00 00 00 00 00 00 00 00 00 00 00 00 00
       0.0 0.0 0.0 0.0
0001a0 00 00 00 00 00 00 00 00 00 00 00 00 00 00 00 00
       0.0 0.0 0.0 0.0
0001b0 00 00 00 00 00 00 00 00 00 00 00 00 00 00 00 00
       0.0 0.0 0.0 0.0
0001c0 00 00 00 00 00 00 00 00 00 00 00 00 00 00 00 00
       0.0 0.0 0.0 0.0
0001d0 00 00 00 00 00 00 00 00 00 00 00 00 00 00 00 00
       0.0 0.0 0.0 0.0
0001e0 00 00 00 00 00 00 00 00 00 00 00 00 00 00 00 00
       0.0 0.0 0.0 0.0
0001f0 00 00 00 00 00 00 00 00 00 00 00 00 00 00 00 00
       0.0 0.0 0.0 0.0

network_body._body_endoder.seq_layers.2.weight f4 [128, 128]
000000 e1 20 7d bd dd e1 70 bd 2d be bf bc 18 d3 80 bd
       -0.061798934 -0.05880915 -0.023406113 -0.06290263
000010 c6 a7 0c 3d c5 87 5e 3d 81 8a e0 3c 44 77 9e 3d
       0.03433969 0.0543287 0.027409794 0.07737592
000020 b4 58 0f bd 5a 89 64 bd 6d 9e 0b 3d 89 3f 15 be
       -0.034996703 -0.05579505 0.034086633 -0.14575018
000030 41 b0 42 be 89 d4 63 bd 98 df 62 3d 0e f0 40 3c
       -0.19012548 -0.05562261 0.055389017 0.0117759835
000040 04 bc 09 3e b3 77 c6 bc c9 45 59 bd b2 1d 9f 3c
       0.13450629 -0.024226999 -0.053045068 0.01942334
000050 8d 4e be bd 64 7d 67 be 5c 4f dc bc d4 9b 06 bd
       -0.09292326 -0.22606426 -0.02689331 -0.032863453
000060 10 f2 e1 3d 55 8c 96 bd 4f b4 bf bc d8 a4 1c 3e
       0.11032498 -0.07350985 -0.023401408 0.15297258
000070 0b 5c 9e bd ed 42 c5 3d 49 f2 f7 bd 65 90 01 be
       -0.077323996 0.09631906 -0.12106759 -0.12652738
000080 29 45 9a bd e6 5c 3e bd 18 66 5d 3d d3 73 34 be
       -0.075327225 -0.046475314 0.054052442 -0.17622308
000090 05 48 b9 3d e7 f6 ad 3c 08 53 7c bd f0 07 ef bd
       0.0904694 0.021235896 -0.061602622 -0.11671436
0000a0 ef 2e a0 3b fc 55 cd 3d 18 3d 72 3c ab a3 31 bc
       0.0048884074 0.10026166 0.014785074 -0.010842244
0000b0 a1 c1 01 bd 20 33 36 3b a2 bd 37 3d 58 c3 29 bd
       -0.0316788 0.002780147 0.044858582 -0.04144606
0000c0 f5 26 89 3c aa b0 7b bc 61 fe bc 3d 44 71 36 bd
       0.016742209 -0.015361944 0.092282064 -0.044541612
0000d0 fd 41 0a 3e c8 c2 e8 3d 42 8d 6c be 7a b7 47 be
       0.13501735 0.113652766 -0.2310076 -0.19503585
0000e0 e4 b4 01 be 77 86 59 3d 82 fd ff bd cb 0b a0 bc
       -0.1266666 0.05310675 -0.12499525 -0.019536873
0000f0 f9 2c cc bd 18 df f5 bb e3 94 d7 3d 6f 74 56 3e
       -0.09969515 -0.0075034015 0.10526445 0.20942853
000100 68 d6 37 be 8c 52 1f be 8f 32 3c 3e fc 00 a0 bc
       -0.17952883 -0.15558833 0.18378662 -0.01953172
000110 14 3d d9 3b 0d 0b b1 bd 6d 15 bd bb d7 1e fd 3b
       0.0066295955 -0.08644686 -0.0057703764 0.0077246237
000120 a8 d8 f6 3d 6c 99 39 3d 8a 56 0b 3c e9 72 4c 3c
       0.12053043 0.04531233 0.008504519 0.012478569
000130 69 c7 26 be a2 d7 25 bd e8 c3 9a bd d3 5f df bc
       -0.16287006 -0.040488847 -0.075568974 -0.027267372
000140 84 a4 6b bd af 1a 57 bd 34 16 82 bd 23 d4 eb 3d
       -0.05752994 -0.05251568 -0.06351891 0.11515071
000150 6f 59 21 bd cc bb cc 3d 35 22 a0 bd a9 91 d4 bd
       -0.03939193 0.09996757 -0.078190245 -0.10379345
000160 e7 52 5a 3d 8d 93 43 3e 6e 0b 16 3e ce 7b 37 bd
       0.053301718 0.19099255 0.14652798 -0.044795804
000170 41 08 ce 3d 43 60 20 3d 67 2b db bc 9c 21 3c 3e
       0.10060168 0.039154302 -0.026754094 0.18372196
000180 b2 55 aa bd c2 fb 15 3d d2 35 24 3c c2 04 55 3b
       -0.08317126 0.036617048 0.010022597 0.0032504057
000190 01 7b 26 3d 86 b3 0d be 3c ec d2 3d 28 85 6c bd
       0.04064465 -0.13838014 0.102989644 -0.057744175
0001a0 14 99 a1 3c e4 5b f9 bd a7 35 fd bd ac 5c c1 bd
       0.019726314 -0.1217573 -0.12363749 -0.09441504
0001b0 6e 13 77 ba bd 5b 1f be fa 31 8f bc 7c 6b 42 be
       -0.00094251975 -0.15562339 -0.017479885 -0.18986315
0001c0 eb 23 a6 bd 35 45 25 bd 4f f4 0c 3e 87 4a 4f bd
       -0.081123196 -0.040349204 0.13765071 -0.050608184
0001d0 f5 40 24 3d e2 8c c5 3d 4e ec f3 bd 63 2c 21 3d
       0.04010101 0.09646012 -0.11910306 0.03934897
0001e0 fc 3f fe 3c 6b f8 ba bd ca 74 ca bd 61 d2 15 3c
       0.03103637 -0.09129413 -0.09885557 0.0091443965
0001f0 eb 6c 1e 3b c0 ab aa bd 4b 15 af bd 9f f9 83 3d
       0.0024173807 -0.0833354 -0.08548983 0.06444096
000200 44 06 dd bc da 06 53 bd a1 11 ba bc 06 a4 4f bd
       -0.026980527 -0.051520206 -0.022713484 -0.050693534
000210 0b 39 6c ba 37 64 9d 3c ec f6 35 3e 97 18 ad bd
       -0.00090111856 0.019212825 0.17769974 -0.08451956
000220 18 c0 9b bd 02 ae 72 bd 6d 75 8b 3d 91 2e d2 3b
       -0.07604998 -0.059247978 0.068095066 0.0064142426
000230 0c f2 ad bd 38 42 0f 3c 07 d7 52 bd fc 9e 73 be
       -0.084934324 0.008743815 -0.051474597 -0.23791116
000240 93 a4 a0 bb c6 9c e6 3d 98 54 20 3c f8 48 d4 bd
       -0.0049024313 0.11260371 0.009785794 -0.1036548
000250 20 9a d3 3d 6d 47 94 3d 99 e2 e6 3d b1 73 ba 3d
       0.103321314 0.07240186 0.11273689 0.09104098
000260 11 97 08 3e 87 11 0d be 9e 5b 44 3d 0a c8 b9 3d
       0.13338877 -0.13776217 0.047938935 0.090713575
000270 73 63 3a bd 3e 67 45 be 9e 90 26 3d 6e 3f b2 bd
       -0.045505 -0.19277665 0.04066526 -0.087035045
000280 42 06 03 3e 58 ec a8 bd 3b df 0d bd 92 6a d2 3d
       0.12795356 -0.08248204 -0.034636717 0.10274233
000290 46 8b dd 3d 42 55 96 bc 68 c1 fe bd fd 5f fe bb
       0.1081758 -0.018351201 -0.12439233 -0.0077629075
0002a0 44 76 0b 3c 17 46 7a bd d2 41 89 bd 9a f2 97 3c
       0.008512083 -0.061102 -0.06702007 0.018548299
0002b0 a3 99 df 3d 2d 17 4b bd 8b 00 30 3d f4 d0 52 3d
       0.10917976 -0.04958265 0.042969268 0.051468804
0002c0 f4 63 e4 bd 42 f4 d1 bd 64 53 c3 bd bb 4c 84 bc
       -0.11151877 -0.102516666 -0.0953739 -0.01614987
0002d0 d3 7b ad bc 98 52 f6 3c 38 66 2f 3e 21 ca 76 3d
       -0.021177208 0.03006868 0.17128837 0.06025136
0002e0 29 a9 53 3c a1 b7 9d 3c d2 98 94 3d 44 c7 a1 bd
       0.012918749 0.0192526 0.07255711 -0.07899335
0002f0 5a 5a e5 bd b3 b6 f2 3d 9b 7c 45 be 66 2d cf 3c
       -0.11198874 0.11851253 -0.19285814 0.025290202
000300 88 96 49 bb 3c bd 46 bc 02 a0 10 bd 4c 82 03 be
       -0.003075989 -0.012130078 -0.035308845 -0.12842673
000310 03 ba 03 3e 3e 85 32 3d 7d a1 c5 bd 64 e0 26 bd
       0.12863927 0.0435841 -0.09649942 -0.04074134
000320 c2 07 83 be af 47 00 bc 92 04 98 bc 26 06 90 bd
       -0.25591856 -0.007829591 -0.018556867 -0.07032423
000330 32 11 c2 3b 83 41 9e bb 56 4c 4b 3d f7 4f f8 bd
       0.00592246 -0.004829587 0.049633346 -0.12124627
000340 cb 19 be 3d e7 b6 d9 bd 72 12 dd bc e2 8e 65 3c
       0.09282263 -0.10630589 -0.026986334 0.014011117
000350 af 0b cd bc 92 bb 87 bd f6 cc 34 3e 3a 3e e4 3d
       -0.025029985 -0.06627573 0.17656311 0.11144681
000360 47 da 43 bc 7f 06 ba bc 94 a3 ef bd ca 5b 59 3e
       -0.011953897 -0.022708176 -0.11701122 0.21226421
000370 78 ad 27 3e 60 31 18 bd a2 21 2a 3c 70 51 70 3d
       0.16374767 -0.037156463 0.010383995 0.058671415
000380 96 a0 5e 3e d5 b3 cf bd 5b ef 29 3c 16 37 b4 3d
       0.21740946 -0.10141722 0.010372008 0.08799569
000390 86 9f 11 3c 98 74 26 be 75 ab b4 bc 65 fd a1 3d
       0.008888131 -0.16255414 -0.022054413 0.07909659
0003a0 73 44 a9 3d ed e8 08 bd 76 e5 cd 3d 5e 75 ff 3d
       0.08265009 -0.03342526 0.10053532 0.12473558
0003b0 c7 a1 a5 3d 15 66 8c 3b 9e ec 03 3d 11 10 09 bc
       0.08087497 0.00428463 0.032208078 -0.008365647
0003c0 ae e2 0a bd 7d 62 7b bd b3 fd c1 bd 6d e1 8f bd
       -0.033907585 -0.061373223 -0.094722174 -0.070254184
0003d0 51 6a 44 3d 68 14 d8 bc cd 35 c6 bc 8d d3 21 3e
       0.047952954 -0.026376918 -0.024195576 0.15803356
0003e0 b6 c9 52 3d 65 c7 05 be 4d e7 b5 bc 50 bc 2f be
       0.051461898 -0.13064344 -0.02220502 -0.1716168
0003f0 2b 90 8d bd 64 d9 1c 3d fc 75 28 3e 44 50 86 bd
       -0.069122635 0.038293257 0.16451257 -0.06558278

network_body._body_endoder.seq_layers.2.bias f4 [128]
000000 00 00 00 00 00 00 00 00 00 00 00 00 00 00 00 00
       0.0 0.0 0.0 0.0
000010 00 00 00 00 00 00 00 00 00 00 00 00 00 00 00 00
       0.0 0.0 0.0 0.0
000020 00 00 00 00 00 00 00 00 00 00 00 00 00 00 00 00
       0.0 0.0 0.0 0.0
000030 00 00 00 00 00 00 00 00 00 00 00 00 00 00 00 00
       0.0 0.0 0.0 0.0
000040 00 00 00 00 00 00 00 00 00 00 00 00 00 00 00 00
       0.0 0.0 0.0 0.0
000050 00 00 00 00 00 00 00 00 00 00 00 00 00 00 00 00
       0.0 0.0 0.0 0.0
000060 00 00 00 00 00 00 00 00 00 00 00 00 00 00 00 00
       0.0 0.0 0.0 0.0
000070 00 00 00 00 00 00 00 00 00 00 00 00 00 00 00 00
       0.0 0.0 0.0 0.0
000080 00 00 00 00 00 00 00 00 00 00 00 00 00 00 00 00
       0.0 0.0 0.0 0.0
000090 00 00 00 00 00 00 00 00 00 00 00 00 00 00 00 00
       0.0 0.0 0.0 0.0
0000a0 00 00 00 00 00 00 00 00 00 00 00 00 00 00 00 00
       0.0 0.0 0.0 0.0
0000b0 00 00 00 00 00 00 00 00 00 00 00 00 00 00 00 00
       0.0 0.0 0.0 0.0
0000c0 00 00 00 00 00 00 00 00 00 00 00 00 00 00 00 00
       0.0 0.0 0.0 0.0
0000d0 00 00 00 00 00 00 00 00 00 00 00 00 00 00 00 00
       0.0 0.0 0.0 0.0
0000e0 00 00 00 00 00 00 00 00 00 00 00 00 00 00 00 00
       0.0 0.0 0.0 0.0
0000f0 00 00 00 00 00 00 00 00 00 00 00 00 00 00 00 00
       0.0 0.0 0.0 0.0
000100 00 00 00 00 00 00 00 00 00 00 00 00 00 00 00 00
       0.0 0.0 0.0 0.0
000110 00 00 00 00 00 00 00 00 00 00 00 00 00 00 00 00
       0.0 0.0 0.0 0.0
000120 00 00 00 00 00 00 00 00 00 00 00 00 00 00 00 00
       0.0 0.0 0.0 0.0
000130 00 00 00 00 00 00 00 00 00 00 00 00 00 00 00 00
       0.0 0.0 0.0 0.0
000140 00 00 00 00 00 00 00 00 00 00 00 00 00 00 00 00
       0.0 0.0 0.0 0.0
000150 00 00 00 00 00 00 00 00 00 00 00 00 00 00 00 00
       0.0 0.0 0.0 0.0
000160 00 00 00 00 00 00 00 00 00 00 00 00 00 00 00 00
       0.0 0.0 0.0 0.0
000170 00 00 00 00 00 00 00 00 00 00 00 00 00 00 00 00
       0.0 0.0 0.0 0.0
000180 00 00 00 00 00 00 00 00 00 00 00 00 00 00 00 00
       0.0 0.0 0.0 0.0
000190 00 00 00 00 00 00 00 00 00 00 00 00 00 00 00 00
       0.0 0.0 0.0 0.0
0001a0 00 00 00 00 00 00 00 00 00 00 00 00 00 00 00 00
       0.0 0.0 0.0 0.0
0001b0 00 00 00 00 00 00 00 00 00 00 00 00 00 00 00 00
       0.0 0.0 0.0 0.0
0001c0 00 00 00 00 00 00 00 00 00 00 00 00 00 00 00 00
       0.0 0.0 0.0 0.0
0001d0 00 00 00 00 00 00 00 00 00 00 00 00 00 00 00 00
       0.0 0.0 0.0 0.0
0001e0 00 00 00 00 00 00 00 00 00 00 00 00 00 00 00 00
       0.0 0.0 0.0 0.0
0001f0 00 00 00 00 00 00 00 00 00 00 00 00 00 00 00 00
       0.0 0.0 0.0 0.0

action_model._continuous_distribution.log_sigma f4 [1, 3]
000000 00 00 00 00 00 00 00 00 00 00 00 00
       0.0 0.0 0.0

action_model._continuous_distribution.mu.weight f4 [3, 128]
000000 fe 8e c9 bb 3c f4 b5 3c 65 9e 65 3c 3d 8e 89 bc
       -0.006151079 0.022211187 0.014014815 -0.016791457
000010 4f ff df bc 1a 05 06 3c a2 4f 36 3c 44 14 bc 3b
       -0.02734342 0.008179927 0.011127384 0.0057397205
000020 3a 68 b6 bc 03 fe 93 bc 18 15 d9 3c 80 7d cb bb
       -0.022266496 -0.018065458 0.026499316 -0.006210029
000030 3b 8e db 3c 73 c7 04 3c f8 60 a3 bc 8a 99 5e 3b
       0.02680122 0.008104193 -0.0199437 0.0033966028
000040 d0 be 5d bc 23 1c 7a 3c b1 c3 37 bb 53 d6 94 bb
       -0.013534263 0.015265497 -0.0028040225 -0.004542151
000050 93 2c e1 bb 0f ed 87 3c 68 06 d8 bb 37 f4 1e 3c
       -0.0068717687 0.01659253 -0.0065925606 0.00970178
000060 3f 9e 6f 3b 9b 7d cc 3c 43 0b 96 bc 1e 04 3c 3c
       0.0036562828 0.024962237 -0.018315917 0.011475591
000070 d0 5b 5b bc 78 4c 72 3c 21 da 85 ba 72 be 55 3c
       -0.013388589 0.014788739 -0.0010212102 0.013045894
000080 50 af cd bb b3 ae c5 ba 9f 67 8e bc 57 65 41 bd
       -0.0062770024 -0.0015081972 -0.017383395 -0.047215786
000090 15 8d ed bb ba 12 43 bd fb 68 b2 bc 14 72 9b 3c
       -0.0072494843 -0.04762528 -0.021778574 0.018975295
0000a0 b2 86 64 bc cf 99 0a b8 57 57 84 3b 6a 1a 98 3c
       -0.0139481295 -3.304501e-05 0.004038732 0.018567283
0000b0 2c aa a2 bc 7f ca 01 bc b5 44 f3 3c 08 ba 29 3c
       -0.019856535 -0.007921814 0.029695848 0.010359295
0000c0 87 a7 a1 3c f0 5a d2 bc 17 b0 00 3d ef 28 0b 3c
       0.019733204 -0.025678128 0.031417932 0.008493646
0000d0 3b ee 8f bb 3b e2 a7 3b 99 68 4b 3b 02 a5 67 bb
       -0.004392413 0.0051234043 0.0031037687 -0.0035346155
0000e0 78 6a bf 3c d2 5e 79 bc ef be 57 3b 93 2c 90 bb
       0.023366198 -0.015220361 0.0032920202 -0.004399845
0000f0 df ca d5 bb be 37 8c 3c 02 2c 78 bc 52 7c aa bb
       -0.0065244283 0.017116424 -0.015147211 -0.0052028084
000100 8c 54 c9 bc 3b c0 bc ba aa 35 e5 b9 a3 83 12 ba
       -0.024576448 -0.0014400551 -0.00043718267 -0.00055890734
000110 23 12 66 3c 96 1c 3c bc 58 6f 75 bc 33 51 5b bc
       0.01404241 -0.011481425 -0.01498016 -0.013386059
000120 12 cc fe bb 63 30 63 3c d0 9b 97 bc 82 4b 9b bc
       -0.007775792 0.013866517 -0.018506914 -0.018956903
000130 ac 65 31 3c 0e 2d 12 3c 73 40 4f 3c 6f 74 14 bd
       0.010827463 0.008921875 0.012649643 -0.036243852
000140 41 fb b0 bc 74 ce bf bc 10 f8 f7 bb f5 b3 58 bc
       -0.021604182 -0.023413874 -0.007567413 -0.013226499
000150 a8 5d 2b bd 71 d5 86 bc 05 19 08 bd ab f7 1f 3b
       -0.041837364 -0.016459199 -0.033226985 0.0024409096
000160 17 67 71 3b 4f 03 02 bc 0e 89 c1 3b 30 f0 6a 3c
       0.0036835128 -0.007935359 0.005906231 0.014339492
000170 9a ad 0a 38 43 5b 51 bc ea c1 ff bb 4a dc 3d bc
       3.3063443e-05 -0.012778106 -0.007805099 -0.011588166
000180 65 74 26 bc 7b aa 13 3c 35 a8 de 3a ec 0d 3a bb
       -0.010159587 0.009012814 0.0016987385 -0.0028389646
000190 90 27 31 bc 1f c3 ad 3c af 47 47 3d 80 10 6e bc
       -0.010812655 0.021211205 0.048652347 -0.014530301
0001a0 d2 53 49 bc 85 f1 8c bc a0 5f ae 3c ed 81 8e bc
       -0.012288051 -0.01720501 0.021285832 -0.017395938
0001b0 22 64 9d 3c 56 a7 06 bc 9b 57 60 bc b3 85 af bb
       0.019212786 -0.008218607 -0.013692762 -0.0053565144
0001c0 53 8d df bc df 6b e3 bc 4f e5 b5 bb 40 6d e4 bc
       -0.027289068 -0.027761398 -0.0055510174 -0.027884126
0001d0 6b 70 01 bb 22 41 b3 3c ef df d7 3b 67 4b 6a 3c
       -0.0019750844 0.021881644 0.0065879743 0.014300204
0001e0 ef 2f e2 3a 31 82 b5 3c 62 9d 9c bc 73 cf f6 bc
       0.0017256717 0.022156807 -0.019118015 -0.030128216
0001f0 a6 33 8e bc 82 fc 4a bc 0f 14 66 bc 67 46 a7 3c
       -0.017358612 -0.012389304 -0.014042868 0.020419313
000200 57 67 fd bb 20 a2 ed bb d2 87 e5 bb f6 58 a8 3c
       -0.0077332663 -0.007251993 -0.0070047164 0.020550232
000210 ad 58 89 bb d7 5f ab bc 15 1c 14 bb 97 87 96 bb
       -0.004191479 -0.020919723 -0.0022599746 -0.0045938003
000220 e5 1a 11 3d fc 10 c2 bc 5b 43 0a 3d b7 5c a6 bc
       0.03542604 -0.02368974 0.03375564 -0.020307882
000230 ca 4a ce 3c d3 9f ab bc 83 af ec ba 64 cd cb 3c
       0.025182147 -0.020950234 -0.0018057678 0.024878211
000240 3a ba ba 3b 25 47 d4 3b c1 f2 3f bd 03 5f 81 bc
       0.0056984695 0.0064782077 -0.046862368 -0.015792375
000250 ea c0 68 3c 57 3c 88 bb 1b ed fa bb ad 5d ca 3c
       0.014206151 -0.0041575837 -0.0076576597 0.024702871
000260 2b 5d 49 bc 10 33 35 3c 0f bb dc bb e9 04 31 3c
       -0.012290279 0.0110595375 -0.0067361663 0.010804393
000270 30 e8 5d bc f0 d5 33 bc fa 1d e9 3b 21 61 2b 3c
       -0.013544127 -0.0109763 0.007114169 0.010460169
000280 cb ea cd 3c 07 c5 66 3c 7f 5f c7 bc 02 72 c5 bc
       0.025136372 0.014085061 -0.024337528 -0.024102215
000290 d0 8c 44 bc 33 fa 51 bc 6f f9 cb bc 6f 81 b6 bc
       -0.011996463 -0.012816 -0.024899213 -0.022278516
0002a0 c2 fe 91 3c 0e 4b 22 3c e5 7b 6b 3b 5b e9 ac 3c
       0.017821673 0.00990559 0.0035932001 0.021107366
0002b0 d1 4c b4 3c 06 a4 3c 3a 8b 07 a3 bc 2a 15 7f 3c
       0.022009285 0.0007196072 -0.019901058 0.015569011
0002c0 dd 47 f9 3c db 27 cc bb cb 1b a3 bc ab e0 1a bc
       0.030429775 -0.006230337 -0.019910714 -0.009452979
0002d0 9b 62 ea 3c df 7e 94 39 bd 47 9e 3c 17 07 2b 3d
       0.028611472 0.00028323286 0.019321317 0.04175481
0002e0 83 c5 a0 3c 2d 2d cd 3c f6 08 27 bb 65 fa 11 bb
       0.01962543 0.025045956 -0.002548752 -0.002227449
0002f0 aa 85 48 bc 39 72 80 3b a7 2b a9 bc 8d ae 65 3c
       -0.012238899 0.0039198664 -0.020650698 0.014018667
000300 07 7b 25 bc 6c 35 2f bc 48 c3 1a 3d 31 80 17 3c
       -0.010100133 -0.010693889 0.03778389 0.009246872
000310 10 3e 7a 3c fa 0d 65 bc 94 7b 20 3c 7f fb f9 3c
       0.015273586 -0.013980383 0.009795088 0.03051543
000320 c3 75 5a 3c 40 b7 7c 3c b5 13 5c bc 63 b0 e7 3c
       0.013333741 0.01542455 -0.013432433 0.02828235
000330 aa 89 a1 bc 58 69 ee 3c 7c 82 ae bb e3 e1 5d 3c
       -0.019718964 0.029102966 -0.0053256135 0.013542625
000340 47 9b 08 bc ed 32 43 bc 65 5c c9 3a 39 08 b1 bc
       -0.008337802 -0.011913997 0.0015362619 -0.021610366
000350 1e f2 8b bc f8 0d c9 bb 02 9c 6a 3b af 53 25 bc
       -0.017083224 -0.0061356984 0.0035798554 -0.0100907525
000360 68 71 29 bc 6f 63 3d bb 60 a3 74 b8 e8 d3 10 3d
       -0.01034198 -0.0028898378 -5.8326288e-05 0.03535834
000370 ec f2 29 bb a5 44 3e bc b1 0f 81 3b ea 12 b8 bc
       -0.0025932146 -0.011613046 0.003938638 -0.022469956
000380 4b eb 1d bc 78 93 f6 3b 30 19 b3 39 e0 b1 3d 3c
       -0.009638618 0.007524904 0.00034160307 0.011578053
000390 0b 33 97 3b 25 b1 9f bb 55 56 be bc 43 6f 68 bc
       0.004614239 -0.004873412 -0.023234526 -0.014186683
0003a0 ea ca 58 3c 91 ff be 39 c3 50 94 3c 0d 19 6c bb
       0.013231972 0.00036430036 0.018104916 -0.0036025674
0003b0 00 be 9a 3c 4a 24 46 3d 28 65 72 bc 18 cc e7 bc
       0.018889427 0.04837445 -0.014794625 -0.028295562
0003c0 09 81 c4 3c 2a 02 0b 3d 7d 0d fb bc 0a e7 16 bb
       0.02398731 0.03393761 -0.03064608 -0.0023025894
0003d0 b9 88 37 bc 7a 38 72 bc 33 c5 e1 3b 63 bd 61 bc
       -0.011202031 -0.014783973 0.006889963 -0.0137780635
0003e0 62 8d 7d bc 87 d2 ef bb 8f 78 31 3c 4f ff 97 bb
       -0.015475603 -0.007318798 0.010831966 -0.0046385895
0003f0 e7 2f 44 3c f3 27 a0 bc 39 0d 87 bb 00 b0 cc bb
       0.011974311 -0.0195503 -0.0041214493 -0.006246567

action_model._continuous_distribution.mu.bias f4 [3]
000000 00 00 00 00 00 00 00 00 00 00 00 00
       0.0 0.0 0.0

network_body._body_endoder.seq_layers.0.weight f4 [128, 132]
000000 51 93 03 bd bd f7 56 3d 96 9a 83 bc a2 0e 64 3d
       -0.032122914 0.052482355 -0.016064923 0.055678017
000010 1b ae 95 3d d5 6b 5b bd 1f a1 ad 3d 3f 98 c1 bc
       0.073085986 -0.053569634 0.08477997 -0.023632167
000020 ff 8b 0a 3e 5d a0 99 bd c4 c6 ee bd a1 59 12 be
       0.13529967 -0.0750129 -0.11659005 -0.14292003
000030 b4 00 8a bd 9b 81 fd bd 69 a5 87 bd ab f3 28 bd
       -0.06738415 -0.12378236 -0.06623346 -0.041248005
000040 f0 58 86 bd e8 d8 d9 bd f8 10 a1 3c fa 28 6c be
       -0.06559932 -0.10637075 0.019661412 -0.23062506
000050 a2 80 8e 3d 1b eb ae 3d c6 13 6d bd 82 67 97 3d
       0.069581285 0.085409366 -0.057880186 0.073927894
000060 fe 33 85 3d 49 b4 9f bd 3b ec 83 bc c2 25 4c be
       0.06504057 -0.077980585 -0.016103854 -0.19936278
000070 ce 60 ed bd d7 56 24 3c ca ee c9 3c 4d f9 d0 3d
       -0.1159073 0.01003047 0.024649996 0.102038
000080 ec 8a 5c bd 84 ac 67 3d f9 bf e0 3d c6 df a3 bd
       -0.053843424 0.056561008 0.10974116 -0.08001666
000090 6a b0 fe 3c 8c e5 e5 bd 35 64 8e bd 2f 16 75 bd
       0.03108998 -0.11225423 -0.06952707 -0.05983561
0000a0 55 b6 00 3e 7c 29 05 bd 90 4d ba 3d 98 31 9d 3d
       0.12569554 -0.032510266 0.09096825 0.07675475
0000b0 4e 46 41 bd 53 fd 27 be ee 9d 22 3d ce b9 89 3d
       -0.04718619 -0.1640523 0.039701395 0.067248926
0000c0 79 7d 81 bc ed 71 5a 3d b9 5e a7 3c 34 b9 05 3e
       -0.0158069 0.053331304 0.02043091 0.1305893
0000d0 dd 9b 48 bd b5 a5 c3 bc f4 ef 67 3e 11 95 91 3d
       -0.048976768 -0.023882726 0.22650129 0.0710851
0000e0 e6 10 2f bd b1 e7 0b 3d f9 92 9c 3c 97 89 4c 3d
       -0.042740725 0.034156505 0.01911305 0.049935903
0000f0 68 6e 39 3e eb 60 d4 bd b4 7c 16 be e7 92 a6 3d
       0.18108523 -0.10370048 -0.14696008 0.08133488
000100 1b 3e d4 bd 9a 2e 76 bb c8 01 1c 3d c7 2f 1f bd
       -0.10363408 -0.0037564398 0.038087636 -0.038863923
000110 f5 5e 3b 3d 70 ae 9c bd de 4d 7c bc b5 fe ad 3d
       0.045744855 -0.07650459 -0.015399424 0.08495847
000120 28 ba 82 3d e5 53 00 be c2 1e ee 3c 1b d2 bd bd
       0.06383163 -0.12532003 0.0290674 -0.0926859
000130 6f e4 2e 3d 77 1d c7 bc 69 e5 10 3c 02 b9 3e 3d
       0.04269832 -0.024306042 0.008843758 0.046563156
000140 61 87 1d bb 5a 32 a1 bd 52 e1 f9 3c 8a 86 11 3d
       -0.002403699 -0.07870932 0.030502949 0.035528697
000150 b2 f7 99 3d 42 3d 42 3c 93 32 cc bd b8 6c 79 bd
       0.07517947 0.011855425 -0.09970584 -0.060894698
000160 48 10 6d bd 2a 9b d9 bd f4 45 3c bd 68 fb 9c 3d
       -0.057876855 -0.10625298 -0.04596515 0.076651394
000170 74 fd 1a bd 69 ac 63 bd ad aa 18 be 38 36 4f bd
       -0.037839368 -0.055584345 -0.14908858 -0.050588816
000180 d9 1e 8d 3c 7f 99 aa bd e9 5a fb bc 2c 25 1c 3e
       0.017226623 -0.08330058 -0.030682998 0.15248555
000190 3b e1 31 bd 50 e4 36 be d5 b8 00 bd 55 a6 4c bd
       -0.043427687 -0.17860532 -0.03142627 -0.049963314
0001a0 1e 5f 23 3d 67 47 a3 3c ef c0 8b bd f5 ed 29 be
       0.039885633 0.019931508 -0.068239085 -0.1659468
0001b0 f8 53 72 bc 76 72 a3 3d b9 9d 24 3d 8f a3 ab bd
       -0.0147905275 0.07980816 0.04018948 -0.08380806
0001c0 75 b1 88 3d 41 a1 da bd ee ca e6 bc 52 eb 51 be
       0.06674472 -0.10675288 -0.028172936 -0.20499924
0001d0 77 47 06 bd 26 46 ce 3d 19 a7 f8 bd 74 37 1d be
       -0.032782998 0.100719735 -0.12141246 -0.15353185
0001e0 21 6b 34 3c d1 24 2b 3d d6 02 2d 3c f3 e5 9e 3c
       0.01101187 0.041783158 0.010559758 0.019396758
0001f0 27 5c 99 3c 1d 04 c7 3d ae 6c a9 bc 80 03 f5 bc
       0.0187207 0.097175814 -0.020681705 -0.029908895
000200 8e 2c 42 bd 1d f1 16 be c8 ca 37 3b 05 17 5a 3e
       -0.047405772 -0.14740415 0.002804445 0.21297844
000210 8f 6a 1e bc 60 00 2a 3d 1e 23 c7 bc c6 95 c5 bd
       -0.00966896 0.041504264 -0.024308737 -0.09647708
000220 1c 14 24 ba 88 9f e9 bd d4 b8 ab 3d 34 f4 39 bd
       -0.00062591 -0.11407381 0.083848625 -0.045398906
000230 96 4b 03 be c5 bb 1e 3e 1e 48 e4 bd a7 6d 1b bd
       -0.12821802 0.15501316 -0.11146568 -0.03794637
000240 00 70 04 bd 61 ca 14 be e9 7c 89 bd 71 cf 9d bd
       -0.032333374 -0.14530326 -0.06713278 -0.07705582
000250 9d 92 20 be 42 69 33 bd 33 df 1e 3e f8 c3 e2 bd
       -0.15680929 -0.043801554 0.15514831 -0.11072534
000260 dc df 86 3a b3 32 3d 3d a0 d6 8b 3c 0f 4a 39 3c
       0.0010290104 0.04619093 0.017070115 0.011309161
000270 75 46 9f 3b f7 41 34 3d 48 8c 94 bd bd 68 fb 3d
       0.004860694 0.04400822 -0.07253319 0.122758366
000280 4c 9f de bd d6 b2 28 be ae db eb 3d 22 b7 6a bd
       -0.10870227 -0.1647447 0.1151651 -0.057303555
000290 4e 85 89 be 7d a5 a5 bc 2f a1 90 3d f1 2c ba 3c
       -0.26859516 -0.020220513 0.07061993 0.022726508
0002a0 4d da f9 bc 1b 2b 83 bd f7 8e 88 bd c4 ed 3b bd
       -0.030499602 -0.06404706 -0.066678934 -0.045881048
0002b0 cc ad b5 bc 5f 06 0d bd 26 d0 ac 3c e5 f8 b9 bc
       -0.0221776 -0.034429904 0.021095347 -0.02270169
0002c0 d0 a4 00 bd a9 6b 42 3d 0f 50 46 3c 95 df e1 3d
       -0.031407177 0.047465954 0.012104048 0.11028973
0002d0 55 bd b8 bb bf 14 33 be 74 8c e4 3d 1e 19 c5 3c
       -0.0056378045 -0.17488383 0.11159602 0.024059828
0002e0 25 73 04 be 37 6a 17 bd dc ea 7a 3c 03 23 0b be
       -0.12934549 -0.03696653 0.015314784 -0.13587575
0002f0 65 32 a1 3d 23 92 e2 bd f8 ec fc 3c dc 97 4b 3d
       0.0787094 -0.110630296 0.030874714 0.04970537
000300 a7 85 09 bd 5f bc 83 3c e4 8c 52 3e 8d 13 7a 3d
       -0.033574726 0.016081033 0.20561558 0.0610538
000310 c6 34 91 3d b3 64 ce 3d bd 59 2d 3b 13 98 61 3c
       0.07090144 0.100778006 0.0026451193 0.0137691675
000320 a1 40 b0 3d 6c ed 5a bd 5c bb 3b 3d ef 42 e1 bc
       0.08606077 -0.05344908 0.045832977 -0.027497737
000330 5f db 9f ba b4 8b 38 3d 26 87 44 bd 0a c2 de bc
       -0.0012196115 0.045055106 -0.04798045 -0.027192134
000340 78 e0 54 bc c4 15 31 3d bb 72 bc 3d 6d ef 6e 3d
       -0.012992971 0.043233648 0.092015706 0.058333803
000350 b8 58 ba 3c 61 71 25 3e 41 a1 9d 3d b7 bc c3 3d
       0.022747383 0.16156532 0.07696772 0.09557479
000360 47 ad a7 bd bc 68 b2 3b 96 c2 4e bd 77 82 eb bd
       -0.08187347 0.005444614 -0.05047854 -0.114994936
000370 8a 91 44 bb 20 35 22 3d f0 fa bb 3c f7 1b ef bc
       -0.0029993975 0.039601445 0.022946805 -0.02918814
000380 c6 59 d9 bc 76 be 67 bd b6 3f 38 be f7 64 1a 3d
       -0.026532065 -0.056578122 -0.17993054 0.037693944
000390 58 a4 0f 3e 14 8d 1e 3d 3a f1 f8 b9 6a 0d 09 bd
       0.14027536 0.03870876 -0.00047481974 -0.03346006
0003a0 98 67 09 be 31 f9 15 3d b9 f9 b5 3d 56 2c 12 be
       -0.13418424 0.0366146 0.088855214 -0.14274725
0003b0 17 24 4b bd 18 05 95 3d 9b cd 8e 3d 6f 93 e1 3c
       -0.049594965 0.07276362 0.0697281 0.027536122
0003c0 14 61 58 3d 35 68 bf bc 26 f4 dc bd d1 07 00 bd
       0.052826956 -0.02336512 -0.10788755 -0.031257454
0003d0 a9 c6 aa bc e9 f2 b1 bd 60 78 dd 3c 71 34 9c 3d
       -0.020846682 -0.086889096 0.027034938 0.0762719
0003e0 58 5d 2a bb 1c 09 f5 3c 2b 7d e3 3b 40 57 b1 3c
       -0.0025995579 0.02991157 0.0069424114 0.02164805
0003f0 f6 32 c1 bd ce af b0 bd 11 94 22 3d 6e 8f b1 3d
       -0.09433548 -0.08627282 0.03969199 0.08669935

network_body._body_endoder.seq_layers.0.bias f4 [128]
000000 00 00 00 00 00 00 00 00 00 00 00 00 00 00 00 00
       0.0 0.0 0.0 0.0
000010 00 00 00 00 00 00 00 00 00 00 00 00 00 00 00 00
       0.0 0.0 0.0 0.0
000020 00 00 00 00 00 00 00 00 00 00 00 00 00 00 00 00
       0.0 0.0 0.0 0.0
000030 00 00 00 00 00 00 00 00 00 00 00 00 00 00 00 00
       0.0 0.0 0.0 0.0
000040 00 00 00 00 00 00 00 00 00 00 00 00 00 00 00 00
       0.0 0.0 0.0 0.0
000050 00 00 00 00 00 00 00 00 00 00 00 00 00 00 00 00
       0.0 0.0 0.0 0.0
000060 00 00 00 00 00 00 00 00 00 00 00 00 00 00 00 00
       0.0 0.0 0.0 0.0
000070 00 00 00 00 00 00 00 00 00 00 00 00 00 00 00 00
       0.0 0.0 0.0 0.0
000080 00 00 00 00 00 00 00 00 00 00 00 00 00 00 00 00
       0.0 0.0 0.0 0.0
000090 00 00 00 00 00 00 00 00 00 00 00 00 00 00 00 00
       0.0 0.0 0.0 0.0
0000a0 00 00 00 00 00 00 00 00 00 00 00 00 00 00 00 00
       0.0 0.0 0.0 0.0
0000b0 00 00 00 00 00 00 00 00 00 00 00 00 00 00 00 00
       0.0 0.0 0.0 0.0
0000c0 00 00 00 00 00 00 00 00 00 00 00 00 00 00 00 00
       0.0 0.0 0.0 0.0
0000d0 00 00 00 00 00 00 00 00 00 00 00 00 00 00 00 00
       0.0 0.0 0.0 0.0
0000e0 00 00 00 00 00 00 00 00 00 00 00 00 00 00 00 00
       0.0 0.0 0.0 0.0
0000f0 00 00 00 00 00 00 00 00 00 00 00 00 00 00 00 00
       0.0 0.0 0.0 0.0
000100 00 00 00 00 00 00 00 00 00 00 00 00 00 00 00 00
       0.0 0.0 0.0 0.0
000110 00 00 00 00 00 00 00 00 00 00 00 00 00 00 00 00
       0.0 0.0 0.0 0.0
000120 00 00 00 00 00 00 00 00 00 00 00 00 00 00 00 00
       0.0 0.0 0.0 0.0
000130 00 00 00 00 00 00 00 00 00 00 00 00 00 00 00 00
       0.0 0.0 0.0 0.0
000140 00 00 00 00 00 00 00 00 00 00 00 00 00 00 00 00
       0.0 0.0 0.0 0.0
000150 00 00 00 00 00 00 00 00 00 00 00 00 00 00 00 00
       0.0 0.0 0.0 0.0
000160 00 00 00 00 00 00 00 00 00 00 00 00 00 00 00 00
       0.0 0.0 0.0 0.0
000170 00 00 00 00 00 00 00 00 00 00 00 00 00 00 00 00
       0.0 0.0 0.0 0.0
000180 00 00 00 00 00 00 00 00 00 00 00 00 00 00 00 00
       0.0 0.0 0.0 0.0
000190 00 00 00 00 00 00 00 00 00 00 00 00 00 00 00 00
       0.0 0.0 0.0 0.0
0001a0 00 00 00 00 00 00 00 00 00 00 00 00 00 00 00 00
       0.0 0.0 0.0 0.0
0001b0 00 00 00 00 00 00 00 00 00 00 00 00 00 00 00 00
       0.0 0.0 0.0 0.0
0001c0 00 00 00 00 00 00 00 00 00 00 00 00 00 00 00 00
       0.0 0.0 0.0 0.0
0001d0 00 00 00 00 00 00 00 00 00 00 00 00 00 00 00 00
       0.0 0.0 0.0 0.0
0001e0 00 00 00 00 00 00 00 00 00 00 00 00 00 00 00 00
       0.0 0.0 0.0 0.0
0001f0 00 00 00 00 00 00 00 00 00 00 00 00 00 00 00 00
       0.0 0.0 0.0 0.0

network_body._body_endoder.seq_layers.2.weight f4 [128, 128]
000000 e6 04 81 bc 25 4a 8e 3e c8 ac 01 bd 1c 69 e1 bd
       -0.015749406 0.27790943 -0.031658918 -0.11006376
000010 02 7f e3 bc db b4 66 3e a0 2c ba 3d 57 4a 0c bd
       -0.027770523 0.22529928 0.09090543 -0.034250583
000020 c3 72 d0 bd 0c b5 2e 3d 09 b5 31 bd 58 a5 eb 3c
       -0.10178139 0.04265313 -0.04338554 0.028765365
000030 2f 18 fb 3d 75 b2 98 ba fe 2f 2b bc 57 cc 81 3d
       0.12260472 -0.0011649864 -0.010448454 0.06337803
000040 36 8f 71 be 10 d0 8a bd fa 5a 9e 3c e4 ba 70 bd
       -0.23589787 -0.06777966 0.01933049 -0.058771983
000050 6e b7 40 3d 70 3a 57 3b a0 fd 92 bd a7 b8 80 bd
       0.047049932 0.0032841228 -0.071772814 -0.0628522
000060 49 b2 60 3e ee 4e 9c bd 68 ba ce 3d 47 0f e9 3d
       0.2194301 -0.07632242 0.10094148 0.11379867
000070 b1 54 da bd d6 76 5c bd 13 c2 10 3d 7c 58 f7 3c
       -0.10660685 -0.05382427 0.035341334 0.03019356
000080 bc 57 b3 bc 4b 69 7b 3d 84 83 05 be ca 06 14 be
       -0.021892421 0.061379712 -0.1303845 -0.14455715
000090 ed 16 f9 3d 76 85 32 3e b6 79 95 3d d8 25 ab 3b
       0.12162576 0.17433724 0.07298605 0.005223017
0000a0 ec bb fd ba 44 bb 18 3d 4b dc 02 bd 81 59 5b 3d
       -0.0019358373 0.037287965 -0.03194837 0.053552154
0000b0 06 dc fa 3c 01 53 5f 3e 9a 94 60 bb 71 36 dd 3d
       0.030622493 0.21809007 -0.003426826 0.108013995
0000c0 9c c0 02 be a9 d0 a5 bc 22 f1 7f bd 57 93 87 bc
       -0.12768787 -0.020241098 -0.06248582 -0.01654975
0000d0 86 2d d9 3d f4 fa b1 bc fc 5c 10 3e 77 6d ae 3c
       0.10604386 -0.02172611 0.1409797 0.021292431
0000e0 f0 39 43 bd 9d 85 51 3d 48 3e 1c 3d b3 af 86 3c
       -0.047662675 0.051152814 0.038145334 0.016441202
0000f0 89 de 0e bc 7c 4c b5 bc a3 dc 86 bd 69 6f 54 bd
       -0.008720049 -0.022131197 -0.06585052 -0.05186406
000100 0b 97 38 3e 4b 2e 64 3d cc 29 f9 3d dc 2e 00 bc
       0.18026368 0.05570821 0.12166175 -0.007823672
000110 18 36 09 bd 71 98 fe bd 46 ca ad bc 69 e8 2d 3d
       -0.033498853 -0.1243142 -0.021214616 0.04245797
000120 b4 87 27 bc 60 a5 3f 3d 86 c4 34 bc bc 60 a5 3d
       -0.010225225 0.046788573 -0.011033183 0.08075091
000130 ab 3b bf 3b 5a 65 f2 3d c0 88 44 bd 4a 5b 20 3e
       0.0058359704 0.118357375 -0.047981977 0.15659824
000140 05 eb 94 bd c4 f4 2c 3e 51 9c 79 bd 16 7a a3 bd
       -0.07271389 0.16890246 -0.06094009 -0.079822704
000150 26 b3 66 bd f3 3e 08 3c ba 51 f0 3c ac 73 a1 3d
       -0.056323193 0.0083157895 0.029335845 0.07883391
000160 39 07 93 bd 65 0b 54 3c 67 6c f0 3b 19 ed f8 3d
       -0.07179112 0.01294217 0.0073371413 0.12154598
000170 fb 1a 37 bd 5c d9 b4 bd 25 59 5f bd 6c e1 21 3d
       -0.044703465 -0.088305205 -0.054528374 0.03952162
000180 d6 f6 70 3d c3 44 3c be e5 cc 6d 3d 9d ec a9 bd
       0.05882915 -0.18385606 0.05805673 -0.082970835
000190 31 41 02 be 5f 6b 84 bc 09 fa 66 bd 81 07 67 3d
       -0.12720181 -0.01616448 -0.056390796 0.05640364
0001a0 ce ad 92 3d f3 4a ca bd 91 15 3c 3e 2d 1f c1 3d
       0.07162057 -0.09877577 0.18367602 0.094297744
0001b0 b0 67 87 3d 51 15 d3 3d 23 f2 15 3b 1a 0e 99 bc
       0.06611574 0.103068 0.002287992 -0.018683482
0001c0 cb a7 6d 3d ae 7e 5c bb c8 29 53 3d ad d6 1b bc
       0.058021348 -0.0033644843 0.051553518 -0.009511632
0001d0 eb 3c 33 3e 3a 37 3c be 1c 1b b8 bd 58 13 0a 3d
       0.17503707 -0.18380442 -0.08989546 0.033709854
0001e0 85 d9 12 bd c6 39 bc 3c 09 ab 33 be 42 39 30 3e
       -0.035851974 0.022976767 -0.17545713 0.17209342
0001f0 8f 41 6d 3d 43 d8 05 be dc b6 f1 3b 90 ef 12 3e
       0.05792385 -0.13070779 0.007376535 0.14349198
000200 74 4e b3 3d 4f c6 2a bd aa f5 36 bd a6 fb 33 be
       0.08755198 -0.041693028 -0.044667877 -0.17576465
000210 b9 b4 b1 3c 57 78 dc 3c fd c7 11 bd 7c 84 61 bc
       0.02169262 0.026912851 -0.035591114 -0.013764497
000220 18 ef 0d 3c a7 51 86 3d 1b 7b c4 bd da 15 d8 3d
       0.008662961 0.06558543 -0.09593793 0.10551043
000230 3f ef 94 bd 19 91 19 be de da 56 3e 7c e6 e7 bc
       -0.07272195 -0.14996757 0.20981929 -0.028308146
000240 af e1 d3 bd 8e c7 d2 bc d5 1f 0f be dd 8b 87 3d
       -0.1034578 -0.02572992 -0.13976987 0.06618474
000250 ec 72 8c 3d 3a ad aa 3c 21 93 4b 3d d3 c2 a9 bd
       0.06857857 0.020834554 0.04970086 -0.08289113
000260 e0 db c7 bb 8e 65 af 3b eb 61 62 bc ab d2 6e 3d
       -0.006099209 0.0053526824 -0.013817291 0.058306377
000270 b4 e7 0f 3e d6 73 85 bd 19 bc df 3d a8 5b 15 3c
       0.14053231 -0.065162346 0.10924549 0.009116091
000280 b0 2c 1c bc 3a 8c 35 bd 15 70 f2 bd 81 5d e4 bd
       -0.009532139 -0.044323184 -0.11837784 -0.11150647
000290 6e 11 0e bd 52 7d c4 3c 07 4b 1e 3c 8b fe f7 bc
       -0.03468459 0.023985539 0.009661443 -0.030272743
0002a0 a5 d8 76 bd 25 c3 a6 bc 47 f7 3a bc 4a df a0 3b
       -0.060265202 -0.020356724 -0.011411495 0.0049094306
0002b0 d1 85 9b bd e1 a9 b0 bc 92 0f a5 3d c6 6a 32 bb
       -0.07593883 -0.02156538 0.080596104 -0.0027224286
0002c0 fe aa 02 be b5 80 24 be c8 3b 16 be 65 bf 52 bc
       -0.12760541 -0.16064723 -0.14671242 -0.012863015
0002d0 8e 20 62 3d 50 2a bc bd c2 67 19 bd dc 96 25 3e
       0.055206828 -0.09187758 -0.037452467 0.1617083
0002e0 ef 4b d3 bd 23 95 b5 3d 44 c3 d7 bd f7 bc 30 3c
       -0.103172176 0.08866336 -0.10535291 0.01078724
0002f0 8d 88 86 bd 6b 4a e1 3d d8 60 47 bd 8a ad 85 bb
       -0.06569014 0.11000522 -0.04867634 -0.0040795254
000300 13 e3 2c 3c cb 36 41 3d c5 60 64 3a ec 22 00 bd
       0.010552186 0.047171395 0.00087119295 -0.031283304
000310 be 90 be 3d 1b 08 97 3b 6a c5 56 bd 96 a8 3e be
       0.09304951 0.0046091205 -0.052434362 -0.18618998
000320 b9 39 64 3d 5b 28 8b 3d 67 6d c4 3c 1a f5 f5 bb
       0.05571911 0.067948066 0.023977948 -0.007506025
000330 a2 ec 54 3d 41 75 17 3e 7c cc 7b bd b2 2a f3 3c
       0.051983483 0.14790823 -0.06147431 0.029683445
000340 68 91 e4 bd 2c ae 12 be 0c 23 b4 bb 3a 3d 3d 3d
       -0.111605465 -0.14324254 -0.005497342 0.04620097
000350 61 87 72 be 4d c0 9d bd ef 5a b0 bd 8d 40 0a bd
       -0.23684455 -0.07702694 -0.08611094 -0.033752967
000360 48 43 ae bc 04 55 e3 3d 9b 2c 7f bd 08 f6 e3 bd
       -0.021272317 0.111002 -0.0622984 -0.11130911
000370 ee 81 12 bd e8 35 e4 bd 70 2b b3 bd 9f 67 13 bd
       -0.03576844 -0.11143094 -0.087485194 -0.035987493
000380 6b 22 3c 3e 3b 02 c7 bd ea ec 9d bd af 10 08 be
       0.18372504 -0.09717222 -0.077112034 -0.13287614
000390 bd c6 87 bc 1b 91 08 3e 8d 9a 03 bd b2 39 79 be
       -0.016574258 0.13336603 -0.032129813 -0.24338415
0003a0 0c eb e6 bc 0f 3e 17 3e 81 a1 1b 3c 53 be ff bb
       -0.028188251 0.14769767 0.009498955 -0.007804671
0003b0 d9 7c e1 3d e5 3d 3c 3d 3a 36 53 3d ea c3 4e 3e
       0.11010141 0.045957465 0.051565386 0.20191923
0003c0 79 74 c1 3d 06 90 32 3d b5 4e 0f 3d 19 71 8a bd
       0.094460435 0.043594383 0.03498717 -0.06759853
0003d0 74 dd 3a bd 20 dd 0f be a2 96 3e bd ea 5e 50 3c
       -0.04562135 -0.14049196 -0.046530373 0.012717942
0003e0 2e 05 b6 3d cb 8e 61 3d e6 b6 93 3c 90 1a 1d be
       0.08887707 0.05506782 0.018031549 -0.15342164
0003f0 61 08 49 bc c3 8a ef 3d 9a be bf 3d d3 19 6d bc
       -0.012270064 0.116963886 0.09362526 -0.014471489

network_body._body_endoder.seq_layers.2.bias f4 [128]
000000 00 00 00 00 00 00 00 00 00 00 00 00 00 00 00 00
       0.0 0.0 0.0 0.0
000010 00 00 00 00 00 00 00 00 00 00 00 00 00 00 00 00
       0.0 0.0 0.0 0.0
000020 00 00 00 00 00 00 00 00 00 00 00 00 00 00 00 00
       0.0 0.0 0.0 0.0
000030 00 00 00 00 00 00 00 00 00 00 00 00 00 00 00 00
       0.0 0.0 0.0 0.0
000040 00 00 00 00 00 00 00 00 00 00 00 00 00 00 00 00
       0.0 0.0 0.0 0.0
000050 00 00 00 00 00 00 00 00 00 00 00 00 00 00 00 00
       0.0 0.0 0.0 0.0
000060 00 00 00 00 00 00 00 00 00 00 00 00 00 00 00 00
       0.0 0.0 0.0 0.0
000070 00 00 00 00 00 00 00 00 00 00 00 00 00 00 00 00
       0.0 0.0 0.0 0.0
000080 00 00 00 00 00 00 00 00 00 00 00 00 00 00 00 00
       0.0 0.0 0.0 0.0
000090 00 00 00 00 00 00 00 00 00 00 00 00 00 00 00 00
       0.0 0.0 0.0 0.0
0000a0 00 00 00 00 00 00 00 00 00 00 00 00 00 00 00 00
       0.0 0.0 0.0 0.0
0000b0 00 00 00 00 00 00 00 00 00 00 00 00 00 00 00 00
       0.0 0.0 0.0 0.0
0000c0 00 00 00 00 00 00 00 00 00 00 00 00 00 00 00 00
       0.0 0.0 0.0 0.0
0000d0 00 00 00 00 00 00 00 00 00 00 00 00 00 00 00 00
       0.0 0.0 0.0 0.0
0000e0 00 00 00 00 00 00 00 00 00 00 00 00 00 00 00 00
       0.0 0.0 0.0 0.0
0000f0 00 00 00 00 00 00 00 00 00 00 00 00 00 00 00 00
       0.0 0.0 0.0 0.0
000100 00 00 00 00 00 00 00 00 00 00 00 00 00 00 00 00
       0.0 0.0 0.0 0.0
000110 00 00 00 00 00 00 00 00 00 00 00 00 00 00 00 00
       0.0 0.0 0.0 0.0
000120 00 00 00 00 00 00 00 00 00 00 00 00 00 00 00 00
       0.0 0.0 0.0 0.0
000130 00 00 00 00 00 00 00 00 00 00 00 00 00 00 00 00
       0.0 0.0 0.0 0.0
000140 00 00 00 00 00 00 00 00 00 00 00 00 00 00 00 00
       0.0 0.0 0.0 0.0
000150 00 00 00 00 00 00 00 00 00 00 00 00 00 00 00 00
       0.0 0.0 0.0 0.0
000160 00 00 00 00 00 00 00 00 00 00 00 00 00 00 00 00
       0.0 0.0 0.0 0.0
000170 00 00 00 00 00 00 00 00 00 00 00 00 00 00 00 00
       0.0 0.0 0.0 0.0
000180 00 00 00 00 00 00 00 00 00 00 00 00 00 00 00 00
       0.0 0.0 0.0 0.0
000190 00 00 00 00 00 00 00 00 00 00 00 00 00 00 00 00
       0.0 0.0 0.0 0.0
0001a0 00 00 00 00 00 00 00 00 00 00 00 00 00 00 00 00
       0.0 0.0 0.0 0.0
0001b0 00 00 00 00 00 00 00 00 00 00 00 00 00 00 00 00
       0.0 0.0 0.0 0.0
0001c0 00 00 00 00 00 00 00 00 00 00 00 00 00 00 00 00
       0.0 0.0 0.0 0.0
0001d0 00 00 00 00 00 00 00 00 00 00 00 00 00 00 00 00
       0.0 0.0 0.0 0.0
0001e0 00 00 00 00 00 00 00 00 00 00 00 00 00 00 00 00
       0.0 0.0 0.0 0.0
0001f0 00 00 00 00 00 00 00 00 00 00 00 00 00 00 00 00
       0.0 0.0 0.0 0.0

value_heads.value_heads.extrinsic.weight f4 [1, 128]
000000 2b fe a2 bd 54 da 1b be 6d 2d e8 3d e5 a0 41 bd
       -0.07958635 -0.15220004 0.11336789 -0.04727258
000010 57 a6 84 bd e8 3d f6 3c 18 46 2b 3e e8 a4 f2 bd
       -0.06477039 0.030058816 0.16725957 -0.118478596
000020 3d 24 44 be 6f 86 10 be ff f8 c6 3d 9f 9f 21 be
       -0.19154449 -0.14113782 0.09715461 -0.15783547
000030 9e 46 fe 3d 77 9d 81 3d 05 fb 85 3c c3 cf 85 bd
       0.12415813 0.06328862 0.016355047 -0.06533768
000040 66 b9 41 be ec c3 14 3d a4 c9 c0 bd 75 b3 d3 3b
       -0.1891838 0.03631966 -0.0941346 0.006460602
000050 22 7c 02 3e 59 c6 e5 ba 71 53 32 3e 63 0d 26 3e
       0.12742665 -0.0017530426 0.17414643 0.16216044
000060 7e c2 a4 bc 82 25 ec 3d c0 97 32 3e 7d 6c 0d be
       -0.020112272 0.115305915 0.174407 -0.13810916
000070 13 41 82 3d 01 fd b2 bc 9f 71 e7 3d d0 d8 18 3e
       0.06360068 -0.021849157 0.113009684 0.14926457
000080 a6 67 93 3c e9 ef e6 3d c5 88 0d be dc 82 86 3d
       0.01799376 0.11276228 -0.13821705 0.06567928
000090 75 20 30 be 48 7e 3e 3e a7 47 ee 3c f7 20 98 3d
       -0.17199881 0.1860286 0.0290869 0.074281625
0000a0 3d 64 b6 bb 69 73 11 3e 29 97 28 be 64 97 a6 3d
       -0.0055661486 0.14204182 -0.16463913 0.08134344
0000b0 77 ed d6 bd 29 3b 4a 3e 30 14 0c be e9 33 af bd
       -0.104945116 0.1974913 -0.13679576 -0.08554823
0000c0 75 ee 16 3e 2b a8 b2 3d 54 a1 4a 3e 33 bc e7 bd
       0.14739402 0.08723482 0.19788104 -0.11315193
0000d0 bf 7f a2 bd 73 b6 59 3e fd 7e 94 3d fb a5 1d be
       -0.07934522 0.21261005 0.072507836 -0.15395348
0000e0 58 51 ac bd 28 a8 ed bd 57 60 e6 bd 20 de e4 bd
       -0.084139526 -0.11604339 -0.11248844 -0.111751795
0000f0 de 8e 84 bc 65 24 a6 bd 62 60 33 be 52 4c 53 be
       -0.016181406 -0.081124105 -0.17517236 -0.20634583
000100 ed 41 54 be 6b d9 96 bd 37 45 27 be 03 7f 30 bb
       -0.20728274 -0.07365688 -0.16334997 -0.0026931174
000110 43 1e 94 bd f0 c2 b7 bc cb b7 8e bd dc 6b 57 be
       -0.072323345 -0.02243182 -0.069686495 -0.21037239
000120 8d 18 7d bd 1d b5 51 3d f5 52 23 be 41 9a 4b bd
       -0.06179099 0.051198114 -0.15949614 -0.049707655
000130 74 2f 49 3e 7c 79 05 3d 26 56 4b 3e 9b 7c 51 be
       0.19647008 0.03258656 0.19857082 -0.2045769
000140 d9 40 1f be 1c bb e4 3d 02 dc 1b 3e 1d 96 dd bd
       -0.15552081 0.11168501 0.15220645 -0.108196475
000150 87 3d 0b bd 4a 22 bd 3d 0b 3a ca 3d 81 9b ae 3d
       -0.033994224 0.09235056 0.09874352 0.08525754
000160 52 1e ea 39 28 ff 06 3e 00 a0 6d 3d 82 99 8b 3c
       0.00044654548 0.13183272 0.058013916 0.017040972
000170 ea e9 66 bd 1a 8e d3 bd 3d 57 4d 3d 47 9f af bd
       -0.05637542 -0.10329838 0.050132025 -0.085753016
000180 b7 36 6d bd 12 ac 58 be 7c 9e 36 be f4 d7 c8 bd
       -0.05791351 -0.2115939 -0.17833894 -0.09806815
000190 da 05 94 bd 08 da 03 3e 7a 36 12 be 64 4a 34 3e
       -0.072276786 0.12876141 -0.14278594 0.17606503
0001a0 b2 79 e4 3d b1 a9 94 3d 0f 6c 24 3e 10 8d 29 3d
       0.11156024 0.072589286 0.16056846 0.041394293
0001b0 ee 86 57 bd fa d3 4e be 6d 44 ea 3d e5 10 1e 3d
       -0.052618913 -0.2019805 0.114388324 0.03859033
0001c0 70 ba 56 bd a0 54 81 bc 27 51 11 be fb a2 4f 3c
       -0.052423894 -0.015787423 -0.14191113 0.012673135
0001d0 37 10 8a 3d 14 2a 69 3d 58 f5 ca bd 73 66 41 3d
       0.06741374 0.056924894 -0.09910077 0.047216844
0001e0 29 0f 23 be d5 ab ed bd a0 24 c3 bd b1 94 0f be
       -0.15923752 -0.1160504 -0.0952847 -0.14021565
0001f0 94 1f 12 be b9 58 2f bd ba ba 3a bd b5 bd fd bb
       -0.14269859 -0.042809222 -0.045588233 -0.007743562
