results/MLDriver/MLDriver/MLDriver-0.pt (torch, 279055 bytes, 12 tensors)

network_body._body_endoder.seq_layers.0.weight f4 [128, 132]
0.07958626 -0.111630365 -0.07605299 0.008312916 -0.045853797 -0.012626846 -0.005461246 -0.093709104
0.16350563 0.047802344 -0.07817516 -0.048719935 -0.05993044 -0.05412825 0.014461528 -0.07461301
-0.04476405 -0.00588378 -0.092360854 0.04162098 0.006820643 0.04349654 -0.055890433 0.048616115
-0.06581269 0.07948825 0.15334168 0.04058956 -0.005077686 0.049824234 -0.15279196 0.07543132
0.046754148 0.019284856 0.12930804 0.012332499 -0.14900629 -0.015776576 -0.09683913 -0.04442074
-0.028042978 0.07367874 0.027376262 0.07395761 -0.15035674 0.027787633 -0.023058465 -0.03916181
0.04088204 -0.048471164 -0.013238018 0.12525438 0.11167413 0.003698908 -0.113473184 0.11602449
0.16144538 0.059605528 0.116050296 0.026099248 -0.0061574834 0.02101209 0.11140687 0.02253823
-0.099791706 0.057911303 -0.07385098 -0.04430511 -0.04141737 0.074125715 -0.24079402 -0.041850355
0.11309472 0.061157197 0.13467723 0.049612388 0.16586767 -0.11398247 -0.08442111 0.08531673
0.007589846 -0.05607261 -0.10193511 0.034119252 0.004292112 0.1381273 0.10776259 0.08142195
0.059306286 0.13564616 -0.06427659 0.0060234843 -0.039301265 -0.035899397 0.024835773 0.021777762
-0.14213909 0.0341955 -0.054742713 -0.027960937 -0.20909265 -0.15564899 0.16737911 -0.19341852
-0.040472332 -0.04165882 -0.04456146 0.07067656 -0.04126803 0.10032322 -0.045961265 -0.029677866
-0.014776855 -0.13902575 -0.14734763 0.10548422 -0.029863773 0.047714032 -0.056218512 0.108693786
0.06424199 0.08211042 0.05512264 0.025705107 -0.17092949 0.13576719 0.04528275 -0.16601461
-0.1464019 0.016096583 0.008512491 -0.1467651 0.03734517 -0.13956414 -0.0827505 0.19465838
-0.05474214 -0.060487468 0.03104151 -0.2343773 0.0023859688 0.07451681 0.0017663828 0.15961891
-0.056878336 -0.084816664 0.2850581 -0.031960797 -0.10188451 -0.007231288 0.019832967 0.089921735
0.14385866 -0.045680493 0.04688598 0.020250894 -0.088402234 -0.08010936 0.1400773 -0.08229459
0.09209457 -0.18318677 0.12093446 0.08765279 -0.04488867 0.024128202 0.035677813 -0.09263928
-0.06396188 0.117409185 0.031162005 0.17135914 -0.006270195 -0.04927212 0.017035762 0.14521305
-0.15163346 -0.07057115 -0.012591103 -0.07360506 -0.17845707 -0.13686676 0.014732883 -0.2059712
-0.058208782 0.06285332 -0.01633381 0.10649532 0.028366026 0.037011113 -0.094596826 -0.114877395
0.05000408 0.13538584 0.0874408 -0.0009797703 0.15168601 -0.029011063 -0.06678895 -0.047272433
0.1785264 -0.044331614 -0.0049660117 0.114134416 0.045029655 0.031205405 0.08951544 0.014934961
-0.06279943 0.13589841 0.019594342 0.009880536 0.017250935 0.010167021 0.08871799 0.023722362
0.0061001577 -0.0065084947 0.13965742 -0.02795357 0.05378449 0.07939187 0.067735165 -0.024168449
-0.059504036 0.14046516 -0.15646115 0.052758157 -0.07261752 -0.16023554 0.008334771 -0.07941271
0.12640248 0.029066347 0.015055562 0.011936097 -0.047890045 0.08655459 -0.11648156 -0.045964345
0.11625615 0.09063154 0.09469224 0.044602532 0.08069552 -0.050976504 0.095476866 -0.11766753
-0.14582416 0.033830732 -0.13869648 -0.04108556 -0.049873687 0.15770826 -0.043495316 -0.039991673
00000000: 1ffe a23d 769e e4bd acc1 9bbd e632 083c
00000010: 31d1 3bbd d5e0 4ebc 40f4 b2bb 8fea bfbd
00000020: 056e 273e 64cc 433d 4c1a a0bd 8e8e 47bd
00000030: 9f79 75bd 95b5 5dbd 0bf0 6c3c b5ce 98bd
00000040: 825a 37bd b9cc c0bb b027 bdbd c37a 2a3d
00000050: b37f df3b 6e29 323d 5eed 64bd b121 473d
00000060: cec8 86bd bcca a23d 9a05 1d3e 3d41 263d
00000070: b862 a6bb 7f14 4c3d 7f75 1cbe bc7b 9a3d
00000080: 4781 3f3d 46fb 9d3c 5469 043e 400e 4a3c
00000090: 1b95 18be e13d 81bc 9853 c6bd 86f2 35bd
000000a0: 63ba e5bc e1e4 963d 2f44 e03c 1677 973d
000000b0: 1ef7 19be e4a2 e33c 1be5 bcbc 2268 20bd
000000c0: ed73 273d b389 46bd 46e4 58bc af42 003e
000000d0: 68b5 e43d 6169 723b a164 e8bd 3f9e ed3d
000000e0: f051 253e ed24 743d c7ab ed3d 17ce d53c
000000f0: b7c4 c9bb 8c21 ac3c 4929 e43d 18a2 b83c
00000100: 985f ccbd 6734 6d3d 2f3f 97bd 4679 35bd
00000110: 43a5 29bd 39cf 973d b592 76be 476b 2bbd
00000120: 349e e73d f87f 7a3d d4e8 093e 5c36 4b3d
00000130: 37d9 293e a46f e9bd fae4 acbd 8aba ae3d
00000140: 3eb4 f83b 65ac 65bd 5bc3 d0bd a1c0 0b3d
00000150: d8a4 8c3b 3e71 0d3e a2b2 dc3d 8dc0 a63d
00000160: 26eb 723d d4e6 0a3e 72a3 83bd a660 c53b
00000170: 5dfa 20bd 3f0b 13bd 6474 cb3c 4767 b23c
00000180: e98c 11be 9510 0c3d e539 60bd 560e e5bc
00000190: 621c 56be 7362 1fbe 6e65 2b3e 810f 46be
000001a0: 51c6 25bd 70a2 2abd 1486 36bd dfbe 903d
000001b0: aa08 29bd 4376 cd3d e141 3cbd ff1e f3bc
000001c0: 9f1a 72bc c45c 0ebe 4ce2 16be 1c08 d83d
000001d0: dfa4 f4bc ca6f 433d 6245 66bd d99a de3d
000001e0: 4e91 833d 8229 a83d 47c8 613d 8493 d23c
000001f0: 2408 2fbe 8e06 0b3e 687a 393d bcff 29be
00000200: 61ea 15be fbdc 833c fa77 0b3c 9749 16be
00000210: 40f7 183d e7e9 0ebe 1879 a9bd 8754 473e
00000220: 4b39 60bd b5c1 77bd c44a fe3c 9a00 70be
00000230: ea5d 1c3b 459c 983d f985 e73a 2473 233e
00000240: 42f9 68bd 5cb4 adbd 23f3 913e 53e9 02bd
00000250: d3a8 d0bd 71f4 ecbb bf78 a23c e328 b83d
00000260: af4f 133e 781b 3bbd 830b 403d 34e5 a53c
00000270: 3b0c b5bd 6010 a4bd 6c70 0f3e 118a a8bd
00000280: 149c bc3d 5095 3bbe 7cac f73d 4e83 b33d
00000290: 2fdd 37bd 82a8 c53c e622 123d aab9 bdbd
000002a0: 72fe 82bd 3a74 f03d 7647 ff3c c578 2f3e
000002b0: 3576 cdbb 90d1 49bd 958e 8b3c bbb2 143e
000002c0: cd45 1bbe 9b87 90bd ea4a 4ebc 40be 96bd
000002d0: 73bd 36be cd26 0cbe 3162 713c 1dea 52be
000002e0: 556c 6ebd 3eb9 803d 7bce 85bc 381a da3d
000002f0: de5f e83c f798 173d fbbb c1bd d744 ebbd
00000300: 14d1 4c3d 96a2 0a3e 2a14 b33d a36b 80ba
00000310: 9453 1b3e 9ca8 edbc a5c8 88bd bda0 41bd
00000320: a0cf 363e 1195 35bd edb9 a2bb 4ebf e93d
00000330: 0471 383d 7aa2 ff3c df53 b73d c4b1 743c
00000340: fd9c 80bd f428 0b3e 5084 a03c f9e1 213c
00000350: d551 8d3c 9493 263c c7b1 b53d 6655 c23c
00000360: d5e3 c73b 3645 d5bb 5b02 0f3e e3fe e4bc
00000370: 204d 5c3d 3498 a23d bcb8 8a3d e9fc c5bc
00000380: 81ba 73bd 19d6 0f3e 5a37 20be f018 583d
00000390: 7fb8 94bd c914 24be 908e 083c 22a3 a2bd
000003a0: a76f 013e 8c1c ee3c 9bab 763c 9f8f 433c
000003b0: 5a28 44bd 8843 b13d e28d eebd 1c45 3cbd
000003c0: b417 ee3d 079d b93d 01ee c13d 25b1 363d
000003d0: b143 a53d bdcc 50bd 6089 c33d adfb f0bd
000003e0: ee52 15be 1892 0a3d 7306 0ebe 5549 28bd
000003f0: 5a48 4cbd 467e 213e 2528 32bd 4fce 23bd

network_body._body_endoder.seq_layers.0.bias f4 [128]
0.0 0.0 0.0 0.0 0.0 0.0 0.0 0.0
0.0 0.0 0.0 0.0 0.0 0.0 0.0 0.0
0.0 0.0 0.0 0.0 0.0 0.0 0.0 0.0
0.0 0.0 0.0 0.0 0.0 0.0 0.0 0.0
0.0 0.0 0.0 0.0 0.0 0.0 0.0 0.0
0.0 0.0 0.0 0.0 0.0 0.0 0.0 0.0
0.0 0.0 0.0 0.0 0.0 0.0 0.0 0.0
0.0 0.0 0.0 0.0 0.0 0.0 0.0 0.0
0.0 0.0 0.0 0.0 0.0 0.0 0.0 0.0
0.0 0.0 0.0 0.0 0.0 0.0 0.0 0.0
0.0 0.0 0.0 0.0 0.0 0.0 0.0 0.0
0.0 0.0 0.0 0.0 0.0 0.0 0.0 0.0
0.0 0.0 0.0 0.0 0.0 0.0 0.0 0.0
0.0 0.0 0.0 0.0 0.0 0.0 0.0 0.0
0.0 0.0 0.0 0.0 0.0 0.0 0.0 0.0
0.0 0.0 0.0 0.0 0.0 0.0 0.0 0.0
00000000: 0000 0000 0000 0000 0000 0000 0000 0000
00000010: 0000 0000 0000 0000 0000 0000 0000 0000
00000020: 0000 0000 0000 0000 0000 0000 0000 0000
00000030: 0000 0000 0000 0000 0000 0000 0000 0000
00000040: 0000 0000 0000 0000 0000 0000 0000 0000
00000050: 0000 0000 0000 0000 0000 0000 0000 0000
00000060: 0000 0000 0000 0000 0000 0000 0000 0000
00000070: 0000 0000 0000 0000 0000 0000 0000 0000
00000080: 0000 0000 0000 0000 0000 0000 0000 0000
00000090: 0000 0000 0000 0000 0000 0000 0000 0000
000000a0: 0000 0000 0000 0000 0000 0000 0000 0000
000000b0: 0000 0000 0000 0000 0000 0000 0000 0000
000000c0: 0000 0000 0000 0000 0000 0000 0000 0000
000000d0: 0000 0000 0000 0000 0000 0000 0000 0000
000000e0: 0000 0000 0000 0000 0000 0000 0000 0000
000000f0: 0000 0000 0000 0000 0000 0000 0000 0000
00000100: 0000 0000 0000 0000 0000 0000 0000 0000
00000110: 0000 0000 0000 0000 0000 0000 0000 0000
00000120: 0000 0000 0000 0000 0000 0000 0000 0000
00000130: 0000 0000 0000 0000 0000 0000 0000 0000
00000140: 0000 0000 0000 0000 0000 0000 0000 0000
00000150: 0000 0000 0000 0000 0000 0000 0000 0000
00000160: 0000 0000 0000 0000 0000 0000 0000 0000
00000170: 0000 0000 0000 0000 0000 0000 0000 0000
00000180: 0000 0000 0000 0000 0000 0000 0000 0000
00000190: 0000 0000 0000 0000 0000 0000 0000 0000
000001a0: 0000 0000 0000 0000 0000 0000 0000 0000
000001b0: 0000 0000 0000 0000 0000 0000 0000 0000
000001c0: 0000 0000 0000 0000 0000 0000 0000 0000
000001d0: 0000 0000 0000 0000 0000 0000 0000 0000
000001e0: 0000 0000 0000 0000 0000 0000 0000 0000
000001f0: 0000 0000 0000 0000 0000 0000 0000 0000

network_body._body_endoder.seq_layers.2.weight f4 [128, 128]
0.07088169 -0.013048347 -0.14909019 0.027096903 0.112882294 -0.11090546 0.010649649 -0.07352971
0.15358396 -0.036362305 -0.0068331934 -0.19655101 0.0018213704 0.12978934 -0.03195791 0.11725179
0.02025909 -0.12788641 0.07834292 -0.011822398 0.003471385 -0.18812881 -0.16937223 -0.06798042
-0.07343789 0.00021436416 0.16487132 -0.030165553 -0.160674 -0.051871233 -0.16553378 0.0058406075
-0.08417167 -0.21805942 0.022700742 -0.005810966 -0.08448178 0.07936503 0.0006501985 0.025349861
0.08842437 -0.032639842 0.025474817 -0.008823184 -0.013442517 0.040867507 -0.09419194 -0.05382087
-0.107766286 -0.09093438 0.083904766 0.10472186 0.022440713 -0.11173152 -0.1042927 -0.003913038
-0.22088514 -0.013847574 -0.091224305 0.04354999 -0.0069437255 -0.18719584 0.007932221 -0.0593235
0.009690633 -0.01200102 -0.042799857 -0.03990389 -0.2276564 0.07919815 -0.0014549805 -0.072976895
0.018326106 0.07268052 -0.09104838 0.03380567 -0.024942115 0.012174556 0.09997622 -0.016093768
-0.038707722 -0.02462794 -0.30451977 -0.15300827 0.014004457 0.02068952 -0.15117519 0.1115611
-0.074734055 0.015566987 -0.13344799 -0.019676672 -0.20369524 -0.13055854 -0.05065005 -0.049696792
0.064385414 -0.12568572 -0.14370197 0.04137835 0.035094228 -0.046433657 -0.032259054 -0.05682398
0.07255393 -0.104402095 -0.08633403 -0.037369102 -0.011331399 0.07246218 -0.12139363 0.07389828
-0.03238935 -0.05679355 0.094381705 0.14027785 -0.113991514 -0.08559614 0.11967498 0.08486097
0.085351236 0.009593684 -0.085616186 -0.059595626 -0.023042878 0.0712715 -0.10316557 -0.040315732
-0.12575686 -0.04518064 0.09137806 0.14418219 -0.25683036 0.16151561 0.121791996 -0.020343414
0.0013486566 0.19794372 0.030422173 0.02150629 -0.0974305 0.11619296 0.0032691644 0.005555958
-0.05240403 -0.08608731 -0.022547247 0.06120307 0.049086865 -0.12796022 -0.07812068 -0.027526684
-0.19381222 0.13255416 0.06698121 0.01367617 0.034733858 0.011346583 -0.123995066 0.06258999
-0.036948334 0.027153105 -0.107049525 -0.103606954 -0.034364328 -0.010219052 -0.10658979 -0.036004502
0.015615819 -0.1532458 -0.024954123 -0.15325263 -0.099990286 0.12657158 -0.05520756 -0.16577338
-0.08291799 -0.005896749 -0.08183217 0.09917713 0.08544233 0.06927188 0.09415129 0.027443688
-0.032341834 -0.15047318 0.13203868 -0.021044504 0.13382784 -0.11086329 0.035349995 -0.07140921
-0.0095034875 0.14025328 0.076903686 -0.036353443 -0.060647998 -0.1060009 0.007857307 -0.11169349
0.07593932 0.030391857 0.19318941 -0.011132847 -0.058170963 0.22196677 0.010296804 0.013377839
0.08182274 -0.00826845 0.11854271 0.08272505 0.04076068 0.02347042 -0.076841 -0.014161974
-0.08754138 -0.023003275 0.04360886 0.0052913087 -0.11371371 0.10452705 0.03922339 0.01268533
0.08285926 0.045307156 0.03461519 0.1467546 0.023717592 0.0038077463 0.11851993 -0.10585453
-0.016627043 -0.07584607 0.11689975 -0.016060824 -0.020188484 0.110294886 -0.08283927 0.028306635
-0.028917694 0.017825224 -0.11319475 0.044657134 -0.022673579 -0.18884756 -0.056358486 0.091525316
-0.019097803 -0.18145716 0.27673414 -0.0042601353 0.065518565 -0.037897646 -0.2045228 -0.090969734
00000000: 6b2a 913d bcc8 55bc 19ab 18be 53fa dd3c
00000010: d52e e73d 6722 e3bd de7b 2e3c bf96 96bd
00000020: 1d45 1d3e a4f0 14bd fbe8 dfbb ab44 49be
00000030: 0dbb ee3a 7fe7 043e 4ce6 02bd b521 f03d
00000040: 64f6 a53c a8f4 02be 4172 a03d bbb2 41bc
00000050: 2d80 633b d7a4 40be ea6f 2dbe 5239 8bbd
00000060: 9b66 96bd f1c6 6039 07d4 283e c01d f7bc
00000070: ba87 24be ee76 54bd b081 29be 9162 bf3b
00000080: 3262 acbd f84a 5fbe e8f6 b93c ea69 bebb
00000090: c904 adbd 228a a23d 1572 2a3a 83aa cf3c
000000a0: d617 b53d 5bb1 05bd 90b0 d03c 1e8f 10bc
000000b0: 013e 5cbc b064 273d b4e7 c0bd 4673 5cbd
000000c0: 92b4 dcbd ce3b babd 43d6 ab3d 6a78 d63d
000000d0: 96d5 b73c 7fd3 e4bd 6997 d5bd f138 80bb
000000e0: b72f 62be efe0 62bc cfd3 babd 7961 323d
000000f0: 3188 e3bb 44b0 3fbe 25f6 013c 33fd 72bd
00000100: 76c5 1e3c ed9f 44bc e74e 2fbd 4372 23bd
00000110: c21e 69be a432 a23d 0bb5 beba e974 95bd
00000120: a120 963c 86d9 943d 9377 babd d077 0a3d
00000130: 6853 ccbc ca77 473c 55c0 cc3d 14d7 83bc
00000140: fd8b 1ebd 89c0 c9bc 04ea 9bbe 33ae 1cbe
00000150: f372 653c 117d a93c abcd 1abe 257a e43d
00000160: 2b0e 99bd ad0c 7f3c 97a6 08be f930 a1bc
00000170: 7c95 50be 23b1 05be 6d76 4fbd dd8e 4bbd
00000180: 80dc 833d c2b3 00be 9c26 13be 587c 293d
00000190: f7be 0f3d 3831 3ebd 1222 04bd 43c0 68bd
000001a0: 2897 943d c4d0 d5bd e5cf b0bd 5810 19bd
000001b0: 55a7 39bc 0d67 943d 399d f8bd fb57 973d
000001c0: b2aa 04bd 5aa0 68bd 324b c13d ffa4 0f3e
000001d0: 6274 e9bd 074d afbd 2818 f53d 97cb ad3d
000001e0: a1cc ae3d d42e 1d3c 8a57 afbd 8b1a 74bd
000001f0: 6bc4 bcbc cbf6 913d 7848 d3bd 1c22 25bd
00000200: 68c6 00be 560f 39bd 6c24 bb3d 7fa4 133e
00000210: 457f 83be 5964 253e 156e f93d 3ba7 a6bc
00000220: 68c5 b03a c2b1 4a3e ec37 f93c f62d b03c
00000230: a489 c7bd 93f6 ed3d 7a3f 563b c10e b63b
00000240: 9ca5 56bd 8b4e b0bd 01b5 b8bc 12b0 7a3d
00000250: 4f0f 493d 0108 03be bcfd 9fbd a47f e1bc
00000260: b676 46be 47bc 073e 722d 893d 0412 603c
00000270: 1745 0e3d 05e7 393c 20f1 fdbd 2e2f 803d
00000280: 2357 17bd 3070 de3c c83c dbbd e22f d4bd
00000290: 9cc1 0cbd d06d 27bc bf4b dabd 7579 13bd
000002a0: 7ed9 7f3c 78ec 1cbe 976c ccbc 42ee 1cbe
000002b0: b5c7 ccbd fb9b 013e 5321 62bd 7fc0 29be
000002c0: e8d0 a9bd 8439 c1bb a097 a7bd 611d cb3d
000002d0: 63fc ae3d 6ade 8d3d 64d2 c03d 96d1 e03c
000002e0: df78 04bd a415 1abe 2635 073e 8665 acbc
000002f0: 2a0a 093e 4b0c e3bd 28cb 103d fe3e 92bd
00000300: 84b4 1bbc 8e9e 0f3e ae7f 9d3d 59e7 14bd
00000310: 096a 78bd 0017 d9bd efbb 003c 8ebf e4bd
00000320: 1386 9b3d 58f8 f83c 72d3 453e 8b66 36bc
00000330: ad44 6ebd 424b 633e edb3 283c b92e 5b3c
00000340: ae92 a73d 6578 07bc 85c6 f23d c06b a93d
00000350: acf4 263d 0a45 c03c d05e 9dbd a007 68bc
00000360: e548 b3bd 5d71 bcbc 349f 323d b762 ad3b
00000370: bce2 e8bd 4712 d63d b5a8 203d 21d6 4f3c
00000380: 1eb2 a93d ff93 393d a8c8 0d3d d646 163e
00000390: 654b c23c 628b 793b 94ba f23d 43ca d8bd
000003a0: 7035 88bc 2f55 9bbd 2369 ef3d fd91 83bc
000003b0: 5262 a5bc 49e2 e13d a3a7 a9bd 51e3 e73c
000003c0: cde4 ecbc 3406 923c a6d2 e7bd 66ea 363d
000003d0: f1bd b9bc 4161 41be 28d8 66bd a071 bb3d
000003e0: ff72 9cbc e8cf 39be 19b0 8d3e 9b98 8bbb
000003f0: 992e 863d 903a 1bbd 6d6e 51be 574e babd

network_body._body_endoder.seq_layers.2.bias f4 [128]
0.0 0.0 0.0 0.0 0.0 0.0 0.0 0.0
0.0 0.0 0.0 0.0 0.0 0.0 0.0 0.0
0.0 0.0 0.0 0.0 0.0 0.0 0.0 0.0
0.0 0.0 0.0 0.0 0.0 0.0 0.0 0.0
0.0 0.0 0.0 0.0 0.0 0.0 0.0 0.0
0.0 0.0 0.0 0.0 0.0 0.0 0.0 0.0
0.0 0.0 0.0 0.0 0.0 0.0 0.0 0.0
0.0 0.0 0.0 0.0 0.0 0.0 0.0 0.0
0.0 0.0 0.0 0.0 0.0 0.0 0.0 0.0
0.0 0.0 0.0 0.0 0.0 0.0 0.0 0.0
0.0 0.0 0.0 0.0 0.0 0.0 0.0 0.0
0.0 0.0 0.0 0.0 0.0 0.0 0.0 0.0
0.0 0.0 0.0 0.0 0.0 0.0 0.0 0.0
0.0 0.0 0.0 0.0 0.0 0.0 0.0 0.0
0.0 0.0 0.0 0.0 0.0 0.0 0.0 0.0
0.0 0.0 0.0 0.0 0.0 0.0 0.0 0.0
00000000: 0000 0000 0000 0000 0000 0000 0000 0000
00000010: 0000 0000 0000 0000 0000 0000 0000 0000
00000020: 0000 0000 0000 0000 0000 0000 0000 0000
00000030: 0000 0000 0000 0000 0000 0000 0000 0000
00000040: 0000 0000 0000 0000 0000 0000 0000 0000
00000050: 0000 0000 0000 0000 0000 0000 0000 0000
00000060: 0000 0000 0000 0000 0000 0000 0000 0000
00000070: 0000 0000 0000 0000 0000 0000 0000 0000
00000080: 0000 0000 0000 0000 0000 0000 0000 0000
00000090: 0000 0000 0000 0000 0000 0000 0000 0000
000000a0: 0000 0000 0000 0000 0000 0000 0000 0000
000000b0: 0000 0000 0000 0000 0000 0000 0000 0000
000000c0: 0000 0000 0000 0000 0000 0000 0000 0000
000000d0: 0000 0000 0000 0000 0000 0000 0000 0000
000000e0: 0000 0000 0000 0000 0000 0000 0000 0000
000000f0: 0000 0000 0000 0000 0000 0000 0000 0000
00000100: 0000 0000 0000 0000 0000 0000 0000 0000
00000110: 0000 0000 0000 0000 0000 0000 0000 0000
00000120: 0000 0000 0000 0000 0000 0000 0000 0000
00000130: 0000 0000 0000 0000 0000 0000 0000 0000
00000140: 0000 0000 0000 0000 0000 0000 0000 0000
00000150: 0000 0000 0000 0000 0000 0000 0000 0000
00000160: 0000 0000 0000 0000 0000 0000 0000 0000
00000170: 0000 0000 0000 0000 0000 0000 0000 0000
00000180: 0000 0000 0000 0000 0000 0000 0000 0000
00000190: 0000 0000 0000 0000 0000 0000 0000 0000
000001a0: 0000 0000 0000 0000 0000 0000 0000 0000
000001b0: 0000 0000 0000 0000 0000 0000 0000 0000
000001c0: 0000 0000 0000 0000 0000 0000 0000 0000
000001d0: 0000 0000 0000 0000 0000 0000 0000 0000
000001e0: 0000 0000 0000 0000 0000 0000 0000 0000
000001f0: 0000 0000 0000 0000 0000 0000 0000 0000

action_model._continuous_distribution.log_sigma f4 [1, 3]
0.0 0.0 0.0
00000000: 0000 0000 0000 0000 0000 0000

action_model._continuous_distribution.mu.weight f4 [3, 128]
0.00048780037 0.0046933875 -0.0032989148 0.010209252 -0.0060709687 0.0063135475 -0.024026992 0.0067979447
-0.03034907 -0.02631169 0.012554228 -0.001476811 0.0055696825 -0.030807836 -0.009709691 -0.038516454
-0.02350654 0.008212103 0.0421008 0.027204592 0.015260996 0.0020751972 0.011197588 0.018419845
-1.6225848e-05 0.009115449 -0.020654637 0.016895643 -0.039294783 0.02024825 -0.0062405406 0.022858206
-0.028383542 -0.0043375683 0.0030564105 0.020470632 -0.00040811306 0.016494136 0.02700059 0.049805477
-0.03083354 0.003044559 0.033559885 -0.024270002 0.01800171 -0.031592157 -0.0022014205 -0.004504932
0.020865541 -0.0077967257 -0.02632991 0.022235919 -0.0038573646 -0.014027983 0.00663276 0.01765045
0.014915547 0.010198614 0.012656651 0.0020644597 0.017032953 0.0013272945 -0.027959576 -0.005834143
0.0027036592 0.0013230507 0.0010026874 -0.015253027 -0.02134399 -0.02974349 -0.014266739 0.028793788
-0.00032180917 -0.026311401 -0.0033030708 -0.008987648 -0.0056567104 -0.019121684 0.01297675 0.0057940646
0.006738763 -0.008623689 0.011479952 -0.007675732 0.03186586 0.0011212735 0.021859821 -0.0026344385
-0.014210443 0.019126708 -0.007135484 -0.0013252796 -0.01851057 0.007106983 -0.0054860134 -0.007793574
-0.0010796206 -0.00024476784 -0.015760986 0.016320832 -0.0088767195 0.0017137679 -0.028042609 0.0009031449
-0.0131694 -0.004962962 0.028038898 -0.008940659 0.010505475 -0.008584233 0.017474351 -0.01046121
0.034124564 -0.0036292658 0.0109064095 0.006424773 -0.026207302 -0.01157564 -0.026364535 -0.0076513523
0.0050981687 -0.008442381 -0.012421409 -0.019169426 0.030476753 -0.028043685 -0.04057641 0.026123697
0.032804653 0.00025054638 0.01167132 0.040570613 0.028071174 0.0127350455 0.0076424987 0.020201439
-0.014525997 -0.003305177 0.0045224405 0.002418236 0.008793476 -0.0067716376 0.025686903 -0.018885052
-0.015820775 -0.019213924 0.008439249 0.008514738 0.021419866 -0.004562947 -0.014632068 -0.03043493
0.013954348 0.004130469 -0.0040113362 -0.020972231 0.014927256 0.029420713 0.006733691 0.005048613
0.00978593 0.0030623272 -0.011600122 0.026483176 0.0563758 0.02354865 -0.012639168 -0.008595144
0.02674917 0.01848843 0.020791544 0.02301746 0.020745385 -0.029217714 -0.0073059783 0.016830118
0.03208529 0.016475907 -0.018882848 0.018457998 0.02135623 -0.011501248 -0.02635912 0.01900971
-0.020126004 -0.023722153 -0.034164097 -0.014210924 -0.009205899 -0.015528329 -0.014675184 0.022710076
-0.013962999 0.0061501176 -0.028415946 0.00094542 -0.02011763 0.014139443 -0.009297627 -0.0022835156
-0.032698456 0.008610223 -0.0016511126 -0.00023025587 0.010199282 0.016650403 -0.028508037 0.025500624
-0.010711932 0.00050622993 0.004928423 0.01201393 0.0066142627 0.0015840977 -0.004108863 -0.01790451
0.0029254884 0.011087161 -0.0021909226 -0.0042539067 0.03039042 -0.0044354456 0.0055175517 0.031832572
0.009226114 0.024426986 0.0017523159 -0.019719884 -0.008934359 0.0028120617 0.020255912 -0.037715416
0.0041314783 -0.0007844872 -0.0057951417 0.01110815 0.014833966 0.021651737 0.01763858 -0.016901022
0.008968578 -0.00840604 -0.0017123234 0.022788523 0.027855946 -0.002761708 -0.011639076 -0.011189298
0.021553349 -0.00011019603 -0.008656698 0.0006878136 -0.035414454 0.014806712 0.02082542 0.006139796
00000000: 75bf ff39 fdca 993b 9b32 58bb b544 273c
00000010: faee c6bb e0e1 ce3b 41d4 c4bc 4bc1 de3b
00000020: 9d9e f8bc 9d8b d7bc 40b0 4d3c 8e91 c1ba
00000030: e281 b63b b760 fcbc 6515 1fbc 6ec3 1dbd
00000040: ca90 c0bc 0e8c 063c e371 2c3d 2adc de3c
00000050: 4209 7a3c 0800 083b 1776 373c 37e5 963c
00000060: be1c 88b7 f758 153c ea33 a9bc bb68 8a3c
00000070: 91f3 20bd a8df a53c 737d ccbb 2241 bb3c
00000080: 9a84 e8bc 2922 8ebb 0f4e 483b 07b2 a73c
00000090: 02f8 d5b9 b61e 873c 5730 dd3c d400 4c3d
000000a0: 9f96 fcbc 3987 473b 1776 093d e2d1 c6bc
000000b0: 5278 933c c766 01bd b545 10bb 1c9e 93bb
000000c0: 36ee aa3c ad7b ffbb d3b1 d7bc 1a28 b63c
000000d0: d7cb 7cbb a0d5 65bc a057 d93b ad97 903c
000000e0: 5760 743c 1618 273c d85d 4f3c e34b 073b
000000f0: b188 8b3c 9df8 ad3a 7b0b e5bc 572c bfbb
00000100: e02f 313b 376a ad3a 9b6c 833a d5e7 79bc
00000110: 97d9 aebc 9fa8 f3bc 0abf 69bc f3e0 eb3c
00000120: 7fb8 a8b9 028b d7bc 5578 58bb ee40 13bc
00000130: ed5b b9bb 14a5 9cbc 6f9c 543c 23dc bd3b
00000140: d7d0 dc3b 604a 0dbc 6916 3c3c b584 fbbb
00000150: c785 023d b2f7 923a 5e13 b33c 8ba6 2cbb
00000160: ebd2 68bc 9daf 9c3c c7d0 e9bb 01b5 adba
00000170: 7ba3 97bc b2e1 e83b 04c4 b3bb 3d61 ffbb
00000180: 0e82 8dba 2f54 80b9 2f1d 81bc 44b3 853c
00000190: a96f 11bc 82a0 e03a 9db9 e5bc 07c1 6c3a
000001a0: 78c4 57bc 58a0 a2bb d5b1 e53c d87b 12bc
000001b0: 281f 2c3c e2a4 0cbc 5f26 8f3c 7f65 2bbc
000001c0: 33c6 0b3d fad8 6dbb ccb0 323c e786 d23b
000001d0: b2b0 d6bc c1a7 3dbc 70fa d7bc 32b8 fabb
000001e0: 8a0e a73b ea51 0abc 2a83 4bbc 3309 9dbc
000001f0: 62aa f93c dfbb e5bc 7333 26bd 5d01 d63c
00000200: 2c5e 063d c45b 8339 1039 3f3c 5f2d 263d
00000210: 85f5 e53c a7a6 503c ed6d fa3b 7d7d a53c
00000220: 73fe 6dbc ab9b 58bb fb30 943b 457b 1e3b
00000230: 8312 103c 9de4 ddbb 576d d23c d3b4 9abc
00000240: 929a 81bc 8566 9dbc c744 0a3c 6681 0b3c
00000250: b778 af3c c684 95bb 57bb 6fbc ad52 f9bc
00000260: c7a0 643c e358 873b 8771 83bb f5cd abbc
00000270: 7391 743c b503 f13c 4ba6 dc3b d66e a53b
00000280: 2a55 203c 53b1 483b 700e 3ebc 3ff3 d83c
00000290: 50ea 663d 19e9 c03c 8314 4fbc a6d2 0cbc
000002a0: 1321 db3c 0c75 973c 0753 aa3c 1d8f bc3c
000002b0: 3af2 a93c fd59 efbc fd66 efbb 51df 893c
000002c0: dd6b 033d 7bf8 863c 34b0 9abc 3a35 973c
000002d0: 43f3 ae3c bb6f 3cbc 15ef d7bc 40ba 9b3c
000002e0: 4adf a4bc f654 c2bc a7ef 0bbd efd4 68bc
000002f0: 57d4 16bc 886a 7ebc 2f70 70bc 7b0a ba3c
00000300: 10c5 64bc ed86 c93b 8fc8 e8bc 10d6 773a
00000310: bacd a4bc 1fa9 673c 1355 18bc 09a7 15bb
00000320: d1ee 05bd e511 0d3c 256a d8ba d770 71b9
00000330: e41a 273c 6d66 883c b089 e9bc afe6 d03c
00000340: 1981 2fbc 84b4 043a 9c7e a13b 13d6 443c
00000350: 75bc d83b 80a1 cf3a a4a3 86bb 7bac 92bc
00000360: 8db9 3f3b eca6 353c 9595 0fbb 5b64 8bbb
00000370: 55f5 f83c 3757 91bb 94cc b43b df62 023d
00000380: 2029 173c 1a1b c83c f7ad e53a 988b a1bc
00000390: 6b61 12bc 914a 383b baef a53c 7b7b 1abd
000003a0: 5a61 873b 0ba6 4dba 2ce5 bdbb f5fe 353c
000003b0: 2a0a 733c fc5e b13c c97e 903c 0374 8abc
000003c0: f1f0 123c 7db9 09bc 0a70 e0ba ffae ba3c
000003d0: 2732 e43c c6fd 34bb d3b1 3ebc 5153 37bc
000003e0: a690 b03c 0b19 e7b8 d3d4 0dbc 644e 343a
000003f0: bf0e 11bd da97 723c 129a aa3c 5830 c93b

action_model._continuous_distribution.mu.bias f4 [3]
0.0 0.0 0.0
00000000: 0000 0000 0000 0000 0000 0000

network_body._body_endoder.seq_layers.0.weight f4 [128, 132]
-0.011986695 -0.02472239 -0.12617324 -0.055204175 -0.08656866 -0.0041839452 -0.016602429 0.0122317085
-0.038758043 -0.0025607636 -0.06878088 -0.036379054 0.16791882 -0.0077498984 -0.15213048 -0.057824966
0.054833602 0.020283349 0.2739381 0.040538885 0.13812864 -0.00040941712 -0.109108806 0.009640543
0.06328916 -0.060621325 0.078190185 0.0068403645 0.13958897 -0.057207726 -0.06345665 0.09556789
-0.1848801 0.16241261 0.004912949 -0.098894335 0.030472212 -0.02855787 0.022436611 -0.12634113
0.08417516 0.090791054 -0.024540784 -0.11106121 -0.17928386 0.14411595 0.021165516 0.026322305
-0.032527197 -0.085504286 -0.017062668 0.0360807 0.009924208 -0.097799614 -0.0076270397 0.16002145
-0.028988203 0.06451597 0.12817003 -0.104108505 -0.13778943 0.118957594 0.20275094 0.023839599
-0.08459903 0.0033145777 -0.13836074 0.056620803 -0.084682785 -0.13009048 -0.11705123 0.012475512
-0.049721852 -0.10618637 0.031141557 -0.08331071 -0.09406244 0.08684445 0.106113 -0.20960312
-0.031823117 0.018232929 0.11094218 -0.107964255 0.0029918824 0.16785447 0.006708713 0.009590447
-0.016894106 0.0653405 0.06637641 0.016809348 -0.014584172 -0.10822163 0.062141187 0.046757363
0.0047877664 -0.028519038 0.02957499 -0.06715762 0.0054942523 -0.047519445 0.03096298 0.004246723
0.04890375 -0.100778215 -0.13164029 -0.020393316 0.02662547 0.06051916 0.010282633 -0.0554786
-0.003110056 0.06609063 -0.024970558 -0.13523185 0.14565155 0.004061554 -0.07155353 0.009745931
-0.000421727 0.03309909 -0.08758742 0.026008865 -0.06421378 -0.011416677 -0.16316172 0.00090989785
0.03631749 -0.093641765 -0.12501766 -0.03796436 0.047025893 -0.10943983 0.032490715 -0.06686252
0.16562942 0.09831102 -0.017601013 -0.1425766 0.16416302 0.06227913 0.019782377 0.029579405
0.012946439 -0.059762824 0.05382786 -0.13013287 -0.028170092 -0.061350115 -0.037958987 -0.10707509
0.01921435 -0.038956657 -0.05658329 -0.12902665 0.01716422 -0.07716675 -0.034504827 0.03666323
-0.08478899 -0.08859954 -0.040913403 0.033567477 -0.06630811 -0.11660846 0.061603233 0.13196555
-0.076046415 -0.027974512 0.085536055 -0.05368507 0.20321809 0.027354224 0.057884052 0.18921757
0.05201675 -0.04522139 0.056518566 0.1527329 -0.090463415 0.069969974 -0.12718557 -0.017612506
0.015820706 0.039538443 -0.060735766 0.038186252 0.06190517 0.07226669 -0.07603268 -0.0056187487
0.017190855 -0.039184093 -0.042325042 -0.19232254 0.13015929 0.004679891 0.10761308 0.009140065
0.026453711 -0.018673828 0.21161014 0.017380852 -0.17030124 0.032275055 0.03520677 0.011026433
0.11375424 -0.079546966 -0.0040200637 -0.21586227 -0.0730524 0.07231929 -0.08488103 -0.021509243
0.025809128 -0.0077010286 0.25316694 -0.00930277 0.065623395 0.12601635 -0.07736176 -0.0048435302
0.13750327 -0.1461542 0.057890996 -0.19985548 0.11314428 0.022693489 0.021551536 -0.07202038
-0.04394427 -0.039159175 0.049912166 0.1868753 0.07782562 -0.022924745 0.19319956 0.10778487
0.034749493 -0.00727558 0.08477635 0.052986536 0.03489903 0.18189219 -0.012188456 0.17749871
0.052577276 0.061043758 0.079976946 0.060683396 0.114377946 0.07230634 0.077860154 -0.03961408
00000000: d863 44bc 9c86 cabc 8f33 01be c61d 62bd
00000010: e94a b1bd 7a19 89bb d101 88bc 8167 483c
00000020: c1c0 1ebd 7cd2 27bb fddc 8cbd 3402 15bd
00000030: e9f2 2b3e dcf2 fdbb 18c8 1bbe dfd9 6cbd
00000040: 3399 603d 4429 a63c 9d41 8c3e 1a0c 263d
00000050: 9871 0d3e 09a7 d6b9 7074 dfbd 5ef3 1d3c
00000060: bf9d 813d 114e 78bd 2d22 a03d 2325 e03b
00000070: 69f0 0e3e a652 6abd 8ff5 81bd 19b9 c33d
00000080: 3551 3dbe 7e4f 263e cefc a03b 1d89 cabd
00000090: dca0 f93c 32f2 e9bc fccc b73c 925f 01be
000000a0: 0764 ac3d a9f0 b93d c109 c9bc 0f74 e3bd
000000b0: 3096 37be 2293 133e 4e63 ad3c e0a1 d73c
000000c0: 3d3b 05bd df1c afbd 02c7 8bbc 5bc9 133d
000000d0: 2599 223c 2a4b c8bd 3fec f9bb aadc 233e
000000e0: ab78 edbc f320 843d 013f 033e d736 d5bd
000000f0: ac18 0dbe 0aa0 f33d f19d 4f3e 434b c33c
00000100: 4242 adbd 6339 593b 70ae 0dbe 37eb 673d
00000110: 2b6e adbd 7036 05be 8eb8 efbd 1766 4c3c
00000120: 24a9 4bbd 3d78 d9bd 941c ff3c ce9e aabd
00000130: cfa3 c0bd 81db b13d c651 d93d 33a2 56be
00000140: f558 02bd 395d 953c a735 e33d 5d1c ddbd
00000150: 7513 443b 0be2 2b3e c3d4 db3b 4021 1d3c
00000160: 8265 8abc 3dd1 853d 5bf0 873d c2b3 893c
00000170: 73f2 6ebc 4da3 ddbd c287 7e3d a684 3f3d
00000180: b2e2 9c3b c2a0 e9bc 4047 f23c ef89 89bd
00000190: 2109 b43b c0a3 42bd 13a6 fd3c 1828 8b3b
000001a0: 4c4f 483d cf64 cebd b6cc 06be e20f a7bc
000001b0: a81d da3c f0e2 773d 7d78 283c 873d 63bd
000001c0: 15d2 4bbb 865a 873d 0e8f ccbc 387a 0abe
000001d0: ae25 153e c916 853b a88a 92bd 66ad 1f3c
000001e0: 3d1b ddb9 e992 073d 0961 b3bd 8b10 d53c
000001f0: 8482 83bd 040d 3bbc de13 27be 3686 6e3a
00000200: a6c1 143d 41c7 bfbd a104 00be 8480 1bbd
00000210: 399e 403d fd21 e0bd fc14 053d 38ef 88bd
00000220: c29a 293e 4a57 c93d 0030 90bc 9aff 11be
00000230: 5a1a 283e 6718 7f3d a70e a23c 8250 f23c
00000240: 4d1d 543c ddc9 74bd 9a7a 5c3d 8d41 05be
00000250: f7c4 e6bc 424a 7bbd e27a 1bbd 2f4a dbbd
00000260: 6a67 9d3c 0491 1fbd e1c3 67bd 901f 04be
00000270: fa9b 8c3c 9a09 9ebd ef54 0dbd 2f2c 163d
00000280: daa5 adbd ad73 b5bd d094 27bd 0d7e 093d
00000290: 8ccc 87bd 6bd0 eebd ac53 7c3d fa21 073e
000002a0: 39be 9bbd ce2a e5bc 872d af3d e0e4 5bbd
000002b0: 6718 503e f715 e03c d417 6d3d 40c2 413e
000002c0: 840f 553d 103a 39bd 0380 673d 0366 1c3e
000002d0: e244 b9bd 6b4c 8f3d ef3c 02be 1a48 90bc
000002e0: 6d9a 813c 10f3 213d 11c6 78bd 3069 1c3d
000002f0: 4790 7d3d 8f00 943d 06b7 9bbd 7b1d b8bb
00000300: d6d3 8c3c 807f 20bd 065d 2dbd 33f0 44be
00000310: 7a48 053e c559 993b 3f64 dc3d 36c0 153c
00000320: 74b5 d83c dbf9 98bc 54b0 583e 4a62 8e3c
00000330: 7363 2ebe d932 043d f934 103d 36a8 343c
00000340: fcf7 e83d 85e9 a2bd bdba 83bb 000b 5dbe
00000350: 7f9c 95bd 231c 943d 1bd6 adbd 2734 b0bc
00000360: aa6d d33c e958 fcbb 199f 813e a56a 18bc
00000370: 8f65 863d 6e0a 013e d86f 9ebd 7ab6 9ebb
00000380: a8cd 0c3e 72a9 15be 1c1f 6d3d eaa6 4cbe
00000390: 30b8 e73d b2e7 b93c d98c b03c 6c7f 93bd
000003a0: e8fe 33bd 5f65 20bd b370 4c3d 3d5c 3f3e
000003b0: 0a63 9f3d adcc bbbc 1bd6 453e 50be dc3d
000003c0: 7c55 0e3d fd67 eebb 399f ad3d 6908 593d
000003d0: 49f2 0e3d f241 3a3e 17b2 47bc 39c2 353e
000003e0: 455b 573d 0509 7a3d f4ca a33d 278f 783d
000003f0: fc3e ea3d 5915 943d 2575 9f3d 6042 22bd

network_body._body_endoder.seq_layers.0.bias f4 [128]
0.0 0.0 0.0 0.0 0.0 0.0 0.0 0.0
0.0 0.0 0.0 0.0 0.0 0.0 0.0 0.0
0.0 0.0 0.0 0.0 0.0 0.0 0.0 0.0
0.0 0.0 0.0 0.0 0.0 0.0 0.0 0.0
0.0 0.0 0.0 0.0 0.0 0.0 0.0 0.0
0.0 0.0 0.0 0.0 0.0 0.0 0.0 0.0
0.0 0.0 0.0 0.0 0.0 0.0 0.0 0.0
0.0 0.0 0.0 0.0 0.0 0.0 0.0 0.0
0.0 0.0 0.0 0.0 0.0 0.0 0.0 0.0
0.0 0.0 0.0 0.0 0.0 0.0 0.0 0.0
0.0 0.0 0.0 0.0 0.0 0.0 0.0 0.0
0.0 0.0 0.0 0.0 0.0 0.0 0.0 0.0
0.0 0.0 0.0 0.0 0.0 0.0 0.0 0.0
0.0 0.0 0.0 0.0 0.0 0.0 0.0 0.0
0.0 0.0 0.0 0.0 0.0 0.0 0.0 0.0
0.0 0.0 0.0 0.0 0.0 0.0 0.0 0.0
00000000: 0000 0000 0000 0000 0000 0000 0000 0000
00000010: 0000 0000 0000 0000 0000 0000 0000 0000
00000020: 0000 0000 0000 0000 0000 0000 0000 0000
00000030: 0000 0000 0000 0000 0000 0000 0000 0000
00000040: 0000 0000 0000 0000 0000 0000 0000 0000
00000050: 0000 0000 0000 0000 0000 0000 0000 0000
00000060: 0000 0000 0000 0000 0000 0000 0000 0000
00000070: 0000 0000 0000 0000 0000 0000 0000 0000
00000080: 0000 0000 0000 0000 0000 0000 0000 0000
00000090: 0000 0000 0000 0000 0000 0000 0000 0000
000000a0: 0000 0000 0000 0000 0000 0000 0000 0000
000000b0: 0000 0000 0000 0000 0000 0000 0000 0000
000000c0: 0000 0000 0000 0000 0000 0000 0000 0000
000000d0: 0000 0000 0000 0000 0000 0000 0000 0000
000000e0: 0000 0000 0000 0000 0000 0000 0000 0000
000000f0: 0000 0000 0000 0000 0000 0000 0000 0000
00000100: 0000 0000 0000 0000 0000 0000 0000 0000
00000110: 0000 0000 0000 0000 0000 0000 0000 0000
00000120: 0000 0000 0000 0000 0000 0000 0000 0000
00000130: 0000 0000 0000 0000 0000 0000 0000 0000
00000140: 0000 0000 0000 0000 0000 0000 0000 0000
00000150: 0000 0000 0000 0000 0000 0000 0000 0000
00000160: 0000 0000 0000 0000 0000 0000 0000 0000
00000170: 0000 0000 0000 0000 0000 0000 0000 0000
00000180: 0000 0000 0000 0000 0000 0000 0000 0000
00000190: 0000 0000 0000 0000 0000 0000 0000 0000
000001a0: 0000 0000 0000 0000 0000 0000 0000 0000
000001b0: 0000 0000 0000 0000 0000 0000 0000 0000
000001c0: 0000 0000 0000 0000 0000 0000 0000 0000
000001d0: 0000 0000 0000 0000 0000 0000 0000 0000
000001e0: 0000 0000 0000 0000 0000 0000 0000 0000
000001f0: 0000 0000 0000 0000 0000 0000 0000 0000

network_body._body_endoder.seq_layers.2.weight f4 [128, 128]
-0.013119478 -0.08524127 -0.14020121 0.021086648 0.1316298 0.06435586 -0.024134941 -0.01687546
0.19110692 -0.06330588 -0.06216585 0.026717583 -0.007517121 -0.10129873 0.09334123 -0.086416885
-0.06362612 -0.02588582 -0.020935444 -0.021970019 0.10906225 0.07693382 0.018013213 -0.067379
0.0029609567 0.106883846 0.07304541 -0.09799503 -0.21783103 -0.084625006 -0.08242923 -0.10537487
0.1448965 0.1338875 -0.17367451 0.012694806 0.11436429 0.14983004 -0.016186975 0.024290562
0.054902907 -0.03551368 0.07837369 -0.10822109 0.075941384 -0.18176007 0.13681978 -0.027940562
0.0046172272 -0.06318834 0.08522582 0.08075442 0.12688254 0.02434713 0.036208197 0.058180235
0.012013669 -0.067447744 0.1331402 -0.04458304 0.09273659 -0.029071502 -0.12586251 -0.10792776
-0.11686535 0.08736541 -0.08648308 0.079600476 0.070375085 0.07063124 -0.10307987 0.087046325
0.027861627 -0.016420342 0.02769796 -0.09809092 -0.033438724 -0.1405906 0.056010827 -0.03272596
-0.074334994 0.047958054 0.07776209 0.0054470478 0.0954555 -0.10767129 0.010688035 -0.08936861
-0.060770623 0.06530282 0.11500885 -0.076344594 0.0795978 0.22243144 0.072680324 -0.000810844
-0.05947512 0.10674157 -0.023368008 -0.11249401 -0.05528524 0.057104357 -0.13569322 0.18540126
0.11907057 -0.05991679 0.0076905694 -0.11356876 0.022515157 -0.025032867 -0.18476033 0.123960346
0.09857863 -0.07343282 -0.035772406 0.062249873 -0.030531198 0.13394442 -0.0005166091 -0.05600036
0.065543145 -0.021802368 -0.09090159 -0.046126455 -0.05637108 0.016496794 0.08386888 -0.00022922446
0.0453893 0.11913778 0.012324943 0.09833331 0.03362997 0.15549779 -0.044565123 0.016825179
0.108974375 0.06437411 -0.08785527 -0.03944963 -0.018817388 0.052398227 -0.09902427 -0.08483065
0.10475742 -0.0072551155 -0.048246223 -0.094738856 0.054284006 -0.03871262 -0.0068519185 -0.013283867
-0.04967755 -0.023925751 0.058479294 -0.060859274 -0.121266335 0.107930996 -0.022731474 -0.107403085
0.022516068 0.0085094245 -0.031510178 0.01611162 0.022912659 -0.04892488 0.063247934 0.008220878
0.029837146 0.06318485 0.047133617 0.049679965 -0.0145076895 -0.0044627762 -0.022638291 -0.055761974
0.031598493 -0.053713594 -0.13332032 -0.05349036 0.07092997 0.07193189 0.10622956 0.08887466
-0.10526624 -0.08586101 0.039333355 -0.0782616 -0.027486533 0.035423398 -0.099103406 0.07931195
0.038473256 -0.026356284 -7.600245e-05 -0.060233813 -0.091268644 0.08719271 -0.19687536 0.13499428
0.00030097354 0.07079589 -0.10148235 -0.073383555 0.034942266 -0.004740051 -0.11617668 0.11450238
-0.018200679 0.21879518 -0.10350856 -0.00150637 -0.008418296 0.071242884 0.0299507 -0.067277804
0.13326755 0.028315052 -0.09795727 0.06870396 0.10972208 0.026612254 -0.2636958 -0.019145932
-0.005498971 0.13825569 0.089018464 -0.051394045 -0.14593247 -0.12760758 -0.019375257 0.11309881
0.11831013 0.12832776 -0.07723197 -0.075159736 0.020312965 -0.06542808 0.023586163 0.049680017
-0.04386972 -0.081585795 0.019385789 -0.09462238 -0.0920556 -0.13859573 0.12887393 0.10209563
-0.09937262 0.0994353 -0.04811267 -0.04454066 0.16716392 0.12510899 0.014188674 -0.11530803
00000000: 14f3 56bc fa92 aebd e890 0fbe e8bd ac3c
00000010: f6c9 063e 01cd 833d a4b6 c5bc 683e 8abc
00000020: 88b1 433e 83a6 81bd 9ea1 7ebd d5de da3c
00000030: 2e52 f6bb b575 cfbd b029 bf3d 56fb b0bd
00000040: 694e 82bd 800e d4bc cf80 abbc 78fa b3bc
00000050: 075c df3d 7b8f 9d3d 7290 933c 00fe 89bd
00000060: 9c0c 423b ebe5 da3d d598 953d 9eb1 c8bd
00000070: 190f 5fbe e04f adbd a8d0 a8bd c8ce d7bd
00000080: c05f 143e ce19 093e bbd7 31be e0fd 4f3c
00000090: d337 ea3d 0c6d 193e 8c9a 84bc 00fd c63c
000000a0: dfe1 603d cb76 11bd 6382 a03d 05a3 ddbd
000000b0: 2887 9b3d 501f 3abe 7c1a 0c3e 9be3 e4bc
000000c0: 1c4c 973b e368 81bd e08a ae3d 9362 a53d
000000d0: 7fed 013e a273 c73c 0c4f 143d 664e 6e3d
000000e0: fbd4 443c 0b22 8abd e855 083e b59c 36bd
000000f0: aeec bd3d 5c27 eebc 1ae2 00be 3b09 ddbd
00000100: 1a57 efbd a3ec b23d 0b1e b1bd 9305 a33d
00000110: d020 903d 1da7 903d 8a1b d3bd 5845 b23d
00000120: 113e e43c f483 86bc d5e6 e23c e4e3 c8bd
00000130: 0bf7 08bd fbf6 0fbe 9c6b 653d a80b 06bd
00000140: f23c 98bd aa6f 443d bb41 9f3d 267d b23b
00000150: 2c7e c33d c482 dcbd de1c 2f3c e406 b7bd
00000160: 9eea 78bd 7cbd 853d c389 eb3d 8e5a 9cbd
00000170: 2c04 a33d 11c5 633e 6cd9 943d d28e 54ba
00000180: 2f9c 73bd 539b da3d 446e bfbc 4263 e6bd
00000190: c772 62bd 42e6 693d 2af3 0abe d4d9 3d3e
000001a0: 45db f33d 4f6b 75bd 2c01 fc3b bd96 e8bd
000001b0: b571 b83c ba11 cdbc d031 3dbe ecde fd3d
000001c0: 98e3 c93d f263 96bd 1686 12bd b9f9 7e3d
000001d0: 901c fabc ba28 093e 0d6d 07ba a260 65bd
000001e0: 7c3b 863d e19a b2bc 9d2a babd 18ef 3cbd
000001f0: 5de5 66bd 4924 873c 73c3 ab3d f95b 70b9
00000200: 21ea 393d 82fe f33d 8fee 493c f962 c93d
00000210: 94bf 093d d03a 1f3e eb89 36bd f5d4 893c
00000220: f52d df3d 93d6 833d 77ed b3bd ef95 21bd
00000230: ec26 9abc 869f 563d 3dcd cabd b1bb adbd
00000240: 0f8b d63d 52bc edbb d59d 45bd 7206 c2bd
00000250: e858 5e3d 2091 1ebd 0f86 e0bb 94a4 59bc
00000260: b07a 4bbd f0ff c3bc fc87 6f3d 9347 79bd
00000270: 7c5a f8bd ed0a dd3d 5b37 babc 26f6 dbbd
00000280: 9e73 b83c 1d6b 0b3c d110 01bd 84fc 833c
00000290: 54b3 bb3c 7465 48bd 2288 813d ddb0 063c
000002a0: 086d f43c 0f67 813d 2e0f 413d 387d 4b3d
000002b0: a9b1 6dbc 7b3c 92bb f073 b9bc ab66 64bd
000002c0: 6c6d 013d c902 5cbd 1f85 08be b518 5bbd
000002d0: bb43 913d 0751 933d e28e d93d eb03 b63d
000002e0: d495 d7bd e6d7 afbd 031c 213d 9e47 a0bd
000002f0: 702b e1bc 2018 113d baf6 cabd 4e6e a23d
00000300: 2296 1d3d 22e9 d7bc 8163 9fb8 bbb7 76bd
00000310: 0eeb babd 1792 b23d b299 49be f13b 0a3e
00000320: fccb 9d39 70fd 903d fad5 cfbd 1e4a 96bd
00000330: 9f1f 0f3d 6e52 9bbb 0aee edbd 3980 ea3d
00000340: 9719 95bc d80b 603e 4cfc d3bd 6471 c5ba
00000350: e5ec 09bc cae7 913d 2c5b f53c f2c8 89bd
00000360: 4a77 083e f8f4 e73c d29d c8bd a9b4 8c3d
00000370: f8b5 e03d f101 da3c 2303 87be eed7 9cbc
00000380: b630 b4bb e692 0d3e 504f b63d 9082 52bd
00000390: 526f 15be 90ab 02be dcb8 9ebc 59a0 e73d
000003a0: 954c f23d 5a68 033e cc2b 9ebd 59ed 99bd
000003b0: 6067 a63c 28ff 85bd c537 c13c 467d 4b3d
000003c0: bcb0 33bd 7416 a7bd f2ce 9e3c 61c9 c1bd
000003d0: a587 bcbd 0aec 0dbe 87f7 033e 8317 d13d
000003e0: df83 cbbd bca4 cb3d cb11 45bd 4470 36bd
000003f0: 052d 2b3e 921c 003e 9d77 683c 9e26 ecbd

network_body._body_endoder.seq_layers.2.bias f4 [128]
0.0 0.0 0.0 0.0 0.0 0.0 0.0 0.0
0.0 0.0 0.0 0.0 0.0 0.0 0.0 0.0
0.0 0.0 0.0 0.0 0.0 0.0 0.0 0.0
0.0 0.0 0.0 0.0 0.0 0.0 0.0 0.0
0.0 0.0 0.0 0.0 0.0 0.0 0.0 0.0
0.0 0.0 0.0 0.0 0.0 0.0 0.0 0.0
0.0 0.0 0.0 0.0 0.0 0.0 0.0 0.0
0.0 0.0 0.0 0.0 0.0 0.0 0.0 0.0
0.0 0.0 0.0 0.0 0.0 0.0 0.0 0.0
0.0 0.0 0.0 0.0 0.0 0.0 0.0 0.0
0.0 0.0 0.0 0.0 0.0 0.0 0.0 0.0
0.0 0.0 0.0 0.0 0.0 0.0 0.0 0.0
0.0 0.0 0.0 0.0 0.0 0.0 0.0 0.0
0.0 0.0 0.0 0.0 0.0 0.0 0.0 0.0
0.0 0.0 0.0 0.0 0.0 0.0 0.0 0.0
0.0 0.0 0.0 0.0 0.0 0.0 0.0 0.0
00000000: 0000 0000 0000 0000 0000 0000 0000 0000
00000010: 0000 0000 0000 0000 0000 0000 0000 0000
00000020: 0000 0000 0000 0000 0000 0000 0000 0000
00000030: 0000 0000 0000 0000 0000 0000 0000 0000
00000040: 0000 0000 0000 0000 0000 0000 0000 0000
00000050: 0000 0000 0000 0000 0000 0000 0000 0000
00000060: 0000 0000 0000 0000 0000 0000 0000 0000
00000070: 0000 0000 0000 0000 0000 0000 0000 0000
00000080: 0000 0000 0000 0000 0000 0000 0000 0000
00000090: 0000 0000 0000 0000 0000 0000 0000 0000
000000a0: 0000 0000 0000 0000 0000 0000 0000 0000
000000b0: 0000 0000 0000 0000 0000 0000 0000 0000
000000c0: 0000 0000 0000 0000 0000 0000 0000 0000
000000d0: 0000 0000 0000 0000 0000 0000 0000 0000
000000e0: 0000 0000 0000 0000 0000 0000 0000 0000
000000f0: 0000 0000 0000 0000 0000 0000 0000 0000
00000100: 0000 0000 0000 0000 0000 0000 0000 0000
00000110: 0000 0000 0000 0000 0000 0000 0000 0000
00000120: 0000 0000 0000 0000 0000 0000 0000 0000
00000130: 0000 0000 0000 0000 0000 0000 0000 0000
00000140: 0000 0000 0000 0000 0000 0000 0000 0000
00000150: 0000 0000 0000 0000 0000 0000 0000 0000
00000160: 0000 0000 0000 0000 0000 0000 0000 0000
00000170: 0000 0000 0000 0000 0000 0000 0000 0000
00000180: 0000 0000 0000 0000 0000 0000 0000 0000
00000190: 0000 0000 0000 0000 0000 0000 0000 0000
000001a0: 0000 0000 0000 0000 0000 0000 0000 0000
000001b0: 0000 0000 0000 0000 0000 0000 0000 0000
000001c0: 0000 0000 0000 0000 0000 0000 0000 0000
000001d0: 0000 0000 0000 0000 0000 0000 0000 0000
000001e0: 0000 0000 0000 0000 0000 0000 0000 0000
000001f0: 0000 0000 0000 0000 0000 0000 0000 0000

value_heads.value_heads.extrinsic.weight f4 [1, 128]
-0.051517423 0.07597577 0.034117267 0.15029481 -0.049035084 -0.2147938 0.18900424 0.116827935
-0.015928991 0.04645109 0.109141484 0.2053966 0.21424477 -0.13415007 -0.0861646 -0.10047183
-0.18454775 0.029001417 0.21427678 0.17335826 0.1459753 -0.061865944 -0.083223924 0.07249743
-0.07081419 -0.15931797 -0.111375615 -0.07723518 0.1736649 0.030752404 0.10742649 -0.10855191
-0.18276006 -0.11536602 -0.15012372 -0.033535518 0.0016886407 -0.18131442 -0.21079327 -0.09544222
0.01942019 -0.1979755 -0.109269604 0.117325276 -0.10507547 -0.019346777 -0.17630938 0.16974744
0.09989939 -0.011588741 -0.018012412 0.04885661 -0.06611877 -0.05280771 -0.10481938 0.017023694
-0.010840419 0.043756314 0.14323613 -0.04165806 -0.1455607 0.11757463 0.082801625 0.20050493
0.10079412 0.051453587 0.08177657 0.14496881 0.08849254 -0.1324171 0.10135842 0.06256036
0.05295036 0.20030883 0.14322051 -0.055350054 -0.17713521 0.07347145 -0.018377844 -0.16871193
-0.005933252 0.12056643 -0.0016181071 -0.01595916 -0.0326778 0.098530136 0.06039694 -0.0282378
-0.0129487 -0.054514784 -0.05634952 -0.15491596 0.010605461 0.15943216 0.12463149 0.16610019
-0.1262858 -0.02393493 -0.1455922 0.15508586 -0.12887181 -0.0566859 -0.21501248 0.13484612
-0.1329146 0.14792243 0.018223189 0.044898193 -0.09080215 0.016914327 -0.13237996 0.05338477
0.03302858 0.03300791 0.016946206 -0.020176841 -0.090328574 -0.087923154 0.15590332 0.11899749
0.07344862 -0.16043337 0.05743497 0.08582481 -0.18652265 0.08632545 0.18864897 0.14251834
00000000: ef03 53bd 2f99 9b3d 8cbe 0b3d e2e6 193e
00000010: 03d9 48bd e8f2 5bbe 548a 413e 7c43 ef3d
00000020: 847d 82bc 8043 3e3d 9285 df3d 7c53 523e
00000030: fb62 5b3e a35e 09be 1177 b0bd 2dc4 cdbd
00000040: 16fa 3cbe 6194 ed3c 5f6b 5b3e d484 313e
00000050: 8d7a 153e 2567 7dbd 4e71 aabd 8879 943d
00000060: 0807 91bd 4024 23be e618 e4bd 7a2d 9ebd
00000070: 36d5 313e 77ec fb3c 6b02 dc3d 7750 debd
00000080: 7425 3bbe 0545 ecbd 08ba 19be 8a5c 09bd
00000090: 6155 dd3a 7daa 39be 31da 57be 3677 c3bd
000000a0: 1717 9f3c 17ba 4abe bec8 dfbd 3c48 f03d
000000b0: cf31 d7bd 227d 9ebc 728a 34be 46d2 2d3e
000000c0: 0d98 cc3d b4de 3dbc c48e 93bc de1d 483d
000000d0: 4769 87bd e64c 58bd 8bab d6bd 4675 8b3c
000000e0: 039c 31bc d239 333d 7eac 123e a4a1 2abd
000000f0: dd0d 15be f8ca f03d e693 a93d 2a51 4d3e
00000100: 266d ce3d ffc0 523d 797a a73d b472 143e
00000110: 943b b53d 5998 07be 0195 cf3d a51f 803d
00000120: 7ae2 583d c21d 4d3e 66a8 123e bdb6 62bd
00000130: ef62 35be 3378 963d 228d 96bc d2c2 2cbe
00000140: ba6b c2bb 88eb f63d aa16 d4ba c9bc 82bc
00000150: 28d9 05bd 2bca c93d c862 773d f552 e7bc
00000160: c926 54bc e54a 5fbd c1ce 66bd 4aa2 1ebe
00000170: 87c2 2d3c 2f42 233e cb3e ff3d 2b16 2a3e
00000180: 1151 01be 3013 c4bc 1f16 15be d4ce 1e3e
00000190: f9f6 03be 792f 68bd 3b2c 5cbe 1a15 0a3e
000001a0: c41a 08be fa78 173e cc48 953c 2be7 373d
000001b0: 7af6 b9bd ea8f 8a3c 9d8e 07be fda9 5a3d
000001c0: fa48 073d 4d33 073d c5d2 8a3c e749 a5bc
000001d0: 30fe b8bd 0e11 b4bd 1fa5 1f3e f5b4 f33d
000001e0: 3b6c 963d a548 24be ee40 6b3d ebc4 af3d
000001f0: cbff 3ebe 66cb b03d 322d 413e 54f0 113e
