results/MLDriver/MLDriver/MLDriver-77630.onnx (onnx, 404427 bytes, 7 tensors)

action_model._continuous_distribution.log_sigma f4 [1, 3]
00000000: 494e f83c f149 3a3d b56a 323d
0.030310767 0.045480672 0.043558795

action_model._continuous_distribution.mu.bias f4 [3]
00000000: ca53 263b 65ca 7b3a 611a 2bbb
0.0025379532 0.0009605049 -0.0026108252

action_model._continuous_distribution.mu.weight f4 [3, 256]
00000000: be33 e33b a4c3 8dba 4b94 deba d7b6 fa3a
00000010: b198 a13a e84e 833b 0706 12bb f580 0f3c
00000020: 1636 453c 91c5 a33c 86e3 4e3a 4471 35bc
00000030: 7e7c a6ba 07e7 99bb f5b0 f5bb 7b51 973c
00000040: f6bc 02bb b997 8d3b 67ca 2dbb 6470 a0bb
00000050: 4033 82bc 8133 513b b4d4 b73a 5241 d3bb
00000060: d3e4 9dba 1623 76bc 616c 81bb 0d78 98bb
00000070: fdb0 c7bb db57 863b 6c0e 08ba 82f4 58bc
00000080: 58d4 223c 6d71 84bc 05d2 2c3b ea8e a33b
00000090: 8273 643b b6c4 5c3c a065 903c d7d3 f7bb
000000a0: e267 c63a 70f0 393a 87bb 4d3b 07dd de3a
000000b0: fa06 8b3c 0774 f539 b043 b33b dd43 8db9
000000c0: 1a73 b2bc ebf3 e339 2269 b83b a369 893b
000000d0: a475 babc abd2 9bbc 22e8 54bb f8bf a73c
000000e0: 4ed0 dbbb b2b4 913b 45d2 123c 44a7 a63c
000000f0: 1c50 cdbb f4d4 e73b 0126 f5bb 88e4 d13a
00000100: 97bf 923c 8fbc 833b 4d6e f33b c48a 9a37
00000110: 5c4c 67bb f9da a6ba d5cc 943c ec19 3b3a
00000120: cd7e 5bbc 4ffe 983b abdb 0abc 1a99 723b
00000130: d346 1a3a 90f9 fe3a 7a3d 56bc f838 e0ba
00000140: 4e80 c4bb b326 fcbb 171c ceba 7329 abbb
00000150: 2166 1a3b d642 82bb b51a 78bb 8835 a13b
00000160: b54d 573c 5403 003c 92a8 f2bb 617d 2e3c
00000170: 1139 163d 4737 acba eafb 1bbb ee65 ab3b
00000180: 5ba3 243b 79e7 9ebb 16c0 d4bc 3c24 85bb
00000190: 2165 173c 937d b03c e164 c53b caa7 d439
000001a0: 9cf1 6dba e854 5d3c 6598 4abb f0fb 5c3c
000001b0: f822 153a f50e 943b ec18 ed3c fa1c 96bc
000001c0: fc08 4f39 5271 52bc 2ad6 593c 77ce 28bc
000001d0: d757 84bc 1a39 bdbb db6a adbc ba8f e83a
000001e0: 0417 1f3a 24a3 df3c ef92 06bc bb5b 2e3c
000001f0: 0756 653c 5144 c2bb dcdc 92bb a2ca c33c
00000200: fd71 793c 70a9 b73b 8897 d2bb dcf8 5fbc
00000210: ad30 93ba 14ff 9cbb f532 4ebc d7c6 8fbb
00000220: cf32 ffbb c9fa 06bc dc11 b8ba 32c7 f8bb
00000230: ecd7 143c 9462 f83b f156 7839 39ec 333a
00000240: 4f5c b0bc 5c19 e3bb 22e0 8d3b a6c3 9f3b
00000250: 92f4 10bc 7af9 77bb ca11 c23b 6cd1 bbbb
00000260: 7d69 e7bb 26dd 833b 123d c6ba f280 e2bb
00000270: 892b b139 0125 ef3a 3344 30ba 3ac8 9a3c
00000280: 8460 af3a cd03 96bb d770 8d39 075c 8c3b
00000290: 4dc4 4abc 259a 143b 1355 2b3c 7c10 25bc
000002a0: 0087 91ba dcb5 cabb 5197 ac3b a40c cbbb
000002b0: f913 223c bbd3 79bc 0e5a 6b3c 8cd9 913b
000002c0: d9ec d83a 101b 50bc 0bd3 b53c fd17 96bb
000002d0: 2e6b a4bb fc56 9b3c 53cb 70ba c37f 96bc
000002e0: c424 6d3c 6c34 993c 3e4a 343c a2f1 b03b
000002f0: fed2 993b b88a 4d3b 2b5f 753c 239c a8bc
00000300: 9ce8 013b 6774 453b f693 8fbc 31ef 19bc
00000310: 3584 b6bc 9dd1 f43b 226e 70bc 14ec 6b3c
00000320: 56e7 5c3b f0b3 b0ba fd8b ebbb 5898 be3c
00000330: 9fc6 643c f35b bf3b b82f 36bc e492 ef3b
00000340: c73b 84bc 4410 5ebc 347e d23b 9851 ef3b
00000350: c272 8d3c 0d92 b3bb 6c7e f9bb 94e0 5fbc
00000360: df64 ae3c 0272 a03b e3bf c5bb 9845 3abb
00000370: 6567 e1bc d0d1 f4bb fa67 18bb a530 d23b
00000380: 4ed5 10bb 8a34 8cbc 4682 c83b 4221 66bc
00000390: 9974 e337 687b a7b9 c1df a2bb e6df ce39
000003a0: fd55 1ebc 7bc0 d8b9 ec3f 23bc 9b37 d939
000003b0: cca3 fdbb 83e9 d339 9e78 003a 0923 953b
000003c0: 8894 e4bb ffee 5ebc d0d7 1fbc d214 573a
000003d0: 8831 a83b ad39 b1bc 47d6 94ba 1af9 383a
000003e0: aa94 26bb bf4f 053c bcb2 c63b b7ba e93b
000003f0: bfeb 523c 96ac b2ba 284a 83bb ede5 8b3c
0.0069336584 -0.0010815752 -0.0016981451 0.0019127977 0.0012328831 0.004007209 -0.0022281425 0.008758773
0.012036821 0.019991668 0.000789218 -0.011074368 -0.0012701896 -0.00469673 -0.0074979016 0.01847147
-0.0019949055 0.0043210653 -0.0026518346 -0.0048962105 -0.015893579 0.0031921568 0.0014025182 -0.006446996
-0.0012046344 -0.015023014 -0.0039496874 -0.004652983 -0.0060940967 0.0040998287 -0.00051901373 -0.013241889
0.009938322 -0.016167367 0.0026370299 0.004991402 0.0034858887 0.013474634 0.017626584 -0.007563095
0.0015137161 0.0007093018 0.0031392293 0.0017003127 0.0169711 0.0004681649 0.0054707155 -0.00026944178
-0.0217834 0.00043478547 0.005627767 0.004193501 -0.022761174 -0.019021353 -0.0032486995 0.02047728
-0.0067081815 0.0044465894 0.008961265 0.02034343 -0.0062656533 0.0070749465 -0.007481337 0.0016013542
0.017913623 0.0040202807 0.0074289204 1.8422848e-05 -0.0035293316 -0.0012730054 0.018164078 0.00071373465
-0.013396931 0.004668988 -0.0084752245 0.0037017525 0.00058851874 0.0019453038 -0.013076181 -0.0017106822
-0.0059967404 -0.007695043 -0.0015724924 -0.005223447 0.0023559409 -0.0039752526 -0.0037857716 0.0049197115
0.013141085 0.0078132935 -0.007405349 0.01065001 0.036675517 -0.0013139033 -0.0023801276 0.005230657
0.0025121782 -0.004849371 -0.0259705 -0.0040631574 0.00924042 0.021544253 0.0060239886 0.00040560804
-0.0009076835 0.013509013 -0.0030913588 0.013487801 0.00056891097 0.0045183846 0.028942548 -0.018324364
0.00019744405 -0.0128444005 0.01329569 -0.010303131 -0.016155167 -0.0057746293 -0.021169117 0.0017743029
0.0006068798 0.027299471 -0.008213743 0.010641987 0.013997561 -0.005928554 -0.004481895 0.023900334
0.015224931 0.0056049153 -0.0064267553 -0.013670173 -0.0011229716 -0.00479115 -0.012585391 -0.004387717
-0.0077880393 -0.008238503 -0.0014043408 -0.0075921053 0.009084683 0.007580111 0.00023683511 0.0006863508
-0.021528391 -0.0069305133 0.004329697 0.004875618 -0.008847373 -0.0037837909 0.005922531 -0.005731752
-0.0070621357 0.0040241657 -0.0015124402 -0.006912344 0.00033792507 0.0018245281 -0.00067240297 0.018894304
0.0013380204 -0.00457809 0.00026977688 0.0042834315 -0.012375903 0.0022674885 0.010457295 -0.010074731
-0.0011102855 -0.00618623 0.0052670618 -0.0061965752 0.009892457 -0.015248234 0.014364732 0.0044509824
0.0016550078 -0.012701765 0.02219536 -0.0045804963 -0.0050176596 0.018962376 -0.0009185571 -0.018371468
0.014474098 0.018701755 0.011004029 0.0053998986 0.0046943417 0.00313632 0.014976303 -0.020582264
0.0019822484 0.0030129196 -0.017526608 -0.009395407 -0.022279838 0.007471277 -0.014674695 0.014399547
0.0033707223 -0.001348136 -0.0071883188 0.023266003 0.013963371 0.0058398186 -0.0111197755 0.007311212
-0.016141785 -0.013553683 0.006423736 0.007303428 0.017266635 -0.005480057 -0.0076139476 -0.013664383
0.021288333 0.0048964033 -0.0060348376 -0.0028422829 -0.027515123 -0.0074713007 -0.0023255334 0.0064144903
-0.0022099796 -0.017114896 0.0061190454 -0.014046015 2.7114804e-05 -0.00031944667 -0.004970521 0.000394582
-0.009664056 -0.0004134214 -0.009963971 0.00041430895 -0.0077404734 0.00040419036 0.0004900786 0.0045512957
-0.006975714 -0.013606786 -0.009756044 0.00082047016 0.0051328577 -0.021633947 -0.0011355364 0.0007056162
-0.00254182 0.008136689 0.0060637873 0.007132854 0.012873589 -0.0013631757 -0.004006643 0.01707741

network_body._body_endoder.seq_layers.0.bias f4 [256]
00000000: 1e2c 083c cb95 8bbb b8c1 40bb d01f 53b9
00000010: d8f1 22bc 1cbc d5bb 98c7 9cbb 0dce 29bc
00000020: 8ac7 f8bb 47b9 97bc 5b80 b1bb c729 3dba
00000030: b890 6ebb bdad a8bb 20a2 a4bb ab3c acba
00000040: 8772 7739 6a39 343b 880f 02bc c87a 28bc
00000050: 6fa2 4fbc 4dac daba ec0b 40bb 65d0 0bbc
00000060: 387b 573b 0a71 46bb 79be e4bb 51f7 26bc
00000070: a0bc 89bb c428 c7bb a769 77bc eb8d 37bc
00000080: 2dd6 2e3b 45fb 6cba d06a 38bb 4913 11bc
00000090: d4c9 e2bb 8fde c7bb ed06 94bc 8e89 1abc
000000a0: f607 383a c240 9b3a ae39 47bb 24fd 48bc
000000b0: 7ea2 453b 8a67 e3bb d525 463c 0030 3abc
000000c0: 9aba adbb 03fc b9bb c6a6 c2bb 7237 19bc
000000d0: 0f88 b4bb 59ed 87bb 51de a9bc 8b97 62bb
000000e0: de38 70bb 085b 34bc 76f0 92bb a7a7 9fbb
000000f0: 5be2 d4bb 010e a53c 4e48 13bc ff3e d7ba
00000100: cca6 7b3a b7a9 1d39 6a78 6ebb a9a0 7bbb
00000110: 8de7 02bc 6e45 85bb 9c9b ccbb ba77 41bc
00000120: 22b8 e4bb b032 703b 5733 943b 9105 8bbb
00000130: cfc5 87bb 0886 50bc caa4 15bc d39b 12bb
00000140: c405 b439 c35d 6fbb 9a94 b4bb 13e5 143b
00000150: 5925 e339 7845 b4bb af7a 59bc 9a2c 3cbc
00000160: 12f4 353b 5144 debb fda5 28bb b6dd 08bc
00000170: b555 1cbc 7768 acbb c6b6 1cba 3fd6 d23b
00000180: 0dbf e0ba a0da 11bc b493 43ba 523c 6aba
00000190: 3dca 06bb 5693 793a 06aa 18ba de7d 5dbb
000001a0: 22cf 96bc 6b8a 27bc 991a 13bc 16b5 d0bb
000001b0: 849c 553b ffb0 80bb 830a 7cbb b90f 2bbc
000001c0: 4410 d0ba 63ff 3abc e860 3ebc e49f 04bb
000001d0: 49bd a9bb 42b2 edba da6c e739 201b c7bb
000001e0: d03a 65bc 001f 113b 23d6 f438 1e0e a9bb
000001f0: e33e 2f3c d01c 053c 305d 25bb 5ffb 2bbb
00000200: c8c0 81bb 6e2f 9739 267f 9ebb 9f8c fa3a
00000210: bcb3 3cbc 96ec babb 3099 dfbb 9bef 17bb
00000220: cb2c 2b3b 675f 8cb9 9284 d03a 20d6 f8bb
00000230: 32ea b8bb 1b20 4cbc 04f4 3cba 05a2 33bb
00000240: 4402 3ebb a531 73bc 3f50 fbbb 4d3f 893b
00000250: d7c9 4bbc af52 a1bb f7ec deba 0c35 2ebb
00000260: 99f5 d2bb dca5 13bc c4e3 2abb d752 04bb
00000270: 2807 823a 2a6b abbb ddf2 6ebc e4a2 6cbc
00000280: 104c 05bc 7967 1639 1cc0 5ebc a40b 20bc
00000290: 35a3 98bb 4373 e4bb c7ec a93a 2d48 7e39
000002a0: 799a eabb 9b5d 4fbc edd9 20bc 1a95 f2bb
000002b0: ee58 c1bb a82e 05bc 3487 cebb 2ba7 16bc
000002c0: a1db 9cbb 537c 08bc c229 69bc 13db f4ba
000002d0: 77be acbb de41 ed3b d544 bcbb db91 f33b
000002e0: 6f5d f83a 2787 bfbb 6304 1abc 32df 0abc
000002f0: 0a0f 253c 00e0 cbba 1ecb 8fbb 1564 9b3a
00000300: a36b fbbb 9937 b0bb 7808 e53a b1cc f9bb
00000310: d1b2 bd38 9a76 11bc 86de c2bb 0d89 a0ba
00000320: 99cb 763a 84be 05bc 0677 2dbc bf80 05bc
00000330: 3487 08bb a9b7 e43b 3269 103a a5d4 21bb
00000340: bf09 b2bb 04fc 97bb 035b 92b9 2b6e cebb
00000350: 9426 063b 756e d0bb 5bc3 073a a14a fbbb
00000360: a584 813a e7b1 0fbc 95c2 ab3b 54e5 4c3a
00000370: ce1f 4f38 399e 68ba 8b69 59bc 1ca9 08bc
00000380: ac4d 0abc da30 adba 2c38 5cbc 6be0 b5bb
00000390: a24d c1ba 31ab bcbb 7e2d 1bbc 7558 1ebb
000003a0: 2a08 00bc 2ae7 95ba 3a11 993a 2acd 09bb
000003b0: d25d 8bbb bb6b babb 925a 47bc cbc6 cabb
000003c0: dee8 e4bb c6fb 02bb 34cb 0bbb 734f 883c
000003d0: 5af2 10bb e886 2dbc 7aa7 c3bb c722 a5bb
000003e0: 4816 15bc 813a 4b3c c9b8 6ebc 85d3 abbb
000003f0: 0bf6 93bb 9b6a 92bb d5a4 dfbb 0303 92ba
0.0083113 -0.0042598 -0.002941234 -0.00020134379 -0.009945355 -0.0065226685 -0.0047845356 -0.010364068
-0.0075921463 -0.018520964 -0.0054169125 -0.0007216003 -0.0036402177 -0.0051476643 -0.0050242096 -0.0013140639
0.0002359842 0.0027500042 -0.007938273 -0.01028318 -0.0126730045 -0.001668343 -0.002930398 -0.008533572
0.003287984 -0.003027978 -0.006980714 -0.010190801 -0.004203394 -0.0060778577 -0.015100873 -0.0112032695
0.0026677952 -0.00090401276 -0.0028139837 -0.008854696 -0.0069210324 -0.006099529 -0.018069709 -0.00943221
0.0007020229 0.0011844861 -0.003039937 -0.012267385 0.0030156667 -0.006939833 0.012093981 -0.011363983
-0.0053017857 -0.005675794 -0.005940291 -0.009351598 -0.0055093835 -0.004148167 -0.020735892 -0.003457519
-0.003665499 -0.011008032 -0.0044842316 -0.0048722806 -0.0064967102 0.02014828 -0.008989407 -0.0016421973
0.0009599745 0.0001503591 -0.003638769 -0.0038395321 -0.007989776 -0.0040671146 -0.006244136 -0.01180833
-0.006979958 0.0036651306 0.0045227217 -0.004242607 -0.0041434537 -0.012727268 -0.009133527 -0.002237071
0.0003433657 -0.0036524392 -0.0055108787 0.0022719547 0.0004332464 -0.0055014454 -0.013273879 -0.011485243
0.0027763885 -0.0067830463 -0.0025733702 -0.008353641 -0.0095419185 -0.0052614766 -0.0005978163 0.0064342315
-0.0017146781 -0.008902222 -0.0007460669 -0.000893538 -0.002056732 0.0009520551 -0.00058236753 -0.0033796947
-0.018409315 -0.0102258725 -0.008978509 -0.0063692434 0.0032594511 -0.0039273496 -0.0038458414 -0.01044076
-0.0015873988 -0.011413428 -0.011619784 -0.0020236904 -0.0051800353 -0.001813479 0.00044140854 -0.0060762316
-0.013991073 0.0022143722 0.00011674713 -0.0051591536 0.010696146 0.008124545 -0.0025232546 -0.0026242358
-0.003959749 0.00028836302 -0.0048369346 0.0019115395 -0.011517461 -0.005704473 -0.0068236813 -0.0023183587
0.0026119228 -0.0002677396 0.001590865 -0.007593885 -0.0056431526 -0.012458826 -0.0007207992 -0.0027409804
-0.002899305 -0.014843379 -0.007669478 0.0041884542 -0.012438259 -0.0049231867 -0.0017007877 -0.0026581911
-0.006437969 -0.009011712 -0.00260757 -0.0020190978 0.0009920346 -0.005231281 -0.01458427 -0.014443133
-0.0081358105 0.00014343661 -0.013595607 -0.0097684 -0.0046581277 -0.006971748 0.0012964242 0.00024250215
-0.007159528 -0.012656595 -0.009817583 -0.007403028 -0.005900494 -0.0081287995 -0.0063027386 -0.009195129
-0.004786924 -0.008330422 -0.014231147 -0.0018681012 -0.0052717286 0.007240518 -0.00574551 0.007433159
0.0018948744 -0.005844969 -0.00940046 -0.0084760655 0.010074386 -0.0015554428 -0.004388227 0.0011855388
-0.0076727434 -0.0053777215 0.0017473837 -0.007623278 9.0455294e-05 -0.0088783745 -0.005946937 -0.0012247876
0.00094144937 -0.008163098 -0.010587459 -0.008148371 -0.002083254 0.006979902 0.00055088394 -0.0024693396
-0.0054332907 -0.004638197 -0.000279151 -0.006299754 0.0020469772 -0.0063608238 0.00051789515 -0.0076688086
0.000988145 -0.008770443 0.005241702 0.0007816155 4.9382266e-05 -0.00088736747 -0.013269792 -0.0083411
-0.00844137 -0.0013213411 -0.013441127 -0.0055504343 -0.0014747868 -0.0057577123 -0.009471295 -0.0024161611
-0.007814446 -0.001143669 0.0011678108 -0.0021026828 -0.0042531276 -0.005689112 -0.01216759 -0.0061882487
-0.0069857677 -0.0019986494 -0.0021330835 0.016639447 -0.002211711 -0.010591246 -0.0059708925 -0.005039546
-0.009099551 0.012404085 -0.014570423 -0.005243721 -0.0045154146 -0.004468275 -0.0068250694 -0.0011139814

network_body._body_endoder.seq_layers.0.weight f4 [256, 132]
00000000: 6f9d 4a3d 2721 333d 25e7 49be 2178 b4bb
00000010: 30ff 3bbd 2d81 d63c 41de 893d 60da 6fbd
00000020: 2b63 5dbd c125 0e3e 419a 423c a674 263d
00000030: dd8c e2bd 88a4 ac3d 0e51 babd c345 0ebe
00000040: 8d42 d53b 9bd7 be3b 7d49 893a 36e6 90bd
00000050: 37fd 853d a1c5 ba3b b8d3 bd3d 43ed 80bd
00000060: 6043 eabd 48e1 f3bc e7d6 36bd b2b7 c03c
00000070: 87ea 02be 38b0 abbd 9c79 39bd df8f 7d3c
00000080: 74cb c3bd 04e7 893c c48f f03d bdaa cebc
00000090: 0587 7e3a a841 6cbc 74aa 84bc e855 17bc
000000a0: 8a17 2b3c 56c5 7c3b ec6b 6ebd 02e9 82bc
000000b0: 020c 2ebd 02ac e53c 80c1 c1bc 6cf2 b13d
000000c0: d831 c03d 807e 193d 9244 983c 0755 47b9
000000d0: 6e4d abbc ec0a 36bb c538 d9bd f974 a1bc
000000e0: c93d 87bd 5834 50bb fe57 19bd d9c0 4b3d
000000f0: b2cd e8bd 86ee 6bbd 36be 5f3b fd2c ac3d
00000100: 7ff5 92bc a8f2 003d 1ba4 4a3d 97da 203d
00000110: 890a 76bd 8f0a 4abd 795e 91bd 6262 3abd
00000120: 4c36 b13c bc54 ce3d 0f51 86bd a51e 23bc
00000130: 9c2b ddbc b164 80bd 4caf 383e a8e4 d23d
00000140: 035a b7bc ae55 e5bd 0b78 1c3d 85a0 303e
00000150: 357b 9ebd d3a6 85be 831f a8bd 43a5 95bd
00000160: 25c5 97bd c11b 0dbe 5c56 4cbe 96af bebd
00000170: 5dfc 1ebd 49d6 c6bd eb58 d53c 704a f63d
00000180: 9b79 d2bc 5961 babd 4317 92bd 1d76 f4bb
00000190: 77e3 8bbb f081 173d 5efa 67bd 896f 64bd
000001a0: 899a 7e3d da78 29bd 7c81 433d bb01 c73d
000001b0: ec61 04bd fefc cd3d 7753 313c b7a2 34bd
000001c0: f78e e6bc 456f 09bd f796 15bd dc55 a93d
000001d0: 1df1 d83c 73c9 c6ba 9d48 043d cbdd 23bd
000001e0: c14a 53bc e558 24bd 2c89 c63d 7dc1 743d
000001f0: 57e2 0a3d 514b 79bd e657 13be e73c 9ebc
00000200: 24f4 7f3c 5d86 22bd 3838 3e3d 8019 d2bc
00000210: 942f 6a3c 7b3c b0bd 36f2 d23c 7498 c4bd
00000220: 9852 ab3d e6f4 70bd f155 97bd 36c2 473e
00000230: 08a6 94bc b22c 54bd ce3d bcbd 2a46 1dbd
00000240: 570d 2f3d fb41 b8bb d996 55bd dca6 48bd
00000250: c746 a0bd 2600 23bd 97db c1bd 75d8 1e3a
00000260: 9052 853c 8a70 fe3d 0b3a 843d 1891 4fbb
00000270: 6fd7 f5bd 8d89 d23c 61ee c23c 885d dabd
00000280: 480c 8a3d d2a9 d03b 56d1 bebd c32e 86bb
00000290: 3c1b b33d 432a 1dbe e63f 983c 4991 26be
000002a0: b2d7 f2bd a3f9 213e 8e14 20be 854c 02be
000002b0: 47dd 99bd 142d d13d 0ffd 503e 56d5 bf3b
000002c0: 721d 643d f28c ec3d 6c97 1a3e 5891 103e
000002d0: b8e0 92bd 7f3e 443b 949a 1a3d 4297 d03c
000002e0: 4b9e 5b3e b03c bbbc 65e8 93bd d3f8 703d
000002f0: 3f51 503c 3fd1 5d3d 6e62 6d3d 3ca9 3bbd
00000300: 2acd 58be cee5 aa3d 95e4 25bd 9e4f 593c
00000310: a1e2 b93d a608 103c a774 0d3d 5725 403d
00000320: f9b4 14bd 4f45 cb3d 6073 ec3d 286b d23c
00000330: c818 f3bc 8694 e6bc 7c06 bc3b fd52 0c3d
00000340: 8af9 e83d 2791 ab3a 3b69 893c 7ffb 2bbd
00000350: b4dc df3a 1e2a 0dbe eab9 9dbd 218f 143d
00000360: abe2 c9bd 0e41 dcbd d546 cdbd a36e 2e3e
00000370: 1c29 9b3c c18d 97bc d504 db3b 0cc3 7ebc
00000380: 683c 4a3e 2ef5 00be 9f10 e5bd 12a4 23be
00000390: 17b1 64bd 5f0d 63bd deca 8d3d fc07 c83c
000003a0: 7891 ccbd 7d83 e43c 3ff0 13be aea9 1a3c
000003b0: 3a73 10bd ec28 353e 0628 69bd da7a fc3d
000003c0: b0da a43c ef5a 2cbd 1443 d6bd af5c 04be
000003d0: e21e fd3d 3ac6 0d3e 003c 09bb a312 4dbd
000003e0: d3cf dc3c 9cf5 44bc dd66 22be 55a6 1abd
000003f0: 74da 29bd 8b6b 8ebd 7db4 b33d 31f8 483c
0.049466547 0.04373279 -0.19717081 -0.0055074845 -0.045897663 0.026184643 0.06731845 -0.058557868
-0.054049652 0.1388159 0.011877597 0.04063859 -0.11062024 0.08429819 -0.09097491 -0.138938
0.0065081776 0.005824042 0.0010474172 -0.07075159 0.065424375 0.0056998287 0.09268898 -0.06295254
-0.11438632 -0.029770508 -0.04463854 0.023525093 -0.12784778 -0.083832204 -0.04528199 0.015476196
-0.0956029 0.01683379 0.11746171 -0.025227899 0.00097094505 -0.014419951 -0.01619456 -0.00923679
0.010442624 0.003856977 -0.05820839 -0.015980247 -0.04249192 0.028036121 -0.023651838 0.086888164
0.09384507 0.037474155 0.018587384 -0.00019009794 -0.020910945 -0.0027777506 -0.10606531 -0.019709097
-0.066035815 -0.003176948 -0.03743743 0.04974446 -0.11367358 -0.05760052 0.0034140474 0.08407018
-0.017939327 0.031481415 0.04947291 0.039270964 -0.06006864 -0.049326476 -0.07098097 -0.04550398
0.021632336 0.100747555 -0.065584294 -0.009956037 -0.026998334 -0.06269205 0.1803562 0.10297519
-0.022381788 -0.11197983 0.03820042 0.17248733 -0.077383436 -0.2610384 -0.082091354 -0.07306912
-0.07410649 -0.13780119 -0.19954818 -0.09310834 -0.03881489 -0.097088404 0.026043376 0.120259166
-0.025692752 -0.09100599 -0.07133343 -0.0074603693 -0.0042690593 0.036989152 -0.056635253 -0.05577043
0.062159095 -0.04137502 0.047730908 0.09717127 -0.032319948 0.1005802 0.010823122 -0.04410049
-0.028144343 -0.03355338 -0.036520924 0.082683295 0.02648216 -0.0015166238 0.032295812 -0.04000644
-0.012896241 -0.04012384 0.09694132 0.059754837 0.03390726 -0.060862843 -0.14389 -0.01931615
0.0156221725 -0.03967892 0.046440333 -0.025646925 0.01429357 -0.08605286 0.02575026 -0.095993906
0.08365363 -0.058827303 -0.07389439 0.1950768 -0.018145576 -0.051800437 -0.09191476 -0.03839699
0.04273733 -0.0056231 -0.052145813 -0.048987255 -0.07826 -0.039795063 -0.094657116 0.0006059476
0.01627472 0.12423809 0.06456383 -0.0031672176 -0.12003981 0.025700355 0.023795309 -0.10662371
0.06740624 0.0063679004 -0.093172714 -0.00409493 0.08745429 -0.15348153 0.018585157 -0.1626636
-0.11857547 0.15817885 -0.15632841 -0.12724502 -0.075129084 0.10213676 0.20409034 0.005854289
0.055692144 0.11550321 0.15096825 0.14117944 -0.07171768 0.0029944477 0.037745073 0.02546275
0.21447103 -0.022856086 -0.0722206 0.058831047 0.012714683 0.05415463 0.057955198 -0.04581569
-0.21172014 0.08344613 -0.040501196 0.013263611 0.09076429 0.008791124 0.034535076 0.04691061
-0.0363054 0.09925329 0.115454435 0.025685862 -0.029674903 -0.028146993 0.0057380777 0.03425883
0.11375721 0.0013089523 0.01677381 -0.041987892 0.0017079324 -0.13785598 -0.07701476 0.03626931
-0.098576866 -0.10754596 -0.10023276 0.17034392 0.0189405 -0.01850021 0.0066839256 -0.0155494325
0.19749606 -0.12593529 -0.11184811 -0.15980557 -0.05583295 -0.055432674 0.069234595 0.02441787
-0.099886835 0.02789473 -0.14447115 0.009439869 -0.03526614 0.17691392 -0.056922935 0.123281196
0.02012381 -0.04207891 -0.10462013 -0.12925981 0.12359406 0.13845149 -0.0020940304 -0.0500666
0.026954567 -0.012021448 -0.15859552 -0.037756283 -0.0414681 -0.06954106 0.0877466 0.012266205

network_body._body_endoder.seq_layers.2.bias f4 [256]
00000000: 5adb bdba ba97 07bb e7f6 a4ba 15b2 22bb
00000010: 68c0 a4bb c237 00ba 914f d7ba 2ac8 cfbb
00000020: c57b 68bc d71e 0fbc a21d c8bb 6ec6 d1bb
00000030: 5315 e3bb cff0 ccbb a463 c1bb 1139 e1bb
00000040: 2100 c0bb 05a4 7cbb 321d 4abc 0533 c5bb
00000050: 803a aabb e788 f2bb 43e2 1fbc 0df1 a0bb
00000060: 459d e9bb 46b4 bfbb 4205 bdbb 4492 57bc
00000070: 4648 28bb a3d9 a4bb a36b e6bb 7a2c b4bb
00000080: c72e 41b9 c9c4 03bc 4788 90bb e646 14bb
00000090: 254d ecbb d864 28bb 6c15 0dbb 9ba6 0ebc
000000a0: 1c8f 67bc b007 99bb 45b3 f3ba 6be6 953b
000000b0: b505 1e39 0c12 48bb c4f8 67bb 1e59 b8bb
000000c0: 4097 b9bb 43dc dfbb 2d02 1dbb 508e 61bb
000000d0: 3000 e5ba e137 e2bb 49b1 6ebb 2c9a eb3a
000000e0: 94b2 22bb ccc4 8abb f72f 11bb 2c4d 373c
000000f0: f7af d3bb 7f6c 10bc 0828 1fbc fd6c fabb
00000100: 55d5 873b 0f82 aebb f460 24ba 2d51 563b
00000110: aac8 0fbc 8a4e 05bb c8c5 323a 2c58 dcbb
00000120: adbd 3dbb 3995 43bb d7a5 e4bb cde9 03bc
00000130: aa9b 0ebb 41a1 81bc 876e e4bb b175 18bc
00000140: 8b53 adbb 3411 e0bb 3257 c7bb 704b e4bb
00000150: e297 5ebb 5f8c fcba db47 0bbc 8a0b bbbb
00000160: b788 013a fc1b 94ba fc72 c9bb c046 39bc
00000170: 76e2 3e39 e615 2ebc 993c b2bb daee 6ebb
00000180: c5e3 7bbb 3ff3 54bc d654 99bb fde5 81bb
00000190: b98d 283a 4d84 8dba e329 5d39 bdb5 2ebb
000001a0: 41f4 95bb 99f2 a0ba 3d0a fdba 701e 6dbb
000001b0: 2a46 87bb 6c15 8eba 0a30 90bb d41b 9a3a
000001c0: dfbd 1bbc 0849 82bb 35b6 b7bb 339d afbb
000001d0: 5f6f a2bb 04b5 14bc 8eef 42bb 7b1d 63bb
000001e0: b70d 0abc b6c8 983b 5832 dfbb c3de 52bb
000001f0: cb83 87bb 25d9 30bb 3d3f d2b8 2d98 1c39
00000200: 0f98 bcba 8f73 1ebc 7197 4bbb c96d 8a3b
00000210: c3f8 d3bb 7230 6ebc 5b59 d1bb 4c42 bcbb
00000220: 5368 35ba 316c 14bb 5be5 a8bb aca4 f4ba
00000230: 4b47 8ebb fe6b 49bb cdd2 feba 175c 91bb
00000240: dbf4 ddbb 623d e5bb 567d d03a 0da3 cdbb
00000250: 8198 bdbb 972e f3bb 561b 2bbc 40ae 6bbb
00000260: 00d7 deba 3fab 7abb 3466 a4bb c2f1 3fbc
00000270: 3b8f e2bb 3008 37bc 45eb 9ebb 9b2f 8339
00000280: bd99 72bb 22ff 30bb be1a 0fbc be55 05bc
00000290: bc2d 02bc 3d10 2dbb 4b1b d5bb 9777 44ba
000002a0: 8dd9 75bb a34b 19ba 94a1 00bc e715 0ebc
000002b0: e586 23bb 707c e6b9 54d9 95bb efd7 3bba
000002c0: 99a1 60bb e5b4 fbba 351d 52bc 6198 d0bb
000002d0: 6d43 f7bb e70d 9e3a 0452 debb 4d2e f9bb
000002e0: 0db8 cabb 82d6 45bc 1d97 1bbb 659a a6ba
000002f0: ea7c cabb 164f 0ebb 6b0c 15bc 7cd0 f43a
00000300: 8d3f 87bb ba61 c5bb 7549 73bb dfce ecba
00000310: d56b fbba 6288 0a3b 4030 35bb bbb2 18bc
00000320: 5915 1dbc 69f4 8dbb de36 9bbb 5f41 08bb
00000330: a886 0ebb 433a b1bb f313 aabb 619c 5bba
00000340: 765a 2dbb a15b 86bb 8811 24bb b86a 84bb
00000350: e5d5 c3bb 3af7 c7bb 8332 47bb 1bb7 c4bb
00000360: a1fe 9739 a878 edba 41f6 f8bb 7dab 36bc
00000370: 10ca f9ba 6c33 9fbb fd5c 8bbb 7665 91ba
00000380: 8979 58bc 9b0a b1bb fcaf 97ba 8828 05bc
00000390: 8a8f 08bc aaad 0bbb eb1b 6bbb 2125 d1bb
000003a0: 6659 eebb 11ee 60bc b128 78bb 6f33 9ebb
000003b0: b576 c7bb f751 b4bb 86e9 bebb a080 b4ba
000003c0: cf1d 1fbc 303f bfbb f8a9 3bbb 6403 a737
000003d0: 0dda 40bb f91b 08bc 6917 f4b8 7fb6 bbbb
000003e0: 0b0d abbb bbb0 fcbb 8b42 e938 c971 e2ba
000003f0: 3aac 36bb 147d d9bb a37e 84bb bc6d 243c
-0.0014484928 -0.0020689801 -0.001258579 -0.0024825383 -0.0050278194 -0.0004891121 -0.0016426911 -0.006341
-0.014189665 -0.00873538 -0.006107048 -0.0064018285 -0.0069300323 -0.0062542926 -0.0059017707 -0.006873258
-0.0058593904 -0.0038549912 -0.012336062 -0.006018045 -0.005194962 -0.007401574 -0.009758535 -0.004911548
-0.0071293437 -0.0058503477 -0.005768449 -0.013157431 -0.0025677844 -0.005030827 -0.0070318743 -0.005498466
-0.0001842334 -0.008042523 -0.004410777 -0.0022625267 -0.007211345 -0.0025694873 -0.002152766 -0.008706714
-0.014133241 -0.004670106 -0.0018592855 0.004574587 0.0001507018 -0.0030528335 -0.0035396079 -0.005625858
-0.0056637824 -0.006831677 -0.0023957596 -0.00344171 -0.0017471369 -0.006903634 -0.0036421588 0.0017975024
-0.002482568 -0.004234886 -0.0022153833 0.011187833 -0.0064601856 -0.00881493 -0.009714134 -0.007642387
0.004145304 -0.005325563 -0.00062705507 0.0032702193 -0.008775869 -0.0020341002 0.0006819633 -0.006724378
-0.0028952167 -0.0029843582 -0.0069777775 -0.008051348 -0.0021760263 -0.015823962 -0.0069711837 -0.009305404
-0.0052895 -0.0068379883 -0.0060833925 -0.0069670007 -0.003396504 -0.0019267908 -0.008501018 -0.0057081627
0.00049413316 -0.0011299844 -0.0061477404 -0.011308372 0.00018204175 -0.010625338 -0.0054393527 -0.0036458285
-0.0038435322 -0.0129974475 -0.0046793027 -0.0039641843 0.000642981 -0.0010796875 0.00021091806 -0.0026658617
-0.0045762365 -0.0012279331 -0.0019305419 -0.0036181472 -0.0041282373 -0.0010840124 -0.004400258 0.0011757561
-0.009505718 -0.003975991 -0.0056064376 -0.005359316 -0.004957124 -0.009076361 -0.0029744837 -0.0034655023
-0.008426121 0.0046625985 -0.0068114214 -0.0032176233 -0.004135584 -0.0026984897 -0.000100253594 0.00014934009
-0.0014388579 -0.009671106 -0.0031065608 0.004224513 -0.0064688637 -0.014537917 -0.006388826 -0.005745208
-0.00069201476 -0.0022647495 -0.0051542944 -0.0018664799 -0.004341995 -0.0030734534 -0.0019441486 -0.004436027
-0.006773574 -0.006995843 0.0015906494 -0.0062755407 -0.005786002 -0.0074213254 -0.010443529 -0.0035962015
-0.0017001331 -0.0038249043 -0.0050170664 -0.011715354 -0.006914047 -0.011171386 -0.0048498237 0.00025021736
-0.0037017905 -0.002700754 -0.008734403 -0.008138118 -0.007945474 -0.0026407384 -0.0065034977 -0.0007494627
-0.0037513704 -0.00058477576 -0.007851023 -0.008672214 -0.002495223 -0.00043961732 -0.0045730267 -0.00071656605
-0.0034276007 -0.0019203691 -0.012824346 -0.006365821 -0.0075458796 0.0012058587 -0.0067846794 -0.0076043964
-0.0061864913 -0.012075068 -0.0023741194 -0.0012710808 -0.0061794417 -0.002171462 -0.009097199 0.0018677856
-0.004127449 -0.006023613 -0.0037122641 -0.0018067023 -0.0019181917 0.002113842 -0.0027647167 -0.009319956
-0.009587609 -0.0043321145 -0.0047367653 -0.0020790917 -0.0021747742 -0.0054085567 -0.0051903664 -0.0008377489
-0.0026451624 -0.0041002785 -0.0025034864 -0.004041042 -0.005976426 -0.0061024697 -0.0030395098 -0.006003273
0.00028990678 -0.0018117623 -0.007597715 -0.011149284 -0.0019057412 -0.004858425 -0.0042530284 -0.001109286
-0.01321257 -0.0054028756 -0.0011572833 -0.008127339 -0.008335004 -0.0021313229 -0.0035874795 -0.0063826
-0.0072738407 -0.013728634 -0.003786605 -0.0048279087 -0.006087149 -0.005502935 -0.005826178 -0.0013771243
-0.009711697 -0.00583639 -0.0028635245 1.990953e-05 -0.0029426843 -0.00830745 -0.00011639187 -0.0057285423
-0.0052200607 -0.0077114976 0.000111227004 -0.0017276342 -0.002787365 -0.006637225 -0.0040434166 0.010035928

network_body._body_endoder.seq_layers.2.weight f4 [256, 256]
00000000: 7db8 673d 197c 453c 9a08 8f3d 9714 6bbb
00000010: 5c3d a5bd 7021 953c e03a 7ebd 0828 c0bc
00000020: 6d29 09bd d09f 463d 8130 183a 91be e93c
00000030: 6aef 2bbc 4609 04bd be67 afbc 023c 9bbc
00000040: 1fee b93d dc63 abbd e5ca 66bd 1d15 54bd
00000050: 38cd 07bd 72e0 dc3b 1076 a9bd c590 c0bc
00000060: 1def c43b e545 753d 8976 3cbd 9b75 253d
00000070: bcc0 853c a36d 8eba cad4 f9bd fb96 66bd
00000080: 13ac b83c afd4 a9b9 165d 083d dfc8 a03c
00000090: 3142 fc3d 26b6 18be aa7e 09be 6555 9dbc
000000a0: 17b3 933d 3918 9f3d 20db 8fbd b118 05be
000000b0: 7f45 ab3c b190 03bd 0aeb a3bd cbb2 ae3c
000000c0: 91ab 84bd 750e 323c 300b c93c 51e7 a83d
000000d0: 219b 18be bb8b 7c3d b0bc 3fbd 6cd2 2cbc
000000e0: d02c 263e e381 3ebc 4f92 19be f3d7 ce3d
000000f0: 74f4 103d c3fe a5bd d9d5 1a3d 91b5 553b
00000100: dd66 1f3d f6f8 5b3b 33ee ad3c 1e6c 84b9
00000110: ec7c 30bd 9787 7a3d b44f 15be fa27 6f3d
00000120: 7cb3 5a3d e145 993d 2fe9 fb3d 197f a3bc
00000130: 67f5 7cbd 944d 923c 5995 8f3d 4653 0f3d
00000140: 6df0 bf3c 6ef9 8b3c cd0c 4b3c cfcc 15bd
00000150: 1cef 943c 2bb7 05be e3eb 06bd bc8d 37bd
00000160: c140 a63b e456 08bd 4bd8 723c 1f44 1d3d
00000170: 14b7 d93d ef1d 483d 708a 4abd 2ecf 463d
00000180: 67d5 93bd e0e2 6ebc d873 5ebd d805 003b
00000190: 5a38 7bbd d38b 89bd 6a18 5abd 4b32 06bd
000001a0: c2ad 1b3d 07b7 013d 1b24 ef3b 2f59 c3bc
000001b0: 060d 713d 4d45 0cbe c5ef 4b3c b881 303d
000001c0: bb05 ae3c 6bb0 65bd fad3 3b3d d3e3 25bd
000001d0: 443b 7a3c 97ea 1fbe 2a4e 97bd 25fd e7bc
000001e0: bdd6 09bc 89b1 b2bd 7144 bbbc 1279 26bd
000001f0: 9ce8 3b3d b2a5 cfbd 61a5 863d 4c2f 9d3d
00000200: f2cd 0cbd ab16 b13c 4844 c23c 533b 56bd
00000210: dd50 47bd 5cc4 383d 77dd c7bd 0b86 29bd
00000220: 75fb e1bc 37d0 0b3d aead e7bc 9f49 4dbd
00000230: f947 1f3e e68f 9dbd 1291 483d de0f 1dbd
00000240: d221 fb3c 235f a2bc fe3b 6abc a7cf e4bc
00000250: 00a5 72bd df53 533b 4305 d63b 394d 3a3d
00000260: 6bc3 09bd 8785 edb8 d18f 51bd 6856 443d
00000270: 1c77 41bc 0982 27bd deab 773d aa33 7abd
00000280: e121 4d3d 5277 08bc 181a 023d de75 69bd
00000290: 1ebb 7eb9 150c f0bc 62fe 1c3e ded0 7c3d
000002a0: d213 53bc ba88 4abe fc27 9a3c 4dd9 7e3d
000002b0: eeb3 6fbd da8e 023d 0d82 623d 7a9b 713d
000002c0: c5ba 94bd 71d7 89bd 3ad2 0bbd 2287 afbd
000002d0: f6a2 2b3d 60b8 b7bd 3520 2abd cd40 193d
000002e0: 9217 ad3d c8ff 033e 5130 af3d d32e eebd
000002f0: 1371 b73d a324 533d ef32 e8bc fd0e 8cbc
00000300: 0c1a 05bd 71a7 a1bd ec82 443d 720a 63bc
00000310: 6fad d5bd a588 ac3d 86fa 35be 3748 e63d
00000320: d852 c8bd 7850 5b3d f7e5 c13d 381d 98bd
00000330: ae31 0e3e 6932 523d 1f3e ad3c 20d5 833c
00000340: f9e7 973d a518 0ebd 1ef3 0dbb 143b 71bb
00000350: badf a73d b537 92bd 90a3 42bb aae4 293d
00000360: df22 03bd bd3c 9bbb f258 6c3d bc27 893a
00000370: e7cf 19bd 98d1 a5bb 20e8 3d3d 6233 82bc
00000380: 2969 8bbc c7ed cbbd dd29 b2bd cac0 1cbd
00000390: f4b4 c9bb 90b3 67bd 289f 853d d515 043d
000003a0: e8e6 823d 2f93 693d 1ccc c2bc 769a 3039
000003b0: fef5 3f3c aba3 a7bc 0e8f 013e 968f f33c
000003c0: ab83 75bc b91b 03bd 61a3 c63c de9e 2ebe
000003d0: 88a3 c5bd 8e12 2ebd 3277 0f3e f86e 223c
000003e0: 70fd 34bc 2eb0 bdbd f70c a0bd f51d 96bd
000003f0: 75cc 8e3c 77bc 40bd 7cf6 86bb 3e1f b7bc
0.056572426 0.012053513 0.069840625 -0.0035870427 -0.08068344 0.01820442 -0.062067866 -0.023456588
-0.033486772 0.048492253 0.00058055675 0.028533252 -0.0104940925 -0.032235406 -0.021411773 -0.018949512
0.09078621 -0.08368656 -0.05634584 -0.051777948 -0.033154696 0.006740623 -0.08274472 -0.023506531
0.00600995 0.05988111 -0.04601148 0.04039536 0.016327254 -0.0010866415 -0.121987894 -0.05629633
0.022542989 -0.00032392654 0.0332919 0.019627033 0.123173125 -0.14913234 -0.13427225 -0.019205758
0.07211893 0.07768292 -0.07024217 -0.129977 0.020907162 -0.03212041 -0.080038145 0.02132549
-0.06478036 0.010867705 0.024541467 0.08247245 -0.14902927 0.061656695 -0.046810806 -0.010548215
0.16228032 -0.011627647 -0.14997219 0.10099783 0.03538938 -0.081052326 0.037801597 0.0032609443
0.038916457 0.003356514 0.021231746 -0.00025257556 -0.043087885 0.061164465 -0.14581186 0.058387734
0.053393826 0.074840315 0.123003356 -0.019958066 -0.06175747 0.017859258 0.07010908 0.034991525
0.023430074 0.01708671 0.012393189 -0.036572274 0.018180422 -0.13058154 -0.032939803 -0.044812903
0.0050736372 -0.03328599 0.014822076 0.038395043 0.106306225 0.048856672 -0.04944843 0.048537426
-0.07218438 -0.014580458 -0.054309696 0.0019534733 -0.061333038 -0.067161225 -0.05324594 -0.032762807
0.038007505 0.03166869 0.0072980053 -0.023846237 0.05885031 -0.13698311 0.012447302 0.04309246
0.021242967 -0.05607645 0.045856453 -0.040500473 0.015272919 -0.15616833 -0.073879555 -0.02831895
-0.008413014 -0.087252684 -0.022859784 -0.040642805 0.04587613 -0.10139026 0.06574512 0.07675037
-0.034376092 0.021617254 0.0237142 -0.05230267 -0.0486611 0.045109138 -0.09759038 -0.0413876
-0.027585724 0.034134116 -0.02828106 -0.05011904 0.15554799 -0.07693462 0.048966475 -0.03834521
0.030655775 -0.019820755 -0.01429653 -0.027931048 -0.059239388 0.0032246036 0.006531389 0.0454838
-0.03363363 -0.00011325912 -0.051162545 0.047933966 -0.011808183 -0.040895496 0.06046664 -0.061084427
0.050081138 -0.008329229 0.031763166 -0.056997173 -0.00024293034 -0.029302636 0.15331414 0.06172263
-0.0128831435 -0.1977872 0.018817894 0.062218953 -0.058521204 0.031874515 0.055299807 0.058986165
-0.07262186 -0.06730545 -0.034136035 -0.085706964 0.04190346 -0.089707136 -0.04153462 0.037415314
0.08451761 0.12890542 0.085541375 -0.11630025 0.08957114 0.05154861 -0.0283446 -0.01709699
-0.032495543 -0.07893265 0.04797642 -0.013857471 -0.104334705 0.084245004 -0.17771348 0.11244243
-0.09781426 0.053543538 0.094676904 -0.07427448 0.13886139 0.051317606 0.021147786 0.016092837
0.07417292 -0.03469147 -0.0021659802 -0.0036808895 0.08196969 -0.071395315 -0.0029699542 0.041477837
-0.032015678 -0.004737465 0.057702012 0.0010464112 -0.037551787 -0.005060386 0.04636395 -0.015893642
-0.017017918 -0.09957462 -0.08699391 -0.038269795 -0.0061556045 -0.05656773 0.06524497 0.032247383
0.06391698 0.05702513 -0.023778968 0.00016842209 0.011716364 -0.020463785 0.12652227 0.029731553
-0.014985005 -0.03200886 0.024247827 -0.1705279 -0.09650332 -0.042498164 0.14010313 0.009914152
-0.011046752 -0.09262119 -0.07814973 -0.073299326 0.017431477 -0.047054734 -0.0041187387 -0.022353765
