results/MLDriver/MLDriver/MLDriver-18990.onnx (onnx, 404427 bytes, 7 tensors)

action_model._continuous_distribution.log_sigma f4 [1, 3]
0	0x3cb89ba7	0.022535158
1	0x3c03bf9d	0.00804129
2	0x3c3f5221	0.011677296

action_model._continuous_distribution.mu.bias f4 [3]
0	0x39e2d0f5	0.00043261764
1	0xb9af4b47	-0.00033434687
2	0xb7fd969c	-3.0230083e-05

action_model._continuous_distribution.mu.weight f4 [3, 256]
0	0xbc4f8ad2	-0.012667375
1	0x3b415f64	0.002950632
2	0x3c2d63d7	0.010582886
3	0x3c37b758	0.011213146
4	0xba07b61f	-0.00051769795
5	0x3c603d0c	0.01368643
6	0xbc87dae4	-0.016583867
7	0xbc73a71b	-0.014871384
8	0xbc33d3ab	-0.010975759
9	0x3c872d97	0.016501231
10	0x3bf1745f	0.007368609
11	0xbc07eb83	-0.008295896
12	0x3c254882	0.010088088
13	0x3c888247	0.016663684
14	0x3ae70852	0.0017626381
15	0x3c0024b6	0.007821253
16	0xbbbd875d	-0.005783959
17	0xbc2b87fe	-0.010469435
18	0x3c36dd6c	0.0111611895
19	0xbcc5c70d	-0.024142766
20	0x3c1a0904	0.009401564
21	0x3c8a873b	0.016910186
22	0xbb965563	-0.0045878156
23	0xbc4f6339	-0.012657934
24	0x3c81a15c	0.015824012
25	0x3c886bd6	0.016652983
26	0xbc805615	-0.015666047
27	0xbb271a4e	-0.0025497857
28	0x3b4d7dad	0.0031355426
29	0x3ccadef8	0.024764523
30	0xbc7726ea	-0.015084961
31	0xbbd5586e	-0.006510786
32	0xbbad63e4	-0.005291449
33	0x3a91abb2	0.0011113791
34	0x3c7ead23	0.015544209
35	0x3beb6da7	0.0071847024
36	0x3c8d4511	0.017244847
37	0x3b97376f	0.0046147625
38	0x3bb31192	0.005464741
39	0x3c74e10d	0.014946234
40	0xbbd6613d	-0.0065423534
41	0xbc1d8791	-0.009614841
42	0x3bc1210b	0.0058938316
43	0xbc1b8776	-0.009492746
44	0x3c39dfc0	0.01134485
45	0x3c38edcc	0.011287164
46	0xbc666089	-0.014061102
47	0xbc97e8c4	-0.018543608
48	0x3afd9dff	0.0019349455
49	0xbbe89a59	-0.007098478
50	0x3cb865e7	0.022509528
51	0xbbbe00b0	-0.005798422
52	0x3ca50e3c	0.020148389
53	0x3c2bf6f3	0.010495889
54	0xbc02f68b	-0.007993351
55	0xbb977871	-0.004622512
56	0xbcfc1a74	-0.030774333
57	0x3b2ae977	0.0026079097
58	0xbc83fdb6	-0.01611219
59	0x3ca9b8f8	0.020718083
60	0x3c7bba49	0.015364238
61	0x3c48caba	0.012255365
62	0x3b2805ef	0.0025638302
63	0x3c446e32	0.011989163
64	0x3a92729a	0.001117307
65	0xbbb124bc	-0.0054059904
66	0xbb35e913	-0.0027757331
67	0x39d177aa	0.00039952743
68	0x3a8e061d	0.0010835562
69	0xbd0daa28	-0.0345861
70	0xbc42a1f6	-0.011879435
71	0x3b98d72b	0.004664322
72	0xbb59e0f8	-0.0033245664
73	0xbc794e58	-0.0152164325
74	0x3c9a3739	0.01882516
75	0xbaa5aa67	-0.0012639285
76	0xbbfa77f4	-0.007643694
77	0xbb0e75c4	-0.0021737674
78	0x3c40bc12	0.011763589
79	0x3bc9afb1	0.0061549773
80	0xbc452504	-0.012032751
81	0x3c837166	0.016045284
82	0x3ab33c0f	0.0013674515
83	0xbb7e8c2a	-0.0038840869
84	0x3baa47cb	0.0051965467
85	0xbbc384dc	-0.005966766
86	0x3ba64373	0.0050739585
87	0xbb510364	-0.003189289
88	0xbca4aeab	-0.02010282
89	0x3b8d8c07	0.004319671
90	0xbc89b8f2	-0.016811822
91	0xbbda7b05	-0.006667497
92	0x3c0bb8c1	0.0085279355
93	0x3bc5b0f4	0.0060330573
94	0x3b8902b0	0.0041812286
95	0xbb9233b7	-0.0044617313
96	0x3c1f8f57	0.009738765
97	0xba42f5f2	-0.00074371614
98	0xbcc48081	-0.023987057
99	0xbc23d734	-0.010000039
100	0xbc111025	-0.008853947
101	0x3ad53de5	0.0016269056
102	0xbca3456e	-0.019930568
103	0xbc8aa70a	-0.016925354
104	0xbb709ebe	-0.0036715711
105	0x3b30d804	0.0026984224
106	0xbc8aaddc	-0.016928606
107	0xbcae853c	-0.021303765
108	0x3b5637d7	0.0032687092
109	0x3cc3cd6b	0.023901662
110	0xbc07a75b	-0.008279647
111	0x3c9e41c5	0.01931847
112	0x3b5c5224	0.0033618296
113	0xbc0f37da	-0.008741343
114	0xbb4ebfce	-0.003154743
115	0xba8332c0	-0.0010009632
116	0x3cddca8a	0.027074117
117	0xbb9bdfb8	-0.004756894
118	0xbc4d7142	-0.01253921
119	0x3c61cb61	0.0137813995
120	0xbc9d18df	-0.019176899
121	0x3c3fd675	0.011708845
122	0x3c73f1a6	0.014889156
123	0xbc8b6fdc	-0.017021112
124	0xbbd7ed19	-0.0065895435
125	0xbc30711a	-0.010769153
126	0xb88a1a7b	-6.585285e-05
127	0xbc85a01d	-0.0163117
128	0xbb37da46	-0.0028053685
129	0xbbfcf481	-0.007719577
130	0x3c284923	0.010271343
131	0x3c32a786	0.0109041985
132	0x3c13bc45	0.009017055
133	0xbbafc506	-0.005364063
134	0xbbaec85c	-0.0053339433
135	0xbc1bcfd9	-0.009510004
136	0xba68387b	-0.0008858514
137	0x3ce12b70	0.027486533
138	0x396cfd51	0.00022601082
139	0x3c151feb	0.009101848
140	0xbacfa143	-0.0015840906
141	0xbb05c2dd	-0.0020410337
142	0x3ba3919a	0.0049917223
143	0x3941bada	0.00018475522
144	0xbc5b23f7	-0.013375274
145	0x3be93ec9	0.0071180803
146	0x3b843613	0.0040347665
147	0xbb841541	-0.004030854
148	0x3b2a38fc	0.0025973907
149	0xbb0f07ec	-0.002182479
150	0x3c4b5c53	0.0124121485
151	0xbcbe92ab	-0.023263296
152	0x3c4380c8	0.011932559
153	0xbc0e7e31	-0.008697079
154	0x3c3ba3ee	0.011452658
155	0xbb663d03	-0.003513158
156	0x3b4c606d	0.0031185404
157	0xbadffede	-0.0017089506
158	0xbcdd3530	-0.0270029
159	0x3aea28ab	0.0017864903
160	0x3b1109c4	0.0022131065
161	0xbc00d4c9	-0.007863232
162	0xbc81c03e	-0.015838739
163	0xbbe94719	-0.007119071
164	0x3bb92b42	0.0056509087
165	0x3c49a238	0.012306742
166	0x3b67c39c	0.0035364395
167	0x39cb032e	0.00038721546
168	0x3c46491d	0.0121023925
169	0xbbe41fbc	-0.006961791
170	0xbb99d9e1	-0.0046951626
171	0x3c8dd59c	0.017313771
172	0x3b947dda	0.0045316042
173	0x3c446c2a	0.011988679
174	0xbc82277e	-0.015887972
175	0xbb6d33f8	-0.0036194306
176	0xbc9e02f3	-0.019288516
177	0xbb0f1e4e	-0.0021838131
178	0x3c8cfff5	0.017211894
179	0x3bb98564	0.0056616534
180	0xbc18be7c	-0.009322759
181	0xbba81694	-0.0051296446
182	0x3c008c20	0.007845908
183	0x3c0b882f	0.008516355
184	0x3c51c3f4	0.0128030665
185	0x3aa8e9f3	0.0012887105
186	0xbb8b42a6	-0.0042498885
187	0x3cc7231f	0.02430874
188	0x3c1ba187	0.00949896
189	0x3bc8ea0f	0.0061314176
190	0x3bb9ad82	0.0056664357
191	0x3a0c8df0	0.00053617265
192	0x3a88daab	0.0010441145
193	0xbbb6936a	-0.0055717723
194	0x3b15da83	0.002286584
195	0xbc190f89	-0.009342083
196	0x3c4d9149	0.012546846
197	0x3be2dd0e	0.0069233244
198	0xbaaa718b	-0.0013003809
199	0x3cc314f4	0.023813702
200	0xbc3b604f	-0.011436536
201	0xbc7173ae	-0.014737053
202	0xbca2918d	-0.019844795
203	0x3b98dd5d	0.0046650604
204	0x3b320662	0.002716445
205	0x3c123d30	0.008925721
206	0x3b3da7ea	0.0028939196
207	0xbb400754	-0.0029301243
208	0xbb3d2acc	-0.002886462
209	0xbbd6b49c	-0.006552292
210	0x3c3c809f	0.011505275
211	0x3c19a32b	0.009377281
212	0xbbe4ef44	-0.0069865305
213	0xbc3cca47	-0.011522836
214	0x3c015842	0.007894577
215	0x3b25d511	0.0025304
216	0x3c718fc3	0.014743748
217	0xbb47013d	-0.0030365728
218	0xbbd159ce	-0.0063888794
219	0xbb5aed67	-0.0033405663
220	0x3c51ec08	0.012812622
221	0x3aea2802	0.0017864706
222	0xbb973c9c	-0.0046153795
223	0xbb64bda3	-0.0034903071
224	0x3c9d906b	0.019233903
225	0x3cf71030	0.030159086
226	0x3c6c74f5	0.014432182
227	0x3ba77d5f	0.005111381
228	0xbb0b20a5	-0.0021229174
229	0x3ba62565	0.0050703757
230	0xbc3ade94	-0.011405606
231	0x3b0259ca	0.0019889944
232	0xbb4ffd80	-0.003173679
233	0x3b3ed8b2	0.002912086
234	0xbcdfd9e2	-0.027325574
235	0xbc2fcac0	-0.010729492
236	0xbc806fbd	-0.015678281
237	0xbad21d3f	-0.0016030445
238	0x3c633d83	0.013869646
239	0xbcb51e64	-0.022109218
240	0x3be276ec	0.0069111492
241	0x3c942e69	0.018088536
242	0xbc7c02d9	-0.015381538
243	0x3c393233	0.011303472
244	0xbaa835a7	-0.0012833372
245	0xbc0b8b94	-0.008517165
246	0x391e4e16	0.00015097143
247	0x3cb5bc23	0.022184437
248	0x3c9fc0ad	0.019501055
249	0x3b84a95c	0.0040485095
250	0x3c9ce89c	0.019153886
251	0x3badfc37	0.0053096074
252	0xbb6d866f	-0.0036243459
253	0x3b311d3c	0.0027025482
254	0xbba31413	-0.0049767583
255	0x3c2a0873	0.010377991

network_body._body_endoder.seq_layers.0.bias f4 [256]
0	0xbac30bd6	-0.0014880847
1	0xbb645500	-0.0034840703
2	0xbb1bd918	-0.002378052
3	0xbabd53cb	-0.0014444528
4	0xbb95b4e4	-0.004568683
5	0xba22e046	-0.0006213229
6	0xbb1421c6	-0.0022603138
7	0x3994345e	0.00028267776
8	0xbb21161a	-0.0024579824
9	0xb764e8bd	-1.3644048e-05
10	0xbb2eb10c	-0.002665582
11	0xbbeb36c3	-0.007178159
12	0xbb7e6331	-0.0038816447
13	0xbb49a55c	-0.0030768728
14	0xb9c497aa	-0.00037497032
15	0xb98475c1	-0.00025264735
16	0xbba3a91a	-0.0049945237
17	0x39a53a3e	0.00031514646
18	0xbb37015c	-0.0027924394
19	0xba08774f	-0.00052057666
20	0xbb0988df	-0.0020986123
21	0xbbeb1983	-0.007174672
22	0xbb3efa5e	-0.002914093
23	0xba6bc90f	-0.00089944986
24	0xbc004659	-0.007829272
25	0x3b546c68	0.0032413248
26	0x39a8b538	0.00032178476
27	0xbbfefa87	-0.00778133
28	0xbaef37cf	-0.0018250885
29	0xbb55b08e	-0.0032606455
30	0xbbd63cfe	-0.0065380326
31	0xbad64f2a	-0.0016350497
32	0xbb0924cd	-0.0020926476
33	0xbb3297ac	-0.0027251048
34	0xb9fce221	-0.00048233665
35	0x396103b7	0.00021459056
36	0xbb4779b0	-0.0030437522
37	0xbbad7df9	-0.005294558
38	0x3b20e0a2	0.0024547954
39	0xbb4028d4	-0.002932121
40	0xbb512a7e	-0.0031916196
41	0xbb915088	-0.004434649
42	0xbabe2b09	-0.0014508675
43	0xba667ab6	-0.0008792089
44	0x3b4914e3	0.0030682615
45	0xba7bacc8	-0.00096006365
46	0xbb188058	-0.0023269858
47	0xbb75b2eb	-0.0037490677
48	0xba51b46a	-0.0007999601
49	0xbbd75498	-0.0065713637
50	0xba94729d	-0.0011325661
51	0xbac2f047	-0.0014872634
52	0xb9ae55b8	-0.00033251732
53	0xbb2f9dbf	-0.0026796905
54	0x3a0b79a0	0.0005320553
55	0xbb66d957	-0.003522476
56	0xbb574b89	-0.003285142
57	0xbbe393e7	-0.0069451216
58	0xbb140b4d	-0.0022589744
59	0xb91ee99d	-0.00015155082
60	0x3addb012	0.0016913435
61	0xbb47935e	-0.0030452828
62	0xba5731ed	-0.00082090386
63	0xbb90e2a7	-0.0044215503
64	0x3bc39d67	0.0059696916
65	0xbb82dd4c	-0.003993666
66	0xbae57051	-0.0017504786
67	0xbb522b69	-0.0032069332
68	0xbb4a3dd0	-0.0030859597
69	0xbab22cc9	-0.0013593669
70	0xbb7b80a2	-0.0038376232
71	0xbc1552c6	-0.009113973
72	0xbbbeded2	-0.005824902
73	0x3b2b4f3d	0.002613976
74	0xbb983869	-0.0046453965
75	0x3a9dccaf	0.001203915
76	0xba62fd2e	-0.00086589425
77	0xbb5eb0b5	-0.0033979837
78	0xbb3314b6	-0.0027325577
79	0xbb41a299	-0.0029546379
80	0xbc12ba17	-0.0089555
81	0xbb3c73d6	-0.0028755567
82	0xbb2680f6	-0.0025406457
83	0xba06f288	-0.00051478343
84	0xbaecb422	-0.0018059055
85	0xbb691109	-0.0035563132
86	0xbaa48c8e	-0.0012554096
87	0xbba1151f	-0.004915848
88	0xbbd03dd2	-0.006355026
89	0xbb97dab3	-0.0046342253
90	0xbb69bc86	-0.0035665347
91	0xba621e80	-0.00086257607
92	0x3bfa8761	0.007645533
93	0xbb5cd6be	-0.0033697332
94	0x396aafdd	0.00022381493
95	0xba6f377a	-0.0009125393
96	0xbb247546	-0.0025094314
97	0x3b416f57	0.0029515827
98	0xbc0b4677	-0.008500687
99	0x3bc2f611	0.0059497436
100	0xbb9906ae	-0.0046699857
101	0xb80f5e69	-3.4181783e-05
102	0xbad0c6cd	-0.0015928388
103	0xbaf6e06c	-0.0018835193
104	0xbbc8bb32	-0.006125831
105	0xbb701d9a	-0.0036638738
106	0xbbdac372	-0.006676131
107	0xbb47c472	-0.003048208
108	0x3b3d8eed	0.0028924302
109	0xbc322def	-0.010875209
110	0xbae831e1	-0.001771506
111	0xb9e89f5d	-0.00044369223
112	0xbaaab397	-0.0013023493
113	0x3bd90028	0.006622333
114	0xbbb4ee14	-0.005521545
115	0x3bb18967	0.005417991
116	0xbc203c12	-0.009779947
117	0xb86d721b	-5.6611472e-05
118	0x3bb2eb3b	0.0054601706
119	0xbb048bde	-0.002022497
120	0xba08e305	-0.0005221817
121	0xbb195880	-0.0023398697
122	0xbb866547	-0.0041014287
123	0xbbadb4ae	-0.0053010797
124	0xbbe9320b	-0.0071165613
125	0xba68ae3d	-0.0008876061
126	0x3b19e935	0.002348495
127	0x3c3f9155	0.011692365
128	0xb9d19833	-0.00039976984
129	0x3ad1f0b6	0.0016017172
130	0xbaf95129	-0.001902138
131	0xbb072ac1	-0.0020624849
132	0xbac7ba3a	-0.0015237995
133	0xbb1d8f1c	-0.0024041599
134	0xbb46dc78	-0.0030343812
135	0x3ba7d871	0.0051222374
136	0xbadfea2b	-0.0017083337
137	0xbb8c886d	-0.004288724
138	0xbb1b909e	-0.0023737322
139	0x3bac9f09	0.005267982
140	0xbb934e02	-0.0044953832
141	0xbad5998c	-0.0016296371
142	0xbb0b3dcb	-0.0021246548
143	0xba3e45df	-0.00072583364
144	0xb8d5f04b	-0.000102013895
145	0xbb0a3971	-0.0021091367
146	0xbb9c3f52	-0.0047682906
147	0x3ad3b1b5	0.0016150983
148	0xbbb7869f	-0.005600765
149	0xbadb5a4e	-0.0016735287
150	0xbab84d2c	-0.0014061085
151	0xbb6cb4a3	-0.003611841
152	0xbba085ed	-0.0048987777
153	0xbad92955	-0.0016568104
154	0xbaa1412e	-0.001230275
155	0x3a95d7f5	0.0011432158
156	0xba23a078	-0.0006241868
157	0xbbc57dc8	-0.006026957
158	0xbaadac93	-0.0013250284
159	0xbb8beceb	-0.004270186
160	0xbbc4e015	-0.006008158
161	0xbb111d7c	-0.0022142818
162	0xbb4b1b2f	-0.0030991544
163	0x3aebbde1	0.0017985665
164	0xbb0dea9d	-0.0021654733
165	0xbbdd1e88	-0.0067480244
166	0x3c1e6f24	0.009670053
167	0xbaeac1af	-0.0017910505
168	0xbadc1b96	-0.0016792889
169	0xbb91d847	-0.004450831
170	0x3b23f8fc	0.0025020232
171	0xbaf85595	-0.0018946404
172	0xbac8c0a9	-0.0015316206
173	0xbb444ad2	-0.0029951823
174	0xbb162847	-0.002291219
175	0xba01f11c	-0.00049568876
176	0xbbe42c57	-0.0069632935
177	0xbaa499c8	-0.0012558037
178	0x3a8df774	0.0010831193
179	0xbb4997c3	-0.0030760623
180	0xbaf7906e	-0.0018887648
181	0xbb3a9579	-0.002847044
182	0xbaa55248	-0.0012613023
183	0xbb3a2524	-0.0028403485
184	0xbba5f1d2	-0.0050642276
185	0x3adf2e19	0.0017027288
186	0x39bb0af7	0.0003567559
187	0xbb78cd07	-0.0037964003
188	0xb7eeea01	-2.8480777e-05
189	0xbb9d97f8	-0.004809376
190	0x3b2514c3	0.0025189377
191	0xbb7167c0	-0.0036835521
192	0x3bcca29f	0.006244972
193	0xbae122b9	-0.0017176486
194	0xbb67ad60	-0.0035351142
195	0xba9887af	-0.0011637117
196	0xbb9bbd58	-0.004752796
197	0xbb5476f3	-0.0032419532
198	0xbba0e308	-0.0049098767
199	0xbb80f215	-0.0039351084
200	0xbb3e7dd1	-0.0029066692
201	0xbb33688c	-0.0027375547
202	0x395edc9e	0.00021253756
203	0x3881a2d9	6.181532e-05
204	0xbac7f188	-0.0015254477
205	0x3b3eaa8b	0.002909335
206	0xbb10145c	-0.0021984791
207	0x3b1b84cf	0.0023730283
208	0xbb9555ed	-0.0045573623
209	0xbb86c149	-0.004112397
210	0xbb4e9e68	-0.0031527523
211	0xbb325e3e	-0.0027216817
212	0xbbda5567	-0.006663013
213	0xbb4333e4	-0.0029785568
214	0xbbe0a82a	-0.006855984
215	0xba0b4c26	-0.0005313776
216	0xbad3c1d7	-0.0016155791
217	0xb94ce94f	-0.0001954187
218	0xbbf424a4	-0.007450657
219	0xba0283bf	-0.0004978738
220	0xbb846441	-0.0040402715
221	0xba5da32b	-0.0008454795
222	0xbb60b746	-0.0034288927
223	0x37178c1b	9.032922e-06
224	0xbaa50fbd	-0.0012593191
225	0xba6210e7	-0.00086237345
226	0xbb285a03	-0.0025688417
227	0x3c1431f5	0.009045114
228	0xb9a70b42	-0.0003186111
229	0xbab84b6a	-0.0014060561
230	0x3abd521e	0.0014444028
231	0xbbeed4a5	-0.007288533
232	0xbaa9127c	-0.0012899186
233	0x3c69726b	0.014248471
234	0xbb366205	-0.002782942
235	0xbb93f132	-0.0045148367
236	0xbaca11b5	-0.0015416654
237	0xbb2d61b3	-0.0026455938
238	0x3bdbcca2	0.0067077437
239	0xbbac2f01	-0.0052546267
240	0xbb13fb7d	-0.0022580319
241	0xbbd9e246	-0.0066492883
242	0xbaf5f997	-0.00187664
243	0xbbbff414	-0.005857954
244	0xba704b6e	-0.00091665133
245	0x398cf6bc	0.00026886712
246	0xbb8be814	-0.004269609
247	0xbb3c52c3	-0.0028735853
248	0xbb408468	-0.0029375795
249	0x3bbf775b	0.0058430857
250	0x37fa956f	2.9871908e-05
251	0xba8dd33a	-0.0010820397
252	0xbc12233c	-0.008919533
253	0xbbce158f	-0.006289191
254	0xbb2e8817	-0.002663141
255	0x3bce9413	0.006304273

network_body._body_endoder.seq_layers.0.weight f4 [256, 132]
0	0xbdd3d136	-0.10342638
1	0xbe09337a	-0.13398543
2	0x3c3fe6f4	0.011712778
3	0xbd2f51e7	-0.042802718
4	0x376372a3	1.3556945e-05
5	0xbd5981b9	-0.05310223
6	0x3be4df6d	0.0069846422
7	0x3de22518	0.11042231
8	0xbd6bcec1	-0.057570223
9	0x3dc91fcd	0.09820519
10	0xbe0ef590	-0.13960862
11	0x3d44b548	0.048024446
12	0x3ca18b3b	0.01971971
13	0xbdcb9d1f	-0.09942078
14	0x3d491d86	0.04910042
15	0x3c299c22	0.010352166
16	0x3cf4e032	0.02989206
17	0x3c869369	0.016427713
18	0xbbd0d395	-0.006372879
19	0xbe1c31eb	-0.15253417
20	0x3b82f4b0	0.003996454
21	0x3e1052a4	0.14094025
22	0x3d696d76	0.056989156
23	0x3b10e7ed	0.0022110895
24	0x3de1b705	0.11021236
25	0x3d8a02a6	0.067387864
26	0xbdea17d6	-0.114303276
27	0x3e4461dc	0.19177955
28	0x3b5aaa08	0.0033365507
29	0x3e45cdda	0.19316807
30	0xbd61022e	-0.05493372
31	0xbd8058fa	-0.06266971
32	0x3da59e5f	0.080868475
33	0xbde3d2f9	-0.11124224
34	0x3ce265f4	0.027636506
35	0xbd4b27af	-0.049598392
36	0x3d898db8	0.06716484
37	0x3df8df74	0.12151995
38	0xbe48e3bc	-0.19618124
39	0x3d9debbb	0.07710978
40	0xbc0c2551	-0.008553819
41	0xbcac9a9d	-0.02106982
42	0xbda4ea59	-0.08052511
43	0x3cf81248	0.030282155
44	0x3dc3e040	0.09564257
45	0x3c4decc7	0.012568659
46	0xbd342fb1	-0.043990795
47	0x3d8ac8fa	0.067766145
48	0xbe81bc35	-0.25338903
49	0x3d305816	0.043052755
50	0x3c98d411	0.018655809
51	0x3d193b5f	0.037410136
52	0xbc96a2c7	-0.018388165
53	0x3e013a19	0.12619819
54	0x3cd746a7	0.026278807
55	0x3ce627a5	0.028095076
56	0xbb253341	-0.0025207552
57	0x3d8b0027	0.067871384
58	0xbc838902	-0.016056541
59	0x3d9447cd	0.072402574
60	0x3cf07f17	0.029357476
61	0x3de9efdc	0.11422703
62	0x3db92998	0.090411365
63	0xbd48ae9b	-0.04899464
64	0xbc9f2fc1	-0.01943195
65	0x3d2c5546	0.04207351
66	0xba8bb4e1	-0.0010658765
67	0x3dd33ef7	0.10314744
68	0x3b632559	0.0034659712
69	0xbe0bc055	-0.13647588
70	0x3cb0e716	0.021594565
71	0x3da921da	0.0825841
72	0x3d2a6547	0.04160049
73	0x3e1bf823	0.15231375
74	0xbbb49067	-0.005510378
75	0xbb46e394	-0.003034805
76	0xbdfdc072	-0.12390222
77	0xbc4279da	-0.011869872
78	0x3b636cb6	0.0034702248
79	0xbd95e4d5	-0.07319037
80	0x3d952197	0.072817974
81	0x3d8b30da	0.06796427
82	0xbe560d25	-0.20903452
83	0x3d9b87a4	0.07594231
84	0x3c161154	0.009159405
85	0x3ca8d5e8	0.020609811
86	0x3e1dfe1e	0.1542897
87	0x3b9017e5	0.0043973797
88	0xbd015b49	-0.031581197
89	0xbde38b81	-0.11110593
90	0x3c6f1741	0.0145929465
91	0x3d323be2	0.04351414
92	0xbc781c81	-0.015143515
93	0xbc95f850	-0.018306881
94	0xbdeee7c5	-0.116653
95	0x3d9abab3	0.07555141
96	0x3d344da9	0.044019375
97	0x3df37ee4	0.11889437
98	0x3dda9ff1	0.10675038
99	0xbc84849a	-0.01617651
100	0x3d914935	0.07094041
101	0x3d6ca5e4	0.057775393
102	0x3da9eef8	0.08297533
103	0xbd599d50	-0.05312854
104	0x3b5d6441	0.003378168
105	0x3ce81dbe	0.028334495
106	0x3c4e4a96	0.012591025
107	0xbddfb70b	-0.109235846
108	0x3b4e372d	0.0031465993
109	0xbd69b8b1	-0.0570609
110	0xbd85b022	-0.06527735
111	0xbcf005a0	-0.029299557
112	0x3d2246fc	0.039618477
113	0x3d92a6b0	0.07160699
114	0x3db4af51	0.088225015
115	0x3d865d96	0.06560819
116	0x3c94a54b	0.018145224
117	0xbd850fa5	-0.064971246
118	0x3db7a1ff	0.08966445
119	0x3c2694e8	0.010167338
120	0x3d710e99	0.058851812
121	0x3d8f71cb	0.07004126
122	0xbcf91ed4	-0.030410208
123	0x3dcc2a99	0.09969062
124	0x3d9b3fe6	0.07580547
125	0xbc446610	-0.011987224
126	0x3dacf6f4	0.0844554
127	0xbc90175f	-0.01758927
128	0x3d780b56	0.060557686
129	0xbe349bb5	-0.17637523
130	0xbdbe8fa4	-0.09304741
131	0xbd9caf36	-0.07650606
132	0x3e170dec	0.14751405
133	0x3e4c8828	0.19973814
134	0xbd1ad553	-0.037801098
135	0xbcde8fae	-0.027168121
136	0xbdae9463	-0.08524396
137	0xbe11480b	-0.14187638
138	0xbc46ebf6	-0.012141218
139	0xbd5d2ec6	-0.053999685
140	0x3d307635	0.04308148
141	0x3d9534df	0.07285475
142	0x3e0c9bde	0.13731334
143	0x3e13ad24	0.14421517
144	0x3d42f716	0.04759892
145	0x3dca83c2	0.09888412
146	0x3c9795c9	0.01850404
147	0x3d973814	0.07383743
148	0xbe335f9f	-0.17516945
149	0xbe13baeb	-0.14426772
150	0x3cdd9e7f	0.027053116
151	0x3c0fac0c	0.0087690465
152	0xbdb865be	-0.09003781
153	0xbd10698a	-0.0352569
154	0xbbc12bd0	-0.0058951154
155	0x3d14a65f	0.036291476
156	0x3da68227	0.08130293
157	0xbe105274	-0.14093953
158	0x3c818835	0.015812019
159	0xbc587c62	-0.013213249
160	0x3d1a4d2e	0.03767126
161	0xbdd98b2f	-0.1062225
162	0x3d07c624	0.033147946
163	0x3cec8e84	0.02887655
164	0xbbc4207c	-0.0059853178
165	0x3bbcbb9a	0.0057596685
166	0x3d376947	0.044778135
167	0x3cbd138f	0.023080615
168	0xbd49352a	-0.049122967
169	0xbe0bc1ca	-0.13648143
170	0x3b11cf37	0.0022248754
171	0x3ce993ed	0.02851292
172	0x3e67111d	0.22565122
173	0xbd466f46	-0.048445962
174	0x3c9c3eb1	0.019072862
175	0x3d0a31c2	0.03373886
176	0xbc81eefd	-0.015861029
177	0xbe0ec781	-0.13943292
178	0x3c785e9f	0.015159278
179	0xbd60dc46	-0.05489757
180	0xbc4f16c2	-0.012639703
181	0x3e08b07d	0.13348575
182	0xbd25f9de	-0.040521495
183	0xbe4bca27	-0.19901334
184	0x3c460d0c	0.012088072
185	0xbd06991a	-0.032860853
186	0xbc26ddc0	-0.010184705
187	0x3e280de1	0.16411544
188	0xbdc1a249	-0.094547816
189	0xbe2876e9	-0.1645161
190	0xbc32ab53	-0.010905105
191	0x3c3c3ece	0.011489583
192	0xbc9362e7	-0.017991496
193	0xbdf13740	-0.11778116
194	0x3cfd0f21	0.030891003
195	0xbddccdfd	-0.10781477
196	0x3b933cc5	0.0044933283
197	0x3cc05229	0.023476677
198	0xbd1463a4	-0.036227837
199	0x3d0a66dd	0.033789504
200	0x3d7bbad9	0.06145749
201	0x3db9ebfd	0.09078214
202	0xbd199518	-0.037495703
203	0x3e3bedef	0.18352483
204	0x3cb1dc15	0.021711389
205	0xbd4efa83	-0.050531875
206	0xbd29d1be	-0.04145979
207	0xbd1745a6	-0.036931656
208	0xbb002a73	-0.0019556552
209	0x3db268b1	0.087113746
210	0xbe666174	-0.22498113
211	0x3dd06da9	0.10177166
212	0x3d4eddd3	0.050504517
213	0xbe86e615	-0.26347414
214	0x3e3ee635	0.18642505
215	0xbe1853ee	-0.14875767
216	0x3d898e35	0.06716577
217	0xbe055565	-0.13020857
218	0xbc7fc7de	-0.015611617
219	0xbc91ecb5	-0.017813066
220	0xbcf515fc	-0.02991771
221	0xbc7ad8bc	-0.015310463
222	0x3dcd415f	0.10022234
223	0xbdf369ca	-0.11885412
224	0x3db69c1b	0.089164935
225	0x3d96b8e8	0.07359487
226	0xbca8eefa	-0.020621765
227	0x3da2fc83	0.07958319
228	0x3d5d9fee	0.0541076
229	0x3e03f084	0.12884718
230	0x3ce8c011	0.028411897
231	0x3de91b60	0.113821745
232	0xbdccff1c	-0.10009596
233	0xbd9d2673	-0.07673349
234	0x3e2d887f	0.169466
235	0x3db1bd80	0.086787224
236	0x3ce8a9d4	0.028401293
237	0x3e7bbecb	0.245845
238	0xbd637f01	-0.055541042
239	0x3c1ca1a0	0.009560019
240	0x3dad3f6e	0.08459364
241	0x3dd4a2a3	0.10382583
242	0x3dc94032	0.098266974
243	0x3d93d7e5	0.07218913
244	0x3d82008f	0.06347763
245	0x3da6a532	0.08136977
246	0xbe2d2fab	-0.16912715
247	0x3da1c1c4	0.07898286
248	0xbd0c2319	-0.03421316
249	0xbdb762b9	-0.08954377
250	0x3e3aabb5	0.18229564
251	0x3d806a94	0.06270328
252	0x3dc5c937	0.09657519
253	0xbd685318	-0.05671987
254	0xbce0a05d	-0.027420217
255	0x3d1b6394	0.037936762

network_body._body_endoder.seq_layers.2.bias f4 [256]
0	0xbae38a39	-0.0017359919
1	0xbb949d35	-0.004535342
2	0xbada3388	-0.0016647438
3	0xba8e6864	-0.0010864851
4	0xba82e76d	-0.0009987183
5	0xba04f590	-0.0005071992
6	0xbab02493	-0.0013438634
7	0xba446324	-0.000749158
8	0xbb0218f7	-0.0019851306
9	0xbb037161	-0.0020056593
10	0x3b6c39d1	0.0036045203
11	0xbac12ec4	-0.0014738669
12	0xbac50aec	-0.0015033162
13	0xb986a83d	-0.0002568382
14	0xbbdbea4b	-0.0067112795
15	0xba83d4ac	-0.0010057888
16	0xbb1e0209	-0.00241101
17	0xbaa5026d	-0.0012589224
18	0x3b6799ba	0.003533943
19	0xbabbb93a	-0.001432217
20	0xba2549cb	-0.00063052465
21	0xb995bed5	-0.00028561676
22	0xbad955b2	-0.0016581325
23	0xbaa52131	-0.0012598393
24	0xbbaf3172	-0.0053464705
25	0xbb4a483b	-0.0030865807
26	0xbade5c96	-0.0016964849
27	0xbb125886	-0.0022330596
28	0xba972fe1	-0.0011534655
29	0xbbf012bb	-0.0073264516
30	0xbab85b83	-0.0014065359
31	0xbbbeff45	-0.0058287703
32	0xbb0c26ca	-0.0021385425
33	0xbba85407	-0.00513697
34	0xbb836180	-0.0040094256
35	0xbb171989	-0.0023055992
36	0xbb1cff43	-0.0023955859
37	0xba5bf14d	-0.00083901436
38	0xbb66e926	-0.0035234182
39	0xba1ad0e4	-0.0005905761
40	0xbbcd2303	-0.0062602772
41	0xbb8b29e9	-0.0042469394
42	0xbb864f60	-0.0040988177
43	0xbb0e3605	-0.0021699679
44	0xbb0dcb9b	-0.002163625
45	0xba52286f	-0.00080168893
46	0x396d2c68	0.00022618624
47	0xbab629ee	-0.0013897994
48	0xbb03a00c	-0.002008441
49	0xba774f08	-0.0009434079
50	0xba905c1b	-0.0011013778
51	0xbb4e49e2	-0.0031477143
52	0xba8de6af	-0.0010826195
53	0xbbbc7d24	-0.0057522226
54	0xbb32f289	-0.0027305207
55	0x3a242521	0.0006261636
56	0xba3e179a	-0.0007251442
57	0xbac4895f	-0.0014994553
58	0xbacdb709	-0.0015694808
59	0xb9bf39ef	-0.00036473523
60	0xba1c5b7a	-0.0005964559
61	0xbb2d601a	-0.0026454986
62	0xb9fa46a9	-0.00047736362
63	0xba82c976	-0.0009978253
64	0xbb8ecf50	-0.0043582097
65	0xbb4dc58b	-0.0031398262
66	0xbb162c3e	-0.0022914554
67	0xbb4937a2	-0.0030703326
68	0xbb5f9008	-0.003411295
69	0xbb90ee7d	-0.0044229613
70	0xbb2b9cf0	-0.0026186071
71	0xbab8a722	-0.0014087895
72	0xbb09b24b	-0.0021010812
73	0xba895259	-0.0010476812
74	0x39bf6a08	0.00036509358
75	0xbbb0d2ed	-0.005396238
76	0xbaac1da2	-0.001313139
77	0xbb6350c7	-0.0034685598
78	0xba6f99f9	-0.000914007
79	0xbb8c85d2	-0.0042884136
80	0xbaa5109a	-0.0012593449
81	0xbba052d5	-0.004892687
82	0xba5bc38e	-0.0008383327
83	0xbaaf4983	-0.0013373349
84	0xbb2aedc7	-0.0026081668
85	0xbb26d55c	-0.0025456762
86	0xbb0de085	-0.0021648717
87	0xba95144c	-0.0011373847
88	0xba9187d2	-0.00111031
89	0xbb10cc70	-0.002209451
90	0x3a59cfb1	0.00083088415
91	0xba86e458	-0.001029144
92	0xbb83464a	-0.004006182
93	0xbb501c38	-0.00317551
94	0xbb6485d6	-0.0034869811
95	0x3bc0051a	0.005859983
96	0xbbc573a8	-0.00602575
97	0xbc0f8861	-0.008760543
98	0xbaa31355	-0.0012441674
99	0xbbe89e99	-0.0070989844
100	0xba981996	-0.0011604305
101	0xbb974141	-0.004615933
102	0xbb425879	-0.0029654785
103	0xbb6e03dd	-0.003631822
104	0xbb892bc8	-0.0041861273
105	0xbac72866	-0.0015194535
106	0xbb3cc569	-0.002880419
107	0xbb905307	-0.004404429
108	0xbae75b75	-0.0017651158
109	0xbb3f20ec	-0.002916391
110	0xba9ddcfe	-0.001204401
111	0xbb4258d9	-0.0029655008
112	0xba8a8800	-0.0010569096
113	0xbac3185f	-0.0014884582
114	0xba3ca940	-0.0007196851
115	0xbaf13d39	-0.0018405087
116	0xbb54ee41	-0.0032490643
117	0xbb072cd4	-0.0020626085
118	0xbb402c8f	-0.0029323434
119	0xba66e27d	-0.0008807553
120	0xba0a1909	-0.0005268013
121	0xbbd44de5	-0.0064790123
122	0xba915fb6	-0.0011091146
123	0xba80444e	-0.0009785981
124	0xbac3b222	-0.0014930407
125	0x3b51693c	0.0031953594
126	0xbb22f2ae	-0.0024863887
127	0xba7bac18	-0.0009600534
128	0xbb8ff3fd	-0.0043930993
129	0xbb591f52	-0.003313024
130	0xba78cce4	-0.00094909803
131	0xbac8e595	-0.001532721
132	0xbab50163	-0.0013809617
133	0xbb59b884	-0.0033221552
134	0xbbb59ef9	-0.0055426327
135	0xbbcc34de	-0.006231888
136	0xbab1e3e3	-0.0013571944
137	0x3ccdc65d	0.025119001
138	0xbb8f3036	-0.004369761
139	0xba07924f	-0.0005171643
140	0xbb7e4b2b	-0.0038802128
141	0xbb2a7394	-0.0026008831
142	0xbb59819d	-0.0033188828
143	0xbb839f55	-0.0040167966
144	0xbb3aee31	-0.002852332
145	0xbbc8d859	-0.0061293063
146	0xbb2f4c28	-0.0026748274
147	0xbac6a5e7	-0.0015155644
148	0xbb222d9f	-0.002474643
149	0xba18add4	-0.0005824242
150	0xbae7577a	-0.0017649971
151	0xbc218bed	-0.009860021
152	0xba8aa632	-0.0010578095
153	0xbbdc5b76	-0.00672477
154	0xba8190b5	-0.0009885045
155	0xbacb6c7a	-0.001552
156	0xbabe8a96	-0.0014537151
157	0xbb92cf61	-0.004480288
158	0x39e1659b	0.00042991046
159	0xba3308e2	-0.0006829632
160	0xbbe0a9f4	-0.0068561975
161	0xbb192411	-0.0023367445
162	0xba3f24ba	-0.00072915445
163	0xb9e743e3	-0.00044110333
164	0xbaaa51ac	-0.0012994311
165	0xbb02b67d	-0.0019945197
166	0xbad33e5f	-0.001611661
167	0xbaeb59c2	-0.0017955827
168	0xba69fdce	-0.00089260645
169	0x3c39dd70	0.011344299
170	0xbb2da0ad	-0.0026493475
171	0xba4d4cba	-0.00078315625
172	0xbb27b7fc	-0.002559184
173	0xbb8b6149	-0.0042535407
174	0x3b29514f	0.0025835817
175	0xba39a692	-0.0007082011
176	0x37e76969	2.7586431e-05
177	0xbb435dba	-0.0029810504
178	0xba1937db	-0.000584481
179	0xbb317f35	-0.0027083878
180	0xba54ae03	-0.0008113088
181	0xbab4a329	-0.0013781536
182	0xbad4a644	-0.0016223867
183	0xbab06e8c	-0.001346068
184	0xbb8e728d	-0.0043471516
185	0xbb413ecf	-0.00294869
186	0xba3d86ad	-0.0007229846
187	0xb9f3c3b6	-0.00046494388
188	0xba9d58b1	-0.0012004582
189	0xbb114035	-0.0022163515
190	0xbba3631e	-0.004986181
191	0xbb118c48	-0.0022208858
192	0xba7f4453	-0.0009737659
193	0x3833c8ce	4.286394e-05
194	0xbaae777b	-0.0013310754
195	0xba9d43e5	-0.0011998384
196	0xbb7eaf1a	-0.0038861693
197	0xba439984	-0.0007461535
198	0xbb9a2537	-0.0047041434
199	0xb8ab135a	-8.15752e-05
200	0xbaac46a3	-0.001314361
201	0xba9ee3e4	-0.001212236
202	0xb9f6f0a3	-0.00047100065
203	0x39b5b617	0.00034658678
204	0xbb358897	-0.0027699822
205	0xbab29c73	-0.0013626948
206	0xba31d2d2	-0.0006783429
207	0xbb88d03f	-0.0041752155
208	0xbb0145e7	-0.0019725503
209	0xbab1e5cc	-0.0013572513
210	0xbb2adc8f	-0.0026071405
211	0xbaa50f9e	-0.0012593155
212	0xbac8131e	-0.0015264486
213	0xbb075211	-0.002064828
214	0xb9e04d27	-0.00042782092
215	0xbb675af3	-0.0035302013
216	0xbbc254b2	-0.0059305066
217	0xbb0875a2	-0.0020822068
218	0xbbd80047	-0.00659183
219	0xbb24068d	-0.0025028319
220	0xba94129b	-0.0011297049
221	0xbb3ba96b	-0.0028634917
222	0xbb00df2a	-0.0019664266
223	0xbb859046	-0.0040760366
224	0xba637efb	-0.00086782844
225	0xbb23c46e	-0.0024988907
226	0xba0616c6	-0.0005115088
227	0xbbf79afe	-0.0075563183
228	0xbbfbc34e	-0.0076831942
229	0xba892488	-0.0010463158
230	0x3b7e3b3d	0.0038792633
231	0xbae199a8	-0.0017211931
232	0xbbc55588	-0.006022159
233	0xbbf228e4	-0.0073901284
234	0xbb43bbb4	-0.0029866518
235	0x3bdad861	0.0066786264
236	0xbacb954d	-0.0015532166
237	0xbb594d0c	-0.0033157496
238	0xbb1494cd	-0.00226717
239	0xbb35484e	-0.0027661505
240	0xbb083086	-0.0020780875
241	0xbac1a0d2	-0.001477266
242	0xbba63b2c	-0.005072972
243	0xbb805136	-0.003915931
244	0xbc006a8c	-0.007837903
245	0xba74e96e	-0.0009342645
246	0xbacd346f	-0.0015655885
247	0xb8e0cc38	-0.00010719191
248	0xba6542c4	-0.00087456056
249	0xbad2ae9b	-0.0016073765
250	0xbacfa15f	-0.0015840939
251	0xbc081379	-0.008305424
252	0xbabfc3e0	-0.0014630519
253	0xbb8cf7ce	-0.0043020016
254	0xbba405a1	-0.005005554
255	0xbb3122dd	-0.0027028837

network_body._body_endoder.seq_layers.2.weight f4 [256, 256]
0	0x3cc42fff	0.023948668
1	0x3d8806f4	0.06641951
2	0xbd1a54b6	-0.037678443
3	0xbdc666b0	-0.09687555
4	0x3c5bed5a	0.013423288
5	0xbd9b63bb	-0.075873815
6	0xbdf09cd9	-0.11748666
7	0xbd9d8b25	-0.07692555
8	0xbc809d9c	-0.015700154
9	0x3dac567c	0.08414933
10	0x3d04453f	0.0322926
11	0x3dc37119	0.09543056
12	0xbbb41b0c	-0.0054963883
13	0xbdbc225a	-0.091862395
14	0x3d5e33b2	0.05424852
15	0xbc70c201	-0.014694692
16	0xbcd5e17d	-0.026108498
17	0xbd82133e	-0.063513264
18	0xbbeebb32	-0.007285499
19	0x3c3a255d	0.011361447
20	0xbcaac5de	-0.020846304
21	0xbc90f38d	-0.017694259
22	0x3e21a759	0.15786494
23	0x3ca4e5a3	0.02012903
24	0x3be1dae4	0.006892549
25	0x3b1d35f6	0.0023988462
26	0x3e005ce5	0.12535436
27	0x3d1f0bb8	0.038829535
28	0x3cc56193	0.024094379
29	0xbd63bc4f	-0.055599507
30	0x3d49fd51	0.049313847
31	0xbc82c278	-0.01596187
32	0x3da87482	0.08225347
33	0xbd5cb1fc	-0.053880677
34	0x3c17307c	0.009227868
35	0xbc90bf31	-0.017669292
36	0x3d410a50	0.047128975
37	0x3d736428	0.05942169
38	0xbd887360	-0.06662631
39	0xbd7b9e72	-0.061430402
40	0xbbb29f3d	-0.0054511116
41	0xbd150f3c	-0.03639148
42	0xbd843155	-0.06454722
43	0xbc5ba4e7	-0.013406015
44	0x3ca28602	0.01983929
45	0x3c1c3e7d	0.009536383
46	0xbd9b43a7	-0.07581263
47	0x3d3cba5e	0.04607617
48	0xbcd4a582	-0.025957827
49	0xbd07bc6f	-0.03313869
50	0x3bc1506b	0.005899479
51	0x3c3d2697	0.011544845
52	0xbb1b9d14	-0.002374475
53	0x3d33f33c	0.04393314
54	0x3da23cdb	0.079217635
55	0x3c4693d4	0.012120206
56	0xbc819428	-0.015817717
57	0x3d6b26b1	0.057409946
58	0xbd70c47d	-0.058781136
59	0x3dc07fd2	0.0939938
60	0xbd386237	-0.04501554
61	0xbc192cff	-0.009349107
62	0x3e3af96f	0.18259214
63	0x3ba9f10b	0.0051862053
64	0xbd9e71a0	-0.07736516
65	0x3c6fcdb2	0.014636444
66	0x3d8cd6fb	0.06876942
67	0x3dc0ec3a	0.09420057
68	0xbd8457f9	-0.06462092
69	0xbd5fdace	-0.054652028
70	0xbcc9c9e5	-0.024632404
71	0xbc8c5b77	-0.017133458
72	0xbd183fb2	-0.03717012
73	0xbcba7e9c	-0.02276545
74	0x3d33a926	0.043862484
75	0xbd820238	-0.063480794
76	0xbcbf1337	-0.023324592
77	0x3c189d65	0.0093148695
78	0xbd98f908	-0.07469374
79	0x3dc4181e	0.095749125
80	0xbdcd2b6f	-0.1001805
81	0x3d2e9c9a	0.042629816
82	0x39a8d28e	0.00032200332
83	0xbcb5357a	-0.022120226
84	0x3cebef67	0.02880068
85	0xbc1c4ae1	-0.009539337
86	0xbda1cc6c	-0.079003185
87	0x3cc3f125	0.023918698
88	0xbca333b0	-0.019922107
89	0xbc705ff8	-0.014671318
90	0xbce92df3	-0.028464293
91	0xbb58cc75	-0.003308085
92	0xbd5042e7	-0.050845053
93	0x3b5f1881	0.0034041705
94	0x3cdf1f64	0.027236648
95	0x3d0081ce	0.03137379
96	0xbb4c8678	-0.003120808
97	0x3e1b0c8c	0.15141505
98	0xbd9d0286	-0.07666497
99	0xbd9ba43c	-0.075996846
100	0x3d51ae83	0.051191818
101	0x3d153eb1	0.03643674
102	0xbd058fb7	-0.03260776
103	0x3d431faf	0.047637638
104	0xbde2f426	-0.11081724
105	0xbc984aaa	-0.01859029
106	0x3dcbdcf4	0.09954253
107	0xbd4b567a	-0.049643017
108	0x3c82c211	0.015961679
109	0xbd5842aa	-0.05279795
110	0x3dd57eac	0.10424551
111	0x3cdb10e6	0.026741456
112	0xba05b95f	-0.000510117
113	0xbd2915ce	-0.04128056
114	0x3bea4439	0.007149246
115	0x3da5e7e7	0.081008725
116	0x3c8b538d	0.017007614
117	0xbd8d18e3	-0.068895124
118	0x3d86dbf6	0.06584923
119	0x3de866d1	0.11347736
120	0x3c85b68e	0.0163224
121	0xbca3fe5f	-0.020018755
122	0x3d11f6e1	0.035635833
123	0x3da9c736	0.082899496
124	0x3d125051	0.035721127
125	0xbc3adbba	-0.011404926
126	0xb9863d15	-0.0002560398
127	0x3db7c38f	0.08972847
128	0x3db8eb11	0.0902921
129	0xbd58287c	-0.052772984
130	0xbce942b5	-0.028474191
131	0x3b9d46d9	0.0047997055
132	0xbba1b6f3	-0.0049351393
133	0x3e17424e	0.14771387
134	0x3d852ea6	0.06503038
135	0xbde060e5	-0.10955981
136	0xbaf277ea	-0.0018498872
137	0x3d162996	0.036660753
138	0xbc91bc45	-0.01778997
139	0x3c1c57f3	0.009542453
140	0x3d88457f	0.0665388
141	0x3df5e1d9	0.12005968
142	0xbdc2c414	-0.09510055
143	0x3cd3fa95	0.025876323
144	0xbd82aad7	-0.06380241
145	0xbcb5cc30	-0.02219209
146	0xbb670397	-0.0035249942
147	0x3d5f243d	0.05447792
148	0xbb8177ef	-0.003951065
149	0x3d10ea88	0.035379916
150	0xbd844618	-0.06458682
151	0xbd002837	-0.031288352
152	0x3d3ec9f8	0.04657933
153	0xbd4fedcf	-0.0507639
154	0xbd9df055	-0.07711855
155	0x3d998796	0.07496564
156	0xbd72bdd2	-0.059263058
157	0x3ce3b411	0.027795823
158	0x3d75ca73	0.060007524
159	0xbde26acc	-0.11055526
160	0x3ce1f7e5	0.027584026
161	0x3cbf7858	0.023372814
162	0xbc970749	-0.018436091
163	0xbc0b294e	-0.0084937345
164	0x3cae5e69	0.021285253
165	0xbd4be1c0	-0.04977584
166	0x3c900ef5	0.017585257
167	0xbde34913	-0.11097922
168	0x3df516b6	0.119672224
169	0xbcfca96b	-0.030842504
170	0x3cdcc188	0.026947752
171	0x3cf90f50	0.03040281
172	0xbd04a7b5	-0.0323865
173	0x3c8572b3	0.016290044
174	0x3c9ae92e	0.018910017
175	0x3d41b21b	0.047288995
176	0xbc8c20f0	-0.01710555
177	0x3cce4b1d	0.025182301
178	0x3ce87643	0.028376704
179	0x3d2e11f3	0.042497586
180	0x3de013cc	0.10941276
181	0x3cd34093	0.025787627
182	0x3d7779ee	0.060419016
183	0xbd284415	-0.041080553
184	0x3d75b9e1	0.05999172
185	0x3d8488c9	0.06471402
186	0xbd5d4e87	-0.054029968
187	0x3d04a380	0.03238249
188	0xbd7a8c70	-0.061169088
189	0xbafb8460	-0.0019189231
190	0xbdaba666	-0.08381347
191	0xbc9e3f1e	-0.019317206
192	0x3c34f1a3	0.011043939
193	0x3be39e45	0.0069463574
194	0x3dc6b7cc	0.09703025
195	0x3d4c4a1a	0.049875356
196	0x3d94a974	0.07258883
197	0xbbbfc5d7	-0.005852442
198	0xbd4799b4	-0.048730567
199	0x3daea6a6	0.085278794
200	0x3c2f919e	0.01071587
201	0xbbf2cfe8	-0.0074100383
202	0x3cf522e7	0.02992387
203	0x3b3717ff	0.0027937887
204	0x3b377235	0.0027991657
205	0xbd5ac4e0	-0.05341041
206	0xbdbda86e	-0.09260641
207	0x3d8a95ff	0.06766891
208	0xbe128338	-0.14307868
209	0x3c57cd88	0.013171561
210	0x3dbc1fc5	0.09185747
211	0x3d4a2159	0.04934821
212	0xbd6a2618	-0.057165235
213	0xbdb0b1a5	-0.08627633
214	0xbcf2349e	-0.029566105
215	0xbd338d7c	-0.043836102
216	0x3c3cd2aa	0.011524836
217	0xbdbfa267	-0.09357148
218	0x3d23e99f	0.04001772
219	0x3d0bc37e	0.034121983
220	0x3d3fd655	0.046835262
221	0x3d23e363	0.040011775
222	0xbd3c9c4a	-0.046047486
223	0xbc35d560	-0.011098236
224	0x3c369c9f	0.01114574
225	0xbdb93b1c	-0.09044477
226	0x3b4d702d	0.003134738
227	0xbbfeca8f	-0.0077756117
228	0xbd259b2c	-0.040431187
229	0x3cc2e42c	0.023790441
230	0xbb82e68f	-0.00399477
231	0x3dc69211	0.09695829
232	0xbd645bb0	-0.055751503
233	0xbd46ef90	-0.04856831
234	0xbd3c34cd	-0.045948792
235	0xbd4e934f	-0.050433453
236	0x3d94b75e	0.07261537
237	0x3d1c4f39	0.03816149
238	0xbdb5de8f	-0.0888034
239	0xbc6cb55b	-0.014447535
240	0xbc56531b	-0.013081337
241	0xbc614688	-0.013749726
242	0xbd2b52d3	-0.041827034
243	0xbd13ed2d	-0.03611486
244	0x3b071197	0.002060985
245	0xb9ef9c75	-0.00045702202
246	0x3d2a2fd0	0.041549504
247	0x3ca64c60	0.02030009
248	0xbe44bef7	-0.19213472
249	0x3d95bbe6	0.073112294
250	0x3d9607c5	0.07325701
251	0xbd5bffff	-0.053710934
252	0xbe0c2125	-0.13684519
253	0xbc93ff78	-0.018066153
254	0xb98d52f9	-0.00026955435
255	0xbdd372f9	-0.10324664
