results/MLDriver/MLDriver/MLDriver-55663.onnx (onnx, 404427 bytes, 7 tensors)

action_model._continuous_distribution.log_sigma f4 [1, 3]
00000000: d47c 1a3d d3b6 263d 448b 263d
0.0377167 0.0407017 0.040660158

action_model._continuous_distribution.mu.bias f4 [3]
00000000: 2e36 493b 3356 5bba 4f57 35ba
0.003070246 -0.00083670317 -0.0006917612

action_model._continuous_distribution.mu.weight f4 [3, 256]
00000000: e2bd 48bc 68c1 e33b d016 7a3c f046 cb3b
00000010: b00c d43a 1e02 1d3c c697 31bc 534b 27bc
00000020: f7f8 c9bb aa88 a03c f0f3 d73b 5d99 60bb
00000030: 4045 3a3c 7e3e ad3c 928e 8dbc ffe8 9f3b
00000040: 1e87 7abb e8e7 c1bb 6854 cf3c edf5 95bc
00000050: abfe 453c 8c84 a13c dec5 a5bb e559 21bc
00000060: 7757 a53c fa1c a73c d1de 26bc ba1c a43c
00000070: 040f d23b f76d 943c b172 82bc dc54 31bc
00000080: c1c8 92bb e5fd 443c 173b 7f3c 2be8 f93b
00000090: bc86 a23c fc5e 0d3c ff06 0dbc f0fb 913c
000000a0: beb7 3dbc 155e 31bc 91d3 313b 2de0 00bc
000000b0: 5af0 d8bb 2fda 2b3c 2821 47bc 32eb 47bc
000000c0: 0443 e939 82ef 22bc 9eb5 073d 376d a3bb
000000d0: b604 873c c3ff 773c 000e 40bc 6f4e c83a
000000e0: 15a8 05bd 306b 2339 3c34 5bbc ea83 af3c
000000f0: 3179 643c f721 e73b e4ea 49ba dcbb 6d3c
00000100: 2dc6 b63b c3c9 c5bb 3fb1 0b3c 3c3d bc3a
00000110: 997b 6b3b 9890 b5bc 0d70 54bc c9f8 ac3b
00000120: ac27 103b cef5 6ebc 026d bc3c e5f6 a6bb
00000130: 9ea0 80bb 9aa5 93bb 4cd8 1d3c fcc6 703b
00000140: f99c d5bb e9d6 263c c90f 083a 6d67 383a
00000150: 4a77 0e3c 7527 08bb da96 123c dbc7 77bb
00000160: 135f 95bc 7d0f 5e3b e1fe 4dbc 54e7 fbbb
00000170: 752f 8b3b b9c7 273c a5d5 ee3a 1070 1fba
00000180: 0864 013c 8105 07bc d5a6 84bc 9bd3 bbbc
00000190: 3979 08bc 7b76 87ba c812 71bc 89c9 8bbc
000001a0: 03a5 c0bb dd78 e63b 6137 6cbc a9d9 eebc
000001b0: ff35 7c3b a762 683d a23a 4bbb aee6 9a3c
000001c0: 0df7 b63a 2957 75bb 281c 83bb a358 7ebb
000001d0: 0cb6 f73c 1cfa 45bb f39a d8bb 5890 863c
000001e0: 6cd7 84bc 204b 883c 8476 8f3c c56d 42bc
000001f0: b8a6 b6bb 6b95 c6bb 6d7d 1d3b e866 44bc
00000200: 1349 323b 25fc d0bb b493 613c 5743 97b9
00000210: 3288 dc3b ed10 cd3a dffc 3dbc c577 98bb
00000220: b1c7 52bb 0f1e 0e3d 6045 913b 83c7 613c
00000230: 8702 1e3b 9313 9aba 8903 4a3c b3ef 983b
00000240: 2f00 04bc 4cfc 123c ffad 4b3b 8786 b6bb
00000250: df23 c63b 3a22 21bb 9f95 103c 4b61 e0bc
00000260: 2bca 2d3c 2ed6 f5bb 569d 2b3c e5f8 f9ba
00000270: 905d bf3b f115 423b 7ec3 b4bc 7e7b fd3a
00000280: ea88 ff38 317b adbb 3560 46bc 919f 93ba
00000290: 28f1 173c ee33 d23b 9a06 0c3c b2c4 d437
000002a0: 1eac 483c 07c5 2dbc 8da1 f7ba caa7 a13c
000002b0: 40e3 d63b b9e1 263c 2ebe 56bb edf1 4c3a
000002c0: 0225 5abc dd11 bc3a 85ab 993c d04e 773b
000002d0: a0c8 c0bb eae8 ecbb 32eb ca3b 947b 013c
000002e0: 1005 413c 446a dc3a 970e 1f3a 7e07 aa3c
000002f0: 21aa 293c 7b6e b8bc c6a4 d03b 6337 8bbb
00000300: a592 c83b b0ea ffba 2438 083c 66fc 42bc
00000310: 08b4 453c 6c5b 263c 21dd 1dba 7ce8 ce3c
00000320: 0704 57bc 612f 6abc 8d26 8abc 076c 063c
00000330: e6cc 2f3a 7ed0 903b 7576 a23b 24d8 c9bb
00000340: d8f0 173b b9fa 6fbb 0aa8 213c 6b65 fb3b
00000350: d527 0dbc c5b4 e2bb 9065 e73b 1897 e43b
00000360: fb89 6e3c f27d bebb d92a e4bb b4cd 3ebb
00000370: cda1 5b3c ef8e f03b 2781 9cbc 62cc 143b
00000380: 34b0 b13c aa16 c23c 36ac 8e3c f244 6a3b
00000390: 3e84 b9bb 2dd0 863a 1f72 05bc d030 1b3c
000003a0: ff90 a43b e27e 88ba a6fe e7bc a828 9bbb
000003b0: 26b5 2cbc 023d 35b9 417b 913c 3f89 8ebc
000003c0: ae3b 103c d6d2 8a3c 438b 7bbc 4add da3b
000003d0: a913 963b a5d6 50bb 3890 093b c0ba 9c3c
000003e0: 3f8e c43c 65da 3e3a a812 c03c db44 aa3b
000003f0: c57c 67bb 88ac 363c 6b20 7b3a 7e17 053c
-0.012252303 0.006950546 0.015264228 0.006203525 0.0016178098 0.009583024 -0.010839408 -0.01021083
-0.006163712 0.019596417 0.006590359 -0.00342711 0.01136905 0.021147963 -0.017279897 0.00488007
-0.0038227509 -0.005917538 0.025308803 -0.018305743 0.012084643 0.019716524 -0.005058988 -0.009848093
0.020183308 0.02039956 -0.0101849595 0.02003323 0.0064104814 0.018118842 -0.01592383 -0.010823455
-0.004479498 0.012023424 0.015578053 0.0076265535 0.019839637 0.008628603 -0.008607625 0.017820328
-0.011579452 -0.010825654 0.002713416 -0.007865948 -0.006620449 0.010489031 -0.012153901 -0.012202071
0.00044491154 -0.009944798 0.033132188 -0.0049873847 0.016481739 0.015136662 -0.011722088 0.0015282164
-0.032631 0.00015584822 -0.013379153 0.021425206 0.01394491 0.0070536095 -0.0007702543 0.014510121
0.0055778236 -0.0060360148 0.0085261455 0.0014361511 0.0035931824 -0.022163674 -0.012966168 0.005278681
0.0021996303 -0.014584972 0.023001198 -0.00509535 -0.003925397 -0.004505825 0.009634089 0.0036739698
-0.0065189567 0.0101830745 0.00051903405 0.00070344546 0.008695433 -0.0020775471 0.008947099 -0.0037808332
-0.018233811 0.0033883743 -0.012572975 -0.0076874886 0.0042476007 0.010240489 0.001822163 -0.0006082067
0.007897384 -0.008241058 -0.016192833 -0.02292805 -0.008329683 -0.0010334993 -0.01471395 -0.017063873
-0.005879046 0.007033451 -0.0144175 -0.029156523 0.0038484333 0.056734707 -0.003101029 0.018908825
0.0013959125 -0.0037435985 -0.004001159 -0.0038810156 0.030238174 -0.0030208891 -0.0066102683 0.01642625
-0.016216002 0.016637385 0.017512567 -0.011866991 -0.0055740736 -0.0060602925 0.0024031058 -0.011987425
0.00272042 -0.006377714 0.013768125 -0.00028851136 0.006730103 0.0015645303 -0.011595934 -0.0046529495
-0.0032162482 0.034696635 0.004433319 0.013780477 0.0024110393 -0.0011755101 0.012329944 0.0046672462
-0.008056684 0.008971285 0.0031079052 -0.005570236 0.0060467566 -0.002458705 0.008824735 -0.027390143
0.010607283 -0.007502339 0.0104745235 -0.0019071369 0.005840011 0.002961513 -0.022065874 0.0019339172
0.0001218485 -0.0052942266 -0.0121078985 -0.0011262764 0.009273805 0.006414882 0.008546496 2.5363963e-05
0.012248067 -0.010606057 -0.001889275 0.019733328 0.006557852 0.010185652 -0.0032767165 0.0007818032
-0.013314487 0.0014348585 0.018758545 0.0037736185 -0.0058832914 -0.007229914 0.0061925882 0.0079029985
0.011780992 0.0016816338 0.00060675427 0.020755526 0.010355503 -0.022513619 0.006367299 -0.004248546
0.006120997 -0.0019524898 0.008314166 -0.011900997 0.012066849 0.010153633 -0.00060220255 0.025257342
-0.013123519 -0.014293523 -0.016864086 0.008204467 0.00067062525 0.0044193855 0.004957969 -0.006159799
0.0023184326 -0.0036617948 0.009866724 0.007672002 -0.008615454 -0.006918522 0.0070616677 0.0069760196
0.014559264 -0.0058133537 -0.0069631157 -0.0029114308 0.0134052755 0.0073412578 -0.019104553 0.002270483
0.021690466 0.023692448 0.017416101 0.003574666 -0.0056615165 0.001028543 -0.008144884 0.009472087
0.0050221677 -0.0010413791 -0.028319668 -0.004735071 -0.010541236 -0.00017284232 0.017758967 -0.017399428
0.008803291 0.016946238 -0.015353027 0.0066792117 0.0045799804 -0.003186622 0.0020990502 0.019132018
0.02399361 0.0007280468 0.023446396 0.0051961965 -0.0035322171 0.011149533 0.0009579721 0.008123277

network_body._body_endoder.seq_layers.0.bias f4 [256]
00000000: f688 11bb 4b7c 1bbc 39ba 42bb 45ac cb3a
00000010: c36a e3bb e9df e0ba dc1a 96bb 0a7c a6ba
00000020: 582f 93ba b4e1 fc39 4b7d 11bb 4dbb 2cbc
00000030: 08f9 14bc 3f82 97bb 3e9b 813b 4bf3 143b
00000040: 9b2f 8b3b e1ea b7ba d2e6 48ba 065a 4c3a
00000050: 0761 34bc 9d1b 83bc 4dc1 04bc d597 4bbb
00000060: 8c77 54bc bdb1 a4bb e183 c6ba c0f2 a2bb
00000070: 89d7 58b9 e407 15bc 1f92 4dbc 9488 a3bb
00000080: 6b30 b3bb 0375 e8bb 7100 03bc 3c35 69bb
00000090: c41d ca3b ac48 cebb e10c 103c 0fdc 45bb
000000a0: 30bc 36bc f36d 0bbc 75a4 1ebb 4d42 29b9
000000b0: 63da abbb 2fbd 06bb 1490 0ebb 5da8 e7bb
000000c0: 9bef 9eba 7039 73bc e319 4fbb 6785 06bc
000000d0: 0ffa 7639 fa4e 4f3a d7b8 d8ba 22ff 80ba
000000e0: cce0 1dbc 36ca a1bc 6a91 e0bb 0364 01bb
000000f0: 490f 42bc 5808 2eba 25f1 7439 1143 5a3c
00000100: 33e7 573b 2282 0cbc 0095 573b c7be a2bc
00000110: 26c3 a0bb 1126 1ebb 13fe 9dbb 77e6 4ebc
00000120: 3264 86bb 141b c13b f4c7 82bb 8977 de3a
00000130: 7da4 e3ba 2112 d3bb c427 b7bb 6224 c5bb
00000140: 61c6 8abc 39ba e0ba fdc5 fbbb ddff 4738
00000150: bb8f 83bb e806 81ba 4a87 cdba ea87 a7bb
00000160: 52cb 49bc c14c 83bb 16d4 ddbb c303 8fbb
00000170: 5d9d e13b 6514 5cbb 22f7 da3a 700f 0dbc
00000180: 9415 b1bb 1884 873b 40e7 0fbc 1a48 fc3b
00000190: b3a1 b6bb b34e d1bb 2c9c aeba e56d 8fbb
000001a0: 2350 f9bb 1810 1dbc 3e3d 29bc 9659 adbb
000001b0: e9ef 693b 2340 82bc db08 54bb d828 92ba
000001c0: 2ab3 7439 e478 7c3c a723 27bc bd38 213b
000001d0: e54c 92bc b7ba fcbb e8df 08bc 6fad c2ba
000001e0: cbb6 7cba b652 5abb 4d9e 99bb cb4a bdbb
000001f0: 85e6 f7bb 1640 8ebb 8c12 f6ba 1dbf 443c
00000200: 4050 8d3a 056e 433c 7ff0 d8ba 3b86 e0b9
00000210: 62b0 7fbb 104f 8bb9 093a f8bb 307a 733b
00000220: 8bc1 4ebc 114c 1cbc 6f67 99ba df5c feba
00000230: 4e3d 843b 2d1c 3bbb eaff 02bc a893 87bb
00000240: a6fa b7bb bf87 06bc 8ac4 d9bb 1a70 7c3b
00000250: 1633 84bb a6fe e9bb aed1 feba 3aad eebb
00000260: 9538 1abc 8067 31bb 5707 94bb 33c4 f83a
00000270: 3136 7dbb 5461 43bb f8ea faba 9c8e a5bb
00000280: 5821 91bb 425c e9bb 6da7 3ebc eb93 f43a
00000290: 43e7 75bb b55b 9abc 0587 023c 86da d5ba
000002a0: 3b87 f8bb 1c77 7bbb cc0c cebb 8794 32bb
000002b0: 5724 cebb c313 eebb 7cb2 a0bb 8520 92ba
000002c0: 1926 183b 57fc 1cbc e0e7 bb3a 883f 9abc
000002d0: 5de3 b6bb d83a 4ebb b180 4fbb 01b8 e4bb
000002e0: 6ffb 04bc 589e f43b 620a e7ba 5dd1 e4bb
000002f0: 490e 84bb f94f 94bb 2335 dd3a cfce 08bc
00000300: 67f5 503c 2e0a 92bb fcf5 2abc 619d 0c3a
00000310: d4c2 30bc 8b41 23bc 6696 abbb fc8d 24ba
00000320: 9793 04bc 793d a2bb 052d ceba 37f4 49bb
00000330: 643d 54bb 0688 22bb 6c5e 8abb a2e2 703b
00000340: 228a 0ebc f161 58bb 5711 a0bb d714 78bb
00000350: 843c d7bb 7131 afbb 69f4 0dbc be09 903b
00000360: 5bfa 1abb 8b6f ccb9 1902 51ba b298 3b3a
00000370: 273f b6bb 9c14 0ebb fb63 27bc f517 edba
00000380: c5c1 25bc a91b 843b 28b9 37bc 5b1a f63c
00000390: ed66 6cbb b3bf e7bb 42a5 09bb 0228 d0bb
000003a0: c159 6abb fefe 753c f6b9 ec3a 5e7f d0ba
000003b0: a048 283a 8291 33bb 6f3a 143a b072 ddbb
000003c0: 528b 3cbc 00d1 11bc 04c1 85bb b57a 8bbc
000003d0: 89a9 15bc 530a 9eba 1673 d7bb 4f5e 30bb
000003e0: 0863 23bc 32f0 e739 3d52 863a 4298 cab9
000003f0: 06e7 04bc 87f8 83bc b1b3 50bc f03b 153c
-0.002220688 -0.009490083 -0.0029713048 0.0015539011 -0.006940217 -0.0017156574 -0.0045808386 -0.0012701761
-0.001122932 0.00048233347 -0.0022199925 -0.010542703 -0.009092577 -0.004623681 0.003955274 0.0022728022
0.0042476184 -0.0014031791 -0.00076637894 0.0007795397 -0.011009461 -0.016004378 -0.008102727 -0.003106584
-0.012967955 -0.005026071 -0.0015145504 -0.0049727857 -0.00020679658 -0.00909612 -0.012547045 -0.0049906466
-0.0054684184 -0.007094027 -0.007995711 -0.0035584709 0.006168099 -0.0062952843 0.008792133 -0.003019098
-0.011153266 -0.008510101 -0.002420691 -0.00016141795 -0.0052445396 -0.002055954 -0.0021753358 -0.007069631
-0.0012125851 -0.014845237 -0.0031601123 -0.008210517 0.00023553542 0.0007908192 -0.0016534579 -0.000984166
-0.009636115 -0.019749742 -0.006853272 -0.001974345 -0.011844465 -0.00066388166 0.00023359487 0.013321654
0.0032944202 -0.008575948 0.0032895207 -0.01986636 -0.004906076 -0.0024131576 -0.004821548 -0.012628189
-0.0041012997 0.0058931205 -0.0039911214 0.001697288 -0.0017367747 -0.00644137 -0.005589457 -0.0060163
-0.016940298 -0.0017145342 -0.007683514 4.768359e-05 -0.0040149367 -0.0009843977 -0.0015680578 -0.0051126378
-0.012316542 -0.0040069525 -0.0067696674 -0.004364462 0.0068852142 -0.0033581492 0.0016705731 -0.008609638
-0.0054041836 0.00413562 -0.008783162 0.007699025 -0.0055734753 -0.0063875555 -0.0013321689 -0.004377114
-0.00760843 -0.009586357 -0.010329543 -0.0052902205 0.0035695976 -0.015899723 -0.003235391 -0.0011151088
0.00023336397 0.015409682 -0.010201371 0.002460047 -0.017858932 -0.007712688 -0.008354165 -0.0014852713
-0.00096402754 -0.003331346 -0.0046880604 -0.0057767383 -0.007565322 -0.0043411357 -0.0018773838 0.012008456
0.0010781363 0.011928086 -0.0016551166 -0.0004282462 -0.0039015044 -0.00026571052 -0.0075752777 0.0037151687
-0.012619386 -0.00953962 -0.0011703799 -0.001940634 0.0040356284 -0.002855073 -0.007995585 -0.004137475
-0.0056145964 -0.008211075 -0.0066457437 0.0038518966 -0.00403441 -0.007140952 -0.0019441152 -0.007283834
-0.009412904 -0.0027069747 -0.0045174765 0.001897937 -0.0038637037 -0.002981265 -0.0019143512 -0.0050524008
-0.0044290237 -0.0071215937 -0.011636597 0.0018659806 -0.0037521876 -0.018842557 0.0079667615 -0.0016315735
-0.00758448 -0.0038370555 -0.0062881466 -0.0027249174 -0.006290953 -0.0072655394 -0.0049040895 -0.0011148608
0.0023216067 -0.009581647 0.0014336072 -0.018829122 -0.005581303 -0.003146818 -0.00316624 -0.006979943
-0.008116587 0.007465165 -0.0017626996 -0.006982966 -0.0040300232 -0.004526135 0.0016876798 -0.008350088
0.012753821 -0.00445678 -0.010434624 0.00053640275 -0.010788638 -0.009964357 -0.0052364348 -0.0006277261
-0.008091829 -0.004951176 -0.001572997 -0.003081573 -0.0032385224 -0.0024800315 -0.0042226817 0.0036756177
-0.008699926 -0.0033017362 -0.0048848796 -0.0037854218 -0.0065684933 -0.00534647 -0.008664229 0.0043956926
-0.0023647759 -0.00038993018 -0.000797303 0.0007156237 -0.0055617276 -0.0021679765 -0.010216708 -0.0018088805
-0.010116999 0.0040316177 -0.011213578 0.030041864 -0.003607209 -0.007072413 -0.0021003042 -0.0063524256
-0.0035759064 0.015014408 0.0018060792 -0.0015907099 0.00064195134 -0.0027399962 0.0005654459 -0.0067580566
-0.011507826 -0.008899927 -0.004081847 -0.017026285 -0.009134659 -0.001205752 -0.0065749986 -0.002691168
-0.009972341 0.00044238713 0.0010247898 -0.00038641883 -0.008111721 -0.016109718 -0.012738154 0.0091085285

network_body._body_endoder.seq_layers.0.weight f4 [256, 132]
00000000: fdd8 d3bd 373a 09be 3112 3f3c 3b72 2fbd
00000010: cd1f e1b7 9ba8 59bd 886b e33b b90f e23d
00000020: 39ff 6bbd 7a07 c93d ea01 0fbe 8bf0 443d
00000030: b314 a13c 867f cbbd c958 493d 2789 2a3c
00000040: b956 f53c f009 873c 8ef9 cebb 1f23 1cbe
00000050: b7ce 843b 7061 103e b9a8 693d f89b 143b
00000060: 9ed4 e13d 3f20 8a3d 3dfa e9bd a870 443e
00000070: 135e 5e3b a6dc 453e ebc6 60bd 8d33 80bd
00000080: f8bb a53d 60b5 e3bd 7bdc e23c 6cec 4abd
00000090: 51ab 893d 0dfd f83d f0d4 48be 5409 9e3d
000000a0: 4b38 0bbc 1624 acbc c0cc a4bd cf88 f83c
000000b0: 5798 c33d 466f 473c 6ab9 31bd 647b 8a3d
000000c0: def4 81be cdbf 2f3d bad8 943c 09a6 183d
000000d0: c00a 9bbc 3c15 013e a6a8 d23c 4f01 e73c
000000e0: 9100 2cbb 8e36 8b3d 58af 82bc 347e 943d
000000f0: c158 f13c 4326 ea3d ff5f b93d c641 48bd
00000100: 1756 9ebc f8c1 2c3d 2f35 7cba 5d75 d33d
00000110: 7af2 693b 1fa5 0bbe c0c0 b13c 4158 a93d
00000120: 1cd2 2a3d 5913 1c3e cf29 b1bb f5bc d038
00000130: 0b8a fdbd 8ec6 40bc d739 6a3b 6eae 95bd
00000140: ff57 953d 4167 8b3d eff1 55be 0bbe 9b3d
00000150: aec4 173c 92af a93c 5419 1e3e 7f7e 933b
00000160: 00e1 01bd 07f1 e5bd 4e63 773c 30a9 313d
00000170: 984b 86bc 1504 97bc 7198 f1bd 517e 9a3d
00000180: fbc2 2e3d b245 f33d 37cd d73d 7408 7dbc
00000190: 0dc9 8f3d 9ffa 6f3d 1b6f ab3d 2a9d 56bd
000001a0: a5b3 863b 361e ee3c 494b 5a3c e836 debd
000001b0: 353a 7e3b aab8 66bd ff2f 84bd 0938 eabc
000001c0: 2247 253d d926 943d 7621 b63d bedd 873d
000001d0: aaa5 9a3c 828f 83bd 2222 b93d 7ccc 2d3c
000001e0: bf0e 743d 09ec 903d 741e f3bc bcaa cd3d
000001f0: 09c0 9c3d 2f65 38bc c575 ae3d 0017 8abc
00000200: 7c0b 7b3d dad3 33be 2d0f bdbd 6328 9bbd
00000210: f699 163e e6bd 473e 0669 0abd 92c4 e2bc
00000220: d9ba b8bd 77d4 11be 8804 8dbc 136e 5fbd
00000230: 1446 1b3d 6b12 943d 6932 073e 6947 193e
00000240: c38d 2c3d d1bd d53d 3668 c43c ad6c a23d
00000250: 5cc8 2ebe ffb0 0ebe 959b 043d ce7d 703c
00000260: 78e4 adbd 3d22 e9bc e8e8 16ba 2e2c 2a3d
00000270: 97cb b03d 29b0 0abe ef30 a23c 87b7 03bc
00000280: 34a4 373d 4a77 cebd e351 2a3d 9954 0d3d
00000290: b786 283a 1a1f 373c a451 503d 5245 ef3c
000002a0: a332 40bd 8be9 05be 9869 bc3b 9466 0b3d
000002b0: 3e69 6b3e 701f 30bd 3e91 ce3c 5cbe 1f3d
000002c0: 8b82 85bc 0b90 13be 33c4 9c3c f0fc 62bd
000002d0: 2c2a 90bc b322 083e 28c2 3abd c75a 4cbe
000002e0: 907f e23b 2ee7 08bd be7c 7dbc 6fa8 2d3e
000002f0: 5bd7 ccbd 57dc 22be 9006 b2bb ec09 8a3c
00000300: e9d1 49bc e4e7 e3bd f040 0b3d b490 d0bd
00000310: 5ceb 323c 873a f63c 2ff7 fcbc b39a 213d
00000320: d144 893d bf19 c53d 059d 0abd f577 413e
00000330: 8588 e13c f269 35bd 58ca 07bd 90a5 ffbc
00000340: 3ae6 553b 335f be3d 1597 5fbe b460 dc3d
00000350: e7fa 583d 1af3 83be d66b 403e 06c3 12be
00000360: b0c3 913d e58b ffbd fc3b 31bc ba25 4abc
00000370: 6d65 f8bc ed9a a9bc 9b25 d53d b470 f4bd
00000380: 3df1 aa3d dca4 953d 469b d8bc 19e5 a13d
00000390: 4a5b 453d 6162 033e f54b b73c 4768 f53d
000003a0: 134c d9bd cc0f 91bd 3482 333e c804 be3d
000003b0: 43ff 073d af72 813e c838 53bd 0ff7 723c
000003c0: 86bc bf3d dbd7 e23d f8b4 d53d 886c a03d
000003d0: ee78 8d3d 8cb9 b23d 30cf 29be ee1a af3d
000003e0: 211a 01bd 89d0 a9bd de05 433e 3f99 8c3d
000003f0: 43ee d33d 04fe 4fbd cffe a9bc 2444 353d
-0.103441216 -0.13401113 0.011662052 -0.042833548 -2.6836899e-05 -0.05313931 0.006940309 0.11038155
-0.057616446 0.09815879 -0.13965574 0.048080962 0.01966319 -0.099364325 0.049156938 0.010408676
0.02994858 0.01648423 -0.0063163703 -0.15247773 0.0040529626 0.1409967 0.057045672 0.0022675972
0.11026882 0.06744432 -0.11424682 0.191836 0.0033930584 0.19322452 -0.054877203 -0.062598325
0.08092493 -0.11118579 0.027693024 -0.049541876 0.06722129 0.121576406 -0.19612479 0.07716623
-0.008497308 -0.0210133 -0.080468655 0.030338673 0.09550541 0.012172526 -0.043389715 0.06761816
-0.2538213 0.042907525 0.01816975 0.03726772 -0.018926024 0.12605757 0.025715183 0.028198866
-0.0026245455 0.06797515 -0.015952751 0.07250634 0.029461266 0.11433079 0.09051513 -0.04889085
-0.01932816 0.04217717 -0.0009620962 0.1032512 0.0035697506 -0.13637207 0.021698356 0.08268786
0.041704282 0.15241756 -0.0054065953 9.953409e-05 -0.12379845 -0.011766089 0.0035740042 -0.073086604
0.072921745 0.068068035 -0.20893072 0.07604607 0.009263201 0.020713601 0.1543935 0.0045011635
-0.031708717 -0.11227613 0.01509936 0.04337424 -0.016393468 -0.018434564 -0.11796654 0.07543624
0.042666417 0.11878528 0.105371885 -0.01544391 0.07020769 0.05858862 0.08370801 -0.052395977
0.0041107708 0.02906714 0.013323613 -0.10850316 0.0038792018 -0.056328453 -0.06454467 -0.028591173
0.04035104 0.07233972 0.08893101 0.06634091 0.018877823 -0.06423856 0.090397134 0.010607835
0.059584375 0.0707627 -0.029677607 0.100423306 0.07653815 -0.011254593 0.085185565 -0.01685667
0.06129025 -0.17561284 -0.0923141 -0.075760625 0.14707169 0.19506034 -0.033791564 -0.027681623
-0.09020013 -0.14241205 -0.017214075 -0.054548334 0.03790863 0.072300754 0.13202824 0.14968647
0.042127382 0.10436595 0.023975473 0.079308845 -0.17068619 -0.13934706 0.032374937 0.014678432
-0.084908426 -0.028458709 -0.00057567516 0.04154604 0.08632582 -0.13543762 0.019798724 -0.008039362
0.04483433 -0.10081346 0.041582 0.034504507 0.00064287655 0.011176849 0.05085911 0.02920786
-0.04692329 -0.13077371 0.0057498924 0.034033373 0.22989365 -0.04299873 0.025215741 0.0389999
-0.0162976 -0.14410417 0.019136524 -0.055417 -0.017598234 0.13294487 -0.045595318 -0.19956504
0.0069121793 -0.033423595 -0.015471635 0.16958784 -0.10002013 -0.15904365 -0.005432911 0.016850434
-0.012318113 -0.11128214 0.033997476 -0.1018385 0.010920372 0.030057205 -0.030879585 0.039454173
0.06702579 0.09624051 -0.03384115 0.18893416 0.027530918 -0.04429049 -0.033151954 -0.031206876
0.0032638446 0.092955016 -0.21834977 0.10760632 0.052973654 -0.2577141 0.18791136 -0.14332208
0.071174026 -0.12477855 -0.010817524 -0.012338096 -0.030321801 -0.020703757 0.10407563 -0.11935559
0.08346794 0.07306835 -0.026441228 0.07905025 0.048182763 0.12830497 0.022375086 0.1198278
-0.10610213 -0.07083091 0.17530137 0.09278256 0.03320242 0.2528281 -0.051567823 0.014829411
0.0936213 0.110763274 0.10434908 0.07833201 0.06907831 0.087267965 -0.16582942 0.08550058
-0.03151906 -0.08291728 0.19045207 0.06865167 0.10348179 -0.050779358 -0.020751385 0.044254437

network_body._body_endoder.seq_layers.2.bias f4 [256]
00000000: 8918 56bb 7825 c1b9 7df6 adba 4370 10ba
00000010: 0e73 d53a 9287 fcb9 1bb9 cabb d09b 4e3b
00000020: 25d4 36bc 3ffe 263c 947b 403b 163f a5bb
00000030: b444 60bb 03b3 26ba a4bd 4b3c e3a5 39bb
00000040: 2fb4 69bb 0dbc e6bb abc7 8a3c 6d82 a8bb
00000050: f69f 87b8 556a 323a b5e3 54bb da1a aeba
00000060: 5087 3c3a 8914 a9bb e29d febb 8f64 a13b
00000070: cf3a 31bb d28b a5bb 1445 d9ba ad95 04bc
00000080: 8851 26bc cc7f e2bb 6f16 97bb e9dc 94bb
00000090: 5f4f 823b 2370 2dbb dbfb 41bc 433f cd38
000000a0: 02df 22bc bf23 72bb 384b c5bb fd9e aabb
000000b0: 1175 66bb 3691 b0ba 8875 2cb9 c28c f9ba
000000c0: cfd4 2dbb 6613 4cbb da08 0d3c a10c b9bb
000000d0: 1893 abbb 166c d6bb d3c8 413a 7a8e c83b
000000e0: 962e 8fba 5efb 98bb e7d7 54bb 3f59 963a
000000f0: 8d56 74bb cd88 66ba 67b9 4bbb b750 b5ba
00000100: 7351 88bb f101 75bb 2d3f 83bb dced 80bb
00000110: 5d3b edbb 0640 f3bb f0f8 1bbb d9a8 bd3a
00000120: 9a10 04bc 5a0e 81ba 439f 893b 5cce 1fbc
00000130: 042c 9cbb 6dbf fabb d9a9 bbba 8fbc aabb
00000140: 7866 92bb bc46 3dbc 6c37 a3ba 7746 00bb
00000150: bb98 c5bb 301f 92bb 4719 0b3b ae2f 16bb
00000160: 7b2a e5ba f956 85bb 4318 04bb f99f ab3a
00000170: d915 e3bb 74a3 85b9 577b 04bc dc93 b43b
00000180: 796e 33bc fcbd d2bb fd21 7abb 9c48 8ebb
00000190: adda 043b 109e 32bc 4158 f5bb bc73 d0bb
000001a0: 58de 04bc ac26 77bb fb6d 4fbb 3c04 bfba
000001b0: 426e 70bb c0ae fb3a c373 7bbb 81ee 93bc
000001c0: 51b6 34bb a124 09bc 7d06 ffba 5bc7 3bbb
000001d0: 27b4 02ba 5975 21bc 6c92 e5bb cb89 bbb9
000001e0: 20be d8ba 8cf3 d1bb 6a65 13b9 0779 89bb
000001f0: a66d 7cbb 1074 8f3b fa37 d0bb 1734 81bb
00000200: 32c3 cbbb 9094 f2bb e537 d8ba f411 e0bb
00000210: 654c 8bbb a027 1fbc b751 9b3b 7e48 3cbc
00000220: dfe4 53ba 5922 dd3c ff62 19bc f5c8 813b
00000230: 4d5b 5dbc 2af4 91bb 5bca 60bb 664e f0bb
00000240: cbcc 3abb d992 b6bb 3d78 a9bb d2ae 42bb
00000250: 1545 63bc 8574 1dbb 23d2 0cbb c90d 81bc
00000260: 9ce0 6aba 33d1 87bc f5f3 8abb 145e 9bbb
00000270: 0440 8cbb 320a 31bc b730 3dbb b2a2 24bb
00000280: 202e 15bc 0f3d f2bb e0bb 5ebb 3538 20ba
00000290: 201f 033b 0ede a3bb 3c78 30bb 4d39 41bb
000002a0: 76a5 0dba 9cf6 253c 41cc 49bb 84c8 df39
000002b0: add7 aabb b117 e5bb a8e7 d9bb 72ff e8ba
000002c0: 1a96 a4bb c567 e2bb bb90 6cba 858b 90bb
000002d0: bce0 5ebb bdf4 96bb 8148 7cbb b38a 35bb
000002e0: 0a9b ebba 376c 60bb 23e6 00bb 9bfd 873a
000002f0: ba6f deba bb75 3b3c f456 69bb e433 81bb
00000300: 3fdb 6abb cbbc 0c3b 14d4 beb9 28a9 5abb
00000310: e71a b3bb 392e b0b9 0104 57bb 3ad7 d33a
00000320: c549 77bb aabd 7bbb 1417 4bbb e18d 2cb9
00000330: de44 a2bb 52a2 28bb 867e 05bb d204 0cbc
00000340: e556 94bb a530 54bb 7914 f0bb 70af 81bb
00000350: 91a0 39ba 0933 67bb 94e9 b439 c7e7 acbb
00000360: 4260 cdbb fab8 d5bb a0e2 80bc 6fe7 c8bb
00000370: b81a 76ba fced 093c cd29 8aba 65ee 62bc
00000380: 34ef 1ab9 fde0 b6bb 461e 89b9 9a23 87bb
00000390: f74c e8b9 3cb5 dab9 2444 093b efd2 61bb
000003a0: 2b62 f6ba b1c5 54bc 6fb5 cdbb aae3 a03b
000003b0: fc01 c8bb b731 0fbc b5ef 5cbb 5522 0ebc
000003c0: 86ab 83ba c147 35bb a345 d8bb daef 0cbc
000003d0: e457 563b 396c aebb bcc9 5dbb 9ccd 77bb
000003e0: 0233 653b c1af a3bb 44e9 303a 0d1e 0bbc
000003f0: 9a3c 65bb c9ef 1cbb 9ee9 2abc b77a 81bb
-0.0032668433 -0.00036839745 -0.0013272312 -0.00055098924 0.0016284899 -0.00048166193 -0.006186617 0.0031525977
-0.011158978 0.010192453 0.0029370533 -0.005042921 -0.0034220638 -0.0006359072 0.012435351 -0.0028327636
-0.0035660376 -0.0070414604 0.016940912 -0.005142501 -6.467097e-05 0.0006806006 -0.0032484357 -0.0013283149
0.0007191794 -0.0051599187 -0.007770286 0.0049253176 -0.002704311 -0.0050520683 -0.0016576373 -0.008092326
-0.0101512745 -0.006912207 -0.0046108286 -0.004542936 0.003976747 -0.0026464544 -0.011839832 9.786945e-05
-0.0099408645 -0.0036947576 -0.0060209297 -0.005206941 -0.0035164992 -0.0013471011 -0.00016446982 -0.0019039141
-0.002652455 -0.0031139492 0.008608067 -0.0056472574 -0.005236041 -0.0065436466 0.0007392291 0.0061205
-0.0010923918 -0.004668637 -0.003247732 0.0011470689 -0.0037283034 -0.00087941886 -0.003108585 -0.0013833259
-0.0041601 -0.003738519 -0.004005334 -0.003934605 -0.0072397427 -0.0074234037 -0.0023799501 0.0014469876
-0.008060599 -0.0009846196 0.0041998937 -0.00975379 -0.0047659893 -0.0076522143 -0.0014317586 -0.005210466
-0.0044677816 -0.011552509 -0.001245243 -0.001957325 -0.00603017 -0.0044592842 0.0021224783 -0.0022916603
-0.0017483974 -0.004069206 -0.0020156063 0.001309394 -0.0069300947 -0.0002548952 -0.008086047 0.0055107903
-0.010951632 -0.0064313393 -0.0038167231 -0.004342152 0.0020271942 -0.010901943 -0.0074873273 -0.006361453
-0.0081096515 -0.003771226 -0.0031651247 -0.0014573405 -0.0036686813 0.001920186 -0.003836856 -0.018058063
-0.002757449 -0.008370549 -0.001945689 -0.002865276 -0.0004985951 -0.009854638 -0.0070059802 -0.00035770083
-0.0016536154 -0.006407207 -0.00014056792 -0.004195336 -0.0038517504 0.0043778494 -0.006354329 -0.003942977
-0.0062183375 -0.007402964 -0.001649615 -0.0068380777 -0.0042510503 -0.009714037 0.004739966 -0.011491893
-0.00080831157 0.026993917 -0.009361981 0.0039607235 -0.013510537 -0.0044541555 -0.00343003 -0.0073335646
-0.0028503414 -0.005571705 -0.005171804 -0.0029706252 -0.013871451 -0.002402575 -0.0021487556 -0.015753644
-0.0008959861 -0.016579246 -0.0042405077 -0.0047414396 -0.004280092 -0.010805653 -0.0028868148 -0.0025121388
-0.009105235 -0.0073925327 -0.0033986494 -0.0006111891 0.0020007566 -0.005000836 -0.0026927134 -0.0029483617
-0.0005403379 0.010129597 -0.003079191 0.0004268327 -0.005213699 -0.0069913496 -0.00664993 -0.0017776324
-0.0050227763 -0.006909343 -0.0009024252 -0.0044111633 -0.0034008464 -0.004606812 -0.0038495364 -0.002770108
-0.0017975282 -0.0034244189 -0.0019668422 0.0010375263 -0.0016970553 0.011441643 -0.0035604807 -0.0039429534
-0.0035836247 0.0021474834 -0.00036397635 -0.0033364985 -0.0054658535 -0.00033603775 -0.0032808783 0.0016162165
-0.003773318 -0.003841261 -0.0030989097 -0.00016456052 -0.0049520573 -0.0025731516 -0.0020369603 -0.008546071
-0.00452696 -0.0032377627 -0.0073266593 -0.0039576814 -0.0007081116 -0.0035278222 0.00034506305 -0.0052766534
-0.0062675783 -0.006522295 -0.015733063 -0.0061311047 -0.00093881367 0.008418556 -0.0010541022 -0.013850783
-0.00014775695 -0.00558102 -0.00026153232 -0.004124117 -0.00044307832 -0.0004171523 0.0020945156 -0.0034458002
-0.0018797567 -0.012986586 -0.006277732 0.004909952 -0.006103752 -0.00873988 -0.0033712212 -0.008675178
-0.0010045625 -0.0027661177 -0.006600098 -0.008602107 0.0032706195 -0.0053229597 -0.0033842167 -0.0037811762
0.003497303 -0.0049953167 0.00067486265 -0.008491051 -0.0034978748 -0.0023946634 -0.010431675 -0.0039513963

network_body._body_endoder.seq_layers.2.weight f4 [256, 256]
00000000: 920c c03c 8cfc 933d c0c4 1fbd ff47 c6bd
00000010: 1987 673c 6914 9cbd dac4 e9bd 37f0 8bbd
00000020: 7816 683c fe66 aa3d bbec 553d 3748 c33d
00000030: ef95 9f39 1a26 bcbd b1ee 1a3d 7f79 7ebc
00000040: b1f6 babc c8f6 83bd a49a bebc 2242 363c
00000050: afa3 9abc 0c46 91bc 7b48 233e 5d6b a93c
00000060: fcde 113c 103b eebb 704b ff3d 83b9 2d3d
00000070: 412e be3c 0545 58bd 532f 5e3d 26cc 7cbc
00000080: eb30 ae3d 81ce 53bd 138a eab9 01b9 c9bc
00000090: ddab 393d 63a8 6f3d cb02 93bd 91ce 78bd
000000a0: 41a6 90bb 2f67 26bd 28cc 70bd 4cd1 67bc
000000b0: 457b df3b 5375 143c d042 94bd 7c0f 2d3d
000000c0: 2a5f dbbc 1724 03bd d785 0c3c 3eed 403c
000000d0: 6867 91bb b657 573d 8c80 a73d cd34 423c
000000e0: cc91 60bc c82e 763d b755 62bd b184 bc3d
000000f0: 00ed 5dbd a0d6 b03b a72f 3c3e c03e 48bc
00000100: bf08 a5bd d15b 9e3c 4d54 823d 0f6c aa3d
00000110: dbf5 82bd dd20 6dbd d6ff b8bc 71e4 43bb
00000120: f7ac 1abd 0508 08bd 2b52 603d c75e 7fbd
00000130: 0bd1 c1bc 23a9 5e3c cea8 99bd 3608 cc3d
00000140: a3c9 cabd 3459 153d 0bb3 bd3b 1fad b5bc
00000150: 272e dc3c eb54 89bc 545e 98bd d2b0 c03c
00000160: bb82 9ebc 9b6c 53bc 3f5d c1bc 1458 473c
00000170: c6ff 0abd c2ea 7e3b aa98 2d3d fca5 c33c
00000180: 1a4a f2ba a30a 1a3e 3490 adbd 9182 9bbd
00000190: ede1 533d 581a 093d 730b 0abd c45a 463d
000001a0: 1918 e7bd d1b3 89bc 6b99 ce3d 133e 53bd
000001b0: 3474 8f3c 497a 56bd e7c1 d23d ecb0 d43c
000001c0: 54ef ee3a 707d 42bd 943e 043c e52a b73d
000001d0: 8d3f 933c 1779 6ebd 684d 7b3d 0186 e93d
000001e0: 9546 853c 97e0 96bb f4e9 163d b88d a93d
000001f0: 4f38 133d 99c9 20bc f5a8 8aba 873d a33d
00000200: 9e43 b53d 84d7 36bd 2581 04bd f837 813b
00000210: 7e2c 773a ccd5 133e 73e1 843d d72f debd
00000220: 6270 143a bdfa 203d 549c a3bc 13b2 f5ba
00000230: f671 873d 0686 f73d 71c5 c2bd 15aa c13c
00000240: ba92 7cbd 17be a0bc 84d8 8abb 664f 573d
00000250: 0a3e c2bb 38e1 243d 65e1 88bd efbe dfbc
00000260: 17a6 4b3d 4a4a 55bd 2d4a a7bd d1c2 993d
00000270: 3b2f 76bd 820e 0d3d e820 623d d521 e3bd
00000280: be35 ed3c f551 d03c 5d83 90bc 9353 3abc
00000290: 4024 b63c 0b97 45bd c341 a83c 5dc2 e8bd
000002a0: f677 f33d a34f f8bc c16a 9d3c d65b e73c
000002b0: 2e72 f8bc 9e62 3d3c 9c91 a63c e793 433d
000002c0: 1a26 80bc 76fe da3c 07aa 063d 897d 1c3d
000002d0: ab7c e63d e876 bd3c 8d34 7a3d 015f 1abd
000002e0: 9632 633d 14bb 6a3d e995 5bbd bb9d 263d
000002f0: 078d 67bd 623e 493c 462c b3bd 4ba8 89bc
00000300: 1b57 2b3b 1161 5eba 6027 c63d c30c 423d
00000310: 6aba 963d 3e17 673a dfe4 4cbd 339f bc3d
00000320: b821 273c 5caa a4ba b0df ff3c 510a 943b
00000330: 220c 603b 81b0 67bd e831 b7bd 4072 893d
00000340: a5e1 12be 4328 e43b 629f ba3d 5821 483d
00000350: fc60 6fbd 9813 adbd ade4 04bd 9b2d 20bd
00000360: 9b45 333c 40c6 b7bd e6b3 6c3d 8594 573d
00000370: ddff 263d 925c 273d 3bbd 26bd a91d 5bbc
00000380: 830e 0d3c b62a cebd 0843 fb3b 212c 01bd
00000390: 77b5 36bd ffee 353c 1d2c 0cbb b8f6 b03d
000003a0: db2f 65bd 66c6 5fbd 996e 47bd 8de9 6bbd
000003b0: 07ae 903d 5c81 1f3d f982 b8bd 6983 f13a
000003c0: 5436 4fbc 7d20 ccbc 98f9 25bd 1c05 11bd
000003d0: 1f4c c9bb 3e2c eb37 3490 2d3d 893c aa3c
000003e0: 667a 52be 2736 763d 4ca2 8f3d 3bf8 68bd
000003f0: 17d6 0bbe 17fb d0bc 109b 5238 3af2 d6bd
0.023443494 0.07225904 -0.039005995 -0.09681701 0.014131331 -0.076210804 -0.114144996 -0.06832927
0.014165513 0.083204255 0.052227717 0.09535258 0.00030438552 -0.09186955 0.03782529 -0.015531897
-0.02282271 -0.06443554 -0.023267098 0.011124166 -0.018876879 -0.017733596 0.15945618 0.020681078
0.008903261 -0.0072702244 0.124655604 0.042413246 0.023215415 -0.052800197 0.05424435 -0.015429532
0.08505424 -0.05171061 -0.0004473483 -0.02462435 0.045329917 0.058510195 -0.07178267 -0.060743872
-0.0044143503 -0.040625747 -0.05878845 -0.014149021 0.006820115 0.009061175 -0.07239306 0.042251095
-0.026778776 -0.03201684 0.008576832 0.011775313 -0.004437376 0.052573882 0.08178815 0.011853409
-0.013706636 0.060103208 -0.055257525 0.092049964 -0.0541811 0.005396679 0.18377553 -0.012221992
-0.08058309 0.01933089 0.06363735 0.08321392 -0.063945495 -0.05789267 -0.02258293 -0.00298908
-0.03776261 -0.033210773 0.05476586 -0.062346246 -0.02365925 0.01359013 -0.075029 0.099625036
-0.099017404 0.036462024 0.005789166 -0.022177277 0.026877476 -0.016764125 -0.07439867 0.023521814
-0.019349447 -0.0129043115 -0.023604034 0.012166996 -0.03393533 0.003889725 0.04238192 0.023882858
-0.0018485219 0.1504312 -0.0847477 -0.07593263 0.05172913 0.03347239 -0.033702325 0.048426405
-0.11283893 -0.016809376 0.10087856 -0.05157287 0.017511465 -0.052362714 0.1029089 0.02596327
0.0018229284 -0.047482908 0.00807156 0.08943728 0.01797464 -0.05822095 0.061353117 0.11402512
0.016269008 -0.00460441 0.03684421 0.08278984 0.035942372 -0.00981369 -0.0010578918 0.0797072
0.088507876 -0.044639125 -0.032349724 0.0039434396 0.0009428932 0.14437026 0.064883135 -0.108489685
0.00056624983 0.039301623 -0.019972004 -0.0018745087 0.06613533 0.1208611 -0.09510315 0.023640672
-0.061663367 -0.019621892 -0.0042372365 0.052565955 -0.005927806 0.040253848 -0.066836156 -0.027312724
0.049718942 -0.0520728 -0.08168445 0.075078614 -0.060103636 0.034437664 0.055207163 -0.11090437
0.02895629 0.025429705 -0.017640764 -0.011372465 0.022234082 -0.04823975 0.02053917 -0.11365197
0.11888115 -0.030311411 0.019215943 0.028242033 -0.030327883 0.011559157 0.020333104 0.047748473
-0.015643168 0.026732665 0.032876994 0.038205657 0.11254247 0.023127988 0.061085273 -0.03768826
0.055468164 0.057307318 -0.053609762 0.040677767 -0.05653098 0.01228294 -0.08748679 -0.016803881
0.0026144448 -0.0008483092 0.09675479 0.04737545 0.073597744 0.0008815414 -0.050022956 0.09210052
0.01020091 -0.0012562978 0.031234592 0.0045178314 0.003418692 -0.05656481 -0.08945066 0.067112446
-0.14343889 0.0069628074 0.09112431 0.048859924 -0.0584421 -0.08451003 -0.032444645 -0.039105993
0.010941888 -0.0897336 0.057788752 0.052631874 0.040771354 0.040859766 -0.040707808 -0.013373771
0.008609417 -0.1006674 0.007667903 -0.031536225 -0.044606652 0.011104344 -0.0021388598 0.08640808
-0.05595384 -0.054632567 -0.04868946 -0.05759578 0.07064443 0.038941726 -0.09009356 0.0018426004
-0.01264723 -0.024917835 -0.040521234 -0.035405263 -0.0061431075 2.8034785e-05 0.04237385 0.020780819
-0.20554504 0.060110237 0.070133775 -0.056877356 -0.13655888 -0.025510354 5.0212315e-05 -0.1049542
