results/MLDriver4/MLDriver/MLDriver-155120.onnx (onnx, 404427 bytes, 7 tensors)

action_model._continuous_distribution.log_sigma f4 [1, 3]
00000000: 72a7 2cbd 8123 ccbc 424e 293d
-0.042151876 -0.024919273 0.041334398

action_model._continuous_distribution.mu.bias f4 [3]
00000000: 8994 81bb b0ff 39bb 861d 993b
-0.0039544743 -0.0028381161 0.004672709

action_model._continuous_distribution.mu.weight f4 [3, 256]
00000000: ece9 873c 47fc 0a3a b161 40bc 9606 1f3c
00000010: 9fae 58bb 4fb6 4d3a 283c 433c 03a1 853b
00000020: 5812 76bb d355 903c e7eb 8b3c 0d4f 7f39
00000030: ddb1 573d ddae 883c 6f0f f73c 08c4 383a
00000040: a2cc d13b 96d4 863c ee97 e93b c580 27bb
00000050: 2e91 363b 0c1b 223b 0ac1 0d3c 7e7a 373c
00000060: 49eb 93bc 63c9 793c 7c1f 0f3b 9625 5b3b
00000070: a7e1 563d c086 1d3b 0dd7 b53b afb5 d03c
00000080: 3f1f b23b 5194 0abc dc14 ac3c 2b6f 16bb
00000090: 2308 b53b 6ed1 9dbb 3989 17ba 42cf c3bc
000000a0: 4675 cc3b df55 593c 8642 e0bc 78f5 d2ba
000000b0: c763 98bc 11e6 e4bc 68d1 1d3c f365 f83b
000000c0: 6f83 6db9 698d 6ebb 5703 7cbc a5c2 393c
000000d0: c1e5 02bc ea22 f03b f9f5 14bc c618 323b
000000e0: 9d93 9bbc 4a3c bc3b df1e b2bb dc82 06bc
000000f0: 2445 6e3c f30b 1eb9 d9ee 9ebc 6e62 123c
00000100: 98b8 94bc 1284 67bb 7b47 a5bb 6569 2fbc
00000110: 60a7 1d3b 7cb8 af3b 676c 5fbb 7ef7 a5bc
00000120: f291 7dbc ea53 a9bb d3b6 9d3b f861 6a3b
00000130: fc1f fe3b 8511 53bb cce4 8f3c 37f6 77ba
00000140: 7ed1 7bbc d26c b23b 7462 f13c fe11 5c3d
00000150: 692b 0b3c bcb0 abbb cdfe f03b e4e3 153d
00000160: d9b9 6fbb 2bd8 9bbc 3a48 52bc 6d90 ecbb
00000170: 85d8 d93b 0ea3 01bc e20f 063b e8bc 14bc
00000180: a88a de3b 4f43 e2bb 9dfe dbba e48d afbc
00000190: 2ace 303b c438 4a3b 8378 87bc 4f98 acbc
000001a0: cce6 183b 2595 0abc 5515 afbb 781d 13bc
000001b0: bb2c 19bb 1b7a 9b3c a4d0 1c3c 5bcb fc3c
000001c0: 162f 903b 49c4 7739 78d2 c5bb 9a1d 2cbc
000001d0: 9aa5 883c 0ed4 cd39 d33e c53c dd7e 57bb
000001e0: ed3c a3bb f50a 793b aa2d 7cbc dc14 4abb
000001f0: 89ad 3d3d 0798 a03b 7466 023c a5fd 053b
00000200: 67e9 c4bb d497 953b d402 c5bb b8d2 b83b
00000210: 8627 013b 0d14 443c 4bfd 393a 9984 3ebb
00000220: 319a 823b 5c0f 193d 45f8 1c3d 2ff8 09bc
00000230: b5af 913b 5d62 a63b 346d e63c f90e ba3b
00000240: 821c a03c 7e00 27bb 3d86 12bc 9346 173b
00000250: b0ef a63b 4440 253c d604 f9b9 979d d1bb
00000260: bbc0 833b 0ad1 01bc bc50 123c 64e4 abbb
00000270: e874 8b3a 3329 7b3a be1d d2ba 81ed a9bb
00000280: e3bc c03b edb4 a2bc c181 a3bc e4c6 c93b
00000290: e9c0 d0ba 8d97 203d 63cf bdbc d814 8dbc
000002a0: a00f 0b3c 6833 a9bb d899 003c 7066 abbb
000002b0: 0bde 2f3c d694 e0ba 0e8e 5b3b 95ed 8c3c
000002c0: 70ff 4abc ddb8 6fbb a707 25bb 714e 003c
000002d0: a1f1 2d3c a722 d23a ebdf 1c3c 81f0 e33a
000002e0: ef52 063c b566 e83b 5418 14bc 4ffc 3a3c
000002f0: 598e e8bb 39d6 0cbd 36cf 723b de6c b2bc
00000300: 58a6 9a3a f6fd a1bb 800b f0bb 3a1a 753a
00000310: dde8 03bc 5407 9d3c d78c f8bb a8a4 f23c
00000320: 4a71 74bc 8a0e a6bb ba99 593c c9bb ee3a
00000330: 0a9a 4cbc 2a33 92b9 d98a 6c3a 90b5 2fbc
00000340: f76d 463c 001a 1d3c b4e0 86bb f23a 853c
00000350: 0f19 6cbb f9b1 a839 4eaf c13b 732f 88bb
00000360: 4adf bebc ad51 b939 e1e7 37bc c215 35bc
00000370: 2906 8aba 4691 a7bc c78e 02bb 43fb e739
00000380: 1135 653b b758 b4ba b756 603c 758d 0bb9
00000390: 088a b73c 9b3d df3a ec79 a03c 4904 f0bc
000003a0: a629 a13c 599f 023b 7891 173b 6ab4 7bbc
000003b0: 9d23 0d3a a212 25bb 56fc 563c e406 493a
000003c0: 9c41 04bc 127f 75bc 6785 e2bc 63f2 aaba
000003d0: e6fd 143c 222f 003c 4321 9d3a 687b 7538
000003e0: d724 8e3a 9b82 8d3b 1947 b93b 16f3 8fbc
000003f0: 3991 c93b d476 7c3c 8962 b83c e2c6 883b
0.016591035 0.00053018745 -0.011742041 0.00970616 -0.0033063067 0.00078472955 0.011916198 0.004078032
-0.0037547555 0.01761905 0.01708026 0.00024348144 0.052659858 0.016684944 0.030158726 0.0007048254
0.006402568 0.01645879 0.007128707 -0.002555893 0.002785753 0.002473536 0.008651981 0.011198638
-0.018056529 0.015245768 0.0021838835 0.003343915 0.052461293 0.0024036616 0.0055493177 0.025477258
0.0054358537 -0.008458213 0.02100604 -0.0022954445 0.0055246516 -0.0048162257 -0.00057806406 -0.02390254
0.006239566 0.013265102 -0.02737547 -0.0016094884 -0.018602265 -0.027941735 0.009632446 0.0075805127
-0.00022651044 -0.0036400205 -0.015381656 0.011337911 -0.007989348 0.007328381 -0.009091848 0.002717541
-0.018991286 0.0057444917 -0.005435809 -0.00820991 0.014542852 -0.00015072506 -0.019401 0.0089346
-0.018154427 -0.0035326523 -0.0050439215 -0.01070628 0.0024056062 0.0053625684 -0.0034091712 -0.020259615
-0.015476691 -0.005167474 0.004813054 0.003576396 0.0077552777 -0.0032206487 0.017565154 -0.0009458991
-0.015369771 0.0054451013 0.029465891 0.053728096 0.0084942365 -0.0052395742 0.0073545934 0.036594287
-0.003657928 -0.019023975 -0.012834603 -0.0072193653 0.0066481256 -0.00791241 0.0020456244 -0.009078242
0.0067914315 -0.0069049965 -0.0016784255 -0.021429963 0.0026978352 0.003085659 -0.016536957 -0.02106872
0.0023330925 -0.00845841 -0.005343119 -0.008979194 -0.0023372609 0.018979123 0.009571228 0.030858686
0.0044001443 0.00023628878 -0.0060370527 -0.010505104 0.016680527 0.0003925864 0.024077808 -0.0032882013
-0.004981628 0.0038000916 -0.015391747 -0.0030835187 0.046308074 0.0049009356 0.007958997 0.0020445373
-0.006009269 0.0045652185 -0.0060123 0.005640354 0.0019707396 0.011967671 0.00070949335 -0.0029070734
0.003985666 0.037368163 0.038322706 -0.008420988 0.0044459947 0.005077644 0.028128244 0.0056780544
0.019544844 -0.002548247 -0.008943138 0.0023082837 0.005094491 0.010086123 -0.00047496584 -0.00639696
0.004020778 -0.007923374 0.008930381 -0.005245732 0.0010639699 0.00095810293 -0.0016030592 -0.0051857834
0.005881892 -0.019861663 -0.019959332 0.006157743 -0.0015926632 0.03920703 -0.023170179 -0.017221853
0.008487612 -0.005163599 0.007849179 -0.0052307174 0.0107340915 -0.00171342 0.003350142 0.017203132
-0.012390003 -0.0036578693 -0.0025181563 0.007831202 0.010616691 0.0016032056 0.009574871 0.0017390401
0.008198484 0.0070923218 -0.009039003 0.011412694 -0.0070970473 -0.034383986 0.0037049777 -0.021780428
0.0011798842 -0.0049436046 -0.0073255897 0.00093499164 -0.008051124 0.019168533 -0.007585149 0.02961953
-0.014919588 -0.005067651 0.01328128 0.0018213923 -0.012487898 -0.0002788541 0.00090233755 -0.01072444
0.012111179 0.009588718 -0.004116142 0.016263459 -0.0036025678 0.00032176057 0.0059107905 -0.004156047
-0.023299832 0.00035346803 -0.011224718 -0.011052551 -0.00105304 -0.020455014 -0.0019921528 0.00044246958
0.0034974257 -0.0013759349 0.013692549 -0.0001330877 0.022404686 0.001703191 0.019589387 -0.029298918
0.01967318 0.0019931404 0.0023127478 -0.015362838 0.000538403 -0.0025188108 0.013121685 0.0007668568
-0.008072283 -0.014983909 -0.027651502 -0.0013042208 0.009093737 0.007823737 0.0011988062 5.8527483e-05
0.0010844719 0.004318548 0.0056542275 -0.017571967 0.006151345 0.01540919 0.022507923 0.0041740993

network_body._body_endoder.seq_layers.0.bias f4 [256]
00000000: e322 1fbd 3f12 3abc 258c 39bc c235 f2ba
00000010: ae1f d83a 3560 1ebc 4b6c 51bc c97b 883c
00000020: 9c95 193d 6167 0bbb ffa2 013c 4f3f a2bb
00000030: f6e0 6b3b e28f 29bb d95d 7dbc c656 5fbc
00000040: 9711 943c be1a 8a3b 45ca 4d3c 6a05 df38
00000050: 6ba2 62bb 211c 9c3c 5f40 2bbc de53 b23a
00000060: 22e2 56ba cf5f 2cbc adba d8bc 70c1 28bc
00000070: 7eac efba 1353 91bc a72b fbbb 6438 ef3b
00000080: a1e8 97bc c9ee 75bc 92b1 ceba 4330 72bb
00000090: 1a29 b5bb 277f 5cbc f896 a5bc b836 f0bb
000000a0: c467 1fbc 09e9 b7bc 6580 9239 b8a1 56bc
000000b0: 289f dfbb 232e 093c 9dd1 8aba cffe 533c
000000c0: 8ad3 8dbc bb43 33bb ba72 85ba b1cc 633c
000000d0: 4b7e ce3b 4b8c 98bb bc63 a0ba 34bb e53a
000000e0: 43c8 70ba 0dce 9bbb b3b0 7d3c 707e 82bc
000000f0: d53d bbbc e4e3 433c 9203 d1bb 4acd 33bc
00000100: 5462 c0bb f61b 72ba 8afa 72bc 9ca9 1cbb
00000110: baed 303c 4e07 03bd 0cd2 e6bc 0a12 2b3c
00000120: 007e adbb d35b 52bc 627d 00bb a698 3abc
00000130: c2ea 5abb 5f0e f23c d11b aabb 128d 14bc
00000140: 2ce8 313c acdf f2bb f946 61bc 9a4d 83bc
00000150: d26e 33bc 1d23 66bc 84d1 f7bb 2fe5 423c
00000160: 7572 a0bc c027 85bc 2bac 08bb f1b6 843b
00000170: 77ee 4f3b 672b 453b 9e7f 67bc 6961 793c
00000180: 2e6a 16bc a5aa 92ba 0b83 79bc 929b e4bb
00000190: 70b5 4bbc 5321 c6bc a2d5 98bc 89d5 3ebb
000001a0: a3bf 84bb 2ffa 92bc 0770 3bbb 1fe3 0dbc
000001b0: 6ac8 52bc 99c8 18bc 531d b4bb 0c6b 80bc
000001c0: 40fe b03c 1cfd 183c 5a18 c63b fe39 b4ba
000001d0: 5cc6 e63b d9ac 793b a063 d4bb 576a 81bc
000001e0: e74a 4d3b e5ce 75bb 3969 d6bb f93b 0fbc
000001f0: 42eb 123d 9b9c 003b 1d25 b8bb bf90 4bbc
00000200: 9303 54bb cd31 173c 8dd0 ec3b 7e3d d2b9
00000210: b3e1 d73a 6c91 9a3c 6a6d acbb 20d9 99bb
00000220: 4076 f93c 3078 85bc 2d8c b8bc 086a 7ebc
00000230: f8b5 c8bb 07a7 a9bb 0c34 a6bb 113e 2bbc
00000240: 64a2 e1bb 446c 02bc 757a 20bc 9678 e8bb
00000250: d65b 383b 331a 21bc b6fc 06bc 7833 63ba
00000260: 9efb 343c 396a 42bc d633 e93c 37ef 53bc
00000270: 354e d9bb d189 1a3c 160c 18bc 5553 133c
00000280: 3014 5bbc 8f7d 19bc 3c79 7dbc e262 92bb
00000290: 43cd 223b 018b a3bc 6814 d63c 841a 0bbc
000002a0: 2441 90bb 9e6c 87bc af03 403b 3b0b 21bc
000002b0: d03e 65bc 2a6d 8bbc 197d f5ba 7447 73bc
000002c0: bc30 193c fc03 88bc 6587 bdba a9eb b1bc
000002d0: 61d8 9cbc 2c8c 52bc 49bf df3b 8f1c 0cbc
000002e0: 7761 fdba 3fb6 6cbc 864a 69bc b4b9 50bc
000002f0: 7262 62bc 67f9 7e3c 9e81 dd3a 9212 773b
00000300: 7719 203b 7367 6b3c e8a3 6abb 610f 423c
00000310: f112 4ebb 961d 1b3c dd04 33bc 154a edbc
00000320: 0bf6 363c c0f3 67ba a547 78ba ae12 983b
00000330: 70d6 48bc 07f8 eb3b cfcd 8a3c 3611 64bb
00000340: c751 ffba ab02 6fbb 7af1 f8bb 30da 77bc
00000350: c585 3ebc d7ac d039 d267 6dba 95d1 4bbb
00000360: 7311 5dbc 8bda 0cbb 9c58 06bc 7bd8 3e3a
00000370: 1ae9 3ebc acdc cdbb 0e89 2bbc 947d 30bc
00000380: 26c2 ffbb dbc9 e73b c973 6a3b db7d 15bc
00000390: 3b44 13bb 2a2d 213c e17c 0cbc fe9f 10bc
000003a0: 801b 053c df95 fcbc fceb 0cbc 19f2 0ebb
000003b0: c7be 15bc 2e26 e83b 6054 f53c 8918 f8bb
000003c0: 674d 203c b1d5 02bc 0ad7 ffbb 0dd8 923c
000003d0: 5dfe 5bbc 92f5 94bc 8218 6ebb aad6 003a
000003e0: 9938 4d3c 32ea 4dbc 1ccc 1ebc b93a 83bb
000003f0: d2b3 f4bb 9ac9 21bc 78d9 01bc 74e3 413b
-0.03885163 -0.011356889 -0.011324917 -0.0018479156 0.0016488933 -0.009666492 -0.012782167 0.016660588
0.037496194 -0.0021271335 0.007912396 -0.0049513946 0.0035992241 -0.0025873114 -0.01546427 -0.013631528
0.018074794 0.0042146137 0.012560432 0.00010634477 -0.0034581672 0.019056382 -0.010452359 0.0013605317
-0.00081971486 -0.010520889 -0.026456201 -0.010300025 -0.001828566 -0.017739808 -0.007665116 0.0073004235
-0.018543543 -0.015010544 -0.0015769473 -0.0036955036 -0.0055285813 -0.01345805 -0.02021359 -0.0073307417
-0.0097293295 -0.022449987 0.0002794295 -0.01310008 -0.006824393 0.008372816 -0.0010591034 0.012939169
-0.017312784 -0.0027353603 -0.0010181286 0.013903783 0.0063016764 -0.004655396 -0.0012236754 0.0017527104
-0.0009185115 -0.004754788 0.015484023 -0.01592943 -0.022856632 0.011956189 -0.0063785994 -0.010974238
-0.0058710966 -0.0009235734 -0.014830241 -0.0023904806 0.010798866 -0.03198939 -0.02817633 0.010441313
-0.0052945614 -0.012839275 -0.0019605984 -0.011388933 -0.0033404087 0.029547868 -0.0051913043 -0.009066837
0.010858577 -0.0074119177 -0.013749831 -0.016028214 -0.010951715 -0.014046458 -0.007562818 0.011895462
-0.019585827 -0.016254306 -0.0020854573 0.0040501286 0.003172783 0.0030085684 -0.014129547 0.015220978
-0.009180589 -0.0011189772 -0.015228997 -0.0069765532 -0.012433395 -0.024185812 -0.018656556 -0.0029118976
-0.004051165 -0.017941562 -0.002860071 -0.008660107 -0.012865165 -0.00932517 -0.00549666 -0.015676044
0.02160561 0.00933769 0.0060453834 -0.0013750193 0.0070426892 0.003809741 -0.006481603 -0.015797777
0.0031325163 -0.0037507352 -0.0065433052 -0.008742326 0.03586889 0.0019624594 -0.0056196586 -0.012424647
-0.0032350763 0.009228182 0.0072270096 -0.00040100137 0.0016470462 0.01886817 -0.0052620666 -0.004695073
0.030451894 -0.016292661 -0.022527779 -0.0155282095 -0.006125208 -0.005177382 -0.0050721224 -0.0104518095
-0.0068858135 -0.007960383 -0.009794821 -0.007094453 0.002813091 -0.009832907 -0.008238962 -0.0008667032
0.011046318 -0.011866146 0.0284671 -0.012935451 -0.0066316375 0.009432272 -0.009280225 0.008992036
-0.013371512 -0.009368314 -0.015470799 -0.004467354 0.0024841584 -0.019963743 0.026132777 -0.008490209
-0.0044022966 -0.016531285 0.002929907 -0.009829338 -0.013992026 -0.017019827 -0.0018729299 -0.014848579
0.009349998 -0.016603462 -0.0014459906 -0.021718817 -0.019146146 -0.012850802 0.006828223 -0.008551731
-0.0019331415 -0.014447748 -0.014238959 -0.012739588 -0.0138174165 0.015562392 0.0016899591 0.0037700278
0.002442924 0.014367926 -0.0035803262 0.011844487 -0.0031444395 0.009467503 -0.010926452 -0.02896599
0.01116706 -0.0008848272 -0.0009471125 0.0046408987 -0.012258157 0.007201198 0.01694384 -0.0034800298
-0.0019479328 -0.0036470096 -0.0075971456 -0.015127704 -0.011628573 0.00039801627 -0.0009056303 -0.0031100262
-0.01349293 -0.0021492566 -0.008199837 0.0007280183 -0.011652255 -0.0062824097 -0.010469688 -0.010772128
-0.0078051267 0.0070736236 0.003577458 -0.009124245 -0.0022471088 0.009837428 -0.008574695 -0.008827208
0.008124232 -0.030833183 -0.008601185 -0.0021811782 -0.009139723 0.0070846295 0.02994746 -0.007571284
0.009784079 -0.007985518 -0.007807617 0.017925287 -0.013427344 -0.018183503 -0.0036330526 0.00049148
0.012525701 -0.012568044 -0.009692218 -0.004004803 -0.0074677253 -0.009874726 -0.007925384 0.0029585036

network_body._body_endoder.seq_layers.0.weight f4 [256, 132]
00000000: a1b6 bcbc dbc0 63bc 74c2 4dbe a411 2abe
00000010: 2a19 653d 045c 7abd 284d 2d3c f14b cf3d
00000020: bab3 7cbd c5df 293c e29e 8a3a cf79 ce3d
00000030: f811 883d f0f9 1e3e 6648 b83c d309 eabc
00000040: 1a86 16be 826f 953b 7ec7 673c f8ac 99bd
00000050: dc48 a13d 4048 06be b40e 7a3d 45ba ee3c
00000060: f546 f4bc e1db 263a 733f 37bd 55d2 74bc
00000070: 9567 823d a832 86bd 0a1f 0bbe 4ad6 ec3b
00000080: 587b ebbd b4df 38bc 39cb 1bbd 2320 483e
00000090: 6f27 4ebc 0e1f 9fbd 76d9 263d e061 2c3c
000000a0: 92b6 d03b 90b8 0dbc 8da5 3ebd ef85 923c
000000b0: 43c6 293e 2081 503d 91a0 dfbd 59cb 27be
000000c0: 8a7b b1bd 0d11 b1bb 2469 73bc 2358 10bc
000000d0: 256b 143c c2f0 203d 318d a1bc 40c3 34bd
000000e0: a237 f63d 6931 cd3d e70e 233d 70fa b13d
000000f0: 7a13 ffbc 42a5 fb3c 9529 e93d 3d1d 413d
00000100: 03b1 4dbd 695e 063e 565f 153e c632 bbba
00000110: 4396 953d 4b63 e9bb 6b9a c1bc 9f41 df3d
00000120: e7be 5abd 97f5 723e f436 393e 7bff 83bd
00000130: c491 cd3d c30e 81bd 0b3c 9f3d 5771 993c
00000140: eb8a 673d 9614 493e 99c8 893c 979b aa3d
00000150: 4627 a83d 1e1d 8bbd 4c70 0b3e 2b07 d0bd
00000160: 2722 4cbd 3d66 64be f7cd fc3d 3a0f e63c
00000170: 7ca5 333e 3784 f1bd 7abf 953d 4f99 0ebd
00000180: 12b4 26bd e733 01be 6d4c a43d 9d5c 173d
00000190: b178 e23b a35f 5c3d 6ebf 3c3e 9c7f 4bbc
000001a0: 9754 6a3d 8e02 8abd c88e 713d 480a be3d
000001b0: 3f12 a23d 92dd 1dbd 08a7 88bc da70 513e
000001c0: 02ee 873d bcb8 e1bd 52ad 8d3d a9a7 503d
000001d0: 4dc7 793d a4f1 e13c b344 fdbd 0d41 54bd
000001e0: 2305 133e fc6a cd3d 1668 6e3b 5472 79bd
000001f0: dc13 103e 03ef 7c3d 85ef 023d 6ba3 693d
00000200: b66d 21bd 911b 66bc a005 2fbd c727 fc3d
00000210: 806a 3d3d 6f27 643d 64e7 ea3d 4239 033e
00000220: 2317 cf3d bd05 5ebd 318e c33d 74ca c23c
00000230: 8bb8 16be 744a 9cbd 079f 0cbd 4c39 fe3c
00000240: 3e9d e4bd da87 42bd d70f a4bc eabc f9bd
00000250: 56e6 80bd 1958 dabd 4ecd cebc 8d11 bdbd
00000260: 5de7 fabc cc92 7bbc 4ce6 edbc ed92 d1bd
00000270: f1fc 183d 434e dfbc 795e 09be 06dc 873d
00000280: b1a2 b5bc 7faf 103d 54b6 8c3c 2172 f5bd
00000290: 5b35 9d3d bd85 863c 4bb6 b2bc a602 0f3b
000002a0: bc03 1ebd 89f9 91bd 67b4 b5bd efd8 493d
000002b0: 4686 b8bd 755d 44bd a646 6f3d c2b7 f4bd
000002c0: 8fdb 88bd 5fae 563d 6b0a ae3c bcc5 8c3d
000002d0: 9544 49bd c29f 4a3c 7bd0 8fbd 4c30 ff3c
000002e0: 839e 40bd dfae 7e3d 7ba9 e3bc bb1e d8bd
000002f0: e9a0 3c3d ccb3 013e 617e 93bd cc7c 1fbd
00000300: 8156 143d 40ad d8bd 5397 45bd dee1 2f3e
00000310: afae e2bd 225d 31bd 0784 bd3d c731 ffbc
00000320: 6fa8 15bd e9c0 6ebd 5292 be3c 02c7 06be
00000330: 8389 213d 4f17 103e 414c 81bd 6f38 a13d
00000340: ddb6 8ebc 3e7e 213d 3800 913c f178 28bd
00000350: 91b3 94bd b989 c93c 990e 673d c5c0 bb3d
00000360: 370d 183d 310c 1fbe fb4f 5f3e a2a4 0c3d
00000370: 3799 ef3c d580 173e 714d dd3d 9d42 fb39
00000380: f054 debc 16f0 6c3c de73 1c3c 0010 7abd
00000390: e20d 72bd d86d 2d3e 0d02 213d 0563 ae3d
000003a0: f092 a6bd 7cef 8ebd 9b86 c43d 1d74 ec3d
000003b0: 3990 a8bd e784 aebd 86ab 003e 8053 d23d
000003c0: 7530 9dba f418 093e ee5b 333d 395d 64bd
000003d0: 5071 0bbe 4e31 94bd 73ee 423c fda3 00bc
000003e0: 2440 063e bb65 093d 057d 043c bc95 f1bd
000003f0: 421c e23c 12e4 acbd 19a3 cf3d 3530 fbbd
-0.023036303 -0.013900961 -0.20093709 -0.16608292 0.0559322 -0.06112291 0.0105774775 0.101219065
-0.061694838 0.010368292 0.0010575915 0.10081827 0.06644052 0.15525031 0.02249546 -0.028569138
-0.14699593 0.004560412 0.014146684 -0.07503694 0.07875225 -0.13113499 0.06104918 0.029141555
-0.029818991 0.0006365162 -0.044738244 -0.014942725 0.06367413 -0.06552631 -0.13586059 0.0072276937
-0.11498135 -0.011283804 -0.038035605 0.19543509 -0.012582644 -0.07769595 0.04073473 0.010521382
0.0063694203 -0.00864996 -0.0465446 0.01788613 0.16579537 0.050904393 -0.109192975 -0.16386165
-0.08666141 -0.005403644 -0.01485661 -0.008810076 0.009058748 0.039292105 -0.019720646 -0.044131517
0.1202233 0.1001919 0.039809134 0.08690345 -0.031137217 0.03071845 0.11384884 0.047147024
-0.05021764 0.13121952 0.14587149 -0.00142821 0.07304051 -0.0071224323 -0.023633203 0.10901188
-0.053404715 0.23726498 0.18087369 -0.064452134 0.10037568 -0.06301644 0.07775124 0.018730802
0.056528967 0.19636759 0.016819285 0.08330458 0.08210616 -0.06792663 0.13617057 -0.10157617
-0.049837258 -0.22304626 0.12343972 0.028083432 0.17543596 -0.11792796 0.07311912 -0.034814175
-0.040699072 -0.12617455 0.080223896 0.036953557 0.00691136 0.053802144 0.184324 -0.012420561
0.057209577 -0.067387685 0.058974057 0.09279305 0.079136364 -0.038541384 -0.01668121 0.20453206
0.06637193 -0.110215634 0.06917824 0.050941143 0.060981084 0.027581044 -0.12366619 -0.05181985
0.14357428 0.10030171 0.0036377958 -0.060900047 0.14070076 0.061751377 0.031966705 0.057040613
-0.03941127 -0.014044658 -0.042729974 0.123122744 0.046244144 0.05570167 0.114699155 0.12814811
0.10111835 -0.05420469 0.09548605 0.023778178 -0.14718835 -0.07631388 -0.034331348 0.03103318
-0.11162804 -0.04749284 -0.020027084 -0.121942356 -0.06293933 -0.106613345 -0.025244381 -0.09231863
-0.0306279 -0.015354823 -0.029040478 -0.10233102 0.0373506 -0.027258998 -0.13414945 0.06633763
-0.022172304 0.035323616 0.017176785 -0.11984659 0.076761924 0.016421193 -0.02181544 0.0021821647
-0.03857778 -0.07127673 -0.088723 0.04927915 -0.090099856 -0.04794069 0.058416985 -0.119491115
-0.066825025 0.052412387 0.021245202 0.06873652 -0.04913767 0.012367191 -0.07022186 0.03115096
-0.04702617 0.06217849 -0.027790776 -0.10552736 0.046051893 0.12666243 -0.07201839 -0.038937375
0.03621531 -0.1057992 -0.048240017 0.17176005 -0.110684745 -0.04330171 0.09253698 -0.031151665
-0.036537584 -0.058289442 0.02326313 -0.13161853 0.039437782 0.14071392 -0.063133724 0.07872092
-0.01742118 0.039427035 0.0177003 -0.041130964 -0.07260812 0.024601804 0.056410406 0.09167627
0.037121978 -0.15531994 0.21807854 0.034336694 0.029247863 0.1479524 0.108057864 0.0004792408
-0.02714011 0.014461538 0.009549109 -0.061050415 -0.05909527 0.16936433 0.039308596 0.0851498
-0.08133495 -0.06979272 0.095959865 0.11545584 -0.08230633 -0.08521443 0.12565431 0.102698326
-0.0011992591 0.13388425 0.043788843 -0.055752967 -0.13617444 -0.072359666 0.011897671 -0.007851598
0.13110405 0.033544283 0.008086448 -0.11796138 0.027601365 -0.084419385 0.1013853 -0.12265054

network_body._body_endoder.seq_layers.2.bias f4 [256]
00000000: 1da9 d03b f538 bdbb bee8 c13b fa02 a63b
00000010: f19b 0ebc 34ab 1e38 297c 52bc eb32 23bc
00000020: 598d a93c ba72 1bbc 748c 32bc 5be6 ddbb
00000030: 2789 2e3c 4f13 b3bb e106 8fba aafa ebbb
00000040: 32b5 11bc 8cbe 08bc 86f2 413c 0eb9 8eba
00000050: 7a19 4ebb 435d 5dba 9e3a adba 2ec5 dd3a
00000060: 8993 453c cd6d 0bbc 17c4 c8ba dbd9 3ebc
00000070: 70fc ccba 6f11 fe3b 9439 5ebc a916 0a3b
00000080: 84df 12bc 4e85 013a 4f21 1ebb 5895 7bbb
00000090: a169 0abc 5681 ccbb 58ef fbbb 5d6a c73b
000000a0: f2ab 37bc 290d 8abb 0c6e 0ebc e57c aebb
000000b0: a7c0 6dbc 97e6 ed3b 1f25 033c 8384 3bbc
000000c0: a06b 1dbc ecdb c3bb 942c 9bbb b5ef b8bb
000000d0: c489 89bb e666 8cbc ab0e 1ebc 4f48 a13a
000000e0: 4dbe 363c 5958 85bb d002 0ebc 4dc7 cf3c
000000f0: b312 2dbb 6acd 013c 6da3 c5bb 6599 11bc
00000100: 9a64 ffbb 3743 d5bb 3ce5 aabb abfd c2bb
00000110: c5fc b0bb 3b3f 393c a473 e2ba b3ef c63b
00000120: 33d4 3d3a e1ba 18bc 05be 2b3c c2e0 46bc
00000130: 38f0 a6bb 835b b6bb a85d 17b9 1779 5ebb
00000140: f70b 51bb f2ad a0bc bb87 d2b9 ce05 323c
00000150: 12a0 dfbb 243c 79bb 26ae 07bc e408 1d3c
00000160: e40b 52bc f499 95bb 03fb 38bb ef08 7cbb
00000170: 7e07 14bc 95c9 3dbb 2271 59bc 94e3 bdba
00000180: 7a9a bebb 1461 efbb 11d5 83bb e1d0 e73b
00000190: 8500 50bc 5f38 5ebb b86e aebb b131 72bb
000001a0: aa4b 41bc a0e6 dabb c29b 20bb 4cd3 83bb
000001b0: 4253 a5bb 41df c83c 77db d6bb ab5e efbb
000001c0: f430 87bc 7920 b8bb f6aa 21bb 31bf 2abb
000001d0: febd c73a b839 50bc 5f7f 303c 453d 9dbb
000001e0: f209 123c 08ad acbb fb01 323c 079c b5bb
000001f0: dc56 603b dd02 b2ba 07e7 e0bb 3489 abbb
00000200: 2b65 36bb f964 a83b 480e dbbb f9d8 73bc
00000210: 078b 1ebc 69a4 8fbc ef6f 02bc af98 4ebb
00000220: 062e ecbb 6692 193c 65d5 a938 326e 6b3a
00000230: 8fdd 34bc bf1b f03b 811d 9a3b 8d9b 5fbc
00000240: 23df 823c 2e3f d3bb 340b 8c39 d4b5 e7bb
00000250: 720d 01bc fb20 163b a46b 04bc f580 32bc
00000260: 1020 cfbb ef78 56bb 2f86 46bc 73e8 b4bb
00000270: 599c edbb 0490 55bb 0d6a c8ba fbbd 19bc
00000280: 4c52 bebb fe9a c5bb 4ed1 01bc a7b7 28bc
00000290: e3a7 0dbc 93fc 9abb 3606 863b 46d1 013c
000002a0: 8265 14bc 7838 c9bb 9785 69bc 4121 91b9
000002b0: 47b4 6e3b 2400 0cbc 0ea7 7cbc 3877 31bc
000002c0: b1fd 7f3b 38fe 00bb 589f 02bc eed9 e0bb
000002d0: 24e3 9a3c 4986 2ebc 94d0 0dbc 62bc 44bb
000002e0: bd94 09bc 7674 52bc 97d1 a93a 5fd8 01bc
000002f0: e6d2 9db9 f858 cf3b a266 6ebc 3358 07bc
00000300: 4ed8 f0bb 0b35 603a b830 c1ba 1662 73bc
00000310: e2c9 efba 4af1 eabb ce39 353b b15b dc3c
00000320: 89ea 7a3b 8b02 18b9 ddab ccbb 803f 32bc
00000330: 23f6 2fbb dbfc 35bc 0093 ab3b a874 f9ba
00000340: 28cf 25bc 23e9 0bbc 9a98 ecba 9ef0 5aba
00000350: 8fd7 59bb fbbe beba b612 5bbc f7de 7a3b
00000360: 040d a4b9 7e45 37bc b60b f5b9 ea5d dabb
00000370: 691d ffbb 510c 033c a9e9 6abc d6a0 07bc
00000380: 5d71 56bc 4432 5ebc c873 d9bb 9a62 06bc
00000390: c42a 0a3c 09bf 69bc 5dda 373c fa22 6cbb
000003a0: 36db 0c3c f47c 3cbb 455c 823b 2a07 253b
000003b0: 9d70 c6bb a3c6 f0bb f0b2 f6b9 1a2e dbbb
000003c0: c3b4 79bb 30a2 513c 8c7c b5bb 95ff 69bc
000003d0: b93b 33bc 8a5f 73bb 3ade 95bb 0cc5 c9bb
000003e0: f4d5 243c 2f55 92b8 b607 c7bb 17df 60bb
000003f0: 9b7f 34bc deff ebbb bcbe 9cbb a7f3 17bc
0.006367816 -0.005774612 0.0059176376 0.005066273 -0.0087041715 3.782958e-05 -0.012846985 -0.00996087
0.020697283 -0.009487802 -0.010897744 -0.0067718453 0.010652817 -0.0054649482 -0.0010912084 -0.0072015123
-0.008893298 -0.008346211 0.011837607 -0.0010888891 -0.003144829 -0.0008444378 -0.0013216322 0.0016919726
0.012059101 -0.008510065 -0.0015317228 -0.0116486205 -0.0015639197 0.007753543 -0.013563532 0.0021070635
-0.008964423 0.00049408234 -0.002412874 -0.0038388576 -0.008448035 -0.006241004 -0.007688444 0.0060856775
-0.011210429 -0.0042129946 -0.008693229 -0.005324947 -0.014511264 0.0072601545 0.008004456 -0.0114451675
-0.009608179 -0.0059771445 -0.0047355387 -0.0056438097 -0.004197331 -0.01713891 -0.009647052 0.0012304875
0.01115377 -0.0040693698 -0.008667663 0.025363589 -0.002640885 0.00792251 -0.0060314448 -0.00888667
-0.007793975 -0.006508257 -0.005215315 -0.0059506497 -0.005401226 0.011306579 -0.0017276895 0.006071055
0.0007241398 -0.009321899 0.010482316 -0.012138547 -0.0050945543 -0.0055651083 -0.00014435372 -0.0033946687
-0.0031898 -0.019614194 -0.00040155448 0.010865642 -0.006824502 -0.0038030231 -0.008281266 0.009584639
-0.012820218 -0.004565472 -0.0028225787 -0.0038457473 -0.009034989 -0.0028959264 -0.013271602 -0.0014487379
-0.005816755 -0.007305274 -0.004023202 0.007074461 -0.012695436 -0.0033908112 -0.0053232573 -0.0036955888
-0.011797825 -0.0066803247 -0.0024506901 -0.0040229913 -0.0050453255 0.024520518 -0.006556924 -0.0073049865
-0.016502835 -0.0056191054 -0.002466855 -0.00260539 0.0015239117 -0.012709074 0.010772555 -0.0047985637
0.008913504 -0.0052696504 0.01086473 -0.0055422815 0.003423146 -0.0013581176 -0.006863478 -0.0052348617
-0.0027831297 0.00513899 -0.006685052 -0.014883273 -0.009676701 -0.017534452 -0.007961257 -0.0031524112
-0.007207635 0.009373283 8.098296e-05 0.0008980959 -0.011039152 0.0073275263 0.004703224 -0.013647926
0.01597554 -0.0064467406 0.00026711228 -0.007071236 -0.007876741 0.0022907841 -0.008082304 -0.010895004
-0.006320961 -0.003272589 -0.012116953 -0.005520874 -0.007251304 -0.003258706 -0.0015290395 -0.009383674
-0.0058081504 -0.0060304394 -0.007923437 -0.010297692 -0.008645984 -0.004729816 0.004090096 0.00792343
-0.0090574045 -0.006140765 -0.014253042 -0.0002768133 0.0036423372 -0.008544955 -0.015420688 -0.010831647
0.0039061124 -0.0019682776 -0.007972561 -0.0068619167 0.018907137 -0.010652133 -0.008655686 -0.0030019511
-0.008397278 -0.012845149 0.0012956139 -0.007925122 -0.00030102505 0.0063277446 -0.014550837 -0.008260774
-0.0073500043 0.0008552826 -0.0014739251 -0.0148549285 -0.0018294419 -0.007169877 0.0027652862 0.02689919
0.0038286767 -0.00014496797 -0.0062460736 -0.010879397 -0.002684959 -0.011107649 0.0052360296 -0.0019031959
-0.010120191 -0.008539471 -0.001805085 -0.0008351895 -0.0033240055 -0.0014552766 -0.01337116 0.003827987
-0.00031290215 -0.011186002 -0.00046738767 -0.0066640275 -0.0077854884 0.007998542 -0.0143379355 -0.008278092
-0.013088551 -0.013561789 -0.0066361167 -0.008202219 0.008433048 -0.014266738 0.011221495 -0.003603159
0.008597186 -0.0028761001 0.0039782845 0.0025181272 -0.006055905 -0.007347898 -0.00047054095 -0.0066888453
-0.0038102127 0.012795016 -0.005538529 -0.014282127 -0.010939532 -0.0037135803 -0.0045736106 -0.006157523
0.010060776 -6.977689e-05 -0.0060739173 -0.003431266 -0.011016752 -0.0072021326 -0.0047834795 -0.0092744

network_body._body_endoder.seq_layers.2.weight f4 [256, 256]
00000000: bb85 343d 0e2f 2cbb 20be 8a3d 4b22 0cbe
00000010: e8e3 9fbb 214b 60bb 55a6 5dbc c3f2 a93b
00000020: 1036 a23b e0db 243c c599 5abd 7683 88bd
00000030: 888b bf3d 16e8 7abd 5a5e ae3d 294b 3dbc
00000040: ae3d 48bd cf6c 8b3d d5e2 84bc 9f4a afbd
00000050: 3755 94bd 7dc0 13bc b6af 3a3d 33ae 853b
00000060: 0da5 4bbd b6de 81bd 88c3 58bd 7ac2 c23c
00000070: e287 2dbd 8f8a 433c 0b6e 85bd 77c3 b93c
00000080: 7915 f63c e04c cfbd b837 ec3d c688 f3bd
00000090: a892 91bd 0890 87bd a683 33bd 2e6f 093e
000000a0: cc28 c7ba ca2b 06bd a4d1 bf3c a109 c13d
000000b0: cd1c efbc 3b5c f03c 6e40 f73b 1ace ee3d
000000c0: 4300 9e3d 3081 fdbd 1944 703d 1a67 113d
000000d0: 8984 d83c b564 1d3d 4bf2 2e3d 6d77 b63d
000000e0: 8173 31bc 4ef2 b9bc a772 ed3c 69cf e53c
000000f0: a9f5 b23d 51db 473d 0201 343c 6967 793c
00000100: d959 bd3d cc57 55bd 414e 86bb 6929 0d3c
00000110: 668f 463d 820d d93c 1f31 f7bb efb4 0cbe
00000120: ed9e b23c 94b5 c0bd c77d c4bd 909b 46bd
00000130: 4627 ba3d 6ba4 d63c f9ca d63d 8537 42bd
00000140: df20 6cbc eb84 3d3d 652c eabc a3a5 40bd
00000150: 2721 36bd 3c94 8b3d aa42 b6bd 6b49 a5bd
00000160: 5a6c e3bd a403 c03d 6a39 15be 0b2a 8cbd
00000170: ab73 503c fc1b ae3d 9336 c33d f46a 8bbd
00000180: 0ee5 48bd ab79 4c3c 33d2 4b3c 7449 05bc
00000190: d745 083d 1923 81bd 988f b4bd c64a 1dbd
000001a0: c60e 9fbd 3785 b7bd d58f 3dbc 787d 0039
000001b0: a3d3 3d3d 414b 43bd 3415 083b c7e4 e83d
000001c0: 4000 37bc e5db ffbc 5d2c 65bd 14a6 87bc
000001d0: 3ee4 7c3b 094e dd3c 20f4 a9bd d9e2 843c
000001e0: 100c acbd b44f b13d f6fc c63c 1e06 723d
000001f0: 19c4 743d 46f9 aebc 12a1 c43c b899 82bd
00000200: db21 e0bc ac0d efbd 7290 ccbc 35cd f6bb
00000210: 1705 e23b 2ef9 63bd f9da 4f3c 9e21 5dbd
00000220: 8ece 11bd 7f3a 683d c266 32bd b20a 3fbc
00000230: a907 45bb 1d0b 213d 4789 4a3d e8c8 4b3d
00000240: d989 7cbd be5b c33c 7b86 553d cda5 6ebd
00000250: 504a 293b ddeb 7ebd 0ff4 56bd 52ba 4c3c
00000260: 7969 28be 7552 cb3c a42c cdbd 9c01 0cbc
00000270: a48f 463d 2299 c93c 1cf9 fd3c 1e4d dbbc
00000280: 960a 243d 39f3 913d d961 713d 225b c53c
00000290: 2e23 e63d ddc2 f73d b7bb 533d f40a e0bd
000002a0: d286 09bc 1b77 8ebd 691c ce3d 3d34 533d
000002b0: c84c 70bd 181d 3f3c 6259 5c3d 6605 a9bd
000002c0: ccc5 90bd cc1d fd3c 20d5 e13b f3d9 0bbd
000002d0: e866 863d c50b 2ebd 6481 1bbd 2231 98bd
000002e0: 4361 08bc 48f2 38bd 95c0 f5bd 0b52 f63c
000002f0: 9bb2 aabd 8f79 1f3e b536 3fbb c8f9 1a3d
00000300: 2b25 863d c80b a83d aa7c 19be 058d dfbd
00000310: 0d60 33bd e03f 63bc 7559 383d 173f 92bc
00000320: 6fbd 1cbc ca47 b13c 407a a3bc e73e c7bc
00000330: 1a55 86bd 7837 c73c a883 9dbd 429e d7bc
00000340: 3b35 04bc 3d78 a0bc a505 7fbd 29d8 27bd
00000350: 6bf9 023d 7f9c cbbc fcf0 f93c f689 163c
00000360: bcce 27bd 4e64 7abd 1f51 f23c 0b03 abbb
00000370: 19b1 bc3c 7d06 6d3d 07e0 afbd 3c8d 8c3d
00000380: 0cea 38bd da97 653d 2ae8 06bd a6d7 36bd
00000390: 50e2 7ebd 7bc5 bb3c e185 b03d d06b 5fbd
000003a0: fa6d 86bd 9cf0 50bd 4503 0d3d 8a18 42be
000003b0: 982c 7fbc 292e d8bb 99cd 1ebd 5b91 cebd
000003c0: 06d7 043e 389e 76bc 5be4 c83d 598b 5abd
000003d0: 3034 6bbd ad24 bb3d a983 a3bd 01ca fcbd
000003e0: 4748 e4bb e695 07bd 5c13 7b3d 2f65 edbc
000003f0: 64d8 7abd 07a5 debc fc65 11be c916 8b3d
0.044072848 -0.0026273164 0.06774545 -0.13684957 -0.0048794635 -0.0034224468 -0.013528426 0.00518641
0.0049502924 0.010062188 -0.053369302 -0.06665699 0.09352785 -0.06125649 0.0851409 -0.011553564
-0.048886947 0.06807863 -0.016221443 -0.08559155 -0.07242816 -0.009018061 0.045577727 0.004079604
-0.04971795 -0.06341307 -0.052920848 0.023774374 -0.042365916 0.01193489 -0.0651513 0.022676213
0.030039536 -0.101220846 0.11534065 -0.11891322 -0.071080506 -0.06619269 -0.04382672 0.13421318
-0.0015194654 -0.032756604 0.023415394 0.09425665 -0.029188538 0.029340854 0.0075455224 0.116604045
0.07714894 -0.12378156 0.058658693 0.035498716 0.026430385 0.03842612 0.042711537 0.089094974
-0.010830761 -0.022698548 0.028985335 0.028053002 0.08738262 0.04879314 0.010986568 0.015222409
0.09245653 -0.052085683 -0.004098684 0.00861583 0.0484766 0.026495699 -0.0075436975 -0.13740896
0.021804297 -0.09409633 -0.095943026 -0.0484882 0.09089522 0.026201447 0.10487933 -0.04741623
-0.014412134 0.04626934 -0.028585622 -0.047032963 -0.04446521 0.06815383 -0.08899434 -0.08070644
-0.11104651 0.093756944 -0.14572683 -0.068439566 0.01272289 0.08501431 0.095318936 -0.06807509
-0.04904657 0.01248018 0.012440252 -0.008135188 0.03326973 -0.063055225 -0.08816451 -0.038401388
-0.0776649 -0.089609556 -0.011569937 0.00012253772 0.04634441 -0.04767919 0.0020764591 0.11371761
-0.011169493 -0.031232784 -0.05595051 -0.016558684 0.0038588191 0.02701475 -0.08298516 0.01622145
-0.08400738 0.0865778 0.024290543 0.059087865 0.059757326 -0.021359097 0.024002586 -0.06376976
-0.027359894 -0.116725296 -0.02497122 -0.007531787 0.0068975794 -0.05565756 0.0126864845 -0.053987138
-0.035597377 0.05669641 -0.04355503 -0.011660265 -0.003006438 0.03931724 0.049447324 0.049752146
-0.0616549 0.023847457 0.052130204 -0.05826359 0.0025831647 -0.062236656 -0.052478846 0.012495594
-0.16446485 0.024819592 -0.1001828 -0.008545306 0.04847683 0.024609152 0.031002574 -0.02677017
0.040049158 0.07126469 0.058931205 0.024091307 0.11237179 0.12097714 0.05169269 -0.10939589
-0.00839396 -0.06956311 0.100640126 0.05156349 -0.058666974 0.011664651 0.05379618 -0.08252983
-0.07068977 0.030897997 0.0068918616 -0.0341434 0.065625966 -0.042491693 -0.037965193 -0.07431246
-0.00832397 -0.045152932 -0.11999623 0.030068418 -0.083348475 0.15573715 -0.0029176895 0.037835866
0.06550058 0.08205372 -0.14988962 -0.10915569 -0.043792773 -0.013870209 0.045007188 -0.01785235
-0.009566649 0.021640677 -0.019955754 -0.024321986 -0.065592006 0.024318442 -0.07691127 -0.02632058
-0.008069332 -0.019588584 -0.062261242 -0.04097763 0.031976145 -0.024854897 0.030510418 0.009188166
-0.04096864 -0.061130814 0.029579697 -0.0052188686 0.023033665 0.057867516 -0.08587652 0.06862876
-0.04514508 0.05605302 -0.032936253 -0.044639252 -0.062227547 0.022921314 0.086192854 -0.054546177
-0.06563945 -0.051010713 0.034426946 -0.18954673 -0.015574597 -0.0065972996 -0.038770292 -0.10086318
0.1297265 -0.015052371 0.0980918 -0.05335555 -0.057422817 0.09137855 -0.079840966 -0.12343217
-0.006966624 -0.03310194 0.06129776 -0.028978912 -0.061241522 -0.0271783 -0.1419906 0.06791455
