Assets/results/MLDriver/MLDriver.onnx (onnx, 632654 bytes, 10 tensors)

96 f4 [1, 512, 128]
0	0xbddf4bd8	-0.10903138
1	0x3d38b7dd	0.04509722
2	0xbc0991ed	-0.008396608
3	0xbceaec3d	-0.0286771
4	0xbd60e76e	-0.05490821
5	0x3d5d66c5	0.054053087
6	0xbe037ecb	-0.12841336
7	0x3e0e3d07	0.13890468
8	0x3dffa53c	0.12482688
9	0x3cfaa60a	0.030596752
10	0xbc973391	-0.018457206
11	0xbdc6d942	-0.097094074
12	0xbe1e8b64	-0.15482861
13	0xbe05ff0e	-0.13085577
14	0x3db78b34	0.08962098
15	0xbdc23b1c	-0.094839305
16	0x3d95aeba	0.07308717
17	0xbdb67ebe	-0.08910893
18	0x3dd4fc45	0.10399679
19	0xbe036db3	-0.12834816
20	0x3d5a7b83	0.053340446
21	0x3c57cf0d	0.013171923
22	0x3e149867	0.14511262
23	0xbc98e637	-0.018664462
24	0x3d02fe73	0.031980943
25	0x3bee2319	0.0072673676
26	0x3d9cb851	0.07652343
27	0xbdeea438	-0.11652416
28	0xbdb5941f	-0.088661425
29	0xbd25108a	-0.040298976
30	0x3d1d01e5	0.038331885
31	0xbd9c6101	-0.076356895
32	0x3d7a6a9d	0.06113683
33	0x3d8aa89a	0.067704394
34	0x3dfd2b08	0.12361723
35	0x3da91c1c	0.082573146
36	0xbdf4a3c3	-0.119452976
37	0xbda5b58c	-0.08091268
38	0x3d2d1a12	0.04226119
39	0xbd1923f5	-0.037387807
40	0x3cdd0b60	0.026982963
41	0x3e097ba9	0.13426079
42	0xbdd06936	-0.101763174
43	0xbd68698f	-0.056741294
44	0xbda546e3	-0.08070161
45	0x3e1351ea	0.14386716
46	0xbe013045	-0.1261607
47	0x3d809c99	0.06279869
48	0xbdde3eef	-0.108518474
49	0x3e04bb07	0.1296197
50	0xbc363723	-0.011121544
51	0x3c00cf04	0.007861856
52	0xbdcce75e	-0.10005067
53	0xbe11efb1	-0.14251591
54	0xbcb0ee46	-0.021597993
55	0xbdf29374	-0.11844531
56	0x3c958c6b	0.018255433
57	0xbcefcde0	-0.029272974
58	0xbd9e0fdb	-0.07717868
59	0x3bd6a2f4	0.0065501872
60	0x3d81b4a1	0.0633328
61	0x3e1b97de	0.15194651
62	0x3d81a441	0.06330157
63	0x3e0b8ac4	0.13627154
64	0xbdbc2611	-0.09186948
65	0xbe0d9c83	-0.13829236
66	0x3df2dcb8	0.11858505
67	0xbcabf3d5	-0.020990292
68	0x3d80bf4f	0.06286489
69	0xbd5c6409	-0.05380634
70	0x3cf0e59f	0.029406367
71	0x3ddd3af1	0.10802258
72	0xbd925060	-0.071442366
73	0x3e1f1ca6	0.15538272
74	0xbb8db3ad	-0.0043243975
75	0x3d1f6d6a	0.038922705
76	0xbd9d6fe5	-0.07687358
77	0xbdba788b	-0.09105023
78	0x3dbe3d81	0.09289075
79	0x3e0672b9	0.131297
80	0x3d19a138	0.037507266
81	0xbd5f3d10	-0.054501593
82	0xbc237c5c	-0.00997838
83	0x3d9eea14	0.077594906
84	0x3de97dcf	0.11400949
85	0x3d84029b	0.064458095
86	0xbc61d171	-0.013782845
87	0xbd930906	-0.071794555
88	0x3d82cd8e	0.06386863
89	0xbd91de26	-0.071224496
90	0x3d241e15	0.04006775
91	0xbe1111df	-0.14166974
92	0xbdf2d523	-0.11857059
93	0x3dbed123	0.093172334
94	0xbcab938a	-0.020944376
95	0xbd802ca2	-0.06258513
96	0xbd810c64	-0.063011914
97	0x3dd2a894	0.1028606
98	0x3b2990f9	0.0025873764
99	0xbd89d349	-0.067297526
100	0x3c83373d	0.01601755
101	0x3dfee39c	0.12445757
102	0xbdd7b2a3	-0.10532119
103	0xbe0e15ee	-0.13875553
104	0x3d5d68a4	0.05405487
105	0x3de2cad8	0.110738456
106	0xbdfc526b	-0.123204075
107	0xbda00f8d	-0.07815466
108	0xbc96b87a	-0.018398512
109	0x3e0189eb	0.12650268
110	0x3de7936d	0.11307416
111	0x3dd8ad0b	0.1057988
112	0xbddde70c	-0.10835084
113	0xbc5e0bc1	-0.013552607
114	0xbd75ee57	-0.06004175
115	0x3dd1cc1a	0.102440074
116	0xbde81470	-0.11332023
117	0x3d8a0955	0.06740061
118	0xbd53fed9	-0.051756714
119	0x3d663b98	0.056209177
120	0x3dc07e7e	0.093991265
121	0xbe1d7a14	-0.153786
122	0xbe073163	-0.13202433
123	0xbdffbcf1	-0.124872096
124	0xbcef3033	-0.029197788
125	0x3c990032	0.018676851
126	0x3d3ab228	0.04558006
127	0xbe07df46	-0.13268766
128	0xbde98838	-0.11402935
129	0x3e0fd2bb	0.14045231
130	0x3dcc17a8	0.099654496
131	0xbd68a6c9	-0.056799684
132	0x3dea725d	0.11447594
133	0xbcdd6188	-0.027024046
134	0xbb1c4feb	-0.0023851346
135	0x3cfa5a09	0.03056051
136	0xbe11dca4	-0.14244324
137	0xbdec42be	-0.115361676
138	0xbdce3720	-0.10069108
139	0xbe1104bd	-0.14161964
140	0xbdaba809	-0.083816595
141	0x3de86b07	0.11348539
142	0xbd3be398	-0.045871347
143	0x3ddf3834	0.10899392
144	0x3d839e58	0.06426686
145	0x3dbee4a0	0.093209505
146	0x3d56094a	0.052254952
147	0xbd619f2c	-0.05508344
148	0x3dee4ccd	0.11635742
149	0xbe17fcb3	-0.14842491
150	0xbcd3ab6b	-0.025838574
151	0xbd713ceb	-0.058895987
152	0xbdc6ae3b	-0.097012006
153	0x3c1e3fa8	0.0096587315
154	0xbe087ce1	-0.13328888
155	0x3d89d249	0.06729562
156	0x3c256130	0.010093972
157	0xbc7b1966	-0.01532588
158	0x3dddc0ee	0.10827814
159	0x3dc44f46	0.09585433
160	0xbdec4594	-0.115367085
161	0xbc982718	-0.018573329
162	0xbd8552b6	-0.065099165
163	0x3d65bd74	0.05608888
164	0x3a697952	0.0008906323
165	0x3d430fae	0.047622375
166	0xbd3f4682	-0.0466981
167	0x3ddb9b69	0.107230015
168	0x3e004ff9	0.12530507
169	0x3d016cd2	0.03159792
170	0x3d2274b2	0.03966207
171	0xbda7ebea	-0.08199294
172	0x3e0c6fc5	0.13714512
173	0xbe08ee9e	-0.13372275
174	0x3da3ce87	0.07998376
175	0x3e12d1c3	0.1433783
176	0x3dbbee15	0.0917627
177	0xbd1a260f	-0.03763395
178	0x3ddf5a3f	0.10905885
179	0xbdda2f58	-0.10653561
180	0xbe17c832	-0.14822462
181	0xbd7a0477	-0.061039414
182	0xbc618c57	-0.01376637
183	0xbbb42a54	-0.00549821
184	0xbd4ce757	-0.05002531
185	0x3e129d55	0.1431783
186	0xbdbebca2	-0.093133226
187	0x3dfe1f76	0.124083444
188	0x3da23fb8	0.0792231
189	0x3c6a21f1	0.014290319
190	0xbca7e4dc	-0.02049487
191	0x3aaa4761	0.0012991243
192	0x3d49aa08	0.04923442
193	0x3e056d1a	0.130299
194	0xbdc50f83	-0.09622099
195	0xbda80d87	-0.08205705
196	0xbd3c706a	-0.046005644
197	0xbc67535e	-0.014118997
198	0x3db2e396	0.08734815
199	0x3d333cab	0.04375903
200	0xbe1023c4	-0.14076144
201	0x3d64d6e4	0.055869
202	0xbd1f1815	-0.038841326
203	0x3dd2ca20	0.102924585
204	0x3dbe251a	0.0928442
205	0x3dcd505e	0.100250944
206	0xbd196266	-0.037447356
207	0x3e1b268a	0.1515142
208	0x3dfcaf7e	0.1233816
209	0xbd94d3bf	-0.0726695
210	0x3e147111	0.14496256
211	0x3d7cb86b	0.061699312
212	0x3dc4e888	0.09614664
213	0x3d5f1a24	0.05446829
214	0x3d3e131a	0.046404935
215	0xbe1c68b6	-0.15274319
216	0x3d09636a	0.033542074
217	0x3cd2016c	0.025635444
218	0xbe139f5d	-0.14416261
219	0xbdcc88e2	-0.09987046
220	0x3e195c5a	0.14976636
221	0x3d7285a2	0.059209473
222	0x3e1d06e2	0.15334657
223	0x3e008fc1	0.12554838
224	0xbe03341d	-0.12812848
225	0x3d3a64ac	0.045506164
226	0xbd377840	-0.044792414
227	0xbe1b371f	-0.15157746
228	0xbde87c13	-0.1135179
229	0x3d480294	0.048830584
230	0xbd46b86c	-0.048515722
231	0xbe1c2e88	-0.15252125
232	0x3c856f5d	0.016288454
233	0x3bfb4663	0.007668303
234	0xbd81bd03	-0.06334879
235	0x3d24a1a4	0.040193215
236	0xbdbd7324	-0.09250477
237	0xbdee58fa	-0.11638065
238	0x3ce7abe4	0.028280206
239	0xbd60cf4e	-0.0548852
240	0x3dee8663	0.11646726
241	0xbd91284b	-0.070877634
242	0x3d8ec9bf	0.06972074
243	0xbd4f5368	-0.05061665
244	0x3b9a8d36	0.0047165407
245	0xbddf1c08	-0.108940184
246	0xbddfcafe	-0.109273896
247	0xbce43477	-0.027857048
248	0x3d307c32	0.043087192
249	0x3d41db8b	0.047328513
250	0x3c815932	0.015789602
251	0xbdf71e25	-0.120662965
252	0xbd2f4db4	-0.042798713
253	0xbe0cb4f5	-0.13740905
254	0xbdcf5cc1	-0.10125113
255	0xbe18d355	-0.14924367

97 f4 [1, 512, 128]
0	0xbdb150e0	-0.08658004
1	0xbd8ecef6	-0.069730684
2	0xbe1a983f	-0.1509714
3	0x3d959151	0.073031075
4	0xbd2f8074	-0.04284711
5	0xbddbf864	-0.10740736
6	0x3e037943	0.12839226
7	0x3dfc61fb	0.12323376
8	0x3cc365ec	0.023852311
9	0xbc3aeb31	-0.011408613
10	0x3e072457	0.13197456
11	0xbc87e158	-0.016586944
12	0xbe03bfc8	-0.12866127
13	0xbd49e429	-0.049289856
14	0x3d2e0bc1	0.04249168
15	0xbdd43d9d	-0.10363314
16	0xbd86e4ab	-0.06586584
17	0x3e1a9740	0.1509676
18	0xbd51e857	-0.051246967
19	0xbc0474d8	-0.008084498
20	0xbd905b43	-0.07048657
21	0xbd30e0ea	-0.043183245
22	0x3dffd6a6	0.12492113
23	0xbcad7c16	-0.021177333
24	0xbd39ecbf	-0.045391794
25	0x3db52a11	0.08845914
26	0xbdf9df40	-0.12200785
27	0x3dc159c3	0.09440949
28	0xbdbf8fcf	-0.09353601
29	0xbcb9e387	-0.022691501
30	0x3c82dbf5	0.015974024
31	0xbd5a9328	-0.053362995
32	0x3ca6e1fb	0.020371428
33	0x3e112fb4	0.14178354
34	0x3dc040b9	0.09387345
35	0x3dd1cbe3	0.102439664
36	0x3ba4b002	0.0050258646
37	0x3d8df982	0.069323555
38	0xbda47b5f	-0.08031344
39	0xbd7eeac3	-0.062235605
40	0x3cc0e33e	0.023545858
41	0xbd2f62f3	-0.042818975
42	0x3dbc7052	0.09201111
43	0x3dae0978	0.084979
44	0x3c91867f	0.017764328
45	0x3cfa2552	0.030535374
46	0x3d725fb9	0.05917332
47	0x3dc3a4a4	0.09552887
48	0x3b5a9e16	0.0033358387
49	0x3c26f052	0.010189133
50	0x3d690f77	0.056899514
51	0x3de042a2	0.10950209
52	0x3c8e8490	0.017397195
53	0x3de965a6	0.11396341
54	0x3d1c94fa	0.038228013
55	0xbe016569	-0.12636341
56	0x3df39eba	0.11895509
57	0x3cb50567	0.022097303
58	0x3d9f2a3f	0.0777173
59	0x3d0696e5	0.032858748
60	0xbcfb1750	-0.030650765
61	0x3d91797b	0.07103249
62	0xbde9aa20	-0.11409402
63	0xbd2fafb0	-0.042892158
64	0xbdc9632c	-0.09833369
65	0x3d9feb9a	0.07808609
66	0xbe097efe	-0.1342735
67	0xbdaaf4db	-0.08347484
68	0x3dfe223e	0.12408875
69	0x3d853695	0.06504551
70	0xbcf704fb	-0.030153742
71	0xbdb5e51f	-0.08881592
72	0x3ce3250e	0.02772763
73	0x3e19ed77	0.15031992
74	0x3dbdce05	0.09267811
75	0x3e060254	0.13086826
76	0xbc701971	-0.014654503
77	0xbe0e7c86	-0.1391469
78	0x3e07fc72	0.13279894
79	0xbe1c7954	-0.15280658
80	0xbe1f596e	-0.15561458
81	0x3d5634d9	0.052296493
82	0x3c10a36e	0.008828027
83	0xbe13fc59	-0.14451732
84	0x3d01f70f	0.031729754
85	0x3d41c6bb	0.047308665
86	0x3e2c53e9	0.16828884
87	0x3de778a7	0.113023095
88	0x3a2b8f27	0.00065444637
89	0x3de15579	0.11002631
90	0x3e29ed38	0.16594398
91	0xbdc881c6	-0.09790377
92	0x3e1919ba	0.1495122
93	0xbe05cc9f	-0.13066338
94	0xbca5b43e	-0.020227548
95	0x3c06a26d	0.008217436
96	0x3e0414b9	0.1289853
97	0xbe13d9a0	-0.14438486
98	0x3dcbd328	0.09952384
99	0x3e0bfe18	0.13671148
100	0xbdee4030	-0.116333365
101	0x3d9dd615	0.077068485
102	0x3e227479	0.15864743
103	0xbe207d5b	-0.1567282
104	0x3d19f347	0.037585523
105	0xbe0192e0	-0.12653685
106	0x3db4439a	0.088019565
107	0x3d531ff1	0.051544134
108	0xbcbc76c0	-0.023005843
109	0x3db5f39f	0.08884358
110	0x3db60b1d	0.088888384
111	0x3e1df80f	0.15426658
112	0xbc241300	-0.010014296
113	0x3d8720ce	0.06598054
114	0x3cf4e830	0.029895872
115	0x3d9c0cad	0.07619605
116	0x3e1185dc	0.1421122
117	0x3da3f8e1	0.08006454
118	0xbdd6b652	-0.104839936
119	0x39870118	0.0002575002
120	0x3de26ab0	0.11055505
121	0xbd9628d3	-0.07332005
122	0xbe134ad0	-0.14384007
123	0xbddd9ecb	-0.10821303
124	0x3dc02758	0.09382504
125	0x3d2df0a9	0.04246584
126	0x3e17fdd3	0.1484292
127	0x3de79baa	0.113089874
128	0xbd472d16	-0.04862698
129	0xbd98b69f	-0.07456707
130	0xbd905357	-0.07047146
131	0xbde6a445	-0.11261801
132	0x3d508397	0.050906744
133	0xbdb69a21	-0.089161165
134	0x3d8c49a2	0.06849982
135	0x3dc94ba9	0.09828884
136	0x3d32eccc	0.04368286
137	0x3d6ac7d9	0.057319496
138	0x3d436a11	0.047708575
139	0xbb1e803c	-0.002418532
140	0xbe13836c	-0.14405602
141	0x3e077b2e	0.13230583
142	0xbd07277f	-0.03299665
143	0xbe0cbd8b	-0.1374418
144	0x3e1aa056	0.15100226
145	0x3e1b7b97	0.15183865
146	0xbdbaa0dc	-0.09112713
147	0x3bccd3e2	0.0062508443
148	0xbd93b49f	-0.07212185
149	0xbd500c6f	-0.050793108
150	0xbdbd21b7	-0.09234946
151	0xbdea91ee	-0.11453615
152	0xbe0afbab	-0.13572566
153	0xbcc69986	-0.024243128
154	0xbc535797	-0.012899301
155	0xbae2691c	-0.0017273757
156	0xbca1857f	-0.019716976
157	0x3d749139	0.059708808
158	0xbc64bcfe	-0.013961075
159	0xbdcce031	-0.100036986
160	0xbd68e157	-0.056855526
161	0xbd6321f4	-0.055452302
162	0x3e08df9f	0.13366555
163	0x3d95d225	0.073154725
164	0xbd1d8884	-0.03846027
165	0xbbd64e3a	-0.006540087
166	0xbdff5d89	-0.12469012
167	0x3d03564d	0.032064725
168	0xbd846dcd	-0.06466255
169	0xbdbfd74b	-0.09367236
170	0xbd2600ef	-0.040528234
171	0x3dca65d8	0.098827064
172	0xbbbacc03	-0.0057005896
173	0x3d2d76a1	0.04234946
174	0x3dab2ad9	0.08357782
175	0x3d06d6ca	0.032919683
176	0xbd1f5a29	-0.038904343
177	0xbdf0ea16	-0.11763398
178	0xbce58a7c	-0.028020136
179	0x3cd937ea	0.02651592
180	0x3d377777	0.044791665
181	0x3dd6d826	0.10490446
182	0xbda10602	-0.07862474
183	0xbd8441b3	-0.06457844
184	0xbd80b015	-0.06283585
185	0x3dadc76b	0.084853016
186	0x3dec5a28	0.115406334
187	0x3cd4c42e	0.025972452
188	0xbc91c4d7	-0.017794056
189	0xbe033312	-0.1281245
190	0x3bf49673	0.007464224
191	0x3d4285ab	0.047490757
192	0xbdc9ad9f	-0.09847569
193	0x3d95c42f	0.0731281
194	0xbd4198ec	-0.04726498
195	0x3d9a57df	0.07536291
196	0x3d45b49d	0.04826795
197	0xbd133b56	-0.03594526
198	0x3d2ffaee	0.042963915
199	0xbe19f866	-0.15036163
200	0xbca9a8d5	-0.020710388
201	0x3c403c9e	0.011733202
202	0xbd6d2b1b	-0.057902437
203	0xbd1488d9	-0.03626332
204	0xbdd8883c	-0.1057286
205	0xbded61b0	-0.11590898
206	0xbb02d613	-0.0019964024
207	0x3de52f00	0.11190605
208	0xbdbceadc	-0.09224483
209	0x3b320df6	0.0027168966
210	0x3db4f7a3	0.088362955
211	0xbd8cfb4c	-0.068838686
212	0xbc3c1d0a	-0.011481533
213	0xbdc76dfe	-0.09737776
214	0x3d8c168e	0.068402395
215	0x3d861218	0.0654642
216	0xbd9ae2d9	-0.07562799
217	0x3daeca36	0.085346624
218	0x3d1938b4	0.037407592
219	0xbdca9c45	-0.09893087
220	0x3dd5fd59	0.10448713
221	0x3da2773f	0.07932901
222	0x3e195e73	0.14977436
223	0x3c37509e	0.011188654
224	0xbc79f2d3	-0.015255648
225	0xbd3844c7	-0.044987466
226	0x3c941c47	0.01807989
227	0x3dd22254	0.10260454
228	0x3dbce06b	0.09222492
229	0xbd491f86	-0.04910233
230	0xbd47d399	-0.04878578
231	0x3cd45047	0.025917185
232	0xbd9d2119	-0.076723285
233	0x3d592243	0.05301119
234	0x3d3dfa5a	0.046381332
235	0x3d5cecf2	0.053936906
236	0x3cdcadbb	0.02693831
237	0xbe068778	-0.13137615
238	0xbd3234e2	-0.043507464
239	0x3e04bfc3	0.12963776
240	0xbdf80223	-0.121097825
241	0x3df02856	0.117264435
242	0x3e09eebe	0.13469979
243	0x3e157431	0.14595105
244	0x3ded3252	0.115818635
245	0x3d239886	0.03994038
246	0x3d9fdb2b	0.07805475
247	0xbe0c10a1	-0.13678218
248	0xbdf334fa	-0.11875339
249	0xbd586f4c	-0.052840516
250	0x3cd9575d	0.026530916
251	0xbdd52b8a	-0.10408695
252	0x3e1aa49a	0.15101853
253	0xbd08ad9a	-0.033368684
254	0x3c8a2f38	0.016868219
255	0x3c96f604	0.018427856

98 f4 [1, 1024]
0	0xbb281300	-0.002564609
1	0xba8c10d1	-0.0010686164
2	0xbadfbe61	-0.0017070287
3	0x3aa17a8d	0.0012319848
4	0x3b65f913	0.0035091087
5	0x3b315a2d	0.0027061806
6	0xbb229584	-0.0024808357
7	0x3b97257f	0.004612624
8	0x3b8512de	0.004061087
9	0xbaeeaef8	-0.0018210104
10	0xbadb71eb	-0.0016742324
11	0x3af651ac	0.0018792651
12	0x3b98e448	0.004665885
13	0x3a939291	0.001125889
14	0x3bff7fb1	0.0077972044
15	0x3c0f560b	0.008748542
16	0x3bb207e5	0.00543307
17	0xbae29719	-0.0017287462
18	0x3a037bb4	0.00050156866
19	0x3b9a1bc3	0.0047030165
20	0xbaa982b0	-0.0012932625
21	0xb9ff9190	-0.00048745843
22	0xbae3e276	-0.0017386216
23	0xb7c3b393	-2.3329432e-05
24	0x3a14500e	0.0005657681
25	0x3ac10ebc	0.0014729123
26	0x39c8b9fe	0.00038285548
27	0x3b8f6a75	0.0043767043
28	0xbc096a92	-0.008387225
29	0xbc1de688	-0.009637482
30	0xbab9a275	-0.0014162796
31	0x3b24b166	0.0025130152
32	0x3b9f7858	0.004866641
33	0xbbf6b719	-0.007529151
34	0xbad91514	-0.0016562068
35	0x3ae90f7f	0.0017781107
36	0xba32de4f	-0.00068232877
37	0x3c5e7148	0.013576813
38	0x3c56a1c8	0.013100095
39	0x3ae27695	0.0017277772
40	0x3c0ac443	0.008469644
41	0x3c35af4d	0.011089158
42	0xb9dc88e1	-0.00042063653
43	0xbbaa7211	-0.005201586
44	0xbc536136	-0.012901595
45	0x3a042ccd	0.0005042076
46	0xbb6a3c5a	-0.0035741539
47	0xbc2d4ca3	-0.010577354
48	0xbb1fc9a2	-0.0024381657
49	0x3b95cb85	0.0045713806
50	0x3a042ac8	0.00050417753
51	0xba867575	-0.0010258394
52	0xbbe341e4	-0.006935345
53	0xbb627ce7	-0.003455931
54	0x3a722858	0.0009237579
55	0x3a526048	0.0008025211
56	0x3af41f0d	0.0018624977
57	0x3b845728	0.00403871
58	0xbb1433da	-0.0022613914
59	0xbc241e08	-0.010016926
60	0x3bf73fa7	0.0075454297
61	0x3c37a83c	0.011209544
62	0xbb6abbf6	-0.00358176
63	0xbb20f527	-0.0024560185
64	0xbc0b8a9a	-0.008516932
65	0xbba3f354	-0.005003372
66	0xbb2ed245	-0.0026675623
67	0xbb976d6d	-0.004621199
68	0xbb13393c	-0.0022464534
69	0xba21844c	-0.00061613764
70	0x3b62c00d	0.0034599334
71	0xba991391	-0.0011678805
72	0x3c1a2d8c	0.009410273
73	0x3b3ebb33	0.0029103279
74	0xb9fc7532	-0.00048152503
75	0xbc1ce097	-0.009575031
76	0xbbde078a	-0.006775801
77	0xbb91a4c3	-0.00444469
78	0x3bb5cc1b	0.005548013
79	0xbb67bf90	-0.0035361983
80	0xbae06656	-0.0017120342
81	0xbab124ba	-0.0013514974
82	0xbc950840	-0.01819241
83	0xbb8c982c	-0.0042906012
84	0xba9a0bce	-0.0011752786
85	0x3b33938c	0.0027401177
86	0xbb72b794	-0.003703569
87	0x3bac528c	0.005258864
88	0x39fb0238	0.00047876104
89	0x3adc9ff0	0.0016832333
90	0xba885b69	-0.0010403219
91	0xbae5a630	-0.0017520841
92	0xba410389	-0.00073628925
93	0x3b2baf56	0.0026197038
94	0xbb46800a	-0.003028872
95	0xbbc9013b	-0.00613418
96	0xbb77008d	-0.0037689537
97	0x39f226f4	0.0004618686
98	0x3a98be7b	0.0011653447
99	0xbb3156df	-0.0027059836
100	0x3bf18904	0.00737107
101	0x3a955da4	0.0011395705
102	0x3c07dde7	0.008292652
103	0xbae90765	-0.0017778693
104	0xbbdb3e8f	-0.006690807
105	0x3aa44aab	0.001253446
106	0x3a3d5f15	0.0007223946
107	0xbc302ee7	-0.01075337
108	0x3a69cc17	0.00089186564
109	0x39ea4966	0.00044686644
110	0x3a23c88c	0.00062478404
111	0xbb6c5c73	-0.0036065846
112	0x3c1975dd	0.00936648
113	0x3b8cc3fb	0.0042958236
114	0x3b36c51c	0.0027888482
115	0x3bd4715d	0.0064832405
116	0xb9cdf0e8	-0.00039280136
117	0xbb32931a	-0.0027248324
118	0xb9d5fc0a	-0.0004081431
119	0xbaf2b66c	-0.0018517501
120	0x3c30f848	0.010801382
121	0x3b5160b4	0.0031948509
122	0x3c042b4d	0.008066964
123	0xbba002fb	-0.004883168
124	0x3b6a1dca	0.0035723322
125	0xb9107341	-0.00013775846
126	0xb6b63739	-5.4304514e-06
127	0xbabdbdf1	-0.0014476163
128	0x3a921430	0.0011144932
129	0xbbbffe3b	-0.005859164
130	0xbb9759f5	-0.004618878
131	0x3b07f763	0.002074682
132	0x3bed62c2	0.007244439
133	0xbc03f6e4	-0.008054469
134	0x3b769d4b	0.0037630375
135	0x3b572336	0.0032827384
136	0xbab7fff1	-0.0014038068
137	0x3b867561	0.004103348
138	0xbbf53377	-0.0074829417
139	0xbb54b48b	-0.0032456245
140	0x3a1b9a30	0.00059357565
141	0xbb041663	-0.0020154945
142	0xba991d34	-0.0011681677
143	0x3c0ce6c5	0.008599942
144	0x3a0d8794	0.0005398926
145	0x38e2d90e	0.00010816949
146	0x3b5828bf	0.003298327
147	0xbbd3823e	-0.006454735
148	0x3a993ca8	0.0011691051
149	0xba1f9a6e	-0.00060883805
150	0xbc10ac64	-0.008830164
151	0xbb6fb2ad	-0.0036575005
152	0x3b4a8842	0.003090397
153	0xbb56a261	-0.0032750594
154	0x3bc2e64d	0.005947864
155	0x3c00cf33	0.0078619
156	0x39d82c80	0.00041231886
157	0xbbeeea86	-0.007291141
158	0xbba29d00	-0.0049625635
159	0x3bd3ce38	0.006463792
160	0x3c492508	0.012276895
161	0x3b3d34e0	0.0028870627
162	0x3994f14c	0.0002840854
163	0xba862f27	-0.0010237441
164	0xbc04b57c	-0.00809991
165	0x3bc44080	0.0059891343
166	0x3ba5d5ef	0.0050609033
167	0xb907bc27	-0.00012944695
168	0x3c6b4a93	0.014361042
169	0x3c494f5e	0.012286989
170	0xbb3c9567	-0.0028775574
171	0xbab4b1f8	-0.0013785949
172	0x3b68f37d	0.003554552
173	0xbba9e1ae	-0.005184374
174	0xbb387aed	-0.0028149441
175	0xbad490fb	-0.0016217524
176	0x3b66be36	0.003520859
177	0x3b6428f1	0.0034814442
178	0xbb67bcd6	-0.0035360358
179	0xbb31ead9	-0.0027148037
180	0xbb008de8	-0.0019615833
181	0x3af5db60	0.0018757395
182	0x3baf9600	0.0053584576
183	0x37863852	1.6000271e-05
184	0x3ac9fbfb	0.0015410179
185	0x39c68224	0.00037862465
186	0xba802c90	-0.0009778906
187	0x3c1b94c8	0.009495921
188	0x3c28945a	0.010289276
189	0x3c37c6a2	0.011216791
190	0xbb1584f6	-0.0022814847
191	0x3b489dc7	0.003061162
192	0x3bad834f	0.005295194
193	0xbaf842c9	-0.0018940802
194	0xbba12c8b	-0.00491864
195	0x39a1dffe	0.000308752
196	0xbc1f7240	-0.009731829
197	0x3b10929e	0.0022060047
198	0x3abe7d84	0.0014533256
199	0xbb75f9a4	-0.003753283
200	0x3a95295c	0.0011380124
201	0xbac317b8	-0.0014884388
202	0xb9bdec97	-0.00036225162
203	0x3a06d1c2	0.00051429507
204	0xbab34b42	-0.0013679045
205	0x3ba7d204	0.0051214714
206	0x3bc82e01	0.0061089997
207	0x38cbaee9	9.712374e-05
208	0xbac5494c	-0.0015051751
209	0x3b89b435	0.0042023906
210	0x3aa84b51	0.0012839829
211	0xbb3d808f	-0.0028915738
212	0xbb02ed3d	-0.001997783
213	0xba38fe6f	-0.00070569565
214	0xbc243345	-0.010021989
215	0xbb345dd3	-0.0027521744
216	0x3b860ac1	0.0040906374
217	0xbbe1a85a	-0.006886524
218	0xb9775e2e	-0.0002359084
219	0xbacb15fc	-0.0015494223
220	0xbb4c09ef	-0.003113385
221	0x3b9ec371	0.004845076
222	0xbb277d03	-0.002555669
223	0x3b75fb06	0.0037533655
224	0xbc394c8b	-0.011309753
225	0x3ad4da84	0.0016239439
226	0xbc27f6de	-0.010251729
227	0xbc14b749	-0.009076902
228	0x3bb42c4a	0.0054984437
229	0xbb91f57c	-0.004454313
230	0x3b004709	0.001957359
231	0x3bf7d40b	0.0075631193
232	0x3a3a787e	0.00071132916
233	0x3b5352ee	0.0032245475
234	0x3a0d8e65	0.00053999416
235	0xbc2f619c	-0.010704424
236	0x3a4e3bd7	0.0007867193
237	0xba332c34	-0.0006834895
238	0x3b8654ff	0.004099488
239	0x3ae39517	0.0017363158
240	0x3b3d10f0	0.0028849207
241	0x3c2b4b34	0.010454942
242	0x3b4dfd98	0.0031431671
243	0xbc411834	-0.011785556
244	0xbbeaea93	-0.0071690767
245	0xba62c32c	-0.00086502987
246	0x3bcf9864	0.006335305
247	0xbaf577e3	-0.0018727746
248	0x3beaa7aa	0.0071611004
249	0x3ac0c5a1	0.0014707336
250	0x3acaa59b	0.0015460731
251	0x3b40d738	0.0029425155
252	0x38a4304d	7.829126e-05
253	0x3be52cec	0.0069938805
254	0xba97fec2	-0.001159631
255	0x3bd24524	0.0064169336

action_model._continuous_distribution.log_sigma f4 [1, 3]
0	0x3b010855	0.0019688804
1	0xbaf94b6d	-0.0019019671
2	0xbcb343ac	-0.021882854

action_model._continuous_distribution.mu.bias f4 [3]
0	0xbbec60a6	-0.00721367
1	0x3b83dd9a	0.0040242197
2	0xbc27ac13	-0.010233897

action_model._continuous_distribution.mu.weight f4 [3, 128]
0	0x3c7a9aa6	0.01529566
1	0x3bab9730	0.005236529
2	0x3d12c58d	0.03583293
3	0x3b8fa4c8	0.004383657
4	0xbb98919a	-0.004656029
5	0x3c926d99	0.017874526
6	0xbc7a2af1	-0.015269027
7	0x3bee3c49	0.00727037
8	0xbc684a88	-0.014177926
9	0xbc85313e	-0.016258832
10	0xbc412852	-0.011789398
11	0xbcdbb8b3	-0.02682147
12	0x3b90cfb0	0.0044192895
13	0xbc88a6f3	-0.01668117
14	0x3cbc7b48	0.023008004
15	0xbca23897	-0.019802375
16	0x3cd49a95	0.025952617
17	0x3c047613	0.008084792
18	0xbc8b12fc	-0.016976826
19	0x3d1e45fb	0.038640957
20	0x3a82afac	0.0009970567
21	0xbd005366	-0.031329535
22	0xbc8a54d8	-0.01688616
23	0x3c1b755f	0.009488433
24	0xbc7a5f2e	-0.015281482
25	0xbd2ea585	-0.04263832
26	0x3c7ffe65	0.015624617
27	0xbad51f9a	-0.0016260028
28	0x3cf1ad94	0.029501714
29	0x3c4d7b83	0.0125416545
30	0xbc989117	-0.018623872
31	0x3c071219	0.008244061
32	0xbcccce2c	-0.025000654
33	0xbd373997	-0.044732656
34	0xbcd22184	-0.025650747
35	0x3c8d7800	0.017269135
36	0x3b1dab6f	0.0024058481
37	0xbc4c920a	-0.01248599
38	0x3d21a9ab	0.03946845
39	0x3c4d1e14	0.012519378
40	0x3d364f26	0.044509076
41	0x3ce569ba	0.028004516
42	0xbcc9feac	-0.02465757
43	0xbd242030	-0.04006976
44	0xbc707327	-0.014675892
45	0xbc984cb8	-0.01859127
46	0x3cccebaa	0.025014717
47	0x3bf795bb	0.007555691
48	0xbc8ab459	-0.0169317
49	0x3b89cc97	0.004205297
50	0x3c7bf786	0.015378838
51	0xbc82b5a5	-0.015955755
52	0x3ade1c50	0.0016945694
53	0xbcd2855a	-0.025698353
54	0x3d0f8ef7	0.03504845
55	0xbb829118	-0.0039845817
56	0xbbc845e8	-0.006111849
57	0x3aad4551	0.001321951
58	0xbc206afd	-0.009791133
59	0x3d274118	0.040833563
60	0xbc9fbd2c	-0.019499384
61	0xbcb316c7	-0.021861447
62	0x3cd354ad	0.025797212
63	0x3c903b3d	0.017606372
64	0xbac62f32	-0.0015120266
65	0x3c58d689	0.013234743
66	0xbd0cf641	-0.034414534
67	0xbbb2dc9e	-0.0054584285
68	0x3c0bc116	0.008529922
69	0xbd5b5ca7	-0.053555157
70	0x3c3c9596	0.011510273
71	0xbc525e43	-0.012839857
72	0x3c8b73be	0.017022964
73	0xbbeea444	-0.0072827656
74	0x3cb4be7b	0.022063484
75	0xbbd12756	-0.006382863
76	0xbc012ce6	-0.00788424
77	0x3c9e72bc	0.019341819
78	0x3c0936ab	0.00837485
79	0xbcc7d178	-0.024391875
80	0x3ce412c5	0.027840981
81	0x3c07b272	0.008282291
82	0xbadb6c02	-0.0016740563
83	0xbc8e7113	-0.017387902
84	0xbb4fdcaf	-0.003171723
85	0x3a656357	0.00087504595
86	0x3c609dea	0.013709525
87	0x3b91db82	0.004451216
88	0xbd0a3529	-0.033742104
89	0xbcb95e0e	-0.022627857
90	0xbc3d95cd	-0.01157136
91	0x3c366fbf	0.011135041
92	0x3c9fb009	0.01949312
93	0xbbc91761	-0.00613682
94	0xbc665a16	-0.014059564
95	0xbc8fe049	-0.017563002
96	0xbd14aed4	-0.03629954
97	0xbbdb4b10	-0.0066922978
98	0x3c819577	0.01581834
99	0xba83b8b9	-0.0010049558
100	0xbbb88bdb	-0.0056319064
101	0xbb04a593	-0.0020240291
102	0xbd463aa2	-0.04839576
103	0x3cd20f6f	0.025642125
104	0x3c13ee41	0.009028972
105	0x3cda101d	0.026619012
106	0xba7ff4cd	-0.0009763956
107	0xbc3f27d4	-0.011667211
108	0x38a22575	7.731739e-05
109	0xbc04f2dd	-0.008114544
110	0xbc86cf82	-0.01645637
111	0x3c829b1c	0.015943103
112	0x3c9ba99d	0.019001776
113	0xbc394740	-0.011308491
114	0x3bb26dc4	0.005445214
115	0x3c92d6d4	0.017924704
116	0x3c412cde	0.011790482
117	0xbcd41339	-0.025888072
118	0xbb7cb418	-0.0038559493
119	0x3b7ca867	0.0038552524
120	0xbc7080f1	-0.0146791795
121	0x3be843e1	0.00708817
122	0xbcbc139f	-0.022958575
123	0x3c53e79d	0.012933639
124	0x3d05b719	0.03264532
125	0x3bb944b3	0.0056539415
126	0xbcad8747	-0.02118267
127	0xbb4a96d8	-0.0030912664
128	0xbc7bd44e	-0.015370442
129	0xbc349780	-0.011022449
130	0x3c838892	0.016056333
131	0xbd09cd9b	-0.033643346
132	0xbc2b11ee	-0.0104412865
133	0xbc022968	-0.007944442
134	0xbb240fb0	-0.0025033765
135	0xbc8d3fb0	-0.017242283
136	0x3ca93984	0.020657308
137	0xbb2faba5	-0.002680519
138	0xbb03077d	-0.0019993477
139	0x3c4e8ce9	0.012606838
140	0x3cf0e002	0.02940369
141	0xbc8778eb	-0.01653715
142	0x3cba1e82	0.022719625
143	0x3c6835e4	0.014173005
144	0x3c4d291b	0.012522007
145	0x3ae7da90	0.0017689038
146	0x3c3b366d	0.01142655
147	0xbc6f0d60	-0.014590591
148	0x3cdb7069	0.026787
149	0x3d1b0e6c	0.03785555
150	0xbc032962	-0.008005472
151	0x3ac1020d	0.0014725343
152	0xbce9aae1	-0.028523864
153	0xbbd6a975	-0.0065509626
154	0x3b53841a	0.0032274784
155	0xbba6d0ab	-0.005090793
156	0x3ceb95d0	0.02875796
157	0x3ca5daa5	0.02024586
158	0x3d02d87e	0.031944744
159	0x3bca08e6	0.0061656116
160	0x3c2fbfdf	0.010726898
161	0xbcbb3833	-0.022853946
162	0xbc8e25d0	-0.017352015
163	0x3bddf175	0.0067731687
164	0xbbba92db	-0.005693776
165	0x3cdfb883	0.027309662
166	0x3c99891b	0.018742135
167	0xba1e8592	-0.0006047125
168	0x3b017076	0.001975087
169	0xbcb5fccb	-0.022215268
170	0x3ce17990	0.027523786
171	0xbccce849	-0.025013106
172	0xbcecb616	-0.02889542
173	0xbcd7588d	-0.026287341
174	0x3d3d8819	0.04627237
175	0x3cf990dc	0.030464582
176	0x3ca88aa0	0.020573914
177	0x3b628219	0.0034562408
178	0xbc83fbab	-0.016111216
179	0xbb380a8c	-0.0028082458
180	0x3ce7e479	0.028307186
181	0xbcf34735	-0.02969704
182	0xbcb22642	-0.021746758
183	0xbc5ae95c	-0.013361301
184	0x3cc5610c	0.024094127
185	0xbcb7375f	-0.02236527
186	0x3ccacc58	0.024755642
187	0x3cb56817	0.02214436
188	0xbc59a59f	-0.013284116
189	0x3d1437ef	0.036186155
190	0x3bcd1e41	0.00625971
191	0xbc8542a0	-0.01626712
192	0x3a602727	0.0008550756
193	0x3b5247ea	0.003208632
194	0xbc35e069	-0.011100867
195	0xbb3e0901	-0.0028997066
196	0xbcb7b2f7	-0.022424204
197	0xbb8b9ab2	-0.0042603845
198	0x3cceb452	0.025232468
199	0x3926476a	0.00015857597
200	0x3b62cfb4	0.0034608664
201	0x3d52b2b8	0.05143997
202	0xbcca9581	-0.024729492
203	0xbc6e0e16	-0.014529726
204	0xbd3f8232	-0.046755023
205	0xbcf3b02e	-0.029747095
206	0xbd119221	-0.03553975
207	0x3cc2677a	0.023730982
208	0xbc332938	-0.01093512
209	0xbca0c089	-0.019623058
210	0xbcb0861a	-0.02154832
211	0xbcb4b06b	-0.022056779
212	0xbc46c451	-0.012131766
213	0xbc2a04de	-0.010377137
214	0x3c88a5c6	0.01668061
215	0xb9a2343c	-0.00030937965
216	0xbc02a432	-0.0079737175
217	0xbc059180	-0.008152366
218	0xbbb885ba	-0.005631176
219	0xbbc05872	-0.0058699185
220	0xbc80ce49	-0.015723364
221	0x3c76a5bb	0.015054162
222	0x3b8fcb21	0.0043882285
223	0xbd164852	-0.036690064
224	0xbb6ba114	-0.0035954164
225	0x3b8c33c5	0.0042786323
226	0xbb927dac	-0.0044705477
227	0xbb83c08a	-0.004020755
228	0x3c18ada9	0.009318748
229	0xbc7502da	-0.014954293
230	0xbcb7ff36	-0.022460561
231	0xbc050f99	-0.008121395
232	0x3cfb5c0d	0.030683542
233	0x3a2894a1	0.0006430839
234	0xbb43c22a	-0.002987037
235	0xbb9e3d4a	-0.0048290836
236	0x3c6ccecd	0.014453602
237	0xbd09797f	-0.033563133
238	0xbc5ba25b	-0.013405408
239	0x3d0ddfa0	0.034637094
240	0xbc86fbe0	-0.016477525
241	0x38703e1b	5.72783e-05
242	0xbb8411cc	-0.004030442
243	0xbb9c39b3	-0.0047676205
244	0x3c91d7ee	0.017803159
245	0x3cf89fb4	0.03034959
246	0x3ce96173	0.02848885
247	0xbc6dd560	-0.014516205
248	0x3d409cd6	0.04702457
249	0x3ccb4118	0.024811313
250	0x3a10764c	0.00055107917
251	0xbd24cfe6	-0.04023733
252	0xbd046160	-0.032319427
253	0x3b012e05	0.0019711268
254	0xbc90cec0	-0.017676711
255	0xbd302bb8	-0.043010443

network_body._body_endoder.seq_layers.0.bias f4 [128]
0	0xbbef16d5	-0.007296423
1	0xbb157e0c	-0.0022810725
2	0xbb807d1f	-0.0039211656
3	0x3afbc7df	0.0019209347
4	0x3bf003c8	0.0073246695
5	0xbb638ea9	-0.0034722483
6	0xb93d39b9	-0.00018045948
7	0x3b20929d	0.002450145
8	0xbb45b1c5	-0.0030165773
9	0xbbff014e	-0.007782138
10	0x3be7bd1b	0.0070721037
11	0xbbd6151b	-0.0065332777
12	0xb73f93f6	-1.1418937e-05
13	0x3c6497b2	0.013952183
14	0xbb7dcb91	-0.0038726071
15	0xba7a24c1	-0.000954222
16	0xbbe95066	-0.00712018
17	0x3b2e94b1	0.002663892
18	0xba0f6479	-0.00054699887
19	0xbb8ff1d3	-0.0043928414
20	0xb9cef6fe	-0.00039475405
21	0x3c15d9b5	0.009146144
22	0xb908b42c	-0.0001303709
23	0xbb0287b4	-0.001991731
24	0x3b323657	0.0027193034
25	0xbb7e41ee	-0.0038796621
26	0x3c525344	0.012837235
27	0xbaae2d51	-0.0013288652
28	0x3b6afcb3	0.0035856187
29	0xba98c681	-0.0011655838
30	0x3a85963f	0.0010191872
31	0xbbb81d36	-0.0056187166
32	0x3b3716ff	0.002793729
33	0x3c2f477d	0.0106981965
34	0xb9b537e1	-0.00034564643
35	0xbb9e5f46	-0.004833135
36	0x3b808e5d	0.003923221
37	0xbbd64207	-0.006538633
38	0x3c1418f4	0.009039152
39	0xbb45528a	-0.0030109012
40	0x3be1ebca	0.0068945633
41	0x3bb588a8	0.0055399723
42	0xb874b31d	-5.8340946e-05
43	0x3b318420	0.002708681
44	0x3b9a65b5	0.0047118315
45	0xbbfad61d	-0.007654919
46	0x3ab4aa84	0.0013783728
47	0xbb94064e	-0.004517353
48	0xbb67ae7b	-0.0035351801
49	0xbbc8deba	-0.0061300667
50	0xbb0a9b3b	-0.0021149653
51	0xbbed759e	-0.007246687
52	0x3c4db158	0.012554489
53	0xbb18be7d	-0.00233069
54	0xbbc20ad3	-0.0059217005
55	0xbb2cea3f	-0.0026384739
56	0xb812ca11	-3.49973e-05
57	0xba2475fd	-0.0006273685
58	0xbb68ed8b	-0.0035541977
59	0xbbc16750	-0.0059022084
60	0xbb225bfc	-0.0024774065
61	0xba9e36ac	-0.0012070737
62	0x3b112018	0.0022144374
63	0xbb26c019	-0.002544409
64	0x3be9a8ce	0.007130719
65	0xbb3e0d83	-0.0028999753
66	0x3aa7ef26	0.0012812361
67	0x3bea010a	0.007141237
68	0xba9de8bb	-0.0012047508
69	0x3a0ed8d9	0.0005449183
70	0x3aa3225b	0.0012446152
71	0xbb2d2be3	-0.0026423864
72	0x3a139efe	0.00056312967
73	0xbbd88b68	-0.0066084154
74	0x3c890bdd	0.01672929
75	0x3b36ba49	0.002788203
76	0x3c026275	0.007958044
77	0xbc1e4e92	-0.009662287
78	0x3b817d7c	0.0039517265
79	0xbbecf318	-0.0072311275
80	0xbba30306	-0.0049747257
81	0xb9d5de43	-0.00040792124
82	0x3b93df2a	0.004512687
83	0x3be7b51c	0.0070711505
84	0xba64bef3	-0.00087259634
85	0x3a59532d	0.0008290287
86	0x3a195a80	0.00058499724
87	0x392cb4ef	0.00016470601
88	0x3cc85525	0.024454663
89	0xbb31ffe4	-0.002716058
90	0xbb58be9d	-0.0033072599
91	0xbbf81e19	-0.0075719473
92	0xbb17e9bb	-0.0023180086
93	0xbabaea6a	-0.0014260535
94	0x3a973f88	0.001153932
95	0x3b9a63a8	0.004711587
96	0xbb497d65	-0.0030744907
97	0xba1240e8	-0.000557913
98	0x391d3179	0.00014991117
99	0x3c763f72	0.015029775
100	0x3a9ed5d6	0.0012118171
101	0xbb590acf	-0.0033118015
102	0xbb94238a	-0.004520838
103	0x3c305946	0.010763472
104	0x3b97787f	0.0046225186
105	0x3b8c1802	0.004275323
106	0xbb018a9a	-0.001976645
107	0xbc1cf57b	-0.0095800115
108	0xba9c5f64	-0.0011930284
109	0x3c06930a	0.008213768
110	0x3aae71f6	0.001330911
111	0xbb53bb76	-0.003230778
112	0xbb2a1aa9	-0.0025955832
113	0xbc610c69	-0.013735869
114	0xbae1185a	-0.0017173395
115	0x3c14b9eb	0.009077529
116	0xbb16f904	-0.0023036608
117	0x3b743a72	0.0037266281
118	0x3b0644cc	0.0020487783
119	0xba750c9e	-0.00093478884
120	0x3c022ada	0.007944787
121	0x3b2bcf5a	0.002621612
122	0xbbcba061	-0.006214187
123	0x3b9a8bfb	0.004716394
124	0x39fe75cd	0.00048534424
125	0xbbac4b70	-0.0052580163
126	0x39c63e89	0.00037812095
127	0x3a2ecbae	0.0006667924

network_body._body_endoder.seq_layers.0.weight f4 [128, 65]
0	0x3df02547	0.1172586
1	0xbd17e710	-0.037085593
2	0xbd0ff60e	-0.035146765
3	0xbe5b7c11	-0.21434046
4	0x3d6e088a	0.058113612
5	0x3c870d15	0.01648573
6	0xbdaaffae	-0.08349548
7	0xbd65e742	-0.056128748
8	0xbd7be9f4	-0.061502412
9	0xbd1393d6	-0.03602966
10	0xbe044968	-0.12918627
11	0x3d0f8b7e	0.03504514
12	0xbdab8d0e	-0.083765134
13	0xbe5b1901	-0.21396257
14	0x3ca27b53	0.019834196
15	0xbddde479	-0.10834593
16	0x3d23af39	0.039962027
17	0x3dd7b040	0.10531664
18	0xbd792cc7	-0.06083372
19	0x3d623fa4	0.055236474
20	0x3cbead9a	0.023276139
21	0xbe69a5a2	-0.2281709
22	0xbd389af0	-0.045069635
23	0x3da5017a	0.08056922
24	0xbdb463f2	-0.088081256
25	0xbddc4a30	-0.10756338
26	0xbdf3da10	-0.119068265
27	0x3db31c61	0.08745647
28	0xbd529099	-0.05140743
29	0x3dd8fcd7	0.105951004
30	0xbda092ac	-0.078404754
31	0x3e41b911	0.18918253
32	0x3d35910b	0.044327777
33	0xbe3228f2	-0.17398432
34	0xbc9fb119	-0.019493626
35	0x3e4510a9	0.19244637
36	0x3d816c92	0.06319536
37	0xbe0f9a4f	-0.14023708
38	0x3e11e4ee	0.14247486
39	0x3dae60fb	0.08514591
40	0xbd941add	-0.07231686
41	0x3ea5cbea	0.32382137
42	0xbddc9445	-0.10770468
43	0x3d3e939b	0.046527486
44	0x3c00bc84	0.007857446
45	0x3d1eea5d	0.038797725
46	0xbc9ca2c9	-0.01912059
47	0xbd97de58	-0.074154556
48	0x3e0846bf	0.13308237
49	0xbe7c954a	-0.24666324
50	0x3e5913e9	0.21199001
51	0x3dd3411c	0.10315153
52	0x3d2ebc3a	0.042659976
53	0xbe012513	-0.12611799
54	0x3dcb707e	0.099335656
55	0x3e1bd58e	0.15218183
56	0x3e83b44f	0.25723502
57	0x3e04daf2	0.12974146
58	0x3b4812fc	0.0030528894
59	0xbbb2e0db	-0.0054589338
60	0x3e3f6ae8	0.18693125
61	0xbd185519	-0.03719053
62	0x3d008523	0.03137697
63	0x3de2e773	0.11079302
64	0x3cba5b67	0.022748662
65	0xbe9f8815	-0.3115851
66	0xbd5cb3b0	-0.0538823
67	0xbe882915	-0.26593843
68	0xbdcae6dc	-0.09907314
69	0x3e49a716	0.19692644
70	0x3dd24efa	0.1026897
71	0x3e6c9c08	0.23106396
72	0x3c198c46	0.009371823
73	0x3e891d16	0.26780003
74	0x3e1e9426	0.15486202
75	0xbda8ff7a	-0.08251853
76	0xbd081cf2	-0.03323073
77	0xbe3067fa	-0.17227164
78	0x3e041248	0.12897599
79	0x3c647176	0.013943067
80	0x3e669c92	0.22520664
81	0xbe603987	-0.21896945
82	0x3bb43abc	0.0055001657
83	0x3df57d6d	0.11986814
84	0xbe302102	-0.17200091
85	0xbe135366	-0.14387283
86	0xbde0bcc3	-0.109735034
87	0x3d9a7ac2	0.075429454
88	0x3dcb5d07	0.09929853
89	0x3debf76a	0.115218
90	0xbe1fc7b1	-0.1560352
91	0xbc80e60e	-0.015734699
92	0xbb9fb24e	-0.0048735505
93	0x3d22fcf6	0.039792024
94	0xbcf93287	-0.030419601
95	0xbd71f484	-0.05907108
96	0x3cf27441	0.02959645
97	0xbe2f3bde	-0.17112681
98	0xbe443f83	-0.19164853
99	0xbb2a6167	-0.0025997998
100	0xbe69f756	-0.22848257
101	0xbd755b54	-0.05990155
102	0xbde5053c	-0.11182639
103	0xbce92262	-0.028458778
104	0xbe5c4b24	-0.21513039
105	0xbc9f39b1	-0.01943669
106	0x3ec4657a	0.3835867
107	0xbd296d28	-0.041363865
108	0x3b56595d	0.0032707073
109	0x3e9b41e1	0.303237
110	0x3e3d575a	0.18490353
111	0x3d3ce717	0.046118822
112	0xbddc3f30	-0.107542396
113	0xbca2bc13	-0.019865071
114	0xbddc2a89	-0.107503004
115	0x3dbf8aba	0.09352632
116	0xbe60633f	-0.2191286
117	0xbda8c687	-0.08240991
118	0x3d0e0b2a	0.034678616
119	0xbe1da743	-0.15395837
120	0x3bc67b02	0.006057144
121	0xbe6a33c7	-0.22871314
122	0xbde08958	-0.10963696
123	0x3d65c21b	0.056093317
124	0xbe6d893c	-0.23196882
125	0xbdc5e9ec	-0.09663758
126	0xbe34032e	-0.17579338
127	0x3d43f42b	0.04784028
128	0x3dad99ea	0.084766224
129	0xbe27ad38	-0.16374671
130	0x3d8cbd16	0.06872003
131	0x3e0c335f	0.13691472
132	0x3d5316f0	0.051535547
133	0xbd93ac83	-0.072106384
134	0xbdd890ae	-0.105744705
135	0xbe29366a	-0.16524664
136	0xbd2bbd7d	-0.041928757
137	0xbd3321ea	-0.043733515
138	0xbd87b564	-0.066263944
139	0xbd6d71df	-0.057969924
140	0x3ccb362e	0.024806108
141	0xbe29c91b	-0.16580622
142	0x3d9b91e7	0.07596188
143	0xbc8f950f	-0.017527131
144	0x3e1a8dcc	0.15093154
145	0x3d62edbb	0.0554025
146	0x3e540254	0.20704013
147	0x3df66ed6	0.12032859
148	0xbd67db9c	-0.05660592
149	0x3de48953	0.11159005
150	0x3de16599	0.11005706
151	0xbb31fafd	-0.0027157657
152	0xbce23f99	-0.027618216
153	0x3ddab34d	0.1067873
154	0x3e04e077	0.12976252
155	0x3c780010	0.015136734
156	0xbd472f4c	-0.04862909
157	0xbd47ff66	-0.04882755
158	0xbd0541eb	-0.032533567
159	0x3e01debd	0.12682624
160	0x3d67649e	0.05649244
161	0xbd069d62	-0.032864936
162	0xbd964f56	-0.07339351
163	0xbd619350	-0.05507213
164	0x3e8b8286	0.2724802
165	0x3d1dd0df	0.038529273
166	0xbe2589e5	-0.16165884
167	0x3dddac48	0.10823876
168	0xbdd98b59	-0.106222816
169	0xbdcd4870	-0.10023582
170	0x3ad77f54	0.0016441145
171	0x3e713dbb	0.23558705
172	0x3e3bb208	0.18329632
173	0xbc02fd94	-0.007995028
174	0x3d445da9	0.047940884
175	0xbe67bcc6	-0.22630605
176	0xbcf6dcfa	-0.030134667
177	0xbcd96b6a	-0.026540477
178	0x3dd4d6ea	0.10392554
179	0xbe910810	-0.28326464
180	0x3a507285	0.0007951635
181	0xbbf0115e	-0.007326289
182	0xbde3169e	-0.11088298
183	0xbcc939a5	-0.02456362
184	0x3d096323	0.03354181
185	0x3e4c0870	0.19925094
186	0x3dc2cc36	0.095116064
187	0xbc983ea0	-0.01858455
188	0xbe0d3055	-0.13787968
189	0x3dd9ba2f	0.10631215
190	0xbe28f81a	-0.16500893
191	0xbd3c67ec	-0.045997545
192	0x3e0e53fe	0.13899228
193	0x3d7b6dfe	0.061384194
194	0xbdb3db9f	-0.08782124
195	0x3cd026a1	0.025409045
196	0xbd00a48d	-0.031406928
197	0x3e2b5a12	0.16733578
198	0x3e6981a2	0.22803357
199	0x3d156e58	0.036482185
200	0x3d6c1f49	0.057647023
201	0x3e21d1d5	0.15802701
202	0x39b0866f	0.00033669497
203	0xbd4e314a	-0.050339974
204	0x3e18dcad	0.14927931
205	0xbe5d5230	-0.21613383
206	0x3d352549	0.04422501
207	0x3d701992	0.058618136
208	0xbd6cd1ea	-0.057817377
209	0xbe406447	-0.18788253
210	0x3c75bda4	0.014998827
211	0xbd893e1f	-0.06701302
212	0xbd24987e	-0.04018449
213	0x3c93a1ed	0.018021548
214	0x3e332707	0.17495357
215	0xbddc242a	-0.10749085
216	0xbe4e0ad0	-0.20121312
217	0xbd16e035	-0.036834914
218	0x3d7a315f	0.06108224
219	0xbcb62afc	-0.022237293
220	0x3e3a0490	0.18165803
221	0xbcc27f0a	-0.023742218
222	0x3cf06c09	0.02934839
223	0xbd7dc7e2	-0.0619582
224	0xbd6cba96	-0.05779513
225	0x3e0ce7ca	0.13760296
226	0xbe24361c	-0.16036266
227	0x3c9253c1	0.017862203
228	0xbd87cf74	-0.066313654
229	0xbe21f308	-0.15815365
230	0x3ca0c232	0.01962385
231	0x3dab2642	0.083569065
232	0xbd9ed7da	-0.07756014
233	0x3bc83f99	0.006111097
234	0x3d7cda03	0.06173135
235	0x3d7be00b	0.06149296
236	0xbdfa574d	-0.122236826
237	0xbd13ef80	-0.036117077
238	0xbdd98848	-0.10621697
239	0x3d812224	0.0630534
240	0x3dacaea2	0.08431746
241	0xbdf35b7e	-0.11882685
242	0x3de28204	0.11059955
243	0x3e2f9f7c	0.17150682
244	0xbdd1a403	-0.10236361
245	0xbe49d619	-0.19710578
246	0x3e56427f	0.20923804
247	0xbe523efd	-0.2053184
248	0xbda00e47	-0.07815223
249	0xbd800bf7	-0.06252282
250	0xbd7886b6	-0.060675345
251	0xbcbc0b6d	-0.022954667
252	0xbdf81a87	-0.12114435
253	0xbead343f	-0.33828923
254	0x3cb3f397	0.021966739
255	0x3d38f6c1	0.045157198

network_body._body_endoder.seq_layers.2.bias f4 [128]
0	0x3cdb975a	0.026805568
1	0x3a7ba9f8	0.00096002175
2	0x3b4a8f8a	0.003090831
3	0x3c0fd7a7	0.008779443
4	0xbb105b7c	-0.0022027185
5	0x3badeda7	0.0053078714
6	0xbc236f32	-0.0099752415
7	0xb9d208e2	-0.0004006094
8	0x3c10af60	0.008830875
9	0x399d0764	0.0002995088
10	0xbb29293a	-0.0025811926
11	0xba8c6eda	-0.0010714189
12	0x3bad728b	0.0052931956
13	0x3b2c7378	0.0026313942
14	0xbb9eaa94	-0.004842112
15	0xbb752fc2	-0.00374125
16	0xbb68745c	-0.0035469746
17	0xb971b812	-0.00023052123
18	0xbb69c617	-0.003567105
19	0x3b534b63	0.003224098
20	0xbb5df485	-0.0033867669
21	0xbbd9f921	-0.006652013
22	0x3ab95a36	0.0014141265
23	0xbb29b821	-0.0025897103
24	0xbbdcd932	-0.006739759
25	0xb8f1017a	-0.000114920505
26	0x3bb0bca4	0.0053935815
27	0xbc104cf1	-0.008807407
28	0xbc0cfb1a	-0.008604789
29	0xbb3abe33	-0.0028494715
30	0xbbac3a98	-0.0052560084
31	0xbb7b9146	-0.003838615
32	0xbbbdb638	-0.0057895444
33	0x3bffb71c	0.0078038108
34	0xbbe37b1c	-0.006942166
35	0xba72f86c	-0.0009268585
36	0xbb83d103	-0.004022719
37	0xbb7b8adc	-0.0038382327
38	0xbb917ae3	-0.004439698
39	0x3bb8992b	0.0056334934
40	0x3a3b9470	0.0007155603
41	0xbb88627c	-0.004162131
42	0xbbb5ae95	-0.0055444934
43	0x3b8a615c	0.004223032
44	0x3a9ef3b0	0.0012127068
45	0xbc2d5985	-0.010580425
46	0x3baca2fb	0.005268452
47	0x3bddd0ef	0.0067692916
48	0x3b3e3b4e	0.0029027048
49	0x3bc5073d	0.0060128258
50	0xbba21607	-0.0049464735
51	0xbbb9c7ac	-0.0056695547
52	0x3baad7cd	0.0052137137
53	0xbb6f37e3	-0.0036501817
54	0x3af63c81	0.0018786342
55	0x3b9e7996	0.0048362715
56	0xbb835b8e	-0.004008717
57	0xba3d3c9b	-0.0007218809
58	0x3b06e6de	0.0020584385
59	0xbba03e1b	-0.004890216
60	0xb93ccd97	-0.00018005665
61	0xbba6f1c8	-0.0050947405
62	0xb9fc6064	-0.00048137002
63	0x3a93d66e	0.0011279115
64	0x3962a4f8	0.00021614495
65	0xbb1542ae	-0.002277534
66	0xb89bfcf2	-7.438091e-05
67	0xbb5abe61	-0.0033377635
68	0xbb785a01	-0.0037895443
69	0xbc03d3ad	-0.008046073
70	0x3c2fa594	0.010720629
71	0xba6350b7	-0.000867139
72	0x3bf69c53	0.0075259595
73	0x3b249049	0.0025110415
74	0xbbabd78c	-0.005244201
75	0x3a072ecd	0.0005156815
76	0xbb3c95d5	-0.002877583
77	0xbc0b1d95	-0.00849094
78	0x3c092caa	0.008372465
79	0xbb9d0474	-0.0047917906
80	0x3b83bad2	0.0040200735
81	0x3b752e18	0.0037411507
82	0xbbd5ffe2	-0.0065307477
83	0x3b27984f	0.002557296
84	0xba0f208b	-0.00054598664
85	0xbba63c5d	-0.005073114
86	0x3a9312ab	0.0011220773
87	0x3b1741dc	0.0023080027
88	0xba3c5023	-0.0007183572
89	0xbb2d5098	-0.0026445743
90	0xbb99480b	-0.0046777776
91	0x3b1a5a29	0.0023552275
92	0xba5da0bf	-0.0008454434
93	0x3a9485f2	0.0011331423
94	0x3b3046bb	0.0026897627
95	0xbc13732f	-0.00899963
96	0x3ac80e18	0.0015262989
97	0xba88d4af	-0.0010439361
98	0xb92fd072	-0.00016766952
99	0x39745bf8	0.00023303914
100	0xbb66def5	-0.0035228108
101	0x3acfc5f5	0.0015851842
102	0xbb904bc3	-0.0044035628
103	0x3ba6a6da	0.005085808
104	0x3b95ddfc	0.0045735817
105	0xbb78d085	-0.0037966084
106	0x3b6d22c6	0.0036184057
107	0x3ab743f0	0.0013982039
108	0xbb8b0135	-0.0042420872
109	0x3a7def7a	0.0009686869
110	0x3c476a8e	0.012171401
111	0xbad43f76	-0.0016193229
112	0x3bcc7a19	0.006240141
113	0x3acce90e	0.001563342
114	0xbb8bacd6	-0.004262547
115	0xbb65e7fc	-0.00350809
116	0xbb58294d	-0.0032983602
117	0xba3a0bb2	-0.00070970797
118	0xbb471203	-0.0030375726
119	0x3b0d3511	0.0021546523
120	0x3b134f13	0.0022477552
121	0xba1d5c43	-0.0006002823
122	0xbb3ebfcf	-0.0029106026
123	0xb83afa6f	-4.457909e-05
124	0x3ba3d02b	0.004999181
125	0xbadca573	-0.0016833976
126	0xba35b72d	-0.00069318974
127	0xbbc0d506	-0.0058847694

network_body._body_endoder.seq_layers.2.weight f4 [128, 128]
0	0xbc652b80	-0.013987422
1	0xbdfee7e5	-0.12446574
2	0x3df1b5be	0.11802243
3	0xbd19ae9d	-0.03752004
4	0x3ccdbae8	0.025113538
5	0xbd959868	-0.0730446
6	0x3e24f69e	0.16109702
7	0x3d3417a0	0.043967843
8	0x3db2b491	0.087258466
9	0x3e73d897	0.23813091
10	0xbde7937c	-0.11307427
11	0x3d362940	0.044472933
12	0xbd1a0096	-0.037598215
13	0xbc0eb9b4	-0.008711267
14	0xbdaef1c0	-0.08542204
15	0xbd53dd41	-0.051724676
16	0xbd96275f	-0.07331728
17	0xbbdf0dd0	-0.0068070665
18	0xbe18df2a	-0.1492888
19	0x3e000160	0.12500525
20	0x3d172189	0.036897216
21	0x3dd0e7ab	0.10200437
22	0x3d80388d	0.06260786
23	0x3d9e6c73	0.07735529
24	0x3d5cdda0	0.053922296
25	0xbe385767	-0.18002091
26	0x3ddc8789	0.10768039
27	0xbd5da8e1	-0.054116134
28	0xbe3869bd	-0.18009086
29	0xbda6eb78	-0.08150381
30	0xbd9e55d8	-0.07731217
31	0x3ca4f52a	0.020136435
32	0xbe30bbe9	-0.17259182
33	0x3df97bae	0.12181793
34	0x3db6c5a8	0.08924419
35	0xbe1c2d0d	-0.1525156
36	0xbd19a929	-0.03751484
37	0xbdbf45c5	-0.09339479
38	0xbdd5a111	-0.104311116
39	0x3c32f3db	0.0109223975
40	0x3dd1a338	0.1023621
41	0x3be98648	0.0071266033
42	0xbdc689d3	-0.09694257
43	0x3defdbc8	0.11711842
44	0x3e32f23f	0.17475222
45	0xbbce2cc2	-0.0062919566
46	0x3dd5f447	0.10446983
47	0x3bfad608	0.007654909
48	0xbe06f9f7	-0.13181292
49	0xbd7597ff	-0.059959408
50	0xbdf162fd	-0.11786459
51	0xbd6ee878	-0.05832717
52	0x3e22e9b8	0.15909469
53	0xbdbc5678	-0.0919618
54	0xbdd1dd79	-0.10247321
55	0x3cb1dc16	0.02171139
56	0xbcbd968d	-0.023143077
57	0x3ced30fc	0.028954022
58	0xbcd49e44	-0.025954373
59	0x3d0edf8b	0.034881156
60	0xbd8032ca	-0.06259687
61	0x3d00dded	0.031461645
62	0x3e796e54	0.24358493
63	0x3d4ae12b	0.049531143
64	0x3c266656	0.010156235
65	0xbd5bab9c	-0.053630456
66	0x3d9baa51	0.07600845
67	0xbca51dc5	-0.020155797
68	0x3d0394a8	0.03212419
69	0x3dda98bb	0.10673662
70	0x3e8108ff	0.25202176
71	0xbde7cebf	-0.113187306
72	0xbdf0284d	-0.11726437
73	0xbd069042	-0.03285242
74	0x3e9543d3	0.29153308
75	0x3e25fb68	0.16209185
76	0xbda4674d	-0.080275156
77	0x3d881a72	0.06645669
78	0xbc368ec3	-0.0111424355
79	0xbbbd8785	-0.0057839775
80	0x3c7e8a57	0.0155359125
81	0xbd1a5d51	-0.03768665
82	0x3dd4331c	0.10361311
83	0xbdcca7cb	-0.099929415
84	0xbddf4550	-0.10901892
85	0x3d2f6da3	0.042829167
86	0xbcb40a47	-0.021977557
87	0xbdc030fd	-0.09384344
88	0xbd37d229	-0.04487816
89	0xbd8c4d75	-0.06850711
90	0x3d875425	0.06607846
91	0xbdc9f52a	-0.098612145
92	0x3df8642f	0.121284835
93	0x3cd6bcdc	0.026213102
94	0xbd2e07c0	-0.04248786
95	0x3c43d99b	0.011953737
96	0x3ce6bc18	0.028165862
97	0x3e2e8148	0.17041504
98	0x3cd0118e	0.025398996
99	0x3d5e6322	0.05429376
100	0xbda771fb	-0.08176037
101	0x3ce1ddeb	0.027571639
102	0x3d1ce94c	0.038308427
103	0x3d11726a	0.035509504
104	0xbd4bc262	-0.049745925
105	0x3db57e02	0.08861925
106	0x3d74268c	0.059607074
107	0x3dfc5137	0.12320178
108	0xbd062899	-0.03275356
109	0xbc0e9cf2	-0.008704411
110	0xbd582cd2	-0.05277712
111	0xbd4247b8	-0.047431678
112	0x3c2acebe	0.010425268
113	0xbde8b7bc	-0.113631696
114	0xbbb5e6c6	-0.005551192
115	0x3e2221b0	0.15833163
116	0x3d8baa02	0.06819536
117	0x3d3e8bbe	0.046519987
118	0x3d8572e2	0.06516053
119	0x3de5c3a0	0.11218953
120	0x3a2252b3	0.0006192133
121	0x3d865998	0.065600574
122	0x3c093773	0.0083750365
123	0xbe13394d	-0.14377327
124	0x3db00f19	0.0859663
125	0x3d8cde6f	0.06878363
126	0xbd45497c	-0.048165783
127	0xbdda8a20	-0.106708765
128	0x3d1dfd84	0.03857185
129	0xbdc7578f	-0.09733497
130	0xbda7068a	-0.08155544
131	0x3cc679b3	0.024227953
132	0x3d718df5	0.05897327
133	0xbde15f3d	-0.110044934
134	0x3c87288c	0.016498826
135	0xbcc712b8	-0.024300918
136	0x3c3fcaa8	0.011706032
137	0x3df73860	0.120712996
138	0xbe100a36	-0.14066395
139	0x3dc357ba	0.09538217
140	0x3d94b6ee	0.072614536
141	0x3df05639	0.11735196
142	0xbe1fb115	-0.15594895
143	0xbe146943	-0.14493279
144	0xbd561287	-0.052263763
145	0x3cd750ae	0.026283588
146	0xbd7285f9	-0.059209798
147	0x3dd54757	0.104139976
148	0x3d8fbbe4	0.07018259
149	0x3e109572	0.14119509
150	0xbdaf3b44	-0.08556226
151	0x3da6db04	0.08147243
152	0x3d03cb1f	0.032176133
153	0xbe226bc6	-0.15861425
154	0xbd9b0b1b	-0.075704776
155	0x3cc038b8	0.023464546
156	0xbd22de1f	-0.039762612
157	0xbdafd423	-0.08585384
158	0x3e116be2	0.1420131
159	0x3d67ad2d	0.056561638
160	0x3e030834	0.12796098
161	0xbd3654f4	-0.04451461
162	0x3e46967d	0.19393344
163	0x3d143140	0.03617978
164	0xbdbfa0dd	-0.09356854
165	0x3d8550a6	0.06509523
166	0xbce9e500	-0.028551579
167	0x3d157bf9	0.036495183
168	0x3e029cd5	0.12755139
169	0x3d5cf365	0.053943057
170	0x3d826695	0.06367222
171	0xbd7c6143	-0.061616194
172	0x3da3d88c	0.080002874
173	0xbd793225	-0.060838837
174	0x3cb625a0	0.022234738
175	0x3d6e7fd8	0.05822739
176	0x3e0603bb	0.1308736
177	0x3da31107	0.07962232
178	0x3d6b8c21	0.057506684
179	0x3def0daf	0.11672532
180	0x3e24efc4	0.16107088
181	0x3df9daa0	0.121999025
182	0x3dbe2361	0.09284092
183	0x3e56182c	0.20907658
184	0xbd850b0d	-0.064962484
185	0xbd11d8bf	-0.035607096
186	0x3dd545bd	0.10413692
187	0x3ccd8d19	0.025091695
188	0xbd862262	-0.06549527
189	0xbdc17508	-0.0944615
190	0x3c855eac	0.016280495
191	0xbbd2c1ea	-0.0064318078
192	0xbd26a4d1	-0.040684525
193	0x3dc8da78	0.098072946
194	0x3cc989db	0.024601867
195	0x3da1f90d	0.07908831
196	0x3dd9990d	0.10624895
197	0x3d84ac9b	0.064782344
198	0x3e0e010b	0.13867585
199	0x3d6e1dee	0.058134012
200	0x3d95712f	0.07296979
201	0xbb70da29	-0.0036751127
202	0xbe841b6f	-0.2580218
203	0x3dd82661	0.10554195
204	0x3af2413f	0.001848258
205	0xbe0fe313	-0.14051466
206	0xbcf9ad11	-0.030478032
207	0xbc7f724d	-0.015591216
208	0xbd142ca0	-0.03617537
209	0xbd08e213	-0.033418726
210	0xbd44b9c3	-0.04802872
211	0x3c3840ba	0.011245901
212	0x3e1c341f	0.15254258
213	0x3db0ae10	0.0862695
214	0xbe8d47d1	-0.27593854
215	0xbe4330bd	-0.19061561
216	0xbc4ed5ef	-0.012624248
217	0x3dbbe6e9	0.09174902
218	0x3e2ab3d6	0.16670164
219	0x3c450999	0.012026214
220	0xbcfbb70c	-0.030726932
221	0xbd3cc5c4	-0.04608704
222	0x3cc04f12	0.023475204
223	0x3de2bd30	0.11071241
224	0xbe647911	-0.22311808
225	0x3ba79f17	0.0051154005
226	0xbdf7e220	-0.12103677
227	0xbdaf1e68	-0.085507214
228	0x3d02518d	0.031816054
229	0x3e1e3276	0.15448937
230	0xbc3d1abe	-0.01154202
231	0x3d9b5dc6	0.07586245
232	0x3e370cb4	0.1787594
233	0x3e244788	0.16042912
234	0xbe2393db	-0.15974371
235	0xbcc29e2c	-0.023757063
236	0x3e09374c	0.134
237	0x3e99c883	0.3003579
238	0x3d8b7fac	0.06811461
239	0x3dcb581f	0.09928917
240	0xbd97585d	-0.07389901
241	0x3b8b3249	0.004247938
242	0xbe0e657f	-0.13905905
243	0x3c2c183e	0.010503827
244	0x3c6cd3e3	0.014454815
245	0xbd1eecdb	-0.0388001
246	0xbde76342	-0.11298229
247	0x3d6e71bc	0.058213934
248	0x3bf298cf	0.00740347
249	0xbe3c4e53	-0.18389253
250	0xbd05a27e	-0.032625668
251	0xbd92c1ea	-0.071658924
252	0xbce1927d	-0.027535671
253	0x3d6ffc3b	0.058590155
254	0xbdf3a563	-0.118967794
255	0xbc22e4d1	-0.009942249
