Assets/results/MLDriver/MLDriver.onnx (onnx, 632654 bytes, 10 tensors)

96 f4 [1, 512, 128]
0	0xbdef4e7e	-0.11684893
1	0x3d081c5f	0.03323018
2	0xbc812df5	-0.015768984
3	0xbc3edd37	-0.011649421
4	0xbd8ca6e6	-0.06867771
5	0x3d812164	0.06305197
6	0xbe103888	-0.14084065
7	0x3dd977e1	0.10618568
8	0x3dfddb8f	0.12395393
9	0x3d408fce	0.047012143
10	0xbbc0e8b9	-0.0058871177
11	0xbdb0d362	-0.08634068
12	0xbe246cf2	-0.16057184
13	0xbe2250e9	-0.15851177
14	0x3dcbfbc8	0.09960133
15	0xbdbe0195	-0.092776455
16	0x3d8aa167	0.06769066
17	0xbdc15109	-0.09439284
18	0x3dd7d279	0.10538191
19	0xbe12e0bd	-0.14343543
20	0x3d446f03	0.04795743
21	0x3c5e32b7	0.013561896
22	0x3e07e302	0.1327019
23	0x3cf01ef7	0.02931164
24	0x3ca32b46	0.019918095
25	0x3af596b3	0.0018736928
26	0x3db76cb0	0.08956277
27	0xbdbd64f0	-0.09247768
28	0xbd939b39	-0.07207341
29	0xbd1c6167	-0.038178828
30	0x3d1a4b94	0.037669733
31	0xbdae677a	-0.0851583
32	0x3d6dabf5	0.05802532
33	0x3d708681	0.058722023
34	0x3de54904	0.11195567
35	0x3db343ea	0.08753188
36	0xbdff06c2	-0.12452461
37	0xbdc6f5a1	-0.09714819
38	0x3d811e83	0.06304648
39	0xbd63d76f	-0.055625375
40	0x3c9aa653	0.018878138
41	0x3dd6be02	0.1048546
42	0xbdb419fe	-0.0879402
43	0xbd8121c5	-0.06305269
44	0xbd941b17	-0.072317295
45	0x3e06cae6	0.13163337
46	0xbe1057aa	-0.14095941
47	0x3da90248	0.08252388
48	0xbe0589c0	-0.13040829
49	0x3dfd9cb2	0.12383403
50	0xbcb9856e	-0.022646632
51	0xbc690c8a	-0.014224181
52	0xbdd0a300	-0.1018734
53	0xbe06e591	-0.1317351
54	0xbcb228a4	-0.021747895
55	0xbde31f11	-0.1108991
56	0x3c2f4d47	0.010699577
57	0xbd11c552	-0.03558857
58	0xbda82437	-0.082100324
59	0x3ca73cd4	0.020414747
60	0x3d3b1ee2	0.04568375
61	0x3ddcabb3	0.107749365
62	0x3d8b4514	0.06800285
63	0x3e04d021	0.1297002
64	0xbdad078a	-0.084487036
65	0xbe0af6bc	-0.13570684
66	0x3ded254d	0.1157938
67	0xbd1c29d9	-0.038125847
68	0x3daa7f59	0.08325071
69	0xbd408623	-0.047002923
70	0x3d41788a	0.047234096
71	0x3e06eafa	0.13175574
72	0xbda63c25	-0.081169404
73	0x3e2ec085	0.17065628
74	0x3c1d3003	0.009593966
75	0x3d2e19c9	0.04250506
76	0xbd9b99cf	-0.07597696
77	0xbdd23780	-0.10264492
78	0x3dd74b43	0.10512402
79	0x3e16736c	0.14692467
80	0x3cd318f6	0.025768738
81	0xbd99a2d2	-0.07501759
82	0x3c55a9e3	0.013040992
83	0x3dac5369	0.08414347
84	0x3e13df78	0.14440715
85	0x3d50ba8c	0.050959155
86	0xbcf12c48	-0.02944006
87	0xbd899ed0	-0.06719744
88	0x3d844186	0.0645781
89	0xbd8cb9ba	-0.06871362
90	0x3d4451d8	0.047929615
91	0xbe06d27f	-0.13166235
92	0xbdfab0ce	-0.12240754
93	0x3d7b97eb	0.061424177
94	0xbcdedf51	-0.027206095
95	0xbd8dfae1	-0.06932617
96	0xbd9754a6	-0.07389192
97	0x3dee129e	0.11624645
98	0x3c3dce2b	0.011584799
99	0xbda31d02	-0.07964517
100	0x3c9ded92	0.019278321
101	0x3df7f092	0.12106432
102	0xbdeaa247	-0.11456733
103	0xbe0841c9	-0.13306345
104	0x3d02c430	0.03192538
105	0x3ded4d96	0.11587064
106	0xbdf028ce	-0.11726533
107	0xbd8faa0a	-0.07014854
108	0x3b6d30eb	0.0036192487
109	0x3e000347	0.1250125
110	0x3ddd6dac	0.10811934
111	0x3dca1a84	0.09868339
112	0xbde4e671	-0.11176766
113	0xbcc0f53d	-0.023554439
114	0xbde29a74	-0.11064616
115	0x3dad8a10	0.08473599
116	0xbdb8753a	-0.09006734
117	0x3d8c7c45	0.0685964
118	0xbd7238f3	-0.059136342
119	0x3d39be15	0.045347292
120	0x3dec3b67	0.115347676
121	0xbe479121	-0.19488956
122	0xbdff86a3	-0.12476852
123	0xbdf883c5	-0.12134508
124	0xbd0f3b08	-0.034968406
125	0x3ccf20f9	0.025284277
126	0x3d309286	0.043108486
127	0xbe03aa7e	-0.12858006
128	0xbdeb56e3	-0.11491182
129	0x3e1f62d1	0.15565039
130	0x3deaac89	0.1145869
131	0xbd79c980	-0.06098318
132	0x3decfa02	0.11571123
133	0xbd01ea4c	-0.031717584
134	0xbc1825a7	-0.009286321
135	0x3d1d9a09	0.038476977
136	0xbdfd1cd1	-0.12359012
137	0xbddff21d	-0.10934851
138	0xbdd017e6	-0.10160808
139	0xbe009bdd	-0.12559457
140	0xbd92fae1	-0.071767576
141	0x3de2ddfa	0.11077495
142	0xbd11a0fe	-0.035553925
143	0x3df60a33	0.12013664
144	0x3d65e7a7	0.056129124
145	0x3db57c7c	0.08861634
146	0x3d88abb9	0.066733785
147	0xbceab431	-0.028650375
148	0x3e03a291	0.12854983
149	0xbe031b84	-0.12803465
150	0xbc16fd40	-0.009215653
151	0xbd9571f6	-0.07297127
152	0xbdacbd03	-0.084344886
153	0x3cc912c0	0.024545074
154	0xbdf2c159	-0.118532844
155	0x3d95dc86	0.07317452
156	0x3c6b5fae	0.0143660735
157	0xbc334ce8	-0.010943629
158	0x3df2f8b3	0.11863842
159	0x3dc1cbd9	0.09462709
160	0xbdd53818	-0.1041109
161	0xbb47e003	-0.0030498512
162	0xbd47a252	-0.048738785
163	0x3d85c0f9	0.06530947
164	0x3c50e4a0	0.012749821
165	0x3d60c5ff	0.054876324
166	0xbd45f910	-0.048333228
167	0x3df04a83	0.11732962
168	0x3e120978	0.14261425
169	0x3cde616f	0.02714607
170	0x3d16d201	0.03682137
171	0xbd8a1512	-0.067423
172	0x3e1c5dc1	0.1527014
173	0xbe0c1bbf	-0.1368246
174	0x3dc68548	0.0969339
175	0x3e248af1	0.16068627
176	0x3dbba410	0.09162152
177	0xbd54c9f5	-0.051950414
178	0x3df73753	0.12071099
179	0xbdddf488	-0.10837656
180	0xbe041891	-0.12899996
181	0xbd843cf6	-0.0645694
182	0x3919b2f1	0.00014657878
183	0x3c3613b1	0.011113093
184	0xbd2737db	-0.040824752
185	0x3e2551b2	0.16144446
186	0xbdbbde4a	-0.09173258
187	0x3df31164	0.118685514
188	0x3da057f6	0.07829277
189	0x3c2d8880	0.010591626
190	0xbcc6330e	-0.024194267
191	0x3c75f9ed	0.0150132
192	0x3d8acae4	0.067769796
193	0x3e15351d	0.14571042
194	0xbda84718	-0.08216685
195	0xbdbbfdc5	-0.09179262
196	0xbd4d18d7	-0.050072517
197	0xbc3f8a16	-0.011690637
198	0x3dd5dd0f	0.10442554
199	0x3d293c08	0.041317016
200	0xbdfe4f7d	-0.12417505
201	0x3d9b5b9e	0.07585834
202	0xbd10e04a	-0.03537015
203	0x3dd18225	0.10229901
204	0x3de9b2cb	0.11411055
205	0x3dcc02af	0.09961449
206	0xbc97beec	-0.018523656
207	0x3e1a1600	0.15047455
208	0x3e127ecd	0.14306183
209	0xbd5eba9c	-0.054377183
210	0x3e14bc99	0.1452507
211	0x3da406ab	0.08009084
212	0x3dc72e83	0.09725668
213	0x3d60131d	0.054705728
214	0x3d63652a	0.0555164
215	0xbe081bd7	-0.1329187
216	0x3d5b2db2	0.053510375
217	0x3cb77663	0.022395318
218	0xbe019898	-0.12655866
219	0xbdccb7a9	-0.09995968
220	0x3e2a18c9	0.16611017
221	0x3d3da325	0.046298165
222	0x3e190d6f	0.14946531
223	0x3e0dcfe5	0.13848837
224	0xbddb13a3	-0.10697105
225	0x3d86ceba	0.06582399
226	0xbd47c493	-0.048771452
227	0xbe17d350	-0.14826703
228	0xbdea1b9e	-0.11431049
229	0x3d7af698	0.061270326
230	0xbd03eca5	-0.032208104
231	0xbe07fcf1	-0.13280083
232	0x3ce9e1ef	0.028550116
233	0x3be7d368	0.007074762
234	0xbd84cbad	-0.064841606
235	0x3d5e7b7d	0.054316986
236	0xbdaaee31	-0.08346213
237	0xbddf2d77	-0.108973436
238	0x3d3c9efd	0.04605006
239	0xbd1bafac	-0.03800933
240	0x3e099466	0.13435516
241	0xbd6432a8	-0.055712372
242	0x3dad5cd0	0.08464968
243	0xbd53d928	-0.05172077
244	0x3bd2fe0d	0.0064389766
245	0xbdbd440b	-0.09241494
246	0xbde6710e	-0.11252032
247	0xbcb0b42b	-0.021570286
248	0x3d27cc25	0.04096617
249	0x3d6bc73a	0.057563044
250	0x3bd696bb	0.00654873
251	0xbdf1205d	-0.11773751
252	0xbccd1996	-0.025036614
253	0xbdff52c9	-0.12466962
254	0xbda750e3	-0.08169725
255	0xbe19c874	-0.15017873

97 f4 [1, 512, 128]
0	0xbdbccb14	-0.092184216
1	0xbdd47d60	-0.10375476
2	0xbe1f20ae	-0.1553981
3	0x3d8aea65	0.067829885
4	0xbd408020	-0.04699719
5	0xbdc0cc6b	-0.0941399
6	0x3e0186fe	0.12649152
7	0x3dcb969f	0.09940838
8	0x3cbab06f	0.022789208
9	0xbbc7907c	-0.006090222
10	0x3deab59d	0.11460421
11	0xbb907fa5	-0.0044097477
12	0xbe11b2df	-0.1422839
13	0xbd3e1904	-0.046410576
14	0x3cf498f0	0.029858083
15	0xbda63b1c	-0.08116743
16	0xbdb1d91e	-0.0868399
17	0x3e2d6529	0.16933121
18	0xbda4dfbf	-0.08050489
19	0x3aabf16d	0.0013118215
20	0xbd902b5e	-0.07039522
21	0xbd4caa22	-0.04996694
22	0x3e12d34d	0.14338417
23	0xbce8f00a	-0.028434772
24	0xbd56fd17	-0.05248746
25	0x3db68dbf	0.08913755
26	0xbdd60996	-0.10451047
27	0x3da0fbd6	0.07860534
28	0xbdaf9e95	-0.08575169
29	0xbd1f45f7	-0.038885083
30	0xbc53ec56	-0.012934765
31	0xbd6262c0	-0.055269957
32	0x3d1cc2d2	0.038271733
33	0x3e0b451c	0.13600582
34	0x3d83b91b	0.064317904
35	0x3dd9f5a0	0.106425524
36	0xbcb408ce	-0.021976855
37	0x3d9e8202	0.07739641
38	0xbd40b50e	-0.047047667
39	0xbd444505	-0.047917385
40	0x3c327ec8	0.010894485
41	0xbcd9a746	-0.02656902
42	0x3dabb0e8	0.083833516
43	0x3d44ac95	0.04801615
44	0x3bb73502	0.005591036
45	0x3d07950b	0.033101123
46	0x3d8516d3	0.06498494
47	0x3dcefe5f	0.10107111
48	0x3aa072a4	0.0012241197
49	0x3c8146c9	0.015780823
50	0x3d6cbed4	0.057799175
51	0x3e08f9e6	0.13376579
52	0x3bcda0f2	0.0062752897
53	0x3ddd4f4c	0.1080614
54	0x3cf229e0	0.029560983
55	0xbdfdf115	-0.123994984
56	0x3df2ddc0	0.11858702
57	0xbb53ae76	-0.0032300032
58	0x3d9a9634	0.0754818
59	0x3d816152	0.063173905
60	0xbcec4196	-0.028839868
61	0x3d8d81c7	0.06909519
62	0xbddab51d	-0.10679076
63	0xbd4ccbb7	-0.049998965
64	0xbdaf0801	-0.085464485
65	0x3d5838d3	0.052788567
66	0xbe006782	-0.12539485
67	0xbd8ac4af	-0.06775796
68	0x3dfea543	0.12433865
69	0x3d480e10	0.048841536
70	0xbc746e6a	-0.014918903
71	0xbd812558	-0.06305951
72	0x3cd66fa0	0.026176274
73	0x3e107ebb	0.14110844
74	0x3de6969c	0.11259195
75	0x3e11cfb0	0.14239383
76	0xbc98c9d3	-0.018650925
77	0xbe0ac884	-0.13553053
78	0x3e02bcea	0.12767377
79	0xbe1067aa	-0.14102045
80	0xbe199f40	-0.15002155
81	0x3da9c188	0.08288866
82	0x3bbf1466	0.005831289
83	0xbdfc2ffc	-0.1231384
84	0x3d718fb1	0.058974925
85	0x3d1c9d48	0.038235933
86	0x3e377508	0.17915738
87	0x3dbc405f	0.09191965
88	0x3a747784	0.00093256705
89	0x3dda514f	0.1066004
90	0x3e40be6b	0.18822639
91	0xbde91601	-0.1138115
92	0x3e355952	0.17709854
93	0xbdfed972	-0.12443818
94	0xbc319633	-0.010839033
95	0x3c74edde	0.01494929
96	0x3dc84331	0.09778441
97	0xbe1ad127	-0.15118848
98	0x3e074895	0.13211282
99	0x3e1af9ca	0.1513435
100	0xbdef687f	-0.11689853
101	0x3db1a6d8	0.08674401
102	0x3e2265b8	0.15859115
103	0xbe2cda44	-0.16880137
104	0x3d00ee00	0.031476974
105	0xbe112106	-0.14172754
106	0x3da325f8	0.07966226
107	0x3d56469e	0.05231344
108	0xbc941af0	-0.018079251
109	0x3d8fe79c	0.07026598
110	0x3db7b78b	0.08970555
111	0x3e1dacef	0.15398
112	0xbc9246a3	-0.017855948
113	0x3d87292e	0.06599651
114	0x3c75e6a0	0.015008599
115	0x3da029ae	0.0782045
116	0x3e115335	0.14191897
117	0x3dac89a1	0.08424688
118	0xbe16e9bd	-0.14737602
119	0x39848462	0.00025275635
120	0x3e07992a	0.13242021
121	0xbd944d05	-0.07241253
122	0xbe189b3e	-0.1490297
123	0xbddc838a	-0.107672766
124	0x3dcf1d76	0.10113041
125	0x3cf3fcbf	0.029783605
126	0x3e173df2	0.14769724
127	0x3dc050f2	0.09390439
128	0xbd785761	-0.060630206
129	0xbd9a7391	-0.07541574
130	0xbd8d37b5	-0.06895391
131	0xbde679d0	-0.11253703
132	0x3d7c36c5	0.06157567
133	0xbdb672c1	-0.08908606
134	0x3d8ce150	0.068789124
135	0x3dcd2a11	0.10017789
136	0x3d349343	0.044085752
137	0x3d6e638e	0.05820041
138	0x3d490859	0.049080227
139	0x3c28af4d	0.010295701
140	0xbe216451	-0.15760924
141	0x3e077d71	0.13231446
142	0xbd079d9e	-0.0331093
143	0xbe0c05d8	-0.13674104
144	0x3e0d5044	0.1380015
145	0x3e1de349	0.15418734
146	0xbdce5dd8	-0.10076493
147	0x3bb43d99	0.005500507
148	0xbd9a94bc	-0.075479
149	0xbd52ebf6	-0.05149456
150	0xbdb7fb63	-0.08983495
151	0xbdea8e18	-0.114528835
152	0xbdffa496	-0.12482564
153	0xbc2aa0e8	-0.01041434
154	0xbc528f1e	-0.012851505
155	0xbbfdcfba	-0.00774571
156	0xbc92f735	-0.017940143
157	0x3d7363f1	0.059421483
158	0xbcd27ea8	-0.02569516
159	0xbde07d00	-0.10961342
160	0xbd89f725	-0.06736592
161	0xbd866ea5	-0.065640725
162	0x3e14acdf	0.1451907
163	0x3d944513	0.07239737
164	0xbcf4b47d	-0.02987122
165	0xbc9d5d5e	-0.01920956
166	0xbe008e2c	-0.12554234
167	0x3cf34daf	0.029700128
168	0xbd9c0958	-0.0761897
169	0xbdca1b86	-0.09868531
170	0xbd3af29e	-0.045641534
171	0x3dcbb112	0.09945883
172	0xbbb2a515	-0.005451808
173	0x3d2d0098	0.042236894
174	0x3d95bf03	0.07311823
175	0x3d3cda98	0.046106905
176	0xbcca55c9	-0.024699109
177	0xbe055765	-0.1302162
178	0xbce6bb3b	-0.02816545
179	0x3ce1378e	0.02749231
180	0x3d6c58c2	0.057701834
181	0x3dd6a037	0.10479777
182	0xbdb631c1	-0.088962086
183	0xbd944f8c	-0.07241735
184	0xbd80c384	-0.06287292
185	0x3dab5ba6	0.0836709
186	0x3dec604a	0.11541803
187	0x3cd380f5	0.025818327
188	0xbc996dae	-0.018729057
189	0xbe01c032	-0.12670973
190	0x3cc7e3ac	0.024400555
191	0x3d751746	0.05983665
192	0xbdb30504	-0.08741191
193	0x3dafa956	0.0857722
194	0xbd408f02	-0.047011383
195	0x3d8df391	0.06931222
196	0x3d44eb17	0.04807576
197	0xbd0aee67	-0.033918764
198	0x3d2f5e69	0.042814646
199	0xbe0cec93	-0.13762121
200	0xbce945cb	-0.028475663
201	0x3c0d041c	0.008606937
202	0xbd8ee00d	-0.06976328
203	0xbcebbd9e	-0.02877694
204	0xbdd87e37	-0.105709486
205	0xbded5b80	-0.11589718
206	0xbb382e41	-0.0028103741
207	0x3de5d095	0.112214245
208	0xbdb3a01c	-0.08770773
209	0xbc1e5e44	-0.009666029
210	0x3da2fdc9	0.07958562
211	0xbd8ce246	-0.06879096
212	0xbc321677	-0.010869614
213	0xbddd5aad	-0.10808311
214	0x3d91795b	0.07103225
215	0x3d41c137	0.047303405
216	0xbd9b014f	-0.07568609
217	0x3dca8076	0.09887783
218	0x3d4ee218	0.05050859
219	0xbde87ab1	-0.113515265
220	0x3dd57390	0.104224324
221	0x3dbd0909	0.09230239
222	0x3e1c7d1f	0.15282105
223	0x3c3d8c77	0.011569134
224	0xbc76882b	-0.015047113
225	0xbce1aa27	-0.027546955
226	0x3c9c5aec	0.019086324
227	0x3ddad43a	0.1068501
228	0x3dd70b99	0.10500259
229	0xbd4a46d9	-0.04938397
230	0xbd120a85	-0.035654563
231	0x3ce4cef6	0.027930718
232	0xbdb987d8	-0.09059113
233	0x3d219047	0.039444234
234	0x3d3ef085	0.046616096
235	0x3d5cf59b	0.053945165
236	0x3cd642f3	0.02615497
237	0xbdf5e69e	-0.12006877
238	0xbd00958d	-0.031392623
239	0x3df06e4e	0.11739789
240	0xbdfa1343	-0.12210705
241	0x3df4820e	0.119388685
242	0x3df8c750	0.12147391
243	0x3e154edb	0.14580862
244	0x3ded3823	0.11582973
245	0x3d21d76c	0.039512083
246	0x3da00f80	0.078154564
247	0xbe0c10a1	-0.13678218
248	0xbdf21219	-0.11819858
249	0xbd5b980e	-0.053611808
250	0x3cd9634a	0.026536603
251	0xbdd52b4e	-0.1040865
252	0x3e0ddf67	0.13854752
253	0xbd0bfb08	-0.03417495
254	0x3c05a5bf	0.008157193
255	0x3c948175	0.018128136

98 f4 [1, 1024]
0	0xbc3b2068	-0.0114213005
1	0x3c581c5f	0.013190358
2	0x3c250b81	0.0100735435
3	0x38d7987f	0.000102804035
4	0x3c9bf20b	0.019036314
5	0x3bbaca4c	0.005700385
6	0xbb429f2b	-0.0029696922
7	0x3c912b7c	0.01772093
8	0x3acc9525	0.0015608413
9	0x3bcffb6e	0.0063471114
10	0x3c277a4e	0.010222031
11	0x3c356912	0.011072414
12	0x3c1ec8ac	0.009691399
13	0x3a9ed5bb	0.001211814
14	0x3c87e83c	0.01659023
15	0x3a65aa00	0.0008760989
16	0x3c0cd335	0.008595278
17	0x3d038cbb	0.032116633
18	0x3cc1517a	0.023598421
19	0x3a565414	0.0008175981
20	0xb9f95269	-0.0004755438
21	0x3a1af7a4	0.0005911535
22	0xbc676d2f	-0.0141251525
23	0x3a1ae082	0.0005908088
24	0x3b292dc2	0.0025814627
25	0x3cddafce	0.02706137
26	0x3c8532e9	0.016259627
27	0xbb112e0b	-0.0022152688
28	0xbbeb6ee5	-0.0071848505
29	0xbb5691ea	-0.003274078
30	0x3bf5ade2	0.007497535
31	0xbb1e2a2b	-0.002413402
32	0xba75eb86	-0.0009381104
33	0xbad765af	-0.0016433502
34	0x3becc8ba	0.007226077
35	0x3cdb3f48	0.026763573
36	0x3cc25c36	0.02372561
37	0x3d0051fc	0.031328186
38	0x3c5c983e	0.013464032
39	0x3c25d97c	0.010122653
40	0x3c208b43	0.009798828
41	0xbc8510a0	-0.016243279
42	0x3cba415f	0.02273625
43	0x3c290a02	0.010317327
44	0xbbf25a39	-0.0073960093
45	0xba4b88b3	-0.0007764205
46	0x3c2e267a	0.010629291
47	0xbc581ebf	-0.013190924
48	0x3ca8a423	0.020586079
49	0xbbace44d	-0.005276239
50	0xbb940ddb	-0.0045182533
51	0xbbe8341c	-0.00708629
52	0x3c08a468	0.008339979
53	0xbc3dec6f	-0.011592015
54	0x3c56271c	0.013070848
55	0xbca51251	-0.020150336
56	0x3932e623	0.00017061135
57	0x3b83833c	0.004013447
58	0xbc86e92e	-0.01646861
59	0x3c5bf438	0.0134249255
60	0x3cbe1cae	0.023207035
61	0x3cd8ec11	0.026479753
62	0x3d2340d3	0.039856743
63	0x3b7d666c	0.0038665785
64	0xbc3d8ad6	-0.011568746
65	0xbca6f66e	-0.020381179
66	0x3b4a8ab5	0.003090543
67	0xbbf2ca51	-0.007409372
68	0xbbc322e3	-0.0059550866
69	0x3c3b30ee	0.01142524
70	0x3c4e7331	0.012600706
71	0x3d02d162	0.031937964
72	0x3bcf472e	0.006325624
73	0xbbbe1325	-0.005800622
74	0x3bd738ed	0.0065680654
75	0xb9bdeca5	-0.00036225203
76	0xbc4d5960	-0.012533516
77	0xbc012721	-0.007882864
78	0x3b5ba62e	0.00335158
79	0xbc0e680e	-0.008691801
80	0x3b366d24	0.002783605
81	0x3cb58c72	0.022161696
82	0xbb98884b	-0.0046549193
83	0x3b2823c4	0.0025656084
84	0xbbe2ff71	-0.0069274236
85	0x3b232052	0.002489109
86	0xb896fe8f	-7.1999726e-05
87	0x3b3c528f	0.0028735732
88	0xbb3cebb7	-0.002882702
89	0x3beab974	0.007163221
90	0xbcef851f	-0.029238282
91	0x3d62e482	0.055393703
92	0x3aa1c41d	0.0012341772
93	0x3c8fe263	0.017564004
94	0x3b9d8fbd	0.0048083947
95	0xbc08f156	-0.00835832
96	0x3c243b11	0.010023848
97	0x3b15a5f7	0.0022834518
98	0xbc6cc3f0	-0.014451012
99	0x3a1cf7e7	0.0005987868
100	0x3cd0d8d4	0.025494017
101	0x3aaf2817	0.0013363388
102	0x3cb08849	0.02154936
103	0xbc5eb8dd	-0.0135938795
104	0xbc4857b0	-0.012227938
105	0x3c708065	0.014679049
106	0x3c80b46c	0.015711032
107	0xbc2e2934	-0.010629941
108	0x3ce72bdd	0.028219158
109	0xbc0cff28	-0.008605756
110	0x3c86250c	0.016375087
111	0xbca6fbe4	-0.020383783
112	0x3c367aae	0.011137648
113	0x3b2692c2	0.0025417064
114	0xbc236f71	-0.0099753
115	0x3c43692f	0.011926933
116	0xb9630bd8	-0.00021652819
117	0x3b868026	0.004104632
118	0x3ba171cb	0.0049268953
119	0xbafec09a	-0.0019436062
120	0x3c4f5ac1	0.012655915
121	0x3b4501a8	0.0030060802
122	0x3b0493b8	0.0020229649
123	0xbb915d1f	-0.0044361497
124	0xba1c7832	-0.0005968838
125	0x3c481b7c	0.012213584
126	0x3b7f90ff	0.0038996337
127	0x3b91f52c	0.0044542756
128	0x3c2890a5	0.010288392
129	0x3bc9e54c	0.0061613675
130	0x3c902e1d	0.017600114
131	0xb9c938be	-0.00038379984
132	0x3c40fcf7	0.0117790615
133	0xbc2e08ae	-0.010622187
134	0x3b22baf6	0.0024830676
135	0x3c539aa9	0.012915292
136	0xbb73c34b	-0.003719526
137	0xbbada7ee	-0.00529956
138	0x3c2f6e42	0.01070744
139	0x3b6755a3	0.0035298846
140	0x3c25feec	0.010131579
141	0xbb932dc5	-0.00449154
142	0xbc823fc2	-0.015899543
143	0x3c4c9756	0.012487253
144	0xbbe17b54	-0.006881157
145	0x3c8c0e7d	0.017096752
146	0x3c049510	0.00809218
147	0xbc1325ec	-0.008981209
148	0xbc2c7576	-0.010526052
149	0xbb7720c2	-0.0037708734
150	0xbc003f22	-0.007827552
151	0xba248289	-0.0006275555
152	0xbbca7891	-0.0061789234
153	0x3c05e470	0.0081721395
154	0xbb38870a	-0.0028156661
155	0xbc41734b	-0.011807273
156	0x39d6077e	0.00040822843
157	0xbcaf22b0	-0.021378845
158	0x3b76071d	0.003754086
159	0x3cc52188	0.02406384
160	0x3c9639c8	0.0183381
161	0xbc2901b9	-0.010315352
162	0x3a4c988e	0.0007804715
163	0xbb189817	-0.0023284012
164	0x3c6d64fb	0.014489408
165	0x3c9456b9	0.018107759
166	0x3c23675d	0.009973374
167	0xbd07b721	-0.03313363
168	0x3cc372d1	0.02385846
169	0x3cb2d8bc	0.021831863
170	0x3c8f1b4c	0.01746907
171	0x3c565a3a	0.013083035
172	0x3c4616f2	0.0120904315
173	0xbc078cff	-0.008273362
174	0xb9bbc0b2	-0.0003581099
175	0xbb19305c	-0.0023374772
176	0x3c919911	0.017773183
177	0x3ccdf6b3	0.02514205
178	0xbc478485	-0.012177591
179	0xbb21047a	-0.0024569319
180	0x3b40144c	0.0029308973
181	0xbccb5902	-0.024822716
182	0x3c6f04fd	0.014588592
183	0xbb040cb7	-0.002014918
184	0x3af76043	0.0018873293
185	0xbc8e7a15	-0.017392198
186	0xbaaf1eb4	-0.0013360591
187	0x3cf4af1b	0.029868653
188	0x3bedfb71	0.00726264
189	0x3cf5a8a9	0.02998765
190	0x3c2a2111	0.01038386
191	0x3beb9da1	0.0071904217
192	0x3bbe7b37	0.005813028
193	0x3be096ce	0.006853915
194	0xbc8b7f89	-0.017028587
195	0x3a655fbe	0.00087499234
196	0xbc1c3c32	-0.009535836
197	0x3c1e08ae	0.009645624
198	0x3d04287b	0.032265168
199	0x3c8ea5ca	0.017413039
200	0xba2ca0d7	-0.00065852463
201	0x3c228f18	0.0099218115
202	0x3c342273	0.010994541
203	0xbcf1d47e	-0.02952027
204	0xbb8ec5c2	-0.0043570707
205	0x3c0ace25	0.008472
206	0x3c612aed	0.013743144
207	0x3882fb1a	6.2456544e-05
208	0x3a9ea03c	0.0012102197
209	0x3c80dbff	0.015729902
210	0x38d1fc68	0.00010012911
211	0xbc1af82a	-0.009458581
212	0xba509f68	-0.00079583237
213	0x3bb4f0cc	0.0055218693
214	0xbbd491cc	-0.006487107
215	0xbc4fe762	-0.012689443
216	0x3b83feb0	0.004028164
217	0xbbc41ad5	-0.005984644
218	0x3bd0f36b	0.006376674
219	0x3d4b0110	0.04956156
220	0xbb0d97d5	-0.0021605392
221	0x3bf7ef5f	0.007566377
222	0xbbb44edb	-0.0055025644
223	0x3bcb11cb	0.0061971894
224	0xbb117ae8	-0.0022198502
225	0x3bf5678a	0.0074891495
226	0xbc9dc5e4	-0.0192594
227	0x3c5d94c2	0.013524236
228	0x3bd74cb0	0.006570421
229	0xbb93be59	-0.004508775
230	0x3bbe9003	0.0058155074
231	0x3c5c741e	0.013455419
232	0x3c87d9f8	0.016583428
233	0x3cb84c82	0.02249742
234	0xbcc48c2e	-0.023992624
235	0xbc2ed127	-0.010669983
236	0x3c74f2cd	0.014950466
237	0xbaeafb2d	-0.001792764
238	0xbc3a22db	-0.011360849
239	0x3c59bbaa	0.0132893715
240	0xbc67f830	-0.014158294
241	0x3c282e76	0.010264983
242	0x3c5222e2	0.0128256995
243	0xbc3cb8b1	-0.011518643
244	0xbbe9c947	-0.00713459
245	0x3c34bee8	0.011031844
246	0x3c61657f	0.013757109
247	0xbb002540	-0.0019553453
248	0xb9ceb1a2	-0.0003942373
249	0xbbf7afd5	-0.0075588026
250	0x3bbd5dbc	0.0057789963
251	0x3b628931	0.0034566636
252	0x3c307ca5	0.010771905
253	0x3cced9c0	0.025250316
254	0x3c10c7ef	0.00883673
255	0x3ab3e342	0.0013724344

action_model._continuous_distribution.log_sigma f4 [1, 3]
0	0xbd5481fe	-0.051881783
1	0xbd310eda	-0.043227054
2	0xbd5c6024	-0.053802624

action_model._continuous_distribution.mu.bias f4 [3]
0	0x3b30ea2e	0.002699505
1	0x3c77dd3f	0.015128433
2	0xbcc41735	-0.023936847

action_model._continuous_distribution.mu.weight f4 [3, 128]
0	0x3cc7e4a3	0.024401015
1	0xbcff8e0b	-0.031195661
2	0x3d7daf3e	0.061934702
3	0x3ba97c4d	0.0051722885
4	0xbcbd644c	-0.023119114
5	0x3c8af051	0.016960295
6	0xbcbfe87e	-0.02342629
7	0xbc6d1aba	-0.014471704
8	0xbc7b9ac0	-0.0153567195
9	0xbbecbc8d	-0.0072246254
10	0xbcbffb9e	-0.02343541
11	0xbc7e86c2	-0.015535058
12	0xbad9cdd6	-0.001661713
13	0xbc85b72a	-0.016322691
14	0x3c3a2df3	0.011363494
15	0xbcb9c4a1	-0.022676768
16	0x3c224d79	0.009906166
17	0xbd5492cb	-0.051897805
18	0xbcff6391	-0.031175407
19	0x3d426b24	0.04746546
20	0x3c88748a	0.016657133
21	0xbce84088	-0.028351083
22	0xbd10c682	-0.03534556
23	0x3c312494	0.010811944
24	0xbc913c2d	-0.01772889
25	0xbd7f9d54	-0.0624059
26	0x3c8e72b8	0.017388687
27	0xbc76610d	-0.015037787
28	0x3cf7c090	0.030243188
29	0xbc6532ae	-0.013989134
30	0x3b8b4c99	0.0042510745
31	0x3b87130f	0.004122145
32	0x3c18306c	0.009288888
33	0xbd91dde6	-0.07122402
34	0xbd6a2b1c	-0.05717002
35	0x3c3a5c85	0.011374597
36	0x3d246095	0.04013117
37	0xbc5dba8a	-0.013533244
38	0x3d595424	0.05305876
39	0x3d3a137d	0.04542874
40	0x3d224e6a	0.039625563
41	0x3d20bf11	0.039244715
42	0xbd9239db	-0.07139941
43	0xbd4d8b1e	-0.0501815
44	0xbc565b0b	-0.01308323
45	0xbc83fdcb	-0.016112229
46	0x3d31e2bc	0.04342912
47	0x3ca862eb	0.02055498
48	0xbcf2083b	-0.02954494
49	0xb9867d3d	-0.00025651781
50	0x3bd2c838	0.0064325593
51	0xb94a261a	-0.00019278415
52	0x3a1fd11d	0.0006096529
53	0xbcba6765	-0.02275438
54	0xbbf8115b	-0.0075704283
55	0xbce1647e	-0.027513739
56	0xbbcc2070	-0.006229453
57	0xbc0e0b4f	-0.008669688
58	0xbd02a017	-0.031890955
59	0x3d259dd6	0.040433727
60	0xbd18af8a	-0.037276782
61	0xbd37b178	-0.04484698
62	0x3d929730	0.07157743
63	0x3cb2df2a	0.021834929
64	0x3c3b5c4f	0.011435582
65	0x3c709ef1	0.014686332
66	0xbd509a37	-0.05092832
67	0xbc8b943b	-0.017038455
68	0x3b9589df	0.0045635547
69	0xbd83b4d0	-0.064309716
70	0x3cc28770	0.023746222
71	0xbd6f8bd2	-0.058482952
72	0x3c13e974	0.0090278275
73	0x3bbf522c	0.005838653
74	0x3cd2acfd	0.025717253
75	0x3af2fca6	0.001853843
76	0xbc18b49e	-0.009320406
77	0x3c922e7c	0.017844431
78	0x3baf66b9	0.0053528217
79	0xbd1b218e	-0.037873797
80	0x3c9e5169	0.019325929
81	0x3c582d43	0.013194385
82	0x3cc8a391	0.024492057
83	0xbd1f7f6b	-0.038939875
84	0x39844914	0.0002523145
85	0xbb8d0cc7	-0.0043045017
86	0x3ce81cf4	0.028334118
87	0xbc1ba748	-0.009500332
88	0xbcfea449	-0.031084197
89	0xbcf94776	-0.030429583
90	0xbced2929	-0.02895029
91	0x3d1a67a2	0.03769649
92	0x3c964186	0.01834179
93	0x3a2df99e	0.0006636622
94	0x3c2bc2cd	0.010483456
95	0xbcd82dee	-0.026389088
96	0xbcda79a7	-0.026669336
97	0xbd06b3c7	-0.032886293
98	0x3ce0b979	0.02743219
99	0xbbf81037	-0.0075702923
100	0xbc116011	-0.008873002
101	0x3c362e1f	0.011119395
102	0xbd7da465	-0.061924357
103	0x3ce97a16	0.028500598
104	0x3cc56fd2	0.024101172
105	0x3d7190ff	0.05897617
106	0xbc8d39d7	-0.017239494
107	0xbc3f1a69	-0.0116640115
108	0xbd8fe27c	-0.0702562
109	0xbd03e5b6	-0.03220149
110	0x3b2268a1	0.0024781602
111	0x3cf2d840	0.029644132
112	0x3cc97a00	0.024594307
113	0xbc340da3	-0.010989579
114	0x3c0e4ae4	0.0086848475
115	0x3c9545bb	0.018221727
116	0x3c41f5d5	0.011838396
117	0xbc9bc711	-0.01901582
118	0xbab95f49	-0.0014142777
119	0x3b89e1ba	0.004207817
120	0x3aaa5abf	0.0012997015
121	0x3c528bc0	0.012850702
122	0xbd215b52	-0.03939373
123	0x3c54883a	0.012971932
124	0x3cbfd0d5	0.023415009
125	0xba890f64	-0.0010456857
126	0xbd8761db	-0.06610461
127	0x3b673cae	0.003528397
128	0xbc17988d	-0.0092526795
129	0x3c2e67b3	0.010644841
130	0x3d12c9bc	0.03583692
131	0xbcfa86d7	-0.030581875
132	0xbba690ba	-0.0050831707
133	0xbc06d64d	-0.008229804
134	0x3ba595e2	0.005053268
135	0xbc2de57e	-0.010613797
136	0x3cf29fbe	0.029617187
137	0xbb0ecd08	-0.0021789689
138	0xbbdf3306	-0.0068115024
139	0x3cdabed1	0.026702316
140	0x3d1767ac	0.036964104
141	0xbc8044c5	-0.015657792
142	0x3c7cb1ac	0.01542322
143	0x3c28c1cc	0.010300111
144	0x3b1391cb	0.002251732
145	0x3c080efa	0.008304352
146	0x3d08fd36	0.033444606
147	0xbba05b20	-0.0048936754
148	0x3d39024c	0.045168206
149	0x3d17b6be	0.03703951
150	0xbc969e19	-0.018385934
151	0x3b0d2db2	0.002154213
152	0xbb542756	-0.003237208
153	0xbcfb12db	-0.03064864
154	0x3c6cd9ea	0.014456252
155	0xbbb34c92	-0.0054717744
156	0x3cef4a98	0.029210374
157	0x3ca7201b	0.020401051
158	0xbcb8c852	-0.022556458
159	0xbcaa3280	-0.020776033
160	0x3bbfc410	0.00585223
161	0xbc0d9648	-0.008641787
162	0xbbfe24b2	-0.0077558393
163	0x3d34633b	0.044039946
164	0xbd028160	-0.031861663
165	0x3ae0ff1b	0.0017165871
166	0xbbf6aa6d	-0.0075276406
167	0xbbf2300a	-0.0073909806
168	0xbb7f75a6	-0.0038980036
169	0xbc8b9c99	-0.017042445
170	0x3d5072d2	0.05089075
171	0xbcce48d6	-0.025181215
172	0xbcfab701	-0.030604841
173	0xbce531b2	-0.027977798
174	0x3d316e16	0.043317877
175	0x3d584211	0.05279738
176	0x3d286b62	0.041118033
177	0xbbb43724	-0.0054997373
178	0xbbe4b932	-0.006980085
179	0x3c4e8bbe	0.012606559
180	0x3d343af3	0.04400153
181	0xbce2064c	-0.027590893
182	0xbd47569f	-0.048666593
183	0xbcb38157	-0.02191226
184	0x3cba254e	0.022722866
185	0xbb88520d	-0.004160172
186	0x3d43408b	0.047668975
187	0x3c6d7777	0.014493815
188	0x3a24cb68	0.00062864134
189	0x3d47a983	0.048745643
190	0x3d226fc2	0.03965736
191	0x3c220dca	0.009890983
192	0x3c0c8070	0.008575544
193	0x3d5440a0	0.051819444
194	0xbc52629a	-0.012840891
195	0xbc6ba705	-0.014383082
196	0xbc928b0c	-0.017888568
197	0x3d21aaa1	0.039469365
198	0x3d16da34	0.03682919
199	0x3d3a42ed	0.04547398
200	0xbc2388fa	-0.009981388
201	0x3d5a5480	0.05330324
202	0xbd543fc1	-0.051818613
203	0xbc4c0e6e	-0.012454612
204	0xbd3f8e5b	-0.04676662
205	0xbd228c9a	-0.03968487
206	0xbd8707bd	-0.06593273
207	0x3cdb3f2f	0.026763527
208	0xbcb97449	-0.022638457
209	0xbd067633	-0.032827567
210	0xbccdf1b0	-0.02513966
211	0xbca4ffd6	-0.020141523
212	0xbc8d4006	-0.017242443
213	0xbd049e73	-0.03237767
214	0x3c370946	0.011171645
215	0xbb401190	-0.0029307343
216	0x3b310377	0.0027010122
217	0x3bae5ed3	0.0053213625
218	0xbba2b0c3	-0.0049649193
219	0xbd9a4d9c	-0.07534334
220	0xbc744710	-0.014909521
221	0x3cbd6d7d	0.023123497
222	0x3d2cb895	0.04216822
223	0xbd302c41	-0.043010954
224	0xbb171bb6	-0.0023057288
225	0x3cfe153b	0.031015983
226	0xbc5e38aa	-0.013563314
227	0x3c0734a8	0.0082523
228	0x3b6da4fd	0.003626167
229	0xbc1d0e24	-0.009585891
230	0xbc7d6a00	-0.015467167
231	0xbc271b05	-0.010199313
232	0x3d1a99ca	0.03774432
233	0xbcb7362f	-0.022364704
234	0x3c48ab12	0.012247818
235	0xbb9e565d	-0.0048320726
236	0x3c82e869	0.015979962
237	0xbcf2dedf	-0.029647289
238	0xbc4ee603	-0.012628081
239	0xbc186c59	-0.009303176
240	0xbc871b2a	-0.016492445
241	0xb6fcdb63	-7.535725e-06
242	0xbc556a0b	-0.013025771
243	0xbbb231ce	-0.005438066
244	0x3c9278d6	0.017879885
245	0x3d265bb4	0.0406148
246	0x3d1449dc	0.03620325
247	0xbc6cd18b	-0.014454256
248	0x3d383bdb	0.044978958
249	0x3ca0c110	0.01962331
250	0xbc3c1b7c	-0.011481162
251	0xbd25cb7a	-0.040477253
252	0xbd198b97	-0.03748664
253	0xbcabd170	-0.020973891
254	0xbd9a8670	-0.07545173
255	0xbd7172fe	-0.058947556

network_body._body_endoder.seq_layers.0.bias f4 [128]
0	0xbc0ad6e7	-0.008474088
1	0xbbba6d01	-0.005689264
2	0x3cb852da	0.022500444
3	0x3ba6bd51	0.0050884862
4	0x3bddb59e	0.006766035
5	0xbca7b322	-0.02047116
6	0xbc2e414f	-0.010635688
7	0xbbccda8d	-0.006251639
8	0xbad5ef03	-0.0016321841
9	0xbc384f77	-0.011249415
10	0xbbd9aa4f	-0.006642617
11	0x3cc06279	0.023484455
12	0x3c104c97	0.008807323
13	0x3cbcf336	0.02306519
14	0xbb16fdf2	-0.0023039547
15	0xbb657bbb	-0.0035016376
16	0xbc3ff0ef	-0.011715158
17	0x3d02c5b4	0.031926826
18	0xbcbdd4fe	-0.023172852
19	0x3c1a2be9	0.009409883
20	0xbcae843e	-0.021303292
21	0xbc493e69	-0.012282946
22	0xbc824b92	-0.015905175
23	0x3a4ed7da	0.0007890441
24	0x3cf646ee	0.030063119
25	0xbc9804ba	-0.018556941
26	0xbb02dfd4	-0.0019969838
27	0x3d0b6c4f	0.034038838
28	0x3d01750a	0.031605758
29	0xbbaddcae	-0.005305848
30	0x3b4df311	0.0031425396
31	0xbad917cd	-0.0016562879
32	0x3a378b27	0.00070016313
33	0x3c5b4433	0.013382959
34	0xba292274	-0.00064519723
35	0xbc20a6a8	-0.009805359
36	0xbcc6fec9	-0.024291413
37	0xbc086a31	-0.008326099
38	0x3c181b47	0.009283847
39	0x3b73c0a2	0.0037193676
40	0xbc0854d3	-0.008321005
41	0x3d05d731	0.032675926
42	0xbb8a46df	-0.0042198743
43	0xbb47d7e6	-0.0030493676
44	0xbc0bb539	-0.008527094
45	0xbbb5c0bb	-0.005546657
46	0xbbbb2435	-0.0057111033
47	0xbc0a4cde	-0.008441178
48	0xbc418914	-0.011812467
49	0xbbf5ad51	-0.0074974676
50	0xbc90df6e	-0.017684665
51	0xbc086b36	-0.008326342
52	0x3d0def1e	0.034651868
53	0xbcb499d2	-0.022046003
54	0xbbff14f6	-0.007784481
55	0x39bae824	0.00035649643
56	0xbb72e387	-0.0037061886
57	0xbc9a5ac6	-0.018842112
58	0xbb84a1ac	-0.004047593
59	0xbcaad01b	-0.020851186
60	0xbc3b27f5	-0.011423101
61	0x3d35f0c6	0.044419073
62	0xbbbeb47b	-0.005819855
63	0x3c3f9a18	0.011694454
64	0x3b500d56	0.003174623
65	0xbca1b64b	-0.019740244
66	0xbc19e649	-0.009393283
67	0xbbb1da5b	-0.0054276413
68	0xbc511e75	-0.012763609
69	0x3cb4487d	0.022007221
70	0xbb216c8e	-0.0024631354
71	0xbc42d1b4	-0.011890817
72	0x3c094a13	0.008379477
73	0xbc8ea7a0	-0.017413914
74	0x3a258f10	0.00063155685
75	0xbac0198c	-0.0014656051
76	0xba5559ab	-0.0008138667
77	0xbd0fac7d	-0.035076607
78	0xbc32ea76	-0.010920158
79	0x3badb7b0	0.0053014383
80	0xbc264161	-0.0101474235
81	0x3c53bb06	0.012923008
82	0x3cb736f2	0.022365067
83	0x39bfee4d	0.00036607907
84	0x3b9c524d	0.004770553
85	0x3c98027c	0.018555872
86	0xbc83726d	-0.016045773
87	0xbc3316e5	-0.010930751
88	0x3d3246e8	0.043524653
89	0x3c564b8a	0.013079533
90	0xbc0a463d	-0.008439598
91	0xbab4b2c0	-0.0013786182
92	0x3c7550ca	0.014972875
93	0x3cd589cb	0.026066681
94	0xbc94256b	-0.018084249
95	0x3c022e98	0.007945679
96	0xbc438e31	-0.011935757
97	0xbc7d6845	-0.015466754
98	0x3b130b6c	0.0022437228
99	0x3c08dc9d	0.00835338
100	0xbca72c7a	-0.02040695
101	0x3bb6dea1	0.0055807387
102	0x3c31e656	0.010858139
103	0xbc13a588	-0.009011634
104	0xbc11fe24	-0.0089106895
105	0x3c0fe413	0.0087824045
106	0xbc650310	-0.013977781
107	0xbc866302	-0.016404632
108	0x3b9d49e9	0.0048000705
109	0xbc82fb89	-0.015989082
110	0x3bcb1c50	0.0061984435
111	0xbbfec6c6	-0.0077751605
112	0x3c85f193	0.016350543
113	0xbc547046	-0.012966221
114	0x3ca4dfc2	0.020126227
115	0x3c587dd7	0.013213596
116	0x3c346267	0.011009789
117	0xbc76cc1e	-0.015063314
118	0x3c42dbe8	0.01189325
119	0xbb8a21e6	-0.004215467
120	0x3c09076c	0.008363586
121	0xbcaa752a	-0.020807821
122	0xbc498e42	-0.012301983
123	0xbbc593d8	-0.0060295872
124	0x3d0211ae	0.031755142
125	0x3c5d319e	0.013500599
126	0x3bd75b3d	0.0065721557
127	0xbaa30996	-0.001243877

network_body._body_endoder.seq_layers.0.weight f4 [128, 65]
0	0x3deac46f	0.11463248
1	0xbd218279	-0.03943107
2	0xbd28c9af	-0.041207965
3	0xbe5e13d4	-0.21687251
4	0x3d647066	0.055771254
5	0x3c634f1e	0.0138738435
6	0xbdafb854	-0.0858008
7	0xbd70d53a	-0.0587971
8	0xbd829f1b	-0.06378003
9	0xbd1e92ef	-0.038714346
10	0xbe069751	-0.1314366
11	0x3d183657	0.037161198
12	0xbdafe2cf	-0.08588182
13	0xbe5ae13c	-0.21374983
14	0x3c95cb03	0.01828528
15	0xbdf1a058	-0.11798161
16	0x3d250c81	0.040295128
17	0x3dd48006	0.10375981
18	0xbd783636	-0.060598575
19	0x3d5c673b	0.053809386
20	0x3cc07f87	0.02349831
21	0xbe6afd23	-0.22948126
22	0xbd383d21	-0.044980172
23	0x3da27848	0.07933098
24	0xbdb05ebe	-0.08611821
25	0xbde04e45	-0.10952429
26	0xbdff6ab3	-0.12471523
27	0x3da298c4	0.07939294
28	0xbd320f2f	-0.04347151
29	0x3dce239f	0.10065388
30	0xbdb105ab	-0.08643659
31	0x3e3c410c	0.18384188
32	0x3d144c9e	0.03620588
33	0xbe37c2f0	-0.17945457
34	0xbce2fdab	-0.027708849
35	0x3e3f6818	0.18692052
36	0x3d610aca	0.05494193
37	0xbe098507	-0.13429652
38	0x3e0bcf5d	0.13653322
39	0x3da80aa2	0.08205153
40	0xbda62212	-0.08111967
41	0x3ea8f6f2	0.33000904
42	0xbde253cc	-0.11051139
43	0x3d1a8c40	0.03773141
44	0x3ba52b8d	0.005040592
45	0x3cf503d0	0.029909045
46	0xbcb41d77	-0.021986706
47	0xbdaa3317	-0.08310526
48	0x3e05442e	0.1301429
49	0xbe82e628	-0.2556622
50	0x3e5ecfeb	0.21759002
51	0x3dc7c8d9	0.097551055
52	0x3d114c0f	0.035472926
53	0xbe04974a	-0.12948337
54	0x3ddc4f4b	0.107573114
55	0x3e149436	0.14509663
56	0x3e82043d	0.2539386
57	0x3dfbc541	0.122934826
58	0xb9d8b884	-0.00041336205
59	0xbc45772a	-0.012052337
60	0x3e3bb9b1	0.18332554
61	0xbd32ccbc	-0.04365228
62	0x3ce2aaa3	0.027669257
63	0x3de550d3	0.111970566
64	0x3cb0b606	0.02157117
65	0xbea0083f	-0.3125629
66	0xbd681aba	-0.056666113
67	0xbe706029	-0.23474182
68	0xbdcca6fb	-0.099927865
69	0x3e4670f4	0.19379026
70	0x3dd0d376	0.10196583
71	0x3e691231	0.22760846
72	0x3c0f2ac9	0.008738228
73	0x3e873dbe	0.26414293
74	0x3e1e098a	0.15433326
75	0xbdb103fb	-0.08643337
76	0xbd15ff41	-0.036620382
77	0xbe2cedd9	-0.16887607
78	0x3e029323	0.1275144
79	0x3c3bb73d	0.011457262
80	0x3e824797	0.25445244
81	0xbe6190e2	-0.22027925
82	0x3b2caebe	0.0026349272
83	0x3df313e1	0.11869026
84	0xbe335f05	-0.17516716
85	0xbe14707b	-0.14496033
86	0xbde7988b	-0.11308392
87	0x3d987637	0.07444423
88	0x3dc3ffec	0.095702976
89	0x3de42c99	0.11141319
90	0xbe1be0c1	-0.15222456
91	0xbc86d341	-0.016458156
92	0xbc062df0	-0.008189663
93	0x3d8dd876	0.06926052
94	0xbcfdf80e	-0.03100207
95	0xbd80759c	-0.06272432
96	0x3ceecda2	0.029150788
97	0xbe334a2a	-0.1750876
98	0xbe449c6f	-0.192003
99	0xbbdd1ac5	-0.006747576
100	0xbe6a390f	-0.22873329
101	0xbd83abb2	-0.06429233
102	0xbdeac039	-0.11462445
103	0xbcd22be2	-0.02565569
104	0xbe6533d9	-0.2238306
105	0xbc99c397	-0.018770022
106	0x3ed43005	0.41442886
107	0xbd4c4d46	-0.04987838
108	0x3b69e0fb	0.0035687077
109	0x3e96fb58	0.29488635
110	0x3e3d5075	0.18487723
111	0x3d1b30da	0.037888385
112	0xbddcb33b	-0.10776373
113	0xbce4ff3e	-0.02795374
114	0xbddd25b2	-0.107982054
115	0x3dadc1bb	0.08484217
116	0xbe577c81	-0.21043588
117	0xbda82acf	-0.0821129
118	0x3cd682b2	0.026185367
119	0xbe0cdb66	-0.13755569
120	0x3bd203e7	0.0064091566
121	0xbe735321	-0.2376218
122	0xbddf7344	-0.10910657
123	0x3d401f4f	0.04690486
124	0xbe6cd5ee	-0.23128483
125	0xbdd918c3	-0.10600426
126	0xbe332e3a	-0.17498103
127	0x3d1ca310	0.038241446
128	0x3db494e3	0.088174604
129	0xbe2b2a9f	-0.16715477
130	0x3d9f61ab	0.077823006
131	0x3e1af077	0.15130793
132	0x3d90c4f5	0.070688166
133	0xbd7c71fb	-0.061632138
134	0xbdbbcd7a	-0.09170051
135	0xbe1cfb21	-0.15330173
136	0xbce6e92f	-0.028187362
137	0xbcfe2654	-0.031024136
138	0xbd57e06a	-0.052704252
139	0xbd34f603	-0.044179928
140	0x3d1c465b	0.038153034
141	0xbe317e30	-0.17333293
142	0x3dab000d	0.08349619
143	0xbbe02a7b	-0.0068410016
144	0x3e27af87	0.16375552
145	0x3d9a8249	0.07544381
146	0x3e6073dc	0.21919197
147	0x3e07f154	0.13275653
148	0xbd2fdc55	-0.042934734
149	0x3dfd8eae	0.123807296
150	0x3dff0d93	0.12453761
151	0x3c1a1d37	0.009406379
152	0xbc45100a	-0.01202775
153	0x3df33bd5	0.118766464
154	0x3dfc992a	0.12333901
155	0x3cb0ac03	0.021566397
156	0xbd1fffcd	-0.03906231
157	0xbd14d25b	-0.036333423
158	0xbc4a5f91	-0.012351886
159	0x3e0d3158	0.13788354
160	0x3d8ca0ef	0.06866633
161	0xbca61a0b	-0.02027609
162	0xbd7bb0eb	-0.06144802
163	0xbd2ab0f1	-0.04167265
164	0x3e918d26	0.28428
165	0x3d595ad9	0.053065155
166	0xbe199a12	-0.1500018
167	0x3dd19582	0.102335945
168	0xbdcd7182	-0.100314155
169	0xbdb9ee82	-0.09078695
170	0x3c6711a2	0.014103325
171	0x3e830b6a	0.25594646
172	0x3e46ea78	0.1942538
173	0x3b87b056	0.004140894
174	0x3d7779d2	0.06041891
175	0xbe5b8c99	-0.21440352
176	0xbc89fce6	-0.016844224
177	0xbc7218d4	-0.014776427
178	0x3df260d6	0.11834876
179	0xbe8b149e	-0.27164167
180	0xbba5ccf9	-0.005059835
181	0xbac01044	-0.0014653285
182	0xbd9d3c35	-0.07677499
183	0x3b0870a5	0.0020819094
184	0x3d8943ab	0.0670236
185	0x3e7008d1	0.23440863
186	0x3df8c324	0.12146595
187	0x3c94e156	0.018173855
188	0xbde4cbc9	-0.111716814
189	0x3e13715e	0.14398715
190	0xbe0e43a7	-0.13892995
191	0xbbf43e04	-0.007453682
192	0x3e28eb59	0.16496028
193	0x3d0f34f0	0.034962595
194	0xbd7b708a	-0.061386622
195	0x3cfbb9d8	0.030728266
196	0xbd14c7d6	-0.03632339
197	0x3e3da08e	0.18518278
198	0x3e6f6da9	0.23381676
199	0x3d01f278	0.031725377
200	0x3d8288c6	0.06373744
201	0x3e1d00f2	0.15332392
202	0x3bd701e5	0.006561505
203	0xbd619a2c	-0.05507867
204	0x3e1f3b9b	0.15550081
205	0xbe62511a	-0.2210125
206	0x3d297923	0.04137529
207	0x3d7bcea1	0.061476354
208	0xbd41e4d8	-0.047337383
209	0xbe4b6c7d	-0.19865604
210	0x3cd53986	0.026028406
211	0xbd6725db	-0.056432586
212	0xbd503b76	-0.050837956
213	0x3ce9d0b2	0.028541896
214	0x3e281b60	0.16416693
215	0xbdc6d003	-0.09707644
216	0xbe593c7e	-0.21214482
217	0xbcdab414	-0.026697196
218	0x3d4c768f	0.049917754
219	0xbcaa78f2	-0.020809624
220	0x3e388ef3	0.18023281
221	0xbc9df684	-0.019282587
222	0x3ce3a51d	0.027788693
223	0xbd597187	-0.053086784
224	0xbd5993fa	-0.053119637
225	0x3e0b4d2d	0.13603659
226	0xbe1f512d	-0.1555831
227	0x3c84e41b	0.01622205
228	0xbd7bf45c	-0.061512336
229	0xbe23b3ba	-0.15986529
230	0x3cc728bb	0.024311414
231	0x3da75e9d	0.08172343
232	0xbda51be0	-0.08061957
233	0x3c16513a	0.009174639
234	0x3d87dd6c	0.0663403
235	0x3d76152d	0.06007879
236	0xbdec97c3	-0.11552384
237	0xbd005d29	-0.031338844
238	0xbddc4c1c	-0.10756704
239	0x3d8b216c	0.06793484
240	0x3da9aa23	0.08284404
241	0xbde95651	-0.11393417
242	0x3ddf3bd8	0.10900086
243	0x3e348174	0.17627507
244	0xbdd52a5e	-0.104084715
245	0xbe4cb49c	-0.19990772
246	0x3e59220a	0.21204391
247	0xbe4ee693	-0.20205145
248	0xbda07fc8	-0.07836872
249	0xbd66ede1	-0.056379203
250	0xbd6a91c9	-0.057267938
251	0xbcbdb398	-0.023156926
252	0xbdf11314	-0.11771217
253	0xbead660f	-0.33866927
254	0x3ccfd3b2	0.025369499
255	0x3d36bd69	0.04461423

network_body._body_endoder.seq_layers.2.bias f4 [128]
0	0x3bb8db7e	0.0056414
1	0x3cbe4a58	0.02322881
2	0x39869252	0.0002566749
3	0x3c7b00dd	0.01532003
4	0x3d2919ac	0.04128425
5	0xbc1f9484	-0.009739999
6	0xbc2a0053	-0.010376054
7	0x3ba87b21	0.0051416312
8	0x3c36257f	0.011117338
9	0xbbeca0cb	-0.0072213165
10	0xbb972562	-0.0046126107
11	0x3c1ed384	0.009693984
12	0xbad7d526	-0.0016466721
13	0xbbe5cab0	-0.0070126876
14	0xbc2c63fe	-0.010521887
15	0xb72781c6	-9.984191e-06
16	0xbc3ec2fa	-0.011643166
17	0xbc3448c0	-0.011003673
18	0xbc725584	-0.014790896
19	0x3c9393a6	0.01801474
20	0xbca17aed	-0.019711936
21	0x3c6e7a61	0.014555545
22	0x3b04d4de	0.002026848
23	0x3cf803e1	0.030275287
24	0xbce0dc9e	-0.027448948
25	0x3b52fe11	0.0032194892
26	0xbb300af8	-0.0026862007
27	0x392c893c	0.00016454322
28	0x3cba56fa	0.022746552
29	0xbbda02d3	-0.0066531687
30	0x3a0fa815	0.0005480063
31	0xbb66ff57	-0.003524741
32	0xbbea7d30	-0.007156037
33	0x3ca54222	0.020173136
34	0x3c86b597	0.01644401
35	0xbb30f47d	-0.0027001195
36	0xbc417899	-0.011808538
37	0xbc2d0a5c	-0.010561552
38	0x3c13bf2b	0.009017746
39	0xbbc669ac	-0.0060550775
40	0x3d0adba5	0.033900876
41	0xbc04c602	-0.008103849
42	0xbc5b22b9	-0.013374978
43	0xba9ac362	-0.0011807496
44	0xba05df07	-0.0005106781
45	0xbcb8c68f	-0.022555618
46	0x3c10021a	0.008789564
47	0x3bb6f18d	0.0055829943
48	0xbc040f59	-0.0080603
49	0xbb08af01	-0.0020856264
50	0xbc0f83a9	-0.008759418
51	0xbc4fb428	-0.01267723
52	0x3ce78296	0.02826051
53	0xbb833b6a	-0.0040048854
54	0x3c90dc31	0.01768312
55	0xbcd8b4ab	-0.026453337
56	0xbce159da	-0.027508665
57	0x3c7f5bb5	0.0155858295
58	0x3bcde04c	0.006282842
59	0x3c10bea2	0.008834513
60	0xbbea82fb	-0.0071567274
61	0x3ca7ddb0	0.020491451
62	0xbc28879e	-0.01028624
63	0xba42055e	-0.00074013125
64	0x3b86084c	0.0040903445
65	0xbbe35705	-0.006937864
66	0x3a669868	0.0008796514
67	0xbc22d057	-0.009937367
68	0xbc8cb0f6	-0.017174225
69	0xbbfdb1d8	-0.007742148
70	0x3b563f4c	0.0032691536
71	0xbbbfce34	-0.0058534387
72	0x3ca4defd	0.02012586
73	0x3bcc1576	0.0062281443
74	0x3cb7e3fb	0.022447577
75	0xbc72a5bd	-0.014810023
76	0x3c698904	0.0142538585
77	0xbc36707b	-0.011135216
78	0x3c5f91ca	0.013645599
79	0xbc3ccfbf	-0.01152414
80	0x3c2539b0	0.010084555
81	0x3d0774f2	0.033070512
82	0x3bd1ca40	0.006402284
83	0xbb747024	-0.0037298286
84	0xbc1a4301	-0.009415389
85	0xbcb205a8	-0.021731213
86	0x391c7eea	0.00014924599
87	0x3c7b592b	0.0153410835
88	0x3d4cef0b	0.050032657
89	0xbc0605da	-0.008180106
90	0x3b8c7049	0.0042858464
91	0xbc23e3e5	-0.010003065
92	0xbb8bd969	-0.0042678607
93	0x3c376271	0.011192904
94	0xbc067112	-0.008205669
95	0xbc595710	-0.013265386
96	0x3cafcd99	0.021460341
97	0x3b956ac9	0.004559849
98	0xbb8fb16a	-0.004385163
99	0xbc2ed4a8	-0.010670818
100	0x3b124fb5	0.002232534
101	0xbc434343	-0.011917892
102	0x3bb78133	0.0056001185
103	0xbb4a6829	-0.0030884838
104	0xbb16b0f1	-0.002299365
105	0xbc5acf67	-0.013355113
106	0xbba44df6	-0.0050141765
107	0xbb0c031f	-0.0021364165
108	0xbcbc1e34	-0.02296362
109	0xbb80d9f0	-0.00393223
110	0xba930b19	-0.0011218517
111	0x3b551c38	0.003251804
112	0x3c5b8e64	0.013400648
113	0x3c00c5ce	0.00785966
114	0x3d45137c	0.048114285
115	0xbbf82e81	-0.007573903
116	0xbc863a7e	-0.016385313
117	0x3be47f69	0.0069731963
118	0x38a6c58e	7.952294e-05
119	0x3b9bc6aa	0.004753907
120	0xbc4cf19e	-0.012508778
121	0x3c0d233e	0.008614359
122	0xbbb796b4	-0.005602682
123	0xbc8531d9	-0.01625912
124	0x3c90f685	0.017695675
125	0xbca402e7	-0.020020915
126	0xb9ed4303	-0.0004525409
127	0xbc561e74	-0.013068784

network_body._body_endoder.seq_layers.2.weight f4 [128, 128]
0	0xbccb9fa1	-0.02485639
1	0xbe06354c	-0.13106269
2	0x3df5a679	0.11994643
3	0xbb37a424	-0.002802142
4	0x3b607716	0.0034250668
5	0xbd8a6fc4	-0.06759599
6	0x3e330167	0.17481004
7	0x3cc14cc0	0.023596168
8	0x3d7e80b0	0.062134445
9	0x3e5d3f1c	0.21606106
10	0xbde104b4	-0.10987225
11	0x3cfe1eb3	0.031020498
12	0xbd92eaca	-0.07173689
13	0xbc73fad3	-0.014891344
14	0xbd663756	-0.056205116
15	0xbd99e04c	-0.07513484
16	0xbd075ebb	-0.033049326
17	0xbd19d527	-0.037556794
18	0xbe310823	-0.1728826
19	0x3e16e43f	0.14735506
20	0x3c3acfa0	0.011402041
21	0x3db8eda1	0.09029699
22	0x3d9671f6	0.07345955
23	0x3d81801a	0.063232616
24	0x3cd957f2	0.026531193
25	0xbe3dbe67	-0.18529664
26	0x3dcaed9f	0.09908604
27	0xbd04b91f	-0.032403108
28	0xbe45f559	-0.19331874
29	0xbdc10882	-0.09425451
30	0xbdcb64ce	-0.09931336
31	0xbc171a75	-0.009222616
32	0xbe4841b1	-0.1955631
33	0x3deaefa6	0.114714906
34	0x3db78fe4	0.08962992
35	0xbe33ba75	-0.17551596
36	0xbd7bfaa8	-0.06151834
37	0xbdebee90	-0.115201116
38	0xbddcf1f4	-0.107883364
39	0x3ccab0c6	0.024742495
40	0x3dd83caf	0.105584495
41	0xbbe84b9e	-0.0070890924
42	0xbd905fcc	-0.07049522
43	0x3dbdabb3	0.09261265
44	0x3e2cb2a1	0.16865017
45	0xbcaa7006	-0.02080537
46	0x3dba5e22	0.09099986
47	0xbc9f06dc	-0.01941245
48	0xbe234793	-0.15945272
49	0xbda1b161	-0.078951605
50	0xbdef0e48	-0.11672646
51	0xbd1a358b	-0.03764872
52	0x3e22203a	0.15832606
53	0xbdeddcdd	-0.11614392
54	0xbd8d8f8c	-0.06912145
55	0xbc5d8ff9	-0.013523095
56	0xbd719513	-0.05898006
57	0x3cc68f70	0.024238318
58	0xbcbadacc	-0.022809409
59	0x3b9f4b88	0.004861299
60	0xbd37741a	-0.044788457
61	0x3c433cc9	0.011916348
62	0x3e686238	0.22693717
63	0x3ce5a571	0.02803299
64	0x3cb4a35f	0.022050558
65	0xbd9279ac	-0.07152113
66	0x3d8788b2	0.066178694
67	0xbd18e92d	-0.03733175
68	0x3b7c13de	0.003846399
69	0x3da61fee	0.08111559
70	0x3e7ff249	0.24994768
71	0xbddead96	-0.10872953
72	0xbe17081a	-0.14749184
73	0xbd4195d2	-0.04726202
74	0x3e993c12	0.29928643
75	0x3e0b3e53	0.13597994
76	0xbdd2ed1f	-0.102991335
77	0x3d70bac6	0.05877187
78	0xbcef7e0a	-0.029234905
79	0xbc705aa0	-0.014670044
80	0x3c37fbad	0.011229438
81	0xbd57ae30	-0.052656353
82	0x3dcac19d	0.0990021
83	0xbda510bc	-0.080598325
84	0xbdf42479	-0.11921019
85	0x3cb07494	0.021539964
86	0xbcf48e94	-0.029853143
87	0xbdf280b2	-0.11840953
88	0xbd7475a2	-0.059682496
89	0xbdb5f6d9	-0.08884973
90	0x3d4c6f46	0.049910806
91	0xbdfab3ff	-0.12241363
92	0x3df6ba7b	0.12047287
93	0x3c9df108	0.019279972
94	0xbd611404	-0.05495073
95	0xba32a055	-0.00068140525
96	0xbc2f4036	-0.010696461
97	0x3e350c9c	0.17680591
98	0xbbd66189	-0.006542389
99	0x3d45803a	0.04821799
100	0xbdd3c82e	-0.103409156
101	0x3b774e85	0.003773601
102	0x3cc8cfe6	0.024513196
103	0x3ce945f3	0.028475737
104	0xbd88265e	-0.06647943
105	0x3d829dc9	0.063777514
106	0x3d3eb39c	0.046558008
107	0x3e126acb	0.14298551
108	0xbd3b3f02	-0.045714386
109	0xbc9ded5a	-0.019278217
110	0xbd864560	-0.06556201
111	0xbd44edf1	-0.04807848
112	0xbc882d1e	-0.016623076
113	0xbe0a42cb	-0.13502042
114	0xbd1e14c2	-0.038594015
115	0x3e1c3ed6	0.15258345
116	0x3d535ccc	0.05160217
117	0x3d58082e	0.052742176
118	0x3d3f146c	0.046650335
119	0x3dd06c85	0.101769485
120	0xbc69421e	-0.014236955
121	0x3d71a3fc	0.05899428
122	0x3d4a351d	0.04936706
123	0xbe2cb63f	-0.16866396
124	0x3dacb2d0	0.08432543
125	0x3cceacf7	0.02522896
126	0xbd25bdbe	-0.040464155
127	0xbe04ad7b	-0.12956803
128	0x3c7d506d	0.0154610695
129	0xbda3c255	-0.0799605
130	0xbdccc9d4	-0.09999433
131	0x3d04542a	0.032306828
132	0x3d8a0961	0.0674007
133	0xbdcb5f7a	-0.0993032
134	0x3c19ac23	0.0093794195
135	0xbbc10d83	-0.0058915033
136	0x3ccd641c	0.02507215
137	0x3df9570f	0.12174808
138	0xbe12f9f8	-0.14353168
139	0x3de36e78	0.111050546
140	0x3d697daa	0.05700461
141	0x3dee625a	0.11639853
142	0xbe1e0059	-0.1542982
143	0xbe16ff95	-0.14745934
144	0xbd57060b	-0.052495997
145	0x3d32cb6a	0.043651022
146	0xbd42035e	-0.047366492
147	0x3dc8cf89	0.09805209
148	0x3d8b4310	0.067999005
149	0x3e26ca93	0.16288213
150	0xbd8dad27	-0.06917792
151	0x3dc7e496	0.09760396
152	0x3d3b912e	0.04579275
153	0xbe1801d2	-0.14844444
154	0xbd4c94be	-0.04994654
155	0x3d15be7c	0.036558613
156	0xbbc312c1	-0.0059531634
157	0xbdce269f	-0.1006596
158	0x3e230d37	0.1592301
159	0x3d99d10b	0.07510575
160	0x3e008c7f	0.12553595
161	0xbc50e855	-0.012750705
162	0x3e467a54	0.19382602
163	0x3d714213	0.058900904
164	0xbd9c1274	-0.07620707
165	0x3d857da0	0.06518102
166	0xbce5d97a	-0.028057802
167	0xbac049f4	-0.0014670477
168	0x3df9a207	0.121891074
169	0x3d10bdb9	0.035337184
170	0x3d8b1ea2	0.06792952
171	0xbd3ac87e	-0.04560136
172	0x3db2ed1b	0.087366305
173	0xbd9cceef	-0.07656657
174	0x3d3bb235	0.04582425
175	0x3d721eef	0.05911153
176	0x3e0a641c	0.13514751
177	0x3da2d27a	0.079503015
178	0x3d6668f0	0.05625242
179	0x3ddea8ee	0.108720645
180	0x3e411e0a	0.18859115
181	0x3e09d346	0.134595
182	0x3da6cc4c	0.08144435
183	0x3e5145d2	0.2043679
184	0xbd644331	-0.05572814
185	0xbd4fb745	-0.05071189
186	0x3dd065ec	0.1017569
187	0x3d067015	0.032821734
188	0xbd5648a9	-0.052315388
189	0xbda12a2b	-0.07869371
190	0x3c8c4da9	0.017126875
191	0x3cc1628c	0.023606561
192	0xbcc8b0f5	-0.024498442
193	0x3db3e26e	0.087834224
194	0x3d4fb735	0.05071183
195	0x3dd8a6df	0.10578703
196	0x3df79154	0.12088266
197	0x3dae0489	0.08496959
198	0x3e1d6c9f	0.15373467
199	0x3d9a59b5	0.075366415
200	0x3d6df7ed	0.05809777
201	0x3a10e609	0.0005527442
202	0xbe7435a0	-0.23848581
203	0x3debcdc9	0.1151386
204	0x3bb5db20	0.0055498034
205	0xbe0b1e87	-0.13585864
206	0xbcb9ba05	-0.022671709
207	0xbd095f30	-0.033538043
208	0xbd199924	-0.037499562
209	0xbd554e92	-0.052076884
210	0xbc97cd61	-0.01853055
211	0x3ccfa7e7	0.025348617
212	0x3e1183de	0.1421046
213	0x3da6be1d	0.0814173
214	0xbe90c073	-0.28271827
215	0xbe2fd0b5	-0.17169459
216	0x3cbe3a9e	0.02322131
217	0x3de96ebb	0.11398073
218	0x3e3271df	0.17426251
219	0x3d354efb	0.044264775
220	0x3b961c84	0.004581036
221	0xbd0e950f	-0.034810122
222	0x3ce2e61a	0.027697612
223	0x3e0c595c	0.13705963
224	0xbe62a63a	-0.22133723
225	0x3bc9ec35	0.0061621913
226	0xbdf30c1d	-0.11867545
227	0xbda3df5d	-0.080015875
228	0x3d13417f	0.035951134
229	0x3e2091a7	0.15680562
230	0x3b8b4b7d	0.0042509423
231	0x3d92b7bf	0.07163953
232	0x3e2c7c0a	0.16844192
233	0x3e21096a	0.15726247
234	0xbe1b5ee1	-0.15172912
235	0xbcd76a4a	-0.0262958
236	0x3e1c4a6a	0.15262762
237	0x3e91e9a6	0.28498572
238	0x3dd084b6	0.101815626
239	0x3d9cf20e	0.07663356
240	0xbd81c936	-0.06337206
241	0xbbeacfc7	-0.0071658823
242	0xbdf9f919	-0.12205715
243	0x3d2e896c	0.042611524
244	0x3bb0e675	0.0053985664
245	0xbd3c0d81	-0.045911316
246	0xbdbe0cbb	-0.09279772
247	0x3d5bbd0a	0.05364708
248	0x3bbd1229	0.005769987
249	0xbe30d380	-0.17268181
250	0xbd091045	-0.03346278
251	0xbd55db76	-0.052211247
252	0x3c2663b8	0.010155611
253	0x3da3e9fb	0.080036126
254	0xbda6d4a0	-0.08146024
255	0xbc9f76c9	-0.01946582
