results/MLDriver2/MLDriver.onnx (onnx, 404427 bytes, 7 tensors)

action_model._continuous_distribution.log_sigma f4 [1, 3]
0.0026247534 -0.07570083 -0.014435415
00000000: 0e04 2c3b 0909 9bbd 8582 6cbc

action_model._continuous_distribution.mu.bias f4 [3]
0.014804194 0.0008028825 -0.011916385
00000000: 4a8d 723c 8878 523a f13c 43bc

action_model._continuous_distribution.mu.weight f4 [3, 256]
-0.0044297758 0.0049107084 -0.022745878 -0.019688416 -0.0073084906 -0.003836028 0.01481857 -0.004093501
-0.0010690851 0.005964777 -0.013562198 0.013388824 0.018832086 -0.0040925457 -0.015914073 0.0037625781
-0.006444153 -0.026831206 0.011074753 0.0008505319 -0.01282102 -0.010508852 -0.0006044474 -0.0008094089
0.009436789 -0.0047679744 -0.01717448 -5.019382e-05 0.011570292 0.01815961 0.01606617 0.0036645706
-0.019124158 -0.0036477707 -0.00035478742 -0.01640606 0.007352225 -0.006167554 -0.0064179734 -0.03723812
0.014524678 -0.010649973 0.00485085 0.001517872 -0.0005112602 0.0034514416 -0.025020443 -0.022274217
0.005897168 -0.011543728 0.0028637857 0.00028170898 0.013092047 -0.004179474 0.001205602 0.01850714
0.007641848 -0.0069620027 0.0074933087 0.002809437 -0.0031164598 0.0026711682 0.011109612 0.022698106
0.00887309 -0.0068370914 -0.004017983 0.016327579 0.014402586 0.0034852836 0.005899542 -0.011990081
0.012029416 -0.0017850926 0.045427255 0.0040948926 -0.0073127723 -0.007245041 0.009644074 -0.009680444
0.01368304 -0.029679894 -0.012582674 -0.0014025072 -0.0030307877 -0.0073515372 -0.008084505 0.00024347116
0.01257141 -0.015303648 0.021848723 -0.020647645 -0.007931929 -0.009361592 -0.008173752 0.01526258
0.003145409 0.003061788 -0.008853438 -0.0010368737 -0.030176373 -0.003829335 -0.002541078 -0.01152922
-0.0016493689 -0.015431149 0.019827519 -0.011340746 -0.021792611 -0.0024289144 0.002046662 -0.01769713
0.0033575404 0.010505541 0.0067648166 0.008315015 -0.011085963 0.010981994 -0.028188208 -0.0076591815
-0.018053262 -0.038144186 -0.032855388 -0.0044666314 -0.021906666 -0.021566348 -0.011141315 0.011262922
0.01210027 0.001132638 -0.0024853467 -0.002108631 0.00063401443 0.0037766597 0.022581602 0.00015198738
0.0032603017 0.0043577645 -0.017713124 -0.01757204 -0.00013437575 0.02292604 0.05332344 0.00029403172
-0.0014456437 0.015565192 -0.0058421306 -0.00013848313 -0.011059055 -0.00267691 -0.0022426115 -0.002425112
-0.0026064008 0.022281595 0.004227071 0.0019453315 -0.0013753804 -0.0117683 -0.0069697197 0.0009635683
-0.0029154036 -0.010422107 -0.009315577 -0.02721937 0.026119206 0.0093130795 0.0015117144 -0.022053242
0.015335316 -0.004268187 -0.0012080707 -0.008061563 -0.012903248 0.008154786 0.016464463 0.010052469
0.00047397116 -0.0052763526 -0.0060268985 -0.012757996 0.0046065836 -0.011260494 0.0031176906 0.03421834
0.01285453 0.0036038875 0.0067766253 0.001618757 0.005183078 -0.0056370385 0.01196937 0.004254261
0.015439598 0.0072214776 0.0015008948 -0.015524971 -0.0036383693 0.0040280973 0.02092005 0.026231473
0.003012183 -0.0057428004 0.0055648084 -0.012067255 0.0007750202 0.0051921057 0.007659851 0.0038933323
0.02689492 -0.00838583 -0.0034046816 0.00856267 -0.017496707 -0.004063446 0.021818707 -0.0046171737
-0.0076085324 0.0006722453 -0.002707237 0.012433205 -0.006258575 0.0053698895 -0.03040025 -0.009259372
-0.011665141 0.0045011924 -0.0029028156 -0.00865585 0.010315259 0.04690902 0.00959441 0.0008348439
0.010240655 -2.2283863e-05 -0.0050327284 -0.012343277 -0.020577187 0.00042638002 0.008034047 -0.018827992
0.028367585 0.018866679 0.0023688285 0.021545537 0.0054389616 -0.0023738625 0.000881406 -0.0024169201
0.0016081233 -0.0070164967 0.0016357473 0.012806254 0.016796658 -0.011751785 -0.0021469616 -0.0049646115
00000000: a727 91bb 02ea a03b 9055 babc 9a49 a1bc
00000010: 107c efbb df65 7bbb 96c9 723c c622 86bb
00000020: 8b20 8cba 2d74 c33b fb33 5ebc cc5c 5b3c
00000030: bf45 9a3c c31a 86bb 3b5e 82bc 9695 763b
00000040: 7929 d3bb 1ecd dbbc e172 353c 3bf6 5e3a
00000050: 410f 52bc 522d 2cbc c773 1eba 832e 54ba
00000060: c39c 1a3c ab3c 9cbb 7fb1 8cbc 3487 52b8
00000070: 5291 3d3c 76c3 943c 339d 833c 4b29 703b
00000080: 44aa 9cbc 700f 6fbb c302 bab9 0066 86bc
00000090: efea f03b 3119 cabb dd4d d2bb 0087 18bd
000000a0: eaf8 6d3c 397d 2ebc e1f3 9e3b 55f3 c63a
000000b0: 1706 06ba 9531 623b acf7 ccbc 6b78 b6bc
000000c0: 083d c13b e821 3dbc 5aae 3b3b 57b2 9339
000000d0: 0680 563c f8f3 88bb 4a05 9e3a 499c 973c
000000e0: 7868 fa3b 8321 e4bb 6e8a f53b 881e 383b
000000f0: 853d 4cbb c40e 2f3b 1705 363c 61f1 b93c
00000100: 7060 113c ae09 e0bb 49a9 83bb 6ac1 853c
00000110: d3f8 6b3c 5b69 643b f250 c13b 0b72 44bc
00000120: 0717 453c c5f9 e9ba ee11 3a3d 732e 863b
00000130: fb9f efbb cf67 edbb 2e02 1e3c ba9a 1ebc
00000140: d42e 603c 4023 f3bc 8f27 4ebc 55d4 b7ba
00000150: 2ea0 46bb 2ae5 f0bb df74 04bc 4b4c 7f39
00000160: 51f8 4d3c 27bc 7abc 18fc b23c 4025 a9bc
00000170: ecf4 01bc 5d61 19bc 33eb 05bc e60f 7a3c
00000180: 3523 4e3b 47a8 483b 030e 11bc b5e7 87ba
00000190: 7134 f7bc 95f5 7abb 3788 26bb 0ee5 3cbc
000001a0: a32f d8ba eed2 7cbc 526d a23c 89ce 39bc
000001b0: 6b86 b2bc 6c2e 1fbb 4a21 063b 92f9 90bc
000001c0: 2e0a 5c3b 6f1f 2c3c 65ab dd3b b33b 083c
000001d0: e6a1 35bc d2ed 333c f5ea e6bc dff9 fabb
000001e0: 6fe4 93bc 143d 1cbd 5f93 06bd d25c 92bb
000001f0: 9c75 b3bc e9ab b0bc 108a 36bc 1e88 383c
00000200: 3640 463c 0675 943a 33e1 22bb f530 0abb
00000210: fd33 263a d681 773b 0dfd b83c cd5e 1f39
00000220: c9aa 553b 94cb 8e3b 1d1b 91bc 3df3 8fbc
00000230: 37e7 0cb9 64cf bb3c ae69 5a3d 4528 9a39
00000240: c17b bdba 2605 7f3c 586f bfbb c835 11b9
00000250: 0a31 35bc 196f 2fbb c7f8 12bb a1ee 1ebb
00000260: 26d0 2abb e487 b63c 3e83 8a3b 7efa fe3a
00000270: 1c46 b4ba d4cf 40bc 3f62 e4bb f997 7c3a
00000280: 5b10 3fbb 7cc1 2abc 5da0 18bc 28fb debc
00000290: f2f7 d53c e395 183c b824 c63a 00a9 b4bc
000002a0: fa40 7b3c 26dc 8bbb 2058 9eba a514 04bc
000002b0: 2568 53bc a79b 053c 7be0 863c 1cb3 243c
000002c0: 557f f839 41e5 acbb 4a7d c5bb ea06 51bc
000002d0: d3f2 963b ef7d 38bc 2b52 4c3b 8828 0c3d
000002e0: ce9b 523c 332f 6c3b 740e de3b 792c d43a
000002f0: cfd6 a93b e8b6 b8bb 2d1b 443c 5467 8b3b
00000300: 5ef6 7c3c 25a2 ec3b acb9 c43a 735c 7ebc
00000310: b571 6ebb 21fe 833b 8660 ab3c 63e3 d63c
00000320: 0b68 453b 1a2e bcbb ff58 b63b bcb5 45bc
00000330: ba2a 4b3a 8a22 aa3b 7dff fa3b 4727 7f3b
00000340: bc52 dc3c b864 09bc 1421 5fbb 714a 0c3c
00000350: 4155 8fbc a826 85bb 25bd b23c a94b 97bb
00000360: ff50 f9bb 9e39 303a e66b 31bb a4b4 4b3c
00000370: bb14 cdbb e6f5 af3b f209 f9bc 9fb4 17bc
00000380: 261f 3fbc bd7e 933b 2a3d 3ebb 44d1 0dbc
00000390: 5501 293c ac23 403d df31 1d3c 6dd9 5a3a
000003a0: 6cc8 273c 3bee bab7 96e9 a4bb 753b 4abc
000003b0: 7d91 a8bc c28b df39 3ca1 033c 293d 9abc
000003c0: 2363 e83c 4b8e 9a3c 593e 1b3b 4480 b03c
000003d0: 5139 b23b ce92 1bbb 280e 673a 3165 1ebb
000003e0: aac7 d23a a4ea e5bb 9266 d63a 53d1 513c
000003f0: 2599 893c 8f8a 40bc 0ab4 0cbb 2eae a2bb

network_body._body_endoder.seq_layers.0.bias f4 [256]
-0.008673503 -0.008578189 -0.01494089 -0.010788574 -0.01250372 0.0030701412 -0.015032596 -0.003024202
-0.017465793 -0.0060730185 -0.0025141486 0.009068722 -0.009472933 -0.0060595404 -0.0049050986 -0.00020314539
-0.008099875 -0.014303341 -0.016989266 0.01295113 0.001651384 -0.01952345 -0.015263172 -0.00019285697
0.0029054158 -0.009630706 -0.0070676585 -0.0007054842 0.0019819906 -0.00064033875 0.008836012 -0.015579176
-0.00076961785 -2.8550023e-05 -0.0095154075 0.008285634 0.009134924 -0.020121124 -0.0071113557 0.03908736
-0.020206966 -0.012859869 -0.005950894 -0.011930946 -0.027142214 0.022707453 -0.01744961 -0.00050068705
-0.021813806 -0.0060994024 0.000832253 -0.03628794 -0.002235818 0.038261883 -0.0032390435 0.006879452
-0.0056025493 -0.00407949 -0.012454411 0.0011272348 0.0007289477 -0.0024673746 -0.006178134 0.014104256
0.0026312026 -0.0057647782 -0.0009098348 -0.009499752 -0.005007647 -0.019562438 0.038380917 -0.023467707
-0.01405235 -0.013469579 -0.0033787591 -0.0016860979 -0.013025447 -0.0067924885 -0.012737104 0.0035420202
0.021519488 0.025504641 -0.0055754795 -0.011565942 0.006254048 -0.019479563 -0.0022597471 -0.013391485
-0.006258322 0.0009800475 0.0016522298 0.007789081 -0.009344776 0.0020482012 -0.01626535 0.00079871033
0.0032634165 -0.014434654 -0.0062577203 0.009835996 0.004819587 -0.007405584 -0.011141175 -0.0016408451
-0.024901388 -0.03345898 0.009902681 -3.508007e-05 -0.0068168575 -0.010380021 0.009735724 -0.025268363
-0.002549999 -0.0018312676 -0.007875335 -0.014057021 -0.021368556 -0.003913889 -0.015339638 -0.010576635
0.0025421767 0.0030292051 0.028212938 -0.0011679736 -0.02511139 -0.014695209 -0.0044716005 -0.010124788
-0.004869654 -0.0113309035 0.006481072 -0.0115095 -0.013724169 -0.0017467176 0.009859996 -0.010627828
-0.009081816 -0.0059049674 0.0013864757 -0.01311956 -0.012584024 -0.013534736 0.020731602 -0.0030342808
-0.0060883034 0.029398208 0.001879647 0.017287685 -0.021546163 -0.0027251202 0.0165278 -0.018908273
0.004949187 -0.010652036 -0.015152652 0.032704737 0.008131982 0.009611053 0.0037736606 -0.01822026
0.018005727 0.038753796 0.0033067153 -0.008241698 -0.01000536 0.03962462 -0.011746107 0.005006731
-0.0071723587 -0.0115497075 -0.025403555 0.010129209 -0.0033676978 -0.013416278 0.0030682883 -0.00022887504
0.00018674292 0.00196139 -0.0011166228 -0.0042134523 -0.006231655 -0.001580707 -0.0066014933 0.009320078
-0.00030823916 -0.01151772 -0.033406578 -0.0052585965 -0.00425304 -0.016450852 -0.010273091 -0.01139596
-0.020221729 -0.0032481083 -0.0042992984 -0.016933799 0.0029752636 0.004135419 -0.01983067 0.0011303405
-0.010524436 -0.03160398 0.0020410805 -0.009142101 0.014627537 -0.012125426 -0.008522441 0.0042997096
-0.034390382 0.0022353856 -0.014703855 -0.019142559 -0.020610766 -0.021211807 -0.0087287 -0.0010913204
-0.024595339 -0.014076766 -0.014360441 -0.021269137 -0.018976882 -0.019404711 -0.00039015495 -0.018851688
-0.0019248715 0.0026119205 0.0013605974 -0.017168252 -0.004572898 -0.006217415 -0.014984606 -0.023404805
-0.014731899 -0.00626905 -0.0034375861 -0.0102821365 0.006763669 0.008875632 0.006591488 -0.02276929
-0.00426664 -0.013644235 -0.0066528753 -0.0068446095 -0.0007096107 -0.00011832935 -0.0045548924 -0.006895716
-0.011317542 -0.010699896 -0.0031215043 -0.010792599 -0.0064757317 -0.0056819073 -0.0037802684 -0.0072637135
00000000: 4f1b 0ebc 888b 0cbc a2ca 74bc 8fc2 30bc
00000010: 67dc 4cbc 6c34 493b 474b 76bc b131 46bb
00000020: 6c14 8fbc 2c00 c7bb 6ac4 24bb fa94 143c
00000030: 5c34 1bbc 1c8f c6bb f3ba a0bb 6d03 55b9
00000040: 57b5 04bc 8f58 6abc 132d 8bbc fa30 543c
00000050: 4173 d83a a4ef 9fbc 6212 7abc a639 4ab9
00000060: ca68 3e3b 1cca 1dbc d197 e7bb 3ef0 38ba
00000070: 49e4 013b 68dc 27ba ecc4 103c cd3f 7fbc
00000080: 2ec0 49ba b57e efb7 83e6 1bbc 78c0 073c
00000090: a6aa 153c 0ed5 a4bc 6006 e9bb 111a 203d
000000a0: 1489 a5bc 33b2 52bc b8ff c2bb 047a 43bc
000000b0: 5959 debc fb04 ba3c 7cf2 8ebc 8a40 03ba
000000c0: deb2 b2bc 7fdd c7bb 8e2b 5a3a aaa2 14bd
000000d0: cd86 12bb 7eb8 1c3d 2246 54bb 076d e13b
000000e0: 9795 b7bb 3ead 85bb 960d 4cbc b9bf 933a
000000f0: da16 3f3a adb3 21bb f271 cabb 8a15 673c
00000100: 4170 2c3b 77e6 bcbb fb81 6eba d9a4 1bbc
00000110: 3017 a4bb 6841 a0bc 4f35 1d3d 593f c0bc
00000120: d43b 66bc 82af 5cbc 2c6e 5dbb 0f00 ddba
00000130: af68 55bc 8693 debb 49af 50bc 3d21 683b
00000140: a349 b03c 1cef d03c 83b2 b6bb 147f 3dbc
00000150: c2ee cc3b 9b93 9fbc 4418 14bb f667 5bbc
00000160: 9c12 cdbb f074 803a a28f d83a 8c3b ff3b
00000170: d51a 19bc 1d3b 063b e93e 85bc 8b60 513a
00000180: 0bdf 553b 547f 6cbc 900d cdbb 2827 213c
00000190: a0ed 9d3b 8baa f2bb 7a89 36bc a011 d7ba
000001a0: fffd cbbc 490c 09bd db3e 223c f022 13b8
000001b0: f25f dfbb f710 2abc 9682 1f3c 99ff cebc
000001c0: e21d 27bb 2507 f0ba 8d07 01bc 6b4f 66bc
000001d0: 1c0d afbc 1540 80bb 1b53 7bbc 9f49 2dbc
000001e0: a69a 263b a185 463b d21e e73c b116 99ba
000001f0: 67b6 cdbc 2dc4 70bc 8186 92bb 70e2 25bc
00000200: 9e91 9fbb 41a5 39bc 2c5f d43b 5892 3cbc
00000210: 56db 60bc 1ef2 e4ba d28b 213c 5720 2ebc
00000220: e6cb 14bc 757e c1bb 68ba b53a 6cf3 56bc
00000230: 392d 4ebc ccc0 5dbc 52d5 a93c c9da 46bb
00000240: 6480 c7bb 83d4 f03c 7d5e f63a e79e 8d3c
00000250: 9481 b0bc ee97 32bb 4f65 873c 86e5 9abc
00000260: ca2c a23b e185 2ebc d442 78bc 67f5 053d
00000270: 013c 053c ae77 1d3c 854f 773b a842 95bc
00000280: bf80 933c 4dbc 1e3d 7ab5 583b 3008 07bc
00000290: 85ed 23bc 6d4d 223d be72 40bc 810f a43b
000002a0: 1b06 ebbb fc3a 3dbc 1e1b d0bc fbf4 253c
000002b0: 98b4 5cbb f3cf 5bbc 5615 493b 2dfe 6fb9
000002c0: 6cd0 4339 aa8a 003b a55b 92ba 0011 8abb
000002d0: e932 ccbb ba2f cfba 5751 d8bb 3eb3 183c
000002e0: 299b a1b9 d2b4 3cbc 56d5 08bd 4e50 acbb
000002f0: 165d 8bbb f0c3 86bc 7750 28bc 1fb6 3abc
00000300: 0aa8 a5bc 37de 54bb 21e1 8cbb c0b8 8abc
00000310: a4fc 423b 6982 873b ee73 a2bc ef27 943a
00000320: af6e 2cbc 2d73 01bd a6c3 053b c0c8 15bc
00000330: 56a8 6f3c b9a9 46bc b5a1 0bbc 94e4 8c3b
00000340: eedc 0cbd 8c7f 123b 70e8 70bc dbd0 9cbc
00000350: e9d7 a8bc 62c4 adbc d202 0fbc a30a 8fba
00000360: 2a7c c9bc 3ca2 66bc 0e48 6bbc 9d3c aebc
00000370: 6875 9bbc a1f6 9ebc b68d ccb9 db6e 9abc
00000380: f84b fcba c12c 2b3b 1356 b23a 6fa4 8cbc
00000390: 40d8 95bb 75bb cbbb fe81 75bc 6fbb bfbc
000003a0: 105e 71bc 9a6c cdbb 2049 61bb 6876 28bc
000003b0: c5a1 dd3b 196b 113c 69fd d73b a986 babc
000003c0: 2ccf 8bbb 128c 5fbc 5d00 dabb bf48 e0bb
000003d0: 2b05 3aba 9627 f8b8 3541 95bb 75f5 e1bb
000003e0: 366d 39bc 9e4e 2fbc 2792 4cbb 71d3 30bc
000003f0: 6032 d4bb 4b2f babb 61be 77bb 7204 eebb

network_body._body_endoder.seq_layers.0.weight f4 [256, 132]
-0.11672794 -0.061952468 0.027816093 0.097102515 -0.062258713 -0.044114947 0.0036822432 0.04811402
0.030379348 0.03210568 0.08444701 0.015421762 0.13393341 -0.114584744 -0.010173397 -0.08206056
-0.029131703 0.025137084 0.09769776 -0.010245753 -0.11207108 -0.06666963 -0.0047476212 -0.04598775
0.07164067 0.07786899 -0.0037361458 -0.020106027 0.10903516 0.11962689 0.04530253 0.12259274
0.1069236 -0.17874698 -0.12762946 0.042271186 -0.007010213 0.1257276 -0.11778023 0.04843416
0.07103151 -0.012884814 -0.0076436503 -0.12076857 -0.02112019 0.09755791 -0.012459735 -0.08313398
-0.07157985 -0.0058363513 -0.1410121 -0.18602838 0.06834149 0.0910726 -0.18996076 0.023529923
-0.004633348 -0.10856126 -0.22071789 0.033768423 0.08872651 -0.01951239 0.031743027 -0.19739766
-0.020492403 0.11494898 0.0698712 0.060072202 -0.006369126 -0.100506656 0.0012477094 0.10039758
-0.02580598 -0.09862666 0.07670254 -0.082790054 0.017646333 0.08852551 -0.05112867 0.005369298
-0.07477171 -0.017332159 0.037598845 -0.2823125 -0.062457267 -0.021746734 0.059767853 0.047871493
-0.021624679 -0.050421257 -0.1117304 0.09645071 -0.07811607 0.087973565 -0.026742147 -0.06915629
0.11332093 -0.034570426 -0.0021725532 -0.03834395 -0.011158336 0.21249871 -0.07995182 0.0652317
0.021698741 0.1677605 -0.09954978 0.11164914 -0.018437441 0.04583122 0.06414422 -0.041107375
0.040234122 -0.06840718 0.18120015 0.003550951 0.14183727 -0.029056875 -0.060420744 -0.08176908
-0.03542719 0.014946761 -0.039255407 0.10054725 0.047611266 0.0092917215 0.054221183 -0.08090507
-0.1633365 -0.10730939 -0.06012704 -0.10899524 -0.008582246 0.053582255 0.07011386 -0.047166657
0.12375243 -0.16562171 0.11335845 -0.120409414 -0.005524368 -0.0010458111 -0.020515632 0.021148873
-0.15998134 0.035977654 0.0109720435 0.13115278 -0.008091037 0.10481344 0.025030434 -0.021216787
-0.011775805 0.019352065 -0.13233496 -0.075717576 -0.09515482 0.071132086 -0.0031541085 0.108280234
0.0033699032 -0.017301043 0.106600896 0.03271608 -0.12540072 0.044327065 0.13280661 -0.046490036
0.013512377 -0.028136352 -0.013461294 0.008834372 0.035179745 0.11685792 -0.06058852 -0.03181406
0.07117851 0.09992631 0.19130276 -0.12056294 0.17415953 -0.09809977 0.023781708 -0.100379825
-0.05178477 0.029233778 -0.17279977 0.1282173 0.058098145 -0.0024545668 0.08301089 0.09883022
-0.05165422 -0.116379105 0.12187235 0.118696176 0.05473502 0.053435005 0.06822558 0.1247913
-0.17006378 -0.047356732 0.09267928 -0.009870868 -0.0034331647 0.005703695 -0.11263676 0.05566334
0.22803096 -0.003590595 0.10777834 -0.059746075 0.029868629 0.16480695 -0.034874465 -0.25331596
0.054162372 -0.16275632 0.13533668 -0.14455256 -0.017599935 0.08104273 0.05976114 -0.018283648
-0.0034356336 -0.07402185 -0.13169917 0.15384112 -0.09618568 -0.035207 0.00044628166 0.050187252
0.081683785 0.1373611 0.0268061 0.004293371 0.0636561 0.03669704 -0.19269943 -0.10438686
-0.0125354435 -0.02917854 -0.038618777 0.0029066731 0.0662843 0.12821251 0.081129014 -0.06496239
0.03270148 -0.004325511 0.062276233 -0.064720385 0.05632787 -0.117451064 0.109803915 0.034557186
00000000: 0f0f efbd dfc1 7dbd 93de e33c afdd c63d
00000010: fe02 7fbd e0b1 34bd ca51 713b 3513 453d
00000020: 1cde f83c 3f81 033d 8ef2 ac3d 8fab 7c3c
00000030: d725 093e 68ab eabd 52ae 26bc 5e0f a8bd
00000040: 9ca5 eebc 49ec cd3c c315 c83d cedd 27bc
00000050: 8685 e5bd 168a 88bd ef91 9bbb a75d 3cbd
00000060: 58b8 923d c779 9f3d 20da 74bb 65b5 a4bc
00000070: d34d df3d f1fe f43d 258f 393d e711 fb3d
00000080: c3fa da3d 7309 37be 4cb1 02be 8d24 2d3d
00000090: eeb5 e5bb bcbe 003e c336 f1bd e662 463d
000000a0: f878 913d d41a 53bc 9677 fabb 8355 f7bd
000000b0: 4004 adbc 71cc c73d eb23 4cbc 2642 aabd
000000c0: 7598 92bd dd3e bfbb 7a65 10be 397e 3ebe
000000d0: a0f6 8b3d 4584 ba3d 1385 42be d3c1 c03c
000000e0: 57d3 97bb 5e55 debd df03 62be c250 0a3d
000000f0: 3fb6 b53d 73d8 9fbc fa04 023d 9d22 4abe
00000100: afdf a7bc 5f6a eb3d a218 8f3d 450e 763d
00000110: 1ab4 d0bb 6fd6 cdbd 2e8a a33a 3f9d cd3d
00000120: 1067 d3bc c6fc c9bd 3916 9d3d d58d a9bd
00000130: 0b8f 903c dd4c b53d 4c6c 51bd f0f0 af3b
00000140: e921 99bd 2cfc 8dbc 3f01 1a3d 448b 90be
00000150: 31d3 7fbd 3526 b2bc 23cf 743d e614 443d
00000160: 3d26 b1bc 8586 4ebd e8d2 e4bd f387 c53d
00000170: 51fb 9fbd 7c2b b43d 5912 dbbc d0a1 8dbd
00000180: ce14 e83d b899 0dbd 6561 0ebb 8c0e 1dbd
00000190: 74d1 36bc 4399 593e c8bd a3bd 3398 853d
000001a0: 8fc1 b13c 69c9 2b3e c1e0 cbbd 4ea8 e43d
000001b0: 1e0a 97bc 84b9 3b3d 0b5e 833d 3560 28bd
000001c0: 89cc 243d 1019 8cbd 888c 393e 12b7 683b
000001d0: ca3d 113e af08 eebc be7b 77bd 8c76 a7bd
000001e0: 1a1c 11bd 42e3 743c 47ca 20bd b7eb cd3d
000001f0: 0804 433d 4e3c 183c 0817 5e3d 8fb1 a5bd
00000200: af41 27be 07c5 dbbd c547 76bd e538 dfbd
00000210: 8c9c 0cbc 1179 5b3d db97 8f3d d331 41bd
00000220: ea71 fd3d bd98 29be 7a28 e83d 3699 f6bd
00000230: c205 b5bb 9913 89ba 6610 a8bc 6740 ad3c
00000240: 26d2 23be 4e5d 133d 16c4 333c ea4c 063e
00000250: 4590 04bc 6ea8 d63d a00c cd3c d4ce adbc
00000260: 4eef 40bc 3988 9e3c d182 07be d111 9bbd
00000270: 88e0 c2bd b3ad 913d 29b5 4ebb 07c2 dd3d
00000280: 98d9 5c3b ebba 8dbc 9251 da3d 4c01 063d
00000290: 0c69 00be 4c90 353d 75fe 073e 566c 3ebd
000002a0: 0463 5d3c 357e e6bc c28c 5cbc 0bbe 103c
000002b0: a318 103d 3553 ef3d ab2b 78bd 764f 02bd
000002c0: 0ac6 913d 2aa6 cc3d dfe4 433e b4e9 f6bd
000002d0: e056 323e 88e8 c8bd dbd1 c23c f093 cdbd
000002e0: 441c 54bd ad7b ef3c 6cf2 30be 654b 033e
000002f0: 52f8 6d3d ccdc 20bb 9d01 aa3d 8067 ca3d
00000300: 6093 53bd 2b58 eebd 3698 f93d fb16 f33d
00000310: d431 603d aade 5a3d dab9 8b3d 9592 ff3d
00000320: 3325 2ebe 22f9 41bd a2ce bd3d 6cb9 21bc
00000330: f2fe 60bb 10e6 ba3b 1aae e6bd 3eff 633d
00000340: f380 693e 3050 6bbb e4ba dc3d 4db8 74bd
00000350: 0eaf f43c 27c3 283e 87d8 0ebd a1b2 81be
00000360: 5dd9 5d3d 98a9 26be b395 0a3e 9605 14be
00000370: bd2d 90bc bbf9 a53d 19c8 743d 97c7 95bc
00000380: 5e28 61bb c598 97bd 26dc 06be 8788 1d3e
00000390: fffc c4bd 3735 10bd e9fa e939 2691 4d3d
000003a0: d449 a73d 63a8 0c3e 7798 db3c 68af 8c3b
000003b0: 215e 823d a34f 163d 0053 45be c7c8 d5bd
000003c0: 7661 4dbc d507 efbc b92e 1ebd e27d 3e3b
000003d0: 10c0 873d 244a 033e f826 a63d 000b 85bd
000003e0: fdf1 053d 04bd 8dbb 5d15 7f3d 1f8c 84bd
000003f0: 0db8 663d 2f8a f0bd e0e0 e03d d68b 0d3d

network_body._body_endoder.seq_layers.2.bias f4 [256]
-0.00838219 -0.00493797 0.023519127 -0.008767702 -0.0036153786 -0.017934758 -0.0069146063 -0.008844576
-0.00800561 -0.010874688 -0.01255834 0.003693422 -0.0063936696 -0.0024969866 0.00062965904 0.0010293354
-0.010188418 0.012674525 0.020943567 -0.0013030153 0.019774185 -0.010648457 -0.0027653244 -0.005731585
0.003312594 -0.004438891 -0.021110898 -0.0020891638 -0.012981734 0.005589149 -0.0037644885 -0.01545961
-0.00905873 -0.017965203 -0.0020940425 0.008143763 0.0010150301 -0.013015626 -0.0014741177 0.005396115
0.009373068 -0.004802107 -0.01439356 -0.0072027976 -0.013501385 -0.011319756 -0.0032181083 -0.0084969085
-0.0004113855 0.016092932 -0.0024544778 -0.014147795 -0.006672047 -0.0066231885 -0.004360228 -0.00358593
-0.0022406538 -0.002142428 -0.014629702 -0.00461602 -0.0046197623 0.0070579974 -1.5714662e-06 -0.016833069
0.00015492806 -0.010145794 -0.010163703 0.011336281 0.0008470444 -0.009607269 -0.0076738587 -0.015852923
-0.022662664 -0.013509353 0.00074083405 -0.0028149206 -0.0076721543 -0.0055188066 -0.019071897 -0.0077707605
-0.0030287546 0.019655937 -0.0027084867 -0.010722097 -0.003847068 -0.0009159405 -0.00730586 0.0029603136
-0.0006107473 -0.0072555975 0.007217203 0.0041108285 -0.0019110782 0.0031746367 -0.0045667975 0.0067249807
0.004016342 -0.007983173 -0.0024365375 0.009202247 0.017509343 -0.0011586443 -0.01806605 -0.0032132026
-0.0006404319 -0.0018420725 0.0060269022 0.02291466 0.004263919 -0.012730059 -0.0070151435 -0.0061872173
-0.00460962 0.012103744 -0.0021300588 -0.007286899 -0.004312016 -0.0033243215 0.011340022 -0.008874647
-0.004220312 0.025259146 -0.012822705 -0.0093398215 -0.006743752 0.0071644154 0.0009342358 0.006128075
0.0060646688 -0.012273201 -0.004952886 0.0026648147 -0.010680039 -0.0063089677 -0.00221254 0.007926152
-0.010833554 -0.008201281 0.0041232705 -0.0010803799 -0.019261926 0.011725516 0.0012013601 -0.013685184
-0.012693069 0.0011619003 -0.002976557 -0.0036107323 0.0052198875 -0.0045353263 -0.016022379 -0.002867826
-0.014192814 0.00838432 -0.0002781643 0.0025097353 -0.0014212029 -0.010700663 5.4433967e-05 -0.013466246
-0.013265907 -0.0142566385 0.009880748 -0.009465462 -0.0002530566 -0.00078738405 -0.015616075 0.018693179
0.008021477 -0.0030615428 0.013882584 -0.0108754765 -0.006651727 0.00031804244 0.010922817 -0.0016933299
-0.008307424 -0.0068210405 -0.021550035 -0.018505596 -2.5997592e-06 -0.0038017884 -0.0059772944 0.017374633
0.0030300948 -0.010316855 0.00066704594 0.004859928 -0.008079663 0.012586289 -0.0023288643 -0.004454412
-0.0071148775 -0.013107802 -0.007773047 -0.012119778 -0.012043239 0.0035113888 0.017725784 0.00017525454
-0.0022508488 -0.01935414 0.0046607303 -0.015407673 -0.0043923724 0.0020950076 -0.010794362 -0.009127503
0.004936113 -0.002141367 -0.012203525 -0.013261519 -0.015142987 -0.008819415 -0.009859558 -0.01162874
-0.012931292 -0.015695715 -0.0099191815 -0.00993095 -0.007898325 0.0013348191 0.008692834 0.0008724157
0.021796713 -0.013821963 0.002752664 -0.007993365 -0.010708744 0.008628987 0.0036197838 -0.00036707075
0.0020249602 -0.013940393 -0.014630702 0.009419085 -0.0084679555 -0.0036184825 -0.0021256655 -0.0006343528
0.0050036144 0.009633364 -0.0073862397 -0.0068903044 -0.014677453 -0.011010221 -0.006203726 -0.0046692714
-0.0109226685 -0.009706501 -0.0077195405 -0.012664221 0.010434103 -0.011557349 0.011606745 -0.011948287
00000000: 7455 09bc b2ce a1bb 2fab c03c 68a6 0fbc
00000010: fdef 6cbb eaeb 92bc ec93 e2bb d7e8 10bc
00000020: f629 03bc bf2b 32bc 7fc1 4dbc 570d 723b
00000030: fd81 d1bb 7ca4 23bb b40f 253a c4ea 863a
00000040: 53ed 26bc d0a8 4f3c d891 ab3c f0c9 aaba
00000050: 79fd a13c de76 2ebc 723a 35bb 05d0 bbbb
00000060: 1b18 593b 1e74 91bb c3f0 acbc 5aea 08bb
00000070: 57b1 54bc 2e25 b73b a3b5 76bb 4e4a 7dbc
00000080: 116b 14bc c32b 93bc 343c 09bb 6b6d 053c
00000090: c20a 853a 7e3f 55bc 2f37 c1ba e5d1 b03b
000000a0: 7f91 193c fe5a 9dbb f7d2 6bbc 7205 ecbb
000000b0: ea34 5dbc 7f76 39bc e6e6 52bb 9e36 0bbc
000000c0: 3aaf d7b9 53d5 833c 4edb 20bb 27cc 67bc
000000d0: 30a1 dabb 5507 d9bb 3ee0 8ebb ec01 6bbb
000000e0: efd7 12bb fa67 0cbb 6bb1 6fbc fb41 97bb
000000f0: 6061 97bb c646 e73b 2beb d2b5 81e5 89bc
00000100: 2f74 2239 8b3a 26bc a985 26bc cfbb 393c
00000110: 300c 5e3a cf67 1dbc fe74 fbbb fddd 81bc
00000120: 0da7 b9bc 5556 5dbc 8834 423a 887a 38bb
00000130: b266 fbbb 1bd7 b4bb ab3c 9cbc dda1 febb
00000140: 127e 46bb 7d05 a13c de80 31bb bcab 2fbc
00000150: 171f 7cbb ba1b 70ba ff65 efbb d201 423b
00000160: 8f1a 20ba 5dc0 edbb 497e ec3b 21b4 863b
00000170: 257d faba 910d 503b 13a5 95bb 3a5d dc3b
00000180: 859b 833b dbcb 02bc 51ae 1fbb 05c5 163c
00000190: c16f 8f3c a7dd 97ba 41ff 93bc 9894 52bb
000001a0: a8e2 27ba b271 f1ba 527d c53b 86b7 bb3c
000001b0: 58b8 8b3b bd91 50bc 4adf e5bb 24be cabb
000001c0: 4c0c 97bb c84e 463c 7598 0bbb f0c6 eebb
000001d0: d04b 8dbb dcdc 59bb 80cb 393c f866 11bc
000001e0: 8b4a 8abb 45ec ce3c 5316 52bc 0d06 19bc
000001f0: b1fa dcbb 79c3 ea3b 81e7 743a 05ce c83b
00000200: 21ba c63b 8915 49bc d24b a2bb 2ca4 2e3b
00000210: 55fb 2ebc 75bb cebb 4300 11bb b1dc 013c
00000220: 387f 31bc aa5e 06bc 801c 873b 899b 8dba
00000230: 30cb 9dbc 611c 403c f576 9d3a d237 60bc
00000240: 97f6 4fbc e84a 983a 5712 43bb 09a2 6cbb
00000250: 970b ab3b 139d 94bb 5d41 83bc 23f2 3bbb
00000260: fa88 68bc 635e 093c 95d6 91b9 5f7a 243b
00000270: a847 baba d551 2fbc 0750 6438 88a1 5cbc
00000280: 3f59 59bc ad94 69bc dce2 213c 0615 1bbc
00000290: afac 84b9 7368 4eba 91da 7fbc 7022 993c
000002a0: 836c 033c 2aa4 48bb c773 633c 0e2f 32bc
000002b0: bbf6 d9bb efbe a639 9df5 323c b9f2 ddba
000002c0: dd1b 08bc 0983 dfbb b389 b0bc 0c99 97bc
000002d0: 8677 2eb6 6d27 79bb 2edd c3bb 3f55 8e3c
000002e0: 8e94 463b 0708 29bc b2dc 2e3a 0840 9f3b
000002f0: 9060 04bc b936 4e3c dc9f 18bb 51f6 91bb
00000300: eb23 e9bb 1bc2 56bc 0bb5 febb 0992 46bc
00000310: 0151 45bc 541f 663b aa35 913c 88c4 3739
00000320: fa82 13bb 938c 9ebc 0ab9 983b 7770 7cbc
00000330: e4ed 8fbb 654c 093b d6da 30bc 868b 15bc
00000340: 1ebf a13b 2d56 0cbb 4bf1 47bc d846 59bc
00000350: 4a1a 78bc 4f7f 10bc fc89 21bc 7886 3ebc
00000360: c5dd 53bc 4d94 80bc 1084 22bc 6cb5 22bc
00000370: fa67 01bc 19f5 ae3a 636c 0e3c d4b2 643a
00000380: 058f b23c 8475 62bc 0a66 343b 9af6 02bc
00000390: ba73 2fbc 9860 0d3c e539 6d3b 6773 c0b9
000003a0: 32b5 043b 3f66 64bc 9db5 6fbc 8252 1a3c
000003b0: 2ebd 0abc 1024 6dbb c04e 0bbb b24a 26ba
000003c0: 5cf5 a33b 42d5 1d3c 4508 f2bb 10c8 e1bb
000003d0: b379 70bc 3764 34bc a048 cbbb b000 99bb
000003e0: fef4 32bc 0408 1fbc 33f4 fcbb 987d 4fbc
000003f0: cdf3 2a3c 095b 3dbc 382a 3e3c bfc2 43bc

network_body._body_endoder.seq_layers.2.weight f4 [256, 256]
-0.13414045 0.06378562 -0.09115591 0.08583768 -0.041385088 0.019365553 0.0401963 0.030402055
0.04205814 0.020288372 -0.07721519 0.031749666 -0.029067012 -0.029604478 0.11271785 -0.04714113
-0.001275535 -0.104207836 0.07029012 -0.028952396 0.003017124 0.013647275 0.14057238 -0.057371408
0.025011942 0.012859505 0.024121096 -0.0039044206 -0.11409639 -0.038077794 0.042186283 0.06689608
-0.05224906 0.08312766 -0.010102113 0.014657478 0.042974964 -0.048607666 0.004248776 0.09042439
0.0072337757 0.005524872 -0.0029422794 -0.06481421 0.021237053 -0.059136696 0.0053069475 -0.035360698
0.04613413 0.01574595 -0.023788812 -0.024925286 0.06940041 0.0032238513 9.025669e-05 0.0064217253
-0.09927249 0.12381848 0.0033398992 0.0061235577 0.038835004 -0.013119402 0.027941763 -0.071534544
-0.055972684 0.0037619735 0.10220388 0.11846944 0.06059455 -0.058671728 0.057104625 0.011786149
0.06602195 -0.014311494 -0.026705336 -0.071919106 -0.121488154 -0.052810095 0.072060876 -0.033227988
0.022693256 0.03333118 0.019644912 0.034394614 -0.014437434 0.019172857 -0.045700576 -0.0019759836
-0.11087511 -0.047954246 0.045972027 -0.025568627 0.051659074 0.08390778 0.019794688 0.070222914
-0.17254013 0.022617718 0.103555046 0.041673657 -0.027890878 0.04554198 0.0061796764 -0.017361788
0.0006686317 0.04090558 -0.015504582 -0.0043882155 0.03826485 0.06288598 0.03616431 0.044730656
0.012565546 -0.025788106 -0.040909193 0.09032628 0.070796 -0.05864161 -0.03580692 0.014602894
0.034251522 -0.064466774 0.122037 0.070216075 0.07825627 0.028714743 -0.046208654 0.048328847
0.08897089 -0.06803844 -0.030943828 0.09168776 0.011451587 -0.09077352 0.048120953 -0.1425479
-0.07771384 0.016526654 -0.014891811 -0.042781007 -0.024985243 -0.013264605 0.036669016 -0.041043315
0.06221952 0.063441224 -0.1337726 -0.09860881 -0.058097564 -0.055951133 -0.08093414 -0.03680689
-0.03894769 -0.056229368 0.019205777 -0.06983461 -0.0018959817 -0.00913358 0.016389553 -0.007163569
0.010853487 0.019053457 -0.06033556 0.022371082 -0.1077828 0.1296279 -0.074803025 -0.010312741
-0.18960428 -0.0125100445 0.09286222 0.015380582 -0.07863517 -0.079655245 -0.032658353 0.08261141
0.021795632 -0.06495271 0.0669758 0.03764479 0.029976396 -0.06211913 -0.011169918 -0.09983348
0.031440035 0.012092802 0.049066845 -0.057843175 0.050667584 -0.059612237 0.07609206 -0.057817847
-0.03081974 0.06468474 0.010557771 0.08756622 0.005279198 0.08780793 0.011780198 0.035196412
0.08021356 0.06038476 -0.101116896 -7.664539e-05 0.004060401 0.041292183 -0.029913064 -0.022919806
-0.06087182 -0.1812539 0.0907034 0.12986393 -0.05414315 0.039680704 -0.050907504 0.01795924
0.047687296 -0.0017342819 -0.032037515 0.009878623 0.003120199 0.022668255 -0.0097394865 0.06214632
0.010984022 0.007759854 0.14189966 -0.012181218 -0.042963043 0.01570538 0.06869857 0.056700002
-0.12706096 -0.045525663 0.0697366 -0.032489534 -0.025862271 0.07339735 0.01603665 -0.04023739
-0.02693838 -0.07638045 -0.060876206 0.041167464 -0.11484088 -0.103073366 0.030046 -0.11695873
0.05782337 0.11254592 -0.06116225 -0.05142656 0.0033379605 0.051486526 -0.11457901 -0.0025232378
00000000: 1d5c 09be 09a2 823d f3af babd aacb af3d
00000010: 6983 29bd 82a4 9e3c e0a4 243d bb0d f93c
00000020: 2845 2c3d cd33 a63c ff22 9ebd f00b 023d
00000030: f11d eebc 1785 f2bc 9ed8 e63d 0f17 41bd
00000040: da2f a7ba eb6a d5bd 44f4 8f3d 932d edbc
00000050: f1ba 453b d298 5f3c 35f2 0f3e 48fe 6abd
00000060: d8e5 cc3c acb0 523c 9b99 c53c 4fe1 7fbb
00000070: 5eab e9bd 76f7 1bbd 86cb 2c3d d000 893d
00000080: 1c03 56bd d63e aa3d 5583 25bc eb25 703c
00000090: 8406 303d d518 47bd 5139 8b3b 6c30 b93d
000000a0: 4f09 ed3b fc09 b53b 42d3 40bb 50bd 84bd
000000b0: 54f9 ad3c 5239 72bd e7e5 ad3b 61d6 10bd
000000c0: 24f7 3c3d a7fd 803c c1e0 c2bc 1d30 ccbc
000000d0: cd21 8e3d 4047 533b 3148 bd38 566d d23b
000000e0: 604f cbbd 8b94 fd3d 36e2 5a3b 20a8 c83b
000000f0: 7411 1f3d c3f2 56bc 20e6 e43c b480 92bd
00000100: 9d43 65bd 718b 763b 4550 d13d 1ba0 f23d
00000110: fe31 783d c451 70bd 8ae6 693d b11a 413c
00000120: 8436 873d c27a 6abc 26c5 dabc 534a 93bd
00000130: c8ce f8bd 664f 58bd a794 933d 121a 08bd
00000140: 35e7 b93c 4786 083d 5eee a03c 5ee1 0c3d
00000150: fd8a 6cbc 6510 9d3c 8730 3bbd 817f 01bb
00000160: 7d12 e3bd ac6b 44bd 2a4d 3c3d 4c75 d1bc
00000170: 7798 533d d8d7 ab3d 7828 a23c 08d1 8f3d
00000180: 5cae 30be cb48 b93c ab14 d43d ffb1 2a3d
00000190: 697b e4bc 3a8a 3a3d e27e ca3b 4f3a 8ebc
000001a0: 1d47 2f3a 9c8c 273d ee06 7ebc 05cb 8fbb
000001b0: 9abb 1c3d 5dca 803d 0721 143d 7e37 373d
000001c0: b8df 4d3c 9441 d3bc 6690 27bd fcfc b83d
000001d0: 7efd 903d 2f32 70bd 47aa 12bd fa40 6f3c
000001e0: 534b 0c3d 2807 84bd 89ee f93d 72cd 8f3d
000001f0: d344 a03d 2e3b eb3c 4945 3dbd 78f4 453d
00000200: 5f36 b63d bd57 8bbd e97d fdbc cbc6 bb3d
00000210: 709f 3b3c 78e7 b9bd 7a1a 453d 14f8 11be
00000220: 6f28 9fbd e862 873c c8fc 73bc 233b 2fbd
00000230: daad ccbc c953 59bc 4032 163d 091d 28bd
00000240: e5d9 7e3d 79ed 813d affb 08be 6af3 c9bd
00000250: b6f7 6dbd 042d 65bd ccc0 a5bd d2c2 16bd
00000260: 9d87 1fbd c450 66bd 6f55 9d3c 7305 8fbd
00000270: 9782 f8ba 03a5 15bc 6243 863c 5fbc eabb
00000280: d3d2 313c ff15 9c3c 6c22 77bd 8f43 b73c
00000290: 3bbd dcbd 2dbd 043e 5432 99bd c5f6 28bc
000002a0: a027 42be eef6 4cbc 8c2e be3d d6fe 7b3c
000002b0: 7a0b a1bd 4a22 a3bd c4c4 05bd 2c30 a93d
000002c0: c18c b23c ed05 85bd 9c2a 893d 6c31 1a3d
000002d0: 0f91 f53c a170 7ebd 0802 37bc 7f75 ccbd
000002e0: 44c7 003d e320 463c 51fa 483d f7ec 6cbd
000002f0: d088 4f3d f62b 74bd 27d6 9b3d 68d2 6cbd
00000300: ae79 fcbc 6f79 843d 80fa 2c3c eb55 b33d
00000310: 1ffd ac3b a5d4 b33d bb01 413c 1d2a 103d
00000320: 0247 a43d 0356 773d 6016 cfbd aebc a0b8
00000330: 1d0d 853b fe21 293d 3e0c f5bc 51c2 bbbc
00000340: bb54 79bd 9f9a 39be b4c2 b93d 0dfb 043e
00000350: 35c5 5dbd 3c88 223d 6384 50bd 421f 933c
00000360: c153 433d d850 e3ba c539 03bd f3d9 213c
00000370: 417c 4c3b c7b2 b93c 5e92 1fbc 248d 7e3d
00000380: 54f6 333c 6046 fe3b 254e 113e bb93 47bc
00000390: 04fa 2fbd 92a8 803c d6b1 8c3d 433e 683d
000003a0: 451c 02be 1e79 3abd 10d2 8e3d bf13 05bd
000003b0: 1ddd d3bc 5a51 963d 4b5f 833c f6cf 24bd
000003c0: e1ad dcbc 5a6d 9cbd 5459 79bd 379f 283d
000003d0: b231 ebbd 2118 d3bd 0723 f63c 0f88 efbd
000003e0: 33d8 6c3d 7a7e e63d 4485 7abd a8a4 52bd
000003f0: afc1 5a3b 89e3 523d 66a8 eabd e85c 25bb
