results/MLDriver2/MLDriver/MLDriver-124402.onnx (onnx, 404427 bytes, 7 tensors)

action_model._continuous_distribution.log_sigma f4 [1, 3]
000000 9d 5b 2d 3d 0e 39 38 3d c8 ab 94 3d
       0.042323697 0.044976287 0.07259327

action_model._continuous_distribution.mu.bias f4 [3]
000000 b1 10 c3 3b 53 8a af b9 02 f7 0c 3b
       0.0059529175 -0.0003348166 0.0021509533

action_model._continuous_distribution.mu.weight f4 [3, 256]
000000 e1 f1 85 bb 5f 58 0c b9 57 57 97 3c ca 1c 07 bc
       -0.004087672 -0.00013384361 0.018474264 -0.00824661
000010 77 34 c1 38 ad 16 b4 3c 22 76 17 3b f1 03 9c 39
       9.2127295e-05 0.021983469 0.0023111184 0.00029757575
000020 e1 ff 4d bc e0 f6 62 ba e7 30 66 bb e5 82 19 ba
       -0.012573213 -0.0008658003 -0.0035124363 -0.00058559916
000030 de b7 6e 3a 62 a7 d0 3b 7f d3 ef 3b a7 64 d9 ba
       0.0009106378 0.00636761 0.0073189135 -0.0016585783
000040 f2 1d d7 bb 5c bc 9e 3c 44 97 21 3d 74 6b 77 3b
       -0.006564849 0.019376926 0.0394509 0.0037753256
000050 d1 8e 1f 3b bf 9f 36 3c c7 83 27 bc 6e 95 fb 3b
       0.00243466 0.011146485 -0.010224289 0.0076777255
000060 ef 55 ad 3c a0 86 26 3c 43 de 28 bc e6 e2 22 3d
       0.02115914 0.010163933 -0.010306898 0.03976717
000070 f9 31 07 3c 3c 1d b8 bb 90 6b ef 3b 21 e2 c0 3b
       0.0082516605 -0.0056187194 0.0073065236 0.0058863317
000080 05 ed d5 3b a8 4e d7 3a e7 cf 2b 3c 91 81 9d bb
       0.006528499 0.001642664 0.0104865795 -0.0048067053
000090 85 a9 d7 3b 35 91 25 bb 13 0c e1 3b cd 89 71 bb
       0.0065814876 -0.0025263552 0.0068678944 -0.0036855817
0000a0 38 74 47 3c 8f c6 9f 3c 15 2b 5b 3c 75 41 ed 3a
       0.012173705 0.01950386 0.013376971 0.0018101173
0000b0 f2 10 34 bb fe 8c 43 bc 80 ae 91 3c 4c 45 21 ba
       -0.002747592 -0.011935471 0.017783403 -0.00061519886
0000c0 42 d0 1b 3c 49 d9 c1 3b bb e3 23 3a b9 39 7a bc
       0.009510102 0.005915795 0.0006251891 -0.015272551
0000d0 7c f0 84 bc f5 ce b0 3b 30 5b 98 39 74 5e 5c ba
       -0.016227953 0.005395765 0.0002905964 -0.00084064086
0000e0 7d a4 d3 3b 5e cc d6 3c db dc d0 3a ba c4 35 bc
       0.0064588175 0.026220497 0.0015934961 -0.011094267
0000f0 99 09 aa 3a 33 66 c6 ba b2 10 10 bc df 7a f2 bc
       0.0012972831 -0.0015136659 -0.008793043 -0.029599605
000100 02 13 38 3c c0 61 b9 3c 61 17 15 bc c2 43 26 3c
       0.011235001 0.022629619 -0.009099812 0.010147991
000110 32 6f 36 3d d3 1d eb 3a 5d 67 fb 3a 0e ba 0c 3a
       0.044539638 0.0017937965 0.0019180585 0.00053683005
000120 c1 5f 41 3b aa 95 98 3b 2c d7 29 bc df e9 74 bc
       0.0029506537 0.004656513 -0.010366242 -0.014948337
000130 02 1c 0c 3d 4f db bd 3b e1 7e e4 3b c3 44 5f bb
       0.034206398 0.005793966 0.006973133 -0.0034068085
000140 26 ce 68 bc 49 7a da bb df 51 4b bb 4d 03 d9 3b
       -0.014209306 -0.0066674096 -0.003102414 0.006622708
000150 ee d1 8d 3b f2 05 d9 3b 90 42 aa 3c 4c 1e c9 3c
       0.004328004 0.006623023 0.020783693 0.02455058
000160 e6 c6 b8 bb 20 88 dd 3a e8 05 a5 3c a5 d7 e3 3b
       -0.005638945 0.001690153 0.020144418 0.006953197
000170 64 26 50 bc b5 d8 3c ba f8 d0 f9 bb d9 f5 64 bc
       -0.012704466 -0.0007203923 -0.007623788 -0.01397463
000180 10 7f b9 ba 73 07 26 3c f7 ef 05 bb 7d fc 20 bc
       -0.0014152247 0.010133612 -0.002043722 -0.009825823
000190 a1 57 d1 bc 4a ca f3 3c 30 e5 08 bc b5 1d e9 3b
       -0.02555448 0.029759545 -0.008355424 0.007114137
0001a0 b3 7e 97 bb b3 cb 4a 3d 6b 48 eb 3c 01 40 b8 bb
       -0.004623258 0.04951067 0.028721055 -0.0056228642
0001b0 7b 90 22 3d b6 50 52 bb 14 d2 d5 3c 99 3f 25 3d
       0.03968857 -0.0032091564 0.02610115 0.040343855
0001c0 55 19 33 bc 08 3a 95 bb fc 8f a2 3c bb a1 89 3c
       -0.010931333 -0.004554037 0.019844048 0.016800752
0001d0 23 cf 67 3c cf 58 08 bc 34 79 e5 3b 64 71 ef ba
       0.014148506 -0.008321955 0.007002974 -0.0018268046
0001e0 4b be ba 3c eb ba 7a bb 57 8f 00 3d cc 30 47 3c
       0.022795817 -0.0038258384 0.0313867 0.01215763
0001f0 3a 5c 8e 3c 8b 74 07 3c 8e e3 fc bb e7 a8 d6 3c
       0.017377961 0.008267532 -0.0077175563 0.026203586
000200 b2 d2 18 bc 82 00 f6 bb ce 0f fb 39 a7 5c 8f 3c
       -0.009327577 -0.0075073848 0.00047886226 0.017500235
000210 d4 5b c9 3b 58 6d aa 3c 63 b9 ec 3c 0b 74 27 3a
       0.00614498 0.020804092 0.028896993 0.0006387836
000220 03 54 0a bb ca e9 c8 bb f0 dc ba 3c 87 ee 9e 39
       -0.0021107204 -0.0061313855 0.02281043 0.00030313825
000230 33 a9 09 3c 16 d6 11 3c 07 d0 3c bc 02 e8 04 bc
       0.008402157 0.00890114 -0.011524207 -0.008111956
000240 b7 07 46 bc 25 ef 5d 3c 28 df c3 3a 25 09 52 bb
       -0.0120868 0.013545786 0.0014943825 -0.0032048908
000250 35 a7 32 bb d5 fe 38 3d 0d 0b 43 3d e3 eb 9f bb
       -0.0027260308 0.0451649 0.04761796 -0.004880415
000260 54 7b a2 3c 66 db 6b 3b 2b 15 e3 3a d0 55 ae 3b
       0.019834198 0.0035988926 0.0017325034 0.0053202882
000270 66 6c 66 3c d1 7e ee 39 e7 97 a4 bc 21 f7 b2 3b
       0.01406393 0.00045489383 -0.020091964 0.005461589
000280 4d 65 af bb a9 db 76 3a 7e 6d 00 bb ff d9 c5 3c
       -0.005352652 0.0009416887 -0.0019596512 0.0241518
000290 cb 22 90 3c 4c 5b 83 3c 60 45 43 bc 16 5a 96 3b
       0.017594716 0.016034745 -0.011918396 0.004588376
0002a0 21 14 79 3a e6 03 8f 3b 83 aa b7 b7 d6 ee 21 bb
       0.00095015956 0.0043644784 -2.18947e-05 -0.0024709008
0002b0 68 58 df 3b b3 b1 94 3b dc 9a ac 3a 96 d9 1e 3c
       0.006815959 0.004537785 0.001316871 0.009695431
0002c0 a3 c9 9f 3b 9c ce ef 3b f9 7e 34 37 5a 42 10 3d
       0.004876332 0.007318331 1.0758399e-05 0.035219528
0002d0 02 00 a3 bb 8d 26 49 3c 0f 57 ca 38 24 a4 ba 39
       -0.004974366 0.012277258 9.6483265e-05 0.0003559898
0002e0 da 21 0c 3a 45 71 3d 3b 70 9e 19 bc e3 6c e4 ba
       0.00053456204 0.0028906625 -0.009376153 -0.001742747
0002f0 2f 78 9b bc 4c ce 65 3b 6e e0 1c 3c d3 51 a5 3c
       -0.018978206 0.003506559 0.009574993 0.020180618
000300 ab a4 69 3c bb 7d 05 3d 10 f1 47 bc 8d 6d 59 3c
       0.014260451 0.03259061 -0.01220347 0.013270748
000310 33 51 82 ba d4 8c 21 3d 6e 8f a8 3b 11 8c b6 bb
       -0.0009942412 0.039440945 0.0051440513 -0.0055708964
000320 42 f5 b5 bb a4 c8 4d 3d 3f 98 d9 bb 33 a5 22 bc
       -0.0055529187 0.050240174 -0.0066404636 -0.009927082
000330 4d 50 64 3c 3f 2a 2e 3c 89 ed 80 3c 4c 9f 15 3c
       0.013935161 0.010630189 0.015738266 0.009132218
000340 70 13 cc bb 56 81 ec bb ec 53 c3 3c da 71 a2 bc
       -0.006227903 -0.0072175665 0.023843728 -0.01982968
000350 a1 6a 21 ba 88 d2 cc 3c 1a 4a fd 3b 8e 2d 6d 3c
       -0.00061575515 0.025002733 0.007729781 0.014476193
000360 b4 1c ac 3c db 0d 03 ba a6 89 8d bb a7 76 3e 3c
       0.02100978 -0.0004999318 -0.0043193875 0.011624969
000370 8e f4 59 bc 30 15 2d 3d 83 b0 25 3c 72 a1 d5 3b
       -0.013302935 0.042256534 0.010112884 0.00651949
000380 89 28 60 3a 13 82 db bb e6 52 85 3b 45 cc 11 bc
       0.0008550962 -0.0066988557 0.00406872 -0.008898799
000390 28 15 be bb b5 37 9a bb ec 29 63 3c 84 c3 1f 3c
       -0.005800862 -0.004706348 0.013864975 0.009751204
0003a0 b4 0f 22 3b 2c ba b4 ba 5c 77 58 bb f8 19 bf 3c
       0.0024728598 -0.0013788394 -0.0033030128 0.023327813
0003b0 a9 25 c9 bb 39 bf e8 3c 42 93 85 bc 03 fc 12 3a
       -0.0061385226 0.028411495 -0.01630557 0.00056070107
0003c0 1c 58 e0 3c 95 7e ac 3c b4 0c f2 bb b9 24 4c 3c
       0.027385764 0.021056453 -0.0073867682 0.012459927
0003d0 1e 4b 96 3b e7 4d b1 bb 08 07 68 bb c7 7b 6d bb
       0.0045865914 -0.005410898 -0.0035404582 -0.0036237107
0003e0 ad 35 66 3c c0 f7 59 3b d9 f4 b1 3b d3 02 2c 3c
       0.014050883 0.0033259243 0.0054307994 0.01049872
0003f0 55 f0 f9 3a ec 1e 8e 3c 5e 1a 45 bb bc 33 d6 3b
       0.0019068817 0.01734873 -0.003007553 0.006536929

network_body._body_endoder.seq_layers.0.bias f4 [256]
000000 0c 2a aa ba c8 18 70 bb a9 e6 d5 bb ac ba be bb
       -0.0012982502 -0.0036635865 -0.006527741 -0.005820593
000010 30 fc ba 3c 2a e2 3b bc 73 24 5c bc 15 fd b9 3c
       0.02282533 -0.011467496 -0.013436425 0.022703687
000020 fb 30 4a bc 2e a4 a1 bb ac 64 47 bc 80 cd 1e bc
       -0.012340779 -0.004932902 -0.012169998 -0.00969255
000030 01 8c 43 bb f5 58 25 bc 61 dd 24 38 1c 7f e5 bb
       -0.0029838088 -0.01009201 3.9306822e-05 -0.007003678
000040 eb 6b 89 bc b8 39 90 3c 77 b6 7f bb 6f 65 69 bc
       -0.016775092 0.017605647 -0.003901867 -0.014245375
000050 78 2e 0b bc 72 32 cc bb dd c2 dc 3b 42 f5 dd bc
       -0.008494966 -0.0062315995 0.0067370967 -0.027094487
000060 e9 07 9c 3a b0 f5 c4 3a fe 6a 5e bc ac c9 6a bc
       0.0011904213 0.0015026834 -0.013575314 -0.014330309
000070 c3 76 af bb 36 b2 b0 bb 68 05 c0 3b c1 3d 73 bb
       -0.0053547337 -0.005392338 0.0058600195 -0.0037115666
000080 7c 79 0f bc 4a 57 6d bb 0c 9f 85 bb 3b af 36 bc
       -0.0087569915 -0.0036215358 -0.0040777978 -0.011150177
000090 e8 88 e6 bb 31 38 9a bb 5d 50 b8 bb b3 f2 f5 3a
       -0.0070353635 -0.0047064056 -0.0056248144 0.0018764347
0000a0 c6 6e 58 3b 1e 1a d2 bb 58 65 f6 3b 3d 4f c1 bb
       0.003302501 -0.006411805 0.0075194053 -0.0058993385
0000b0 f1 e4 6e bb b2 e8 28 bc 8a 60 c5 bb 42 18 12 bc
       -0.0036452378 -0.010309385 -0.0060234712 -0.008916916
0000c0 00 cd 8d bb 8c 5c 55 bc 74 42 d4 3b 63 fd 93 bb
       -0.0043274164 -0.013022553 0.0064776484 -0.00451629
0000d0 f9 8b 22 bc d1 1e 70 bb 72 e0 a5 ba b0 a9 73 bb
       -0.009921067 -0.0036639462 -0.0012655391 -0.003718
0000e0 6f 9b f8 bb 98 9f fc bb 0b 30 c9 3a ce 3c 90 bb
       -0.0075868885 -0.0077094547 0.0015349401 -0.0044017797
0000f0 2a 9f d3 ba 24 83 37 3c 20 85 a1 bb 66 d2 2f bc
       -0.0016145457 0.0112007 -0.0049292 -0.010731315
000100 e4 4c 32 bc ff b7 87 3c 3b 22 32 bb 13 96 61 3c
       -0.01088259 0.016567228 -0.0027181047 0.013768691
000110 8b 57 86 bb eb 9a 4f ba e8 bb ee bb 02 54 04 3d
       -0.0040997914 -0.0007919508 -0.0072855838 0.03230668
000120 4d ac 82 bb d1 ab 15 bc 01 8f a4 bb 8c d0 ea bb
       -0.003987825 -0.0091352025 -0.00502193 -0.007165974
000130 c4 f2 ac 3a d5 dd d9 bb ce 0b 68 3c b7 20 84 3a
       0.0013194908 -0.006648759 0.014162971 0.001008055
000140 6f 3d df bb 4b 08 35 bc 14 83 08 bc e0 c1 c5 bb
       -0.0068127434 -0.0110493405 -0.008332033 -0.0060350746
000150 55 9b 43 bc 4e 71 2a bc 18 e7 c4 bb 99 6c 31 bb
       -0.0119388895 -0.0104029905 -0.006008994 -0.0027072786
000160 77 0a 80 3b 4c 1b dc 3b 55 bb 04 3d a8 7b d5 bb
       0.0039074975 0.006717121 0.032405216 -0.006514985
000170 2a 7d 13 3c 40 e1 af 3b 4f 5c 0b 3c 77 14 b2 bb
       0.009002009 0.005367428 0.008505895 -0.0054345685
000180 5b 97 51 bc e7 bf 10 bc 39 1f 45 3c 60 d2 00 bc
       -0.012792434 -0.008834816 0.01203137 -0.007862657
000190 b2 b4 50 bc 68 41 ec bb 26 78 0e 3a a7 6e 2f bb
       -0.012738394 -0.0072099455 0.00054347736 -0.0026768835
0001a0 1c 07 23 bc 59 8b fd 37 1e 45 15 bc 1f ce a5 bb
       -0.0099504255 3.0224839e-05 -0.009110717 -0.005059972
0001b0 31 41 5b bc ae 86 b6 bb 2d 82 90 bb 5f da 0d bb
       -0.013382242 -0.0055702543 -0.0044100494 -0.0021645052
0001c0 a9 fb f2 bb 42 82 bd bb a1 3e 19 bc f7 33 95 bb
       -0.007415254 -0.00578335 -0.009353311 -0.004553314
0001d0 8c 31 f7 ba d6 68 3d bc 57 e4 04 bc a1 6b d1 3c
       -0.0018859371 -0.011560639 -0.008111081 0.025564017
0001e0 20 69 8f 3b 23 93 14 bc 6f 79 92 bb b5 7e 13 bc
       0.0043765455 -0.009068283 -0.0044700424 -0.009002377
0001f0 05 74 8a 3b 09 64 4a 3c d1 e7 62 bc 08 55 15 bc
       0.0042252564 0.012352952 -0.013849215 -0.009114511
000200 28 a8 e7 bb b8 6b 47 bc 0f 21 3f 3c 3f 57 02 bc
       -0.0070696063 -0.012171678 0.011665597 -0.007955371
000210 89 da 9a 3c 88 3b da b7 70 6f 48 bc 49 7d 9c 3c
       0.018903034 -2.6015347e-05 -0.0122336 0.01910271
000220 dc 31 f2 bb 9c 95 cc bb ee d6 7e bb f5 fb b3 bb
       -0.0073911976 -0.0062434208 -0.0038885432 -0.005492682
000230 c7 94 cf ba 94 c8 8e ba c7 a7 12 bc d2 40 51 bc
       -0.0015837186 -0.0010893517 -0.008951134 -0.012771802
000240 8c 54 80 3a c5 c0 a0 bb 8b dd 5e 3b 9c 80 0a 3c
       0.0009790822 -0.0049057924 0.0034006562 0.008453514
000250 8f 4a 06 bc 53 11 c1 bb 21 11 4f 3c 37 33 32 3c
       -0.008196487 -0.005891958 0.012638361 0.010876468
000260 d0 77 82 3b 9d dc a0 bc c0 92 04 bb 7b 05 d5 ba
       0.003981568 -0.019636447 -0.0020229071 -0.0016252244
000270 88 02 e8 ba ec 94 9b b9 1d 01 8f bc 16 a9 5c bc
       -0.001770095 -0.0002967486 -0.017456586 -0.013468048
000280 1e bf 4f bc c4 65 27 bc 6c f0 26 bc 83 cb 36 bb
       -0.012679843 -0.010217134 -0.010189157 -0.0027892299
000290 22 c0 6f bc 87 eb 9c 3c d3 d1 a9 3b 12 28 53 bb
       -0.01463321 0.019155277 0.0051824837 -0.0032219929
0002a0 49 17 64 bb 2f 16 48 bc b3 6d 61 ba d4 33 ab bb
       -0.0034803918 -0.01221232 -0.00085994153 -0.0052246843
0002b0 1a f9 b1 3c a1 e5 40 bb 85 f2 21 bc 4c c1 19 bc
       0.021725226 -0.0029433744 -0.009884481 -0.0093844645
0002c0 3d 03 86 bc 4e f1 07 3d 27 8b 9c 3c d4 6a 59 bc
       -0.016358966 0.03318911 0.019109322 -0.013270099
0002d0 f2 7c 9b 3c 78 00 30 bc da 6d f5 bb 0e bd 83 bc
       0.018980477 -0.010742299 -0.007489902 -0.01608136
0002e0 f2 f5 2f bc ca 05 c2 bb 4a 98 9c bc 79 40 48 b9
       -0.01073979 -0.0059211003 -0.019115586 -0.00019097504
0002f0 d3 4c a0 3c 94 eb 63 bc 32 b1 39 bc 76 5f a0 ba
       0.019567883 -0.013911147 -0.011333751 -0.0012235481
000300 b0 b7 27 bc 39 77 d1 b9 43 eb 65 bc e1 67 68 bc
       -0.010236666 -0.00039952414 -0.014033142 -0.014184923
000310 69 b8 15 3c ef c2 7f 3c 7c e5 ce bb c4 f0 00 3d
       0.009138205 0.015610441 -0.0063139778 0.031479612
000320 d7 a4 bd bb 8f 77 01 bc 0a f6 00 bc 91 69 dc bb
       -0.0057874727 -0.00790204 -0.00787116 -0.0067264517
000330 32 56 1b bb 20 61 32 bc 73 f3 06 ba eb c7 23 3c
       -0.00237025 -0.010887414 -0.0005147971 0.009996395
000340 22 f5 fb bb 27 7c e0 3c 30 6e a1 bb 94 06 8a 3b
       -0.007689134 0.02740295 -0.0049264655 0.00421221
000350 b5 18 a7 bc 2c 69 ae 3c 34 6e c9 bb 86 bd 1b bc
       -0.020397523 0.021290384 -0.0061471704 -0.009505635
000360 43 fd f1 ba fe 3b 14 bb b9 b4 26 bc 79 ea 70 bc
       -0.0018462319 -0.0022618766 -0.010174924 -0.01470434
000370 e9 49 0b bc c5 03 c9 3b 20 4e 0e 3c 6e 2d 90 3a
       -0.008501508 0.0061344826 0.008685619 0.0010999867
000380 39 5a 32 bc a4 d1 27 3b a4 88 19 bc f6 e7 9a bc
       -0.010885769 0.0025607133 -0.009370957 -0.018909436
000390 d9 a9 88 bc 23 cc 55 3c 11 4e 1f 3c d5 75 67 bb
       -0.016682552 0.013049158 0.009723202 -0.0035318036
0003a0 40 df 3c ba 78 f5 a0 3c 1a 62 19 bc 8d bb f8 3c
       -0.00072048977 0.019648299 -0.009361768 0.030362869
0003b0 0a 1f b9 bb 75 6e 4e bc 97 e0 8e ba 60 e5 e6 bb
       -0.005649452 -0.012599577 -0.0010900673 -0.0070463866
0003c0 71 d1 d4 bb 92 53 c2 bb 18 39 33 bb 57 69 21 3b
       -0.006494694 -0.0059303725 -0.0027347263 0.0024629438
0003d0 66 3a 4a bc 9f bd 72 bc 47 bf 00 bc 21 a7 dd ba
       -0.012343025 -0.014815717 -0.007858104 -0.001691077
0003e0 1d 0e 77 bb 72 b1 23 bb f8 6b 8b bb 67 c2 0d bb
       -0.003769762 -0.0024977592 -0.0042548142 -0.0021630765
0003f0 2f e6 cd 3a 04 d4 cc ba f5 0e 0c 3b d4 e1 57 bc
       0.0015708859 -0.001562715 0.002137122 -0.0131764

network_body._body_endoder.seq_layers.0.weight f4 [256, 132]
000000 d3 3c 21 bd 13 e1 00 be cb 04 0a bc a2 e3 0f bc
       -0.039364647 -0.12585859 -0.008423994 -0.008782299
000010 56 90 a9 bd fa 22 1e be c1 bb 72 3e 61 d0 63 3d
       -0.08279483 -0.1544303 0.23704435 0.055618647
000020 90 73 fc bb 13 87 9a 3c 10 28 4e bd d2 f8 00 3b
       -0.007704206 0.018863237 -0.050331175 0.0019679558
000030 83 1b 5d 3c 5a 04 28 3d 99 7d 05 3e aa 9a 3e 3d
       0.013495329 0.041019775 0.13036193 0.046534218
000040 30 49 31 be d6 ff 9b bb a1 ed a1 bc 6e e7 c3 3b
       -0.17313075 -0.0047607226 -0.01976663 0.0059785163
000050 ed 1a a6 3d 39 56 94 3c 4f a1 e9 3d 5b 34 b2 3d
       0.081106044 0.01810752 0.1140772 0.08701392
000060 9b d5 b7 3d 40 c5 01 be d7 ca c7 3d b1 cb 39 3d
       0.08976289 -0.12672901 0.097554855 0.04536027
000070 37 1d 36 3d 69 6b d3 3d cd 46 c6 3b fd 22 1d bc
       0.044461455 0.10323221 0.0060509206 -0.009590861
000080 c1 8b 7a 3d fc 04 91 bd f7 ef a9 3b 9d cd 51 bd
       0.061168436 -0.07081029 0.0051860767 -0.05122148
000090 02 4a 3d be 8e 75 32 3d 10 30 70 bd ee af ad 3d
       -0.18485263 0.04356914 -0.058639586 0.084808215
0000a0 38 4b f0 3c be 63 14 3d fd d4 38 be f3 3d 4e 3d
       0.029332742 0.036227934 -0.18049999 0.050352048
0000b0 1e 40 19 3e b9 95 44 3e cd d7 6d 3d f3 e1 e6 bc
       0.14965865 0.1919774 0.05806713 -0.028183913
0000c0 3d 16 d2 3c 13 25 24 3e d6 e2 84 3c c5 70 0f 3d
       0.02564537 0.16029768 0.016221445 0.035019655
0000d0 7e 66 c4 bd 0f 03 42 3d b6 e2 48 bc bf b6 75 3d
       -0.09589861 0.0473662 -0.012261083 0.059988733
0000e0 27 5b fb bb 53 65 24 3e a8 ad 57 3e 9f 90 b1 bd
       -0.0076707783 0.16054277 0.21062338 -0.086701624
0000f0 65 18 39 bc 52 3d 25 bc bf 14 69 3d 65 d4 d8 3c
       -0.01129732 -0.010085421 0.05690455 0.026468465
000100 7f 34 7b 3d 31 da 87 bc 3f 71 7f 3d bc 1b 14 bd
       0.06132936 -0.016583534 0.06236386 -0.036159262
000110 73 5e a7 3d 22 23 2f 3c a9 34 d4 bd ca c3 d0 3d
       0.08172312 0.010689529 -0.10361607 0.10193594
000120 6d e0 27 bd a8 64 65 3d cc 15 15 3d ac 2e 9e 3c
       -0.040985513 0.056004196 0.03639774 0.019309364
000130 4c 7e 90 3c c1 59 11 bd 57 73 1b bd d5 fb 4e 3d
       0.017638348 -0.035485987 -0.037951794 0.050533134
000140 63 31 12 3e d3 b6 08 be 67 1d 42 3e ea 41 09 3d
       0.14276652 -0.13350992 0.18956529 0.033510126
000150 65 91 7e bd 1e 86 14 3c 30 a3 3b 3c 53 42 5c 3d
       -0.062150378 0.009065179 0.011452481 0.05377419
000160 47 d4 f3 bd 4d a0 d5 39 51 27 b5 3c fe ff 38 be
       -0.11905723 0.0004074596 0.022113474 -0.18066403
000170 fd db 7e bd bf 13 b0 3d b4 4f 81 3d e1 28 db bb
       -0.062221516 0.08597516 0.0631403 -0.0066882228
000180 af e6 a4 bc de ab 05 bc c8 42 fb bb ce 52 16 3d
       -0.02012953 -0.008158652 -0.007667873 0.036700062
000190 aa e7 92 bd 6e db 4d bd 2c 70 b1 bd 7e 34 c3 3c
       -0.07173093 -0.050258093 -0.08663973 0.023828741
0001a0 a9 63 19 bd 58 b5 05 3e 5a 05 53 bd 37 04 d1 bd
       -0.03744856 0.13057458 -0.051518776 -0.10205882
0001b0 1a 4a de bc 92 b9 b6 3c 23 de 69 bd 81 1c d2 3d
       -0.027134944 0.022305284 -0.05709661 0.10259343
0001c0 2b 63 ef bd dc fd f4 bd 12 26 ad 3d 68 0f 07 3d
       -0.11688837 -0.11962482 0.08454527 0.032973677
0001d0 ff f0 02 be 9b a4 a6 3b a1 5e 03 bd 9a bf 02 bd
       -0.12787245 0.0050855405 -0.032072667 -0.031921007
0001e0 38 98 04 3d 97 26 08 be 6b 91 cb 3c 52 4e b3 bd
       0.03237173 -0.13295971 0.024849614 -0.08755173
0001f0 52 10 7b bd 5c 87 15 bc 7c 63 7d bd a3 21 08 be
       -0.06129486 -0.0091265105 -0.061862454 -0.13294081
000200 7d 11 67 bd cf 91 2b 3d a8 84 c0 3d 5b 26 8e bd
       -0.056413162 0.0418871 0.09400302 -0.069409095
000210 be b0 95 bd 89 46 80 bd e5 9f d3 bd 85 c8 ee bc
       -0.073091015 -0.062634535 -0.10333232 -0.02914835
000220 7f 54 d5 bc 9f 6c 83 3d b4 61 d3 bd 8f 18 48 be
       -0.026041267 0.06417202 -0.1032137 -0.19540618
000230 57 98 7b bd 38 b4 8a 3d 50 fd e4 bc dc ed fa 3d
       -0.06142458 0.06772655 -0.02795282 0.12252399
000240 2d 62 85 bd 46 67 a7 bd cd e7 58 3d a9 56 8b bd
       -0.06512866 -0.08173995 0.052955437 -0.068036385
000250 1a be 9d bc 87 4d 34 3d e0 3b e4 bc 0f fc 3d 3d
       -0.019255687 0.04401925 -0.027860582 0.04638296
000260 5e 64 51 3d 2b 3c 1d 3d 84 dd cd bd 12 3d 34 3e
       0.05112111 0.03838746 -0.100520164 0.17601421
000270 68 1f b4 3c 54 5d 5d 3d 6e 2b 55 3c 91 46 8f bd
       0.021987632 0.054044083 0.013010843 -0.06995881
000280 f9 31 61 3e f5 26 1b 3d 90 79 84 3d 69 7c 1f 3e
       0.2199172 0.03787895 0.06468499 0.15574802
000290 8a 8a 19 bc a3 75 c7 3d 57 f5 68 bd 32 52 d7 bd
       -0.009371409 0.09739234 -0.0568746 -0.105137244
0002a0 6f d2 43 bc 41 a8 0f bc 49 b5 cb bc 14 f4 f4 bd
       -0.011952027 -0.008768142 -0.024866717 -0.11960617
0002b0 ad 52 d8 3c ff 10 fd bc 7a c8 ef 3d 4e 45 d2 bc
       0.02640661 -0.030891893 0.1170816 -0.025667813
0002c0 8f 98 86 3e 53 14 0b 3e de cf 90 3b 1f 8b 69 3c
       0.26288268 0.13581972 0.004419311 0.01425436
0002d0 45 d9 d8 bc 27 a1 22 3d 9a 57 03 be 19 f1 05 bd
       -0.02647079 0.039704468 -0.12826386 -0.03270063
0002e0 ae 98 41 be e6 93 ae bd 45 aa 18 bd 53 3e 3f bd
       -0.18905899 -0.08524303 -0.037271757 -0.046690296
0002f0 e5 6b bd 3d 72 98 65 bd 11 fc 2b 3e 12 26 a8 3d
       0.09249095 -0.056053586 0.16795374 0.08210386
000300 76 7f a2 bd 6d b0 84 3c f2 d8 90 3b 05 7d e6 bb
       -0.079344675 0.016197408 0.004420393 -0.0070339465
000310 eb 45 10 bc b8 0a 72 bd 0e b2 e5 bc c8 bb 56 3d
       -0.008805732 -0.059092253 -0.028039005 0.052425176
000320 6a 45 b6 bb 20 6c 0b be fd 8c fe ba a8 bd 37 bd
       -0.005562474 -0.13615465 -0.001942068 -0.044858605
000330 66 70 7f bc a6 3c 4c 3a 66 2a f4 3c 7d 3b 2f bd
       -0.015590763 0.000779102 0.029805373 -0.04278134
000340 2c a9 e9 bd f1 26 9a 3d ad 9c dd 3d 28 13 0b be
       -0.1140922 0.07526959 0.10820899 -0.13581526
000350 df 53 e3 bd a1 b4 97 bd 8b 01 e9 bd de 77 0d bd
       -0.110999815 -0.07407499 -0.113772474 -0.034538142
000360 30 70 f6 bc b9 bb b2 bd 77 b8 8e bc 06 4d 8d 3d
       -0.030082792 -0.087272115 -0.017421944 0.06899457
000370 5a 7d 60 bc cc 7f 47 3c fd 79 79 3d 9a b9 fd 3d
       -0.013701761 0.012176465 0.060907353 0.12388916
000380 62 b5 50 bd 0c 0d 0a bd a8 1c 1f bd f2 b8 09 be
       -0.05095423 -0.03370385 -0.038845688 -0.13449457
000390 95 ff d1 bc bf 76 c0 bd bf 65 a3 3d 83 85 35 bc
       -0.025634566 -0.09397649 0.07978391 -0.011079195
0003a0 37 5c 08 3c 35 81 65 3e 5c 36 14 bc 95 14 9d bd
       0.008322767 0.2241257 -0.009046163 -0.07669941
0003b0 8b ce 23 bc c9 89 62 be 92 97 cb 3c c9 8f 12 bc
       -0.009997974 -0.22122873 0.024852548 -0.008945414
0003c0 95 31 41 3c 3b 04 58 3c 0e cd 91 bd cd 7d 03 3d
       0.011791606 0.013184602 -0.07119189 0.032102395
0003d0 cf 7e 57 3d a8 ce 04 3e 39 93 a0 bd 72 65 ba bd
       0.05261117 0.12969458 -0.078405805 -0.091013804
0003e0 80 3d 23 be 74 ae 24 3c 47 e2 dd bd 02 67 c0 bc
       -0.15941429 0.0100513585 -0.108341746 -0.023486618
0003f0 58 d0 53 3d 31 8b ab 3d cd 62 d4 bc 96 c2 b0 3d
       0.051712364 0.08376158 -0.025926018 0.08630864

network_body._body_endoder.seq_layers.2.bias f4 [256]
000000 5a 54 cb bb 93 61 8b bc cc 98 f9 ba ea 3f 80 bb
       -0.006205124 -0.0170143 -0.0019042729 -0.003913869
000010 b2 f6 f8 ba fb 6d 11 39 17 32 73 bc c0 50 d0 ba
       -0.0018994419 0.00013869249 -0.014843485 -0.0015893206
000020 7c 65 5a 3b 8d 57 f3 bb a0 ec dc bb b1 4a 19 bc
       0.003332465 -0.0074262084 -0.006742075 -0.009356187
000030 dc c8 10 bc 4d 22 b7 bb ca de 7d bb 18 84 9c 3b
       -0.008836951 -0.005588806 -0.003873753 0.004776489
000040 5c 25 cc bb 38 b5 d2 3a 09 a7 e8 b8 a8 18 09 bc
       -0.0062300395 0.0016075736 -0.00011093735 -0.008367695
000050 04 40 20 bc 73 14 92 ba a4 33 76 bb ca fc b0 bb
       -0.0097808875 -0.001114501 -0.0037567401 -0.0054012286
000060 29 43 18 bc 40 7d 0e bc 11 e4 44 bb e4 d7 36 3c
       -0.009293356 -0.008696854 -0.0030043165 0.011159871
000070 e7 95 07 bc 63 e9 4d bc fd 2a d6 bb 32 ad 1f bc
       -0.008275486 -0.012567851 -0.0065358863 -0.009745883
000080 c2 f5 9f ba 74 4e 92 bb 22 69 7d ba 12 5a 1b 3c
       -0.0012203979 -0.0044649187 -0.000966685 0.009481924
000090 91 90 ca bb 9c 6d af bb 14 a4 a3 bb eb 22 f1 bb
       -0.0061817844 -0.0053536426 -0.004993925 -0.007358899
0000a0 a7 c4 5f bb c1 b7 c0 b9 c6 67 0a bb 18 a6 b2 bb
       -0.0034144314 -0.00036758 -0.0021118983 -0.005451929
0000b0 a6 a6 c1 ba 02 39 b3 bb 0b f0 1a b9 66 b7 8d bb
       -0.0014774397 -0.0054694423 -0.00014776007 -0.0043248413
0000c0 72 f2 f3 bb 24 ca 32 bc f8 f2 0a bc 49 fd 8e bb
       -0.007444673 -0.010912452 -0.00848078 -0.00436369
0000d0 d4 d9 1d 3c fe 19 96 ba ba 45 07 bc fe e9 7f bb
       0.009634454 -0.0011451838 -0.00825637 -0.0039049382
0000e0 01 48 c4 bb fd 2a a4 bb 44 80 00 bc de d7 fb bb
       -0.005990029 -0.0050100074 -0.007843081 -0.0076856455
0000f0 1f 85 c3 bb 65 13 23 ba 34 80 86 b9 65 d5 36 3c
       -0.005966797 -0.00062208466 -0.0002565399 0.011159276
000100 38 fc ae ba 40 85 4a 3b a7 ac 2a bc f5 39 c6 bb
       -0.0013350314 0.0030902177 -0.01041714 -0.0060493895
000110 27 5e e8 b9 b2 ba 2a bc a1 01 29 bb c7 7b 00 bc
       -0.00044320637 -0.010420488 -0.0025788324 -0.007842011
000120 ae f3 8d bc 28 91 49 3a 01 7b 0f bc 29 90 7d 3b
       -0.01732811 0.00076891715 -0.008757354 0.0038690662
000130 c9 ba bd 3b 52 7e 2d bc 89 52 6a 39 65 a4 7a bc
       0.005790089 -0.010589199 0.00022346726 -0.015297984
000140 e9 e4 5f 3b 92 52 2a bb 12 31 a1 bb b4 c6 99 bb
       0.003416354 -0.0025989157 -0.0049191797 -0.0046928767
000150 19 e3 75 3b 32 c6 83 bb 2f a7 21 bc 32 e1 f7 38
       0.0037519394 -0.0040214295 -0.00986652 0.00011819824
000160 c7 ec 7f 3b 36 4d 0f bc 50 1e 11 3b 92 5b 15 3b
       0.0039051042 -0.008746436 0.0022143312 0.0022790176
000170 33 f4 29 bc be 1c 14 bc 9d 6e 9b bb b4 49 9a bb
       -0.010373163 -0.009040056 -0.0047434107 -0.004708493
000180 8d 9e b1 3c 18 42 da 3b 86 15 25 bb ba 15 cd 3b
       0.021682048 0.006660711 -0.002518983 0.0062586935
000190 c6 be db 3b a5 23 49 3b d3 8b 88 bb 10 c0 89 ba
       0.0067060916 0.0030691412 -0.004167059 -0.001050951
0001a0 33 da 0f bc 78 5e e7 3b 48 ac 42 3b 99 a1 58 bb
       -0.00878005 0.007060822 0.0029704738 -0.0033055304
0001b0 7e 7d ab 3c e0 d3 c6 bb a3 d0 f2 3b 4f 66 fe 3a
       0.020933863 -0.006067738 0.0074101253 0.0019409152
0001c0 f4 3a 9b bb 03 d8 10 bc b1 20 08 bc 83 c9 16 bb
       -0.0047372524 -0.008840564 -0.0083085755 -0.0023008294
0001d0 1a 26 f1 39 eb 0d b5 bb 75 77 5f ba 10 a0 29 bc
       0.0004599549 -0.005525341 -0.00085245754 -0.010353103
0001e0 7b 36 57 bc 96 fd 20 bb f9 dd 0e 3c bc 9a 16 bc
       -0.013135548 -0.0024565211 0.008719915 -0.009192165
0001f0 ab e6 c5 3b a7 66 05 bb 44 4d 56 bb 65 2d 15 bc
       0.0060394607 -0.0020355375 -0.0032699862 -0.009105061
000200 71 de 31 bc 64 de a2 bb 3a 9f 0a 3b 97 79 1f ba
       -0.010856257 -0.0049703587 0.0021152035 -0.0006083487
000210 51 c9 37 bc ce 9c e2 3a 87 7f 4f 3b a2 c5 ce 39
       -0.011217431 0.0017289163 0.0031661706 0.0003943863
000220 b4 9a b8 bb 79 33 3e bc 1a 30 33 3a 0b 89 6d bb
       -0.0056336764 -0.011608952 0.0006835476 -0.0036245014
000230 e6 e1 6c bb e2 44 26 bb 4f 9c 19 bb 53 f5 14 3c
       -0.0036145388 -0.0025370647 -0.0023439114 0.009091693
000240 e4 cc f2 b9 a1 37 a4 3a 63 a5 83 bb 2c 3a 0d bc
       -0.00046310492 0.0012528786 -0.0040175184 -0.008619826
000250 7e a4 8a bb 15 fa 76 3b ee a3 27 3b a7 82 1b bb
       -0.004231035 0.0037685682 0.0025579887 -0.0023728998
000260 11 23 18 3b c9 82 46 bc 39 31 7a 3a 68 cc 90 bb
       0.002321426 -0.012116143 0.0009544078 -0.0044188984
000270 a4 2c 28 b9 ea 93 1b bc 0d 71 31 bb 6c 02 c7 bb
       -0.00016038358 -0.009495715 -0.002707544 -0.0060732868
000280 ac 1c 16 3c 3e 87 be bb 3b be fc bb b5 d9 47 3c
       0.009162109 -0.005814462 -0.007713107 0.0121979015
000290 ef 6f 01 3a a5 8f 32 3b a8 75 d5 ba 27 81 59 bc
       0.0004937639 0.0027246263 -0.0016285675 -0.013275421
0002a0 39 42 e5 bb a3 28 6c bb c4 82 bc bb ba d3 c1 bb
       -0.0069964197 -0.0036034964 -0.005752893 -0.0059151324
0002b0 01 39 6e bc ef e6 64 bc 95 cc 08 bc 51 1c 51 bb
       -0.014539958 -0.0139710745 -0.008349557 -0.0031907747
0002c0 fa a3 61 bc 43 4c 66 ba b7 69 33 bc e4 7c a3 3c
       -0.013772005 -0.00087851676 -0.010950497 0.019957013
0002d0 f2 bf d3 bb c7 80 80 bb 68 fd 87 3c 50 6e 68 bc
       -0.0064620906 -0.0039216015 0.016600326 -0.014186457
0002e0 cc 21 49 bc 80 de e1 bb aa b9 f7 bb ce 7b 34 bc
       -0.012276124 -0.006892979 -0.0075599747 -0.011015845
0002f0 69 4f 90 bb 7e ef 20 bc 34 af f6 bb 0b 24 47 39
       -0.0044039977 -0.009822724 -0.00752821 0.00018991546
000300 40 5a c1 3a 58 f3 25 3b 0d ad 2b bc 2c 53 ec 39
       0.0014751628 0.0025322046 -0.01047827 0.00045075396
000310 77 08 40 bb 2f 64 05 3c 26 51 e4 3b 3b 03 00 bc
       -0.002930192 0.008141561 0.0069676815 -0.00781327
000320 77 1a 5f bc 48 ed 1f 3c ea 98 73 bb 6d 9e 8a bb
       -0.01361715 0.009761162 -0.0037170001 -0.0042303116
000330 02 17 cb 39 04 79 08 bc cc 9e 87 bc 9d 82 67 bb
       0.0003873632 -0.008329634 -0.016555212 -0.0035325654
000340 d6 ad 0d bc 6d f8 0a bc a6 7f 96 3a e6 eb 50 bb
       -0.008647403 -0.008482081 0.0011482134 -0.0031878888
000350 7c 8a ad bb 4c 89 84 3b 09 92 3e bc 21 1d 06 bc
       -0.0052960496 0.0040446874 -0.011631497 -0.008185656
000360 13 88 9c 3a 4f d8 56 bc 8c 3b db ba c3 8c 40 ba
       0.0011942409 -0.013113095 -0.001672612 -0.0007345194
000370 a7 30 0b 3b 83 a1 5f 3b 22 fc 97 bc 7f 5b e5 bb
       0.0021238716 0.0034123368 -0.018552843 -0.0069994326
000380 9f 7c 10 3c e1 7e 7d bb f4 61 0b bc dc 08 05 bb
       0.0088187745 -0.0038680362 -0.008507241 -0.002029947
000390 7e 7f 92 3c 4f cf a1 bb ed 88 3b bb 02 4b 66 bc
       0.017883059 -0.004938043 -0.002861555 -0.014055969
0003a0 bd 56 f7 bb 37 a2 0d bc 80 d2 8a bb 24 d6 eb 3b
       -0.007548182 -0.008644632 -0.0042365193 0.0071971584
0003b0 a6 5a 3c bc ca f1 3b 3b 63 be 01 bc ff 86 0c bc
       -0.011496222 0.0028678053 -0.007918927 -0.008577107
0003c0 15 02 0d 3c 9b 02 4b 3b d6 58 e3 bb 91 7f 79 ba
       0.008606453 0.0030976895 -0.0069380803 -0.0009517605
0003d0 b4 85 2f bc 89 42 f1 3a c9 16 32 bc 9c a8 84 bb
       -0.01071303 0.001840667 -0.01086969 -0.00404842
0003e0 fb ca 30 bc ae 9f 11 bc 83 9b fb bb ab 31 b4 ba
       -0.010790582 -0.008888168 -0.0076784506 -0.0013747712
0003f0 d4 22 15 bc 84 27 aa bc 03 6f 39 bc 02 45 1b bc
       -0.009102542 -0.020770796 -0.011317971 -0.009476902

network_body._body_endoder.seq_layers.2.weight f4 [256, 256]
000000 01 e8 6f bc d3 79 a7 bd 6e a3 ce 3c f7 76 97 3d
       -0.014642716 -0.08177533 0.025224414 0.073957376
000010 d2 25 77 3c 92 21 56 3e f8 25 7d 3d 8c fc 43 bd
       0.015084701 0.20911244 0.061803788 -0.04784827
000020 96 69 5c 3d a6 48 67 bd 05 ae 3a bd 04 75 3d 3d
       0.053811632 -0.056465767 -0.045576114 0.046254173
000030 16 bb c7 bd 08 c3 82 bc b3 76 2c 3c 9b 2f f9 b8
       -0.09752481 -0.015962139 0.010526347 -0.000118821124
000040 48 73 bb 3d 0d 2d 6a bd 73 aa 8e 3d ae 46 17 bd
       0.091528475 -0.05717187 0.06966104 -0.03693264
000050 1c 2a 3a bd 4b 59 33 3c 7b 55 b0 bc 39 2a bb 3d
       -0.045450315 0.010946582 -0.021525135 0.09138913
000060 44 5f d6 bd 6d a5 8d 3c f1 39 24 bd 10 58 10 3d
       -0.10467389 0.017290795 -0.04009432 0.035240233
000070 3f 77 47 3d 69 a5 19 3d 6d 77 9a 3d 64 cc db bd
       0.048697706 0.037511263 0.0754231 -0.10732344
000080 bf 8d 8d 3c 2c b4 b6 bc 67 5d 13 3e 2d 73 40 3d
       0.017279504 -0.02230271 0.14391099 0.04698484
000090 66 34 e0 bc cd 01 7a bc 35 4f 6a 3d 42 2d 91 3c
       -0.027368736 -0.015259218 0.057204444 0.017721776
0000a0 59 4a 38 3d d5 43 9f 3d 9a 56 da 3c 6b ed c4 bc
       0.04499278 0.0777661 0.026652623 -0.024038991
0000b0 68 71 6c 3d b7 9f b0 3c ec 14 21 bd db 6b ab 3b
       0.05772534 0.021560533 -0.039326593 0.0052313632
0000c0 75 8c a8 bd b2 2f fb bc 1d 6c 94 3d bc de d6 bc
       -0.08229915 -0.030662391 0.072471835 -0.026229255
0000d0 8a 91 33 bd 81 66 25 bd d2 f4 98 bd bf ec 30 3c
       -0.04383997 -0.04038096 -0.07468571 0.010798632
0000e0 b2 d9 bc 3d c7 99 07 3e 4d f7 a3 3d 1f db 0b bd
       0.092212096 0.13242255 0.08006153 -0.034144517
0000f0 e5 bf f0 bc c8 c3 02 3d 35 cd 64 3d e5 19 75 3d
       -0.029388377 0.031924993 0.055859763 0.059839148
000100 8d f9 ce 3d 94 7f 47 3b 76 a7 8e 3c 61 df be 3c
       0.10106192 0.0030441033 0.017413836 0.023299875
000110 1a 14 a9 3d ad 0a b3 bd 58 9f fd 3c ff 8b f6 3d
       0.08255787 -0.087422706 0.03095977 0.12038421
000120 a7 c2 c4 bc b9 3e 0e bc df aa 43 3d 6d 1e 36 3d
       -0.024018599 -0.008681946 0.047770377 0.04446261
000130 7d dd a3 3d b9 a1 e5 bd 26 55 96 3c 71 c1 d1 bd
       0.0800123 -0.11212487 0.018351149 -0.10241974
000140 2a 73 c7 bb 14 e5 80 bd 8a 35 0a 3d 96 3e 9d 3c
       -0.0060867267 -0.06293693 0.033742465 0.019194882
000150 9e b8 c1 3d 85 df 8d 3c e4 9c 87 3d 15 89 b8 bc
       0.09459041 0.017318496 0.066217214 -0.022526303
000160 8b f2 ca bc e9 46 21 bd 63 e7 41 3d 58 de c0 bc
       -0.024773857 -0.039374266 0.04733981 -0.023543522
000170 a3 a0 34 3d 32 f5 f9 3b 31 8d 2e bc 51 3d 8d bd
       0.044098508 0.0076281065 -0.01065378 -0.06896461
000180 5d 1b b0 3d 78 c7 84 3d 12 ee 21 3b 47 ac 31 bd
       0.08598969 0.06483358 0.0024708551 -0.043377187
000190 d1 4d 3f bd 94 20 5e 3b e4 86 8d 3c 1e 32 1f 3d
       -0.04670507 0.003389393 0.017276235 0.038866155
0001a0 95 95 40 3d 87 4d 21 bd 4a 07 08 3d 0a 37 0c 3d
       0.047017653 -0.039380576 0.033210076 0.034232177
0001b0 71 57 d1 3c af a1 6a 3c 7f ff 29 bb 41 4b b2 bb
       0.02555439 0.014320775 -0.002593964 -0.0054411
0001c0 1e 56 82 bd 5e 50 54 bd 25 e4 e5 bd 6e ae b9 3c
       -0.06364082 -0.051834457 -0.11225156 0.022666182
0001d0 e2 c1 75 bd b1 60 11 bd e6 e3 1b 39 41 2d be 3d
       -0.059999354 -0.035492603 0.0001486685 0.09285975
0001e0 5e 67 34 3d c7 8d ad 3d 9f b5 82 3b 59 ef 95 3d
       0.04404389 0.084743075 0.003988936 0.073210426
0001f0 c2 1b 61 bd 99 c0 1f 3d 6b 9b 83 3d ed fa 12 3c
       -0.054958113 0.039002035 0.06426128 0.008970958
000200 0e d9 fc bc 8b 40 19 3d db 64 53 3d f3 c7 10 bd
       -0.030865218 0.03741507 0.051609855 -0.035346936
000210 95 d6 44 3c 80 86 77 bc e8 10 b7 3d d8 62 95 3d
       0.012014051 -0.015107751 0.089387715 0.072942436
000220 9d 31 00 bd 0d 0e de 3c b6 b5 7d bc 14 54 b5 3c
       -0.031297315 0.02710631 -0.015485218 0.022134818
000230 7c 76 52 bd 00 16 81 bd 71 11 b0 3d 65 33 49 3d
       -0.051382527 -0.06303024 0.08597077 0.04912128
000240 b1 19 c5 bb a5 f4 5f 3b 5e 2d 46 bd 53 be 0d 3d
       -0.0060150255 0.003417292 -0.04838311 0.034605335
000250 33 25 e8 3b 29 26 a5 3c 93 c3 e7 3d d5 aa c3 bc
       0.0070845126 0.020159798 0.113166 -0.02388517
000260 9d d2 14 bd d0 8b 22 bc de b0 c1 3c d0 c6 b1 bc
       -0.03633367 -0.009921029 0.023643907 -0.021701247
000270 62 45 ed 3c f7 b8 8d bd d4 7f 0a bd a8 1d cb bd
       0.028963748 -0.06920045 -0.033813313 -0.09917766
000280 ca 16 91 3b 8d ed 03 bd d7 b0 ce bd 9a 71 c7 bc
       0.0044277655 -0.032208968 -0.10092323 -0.024346162
000290 57 4b e3 3d 0d cb b4 39 3e 14 a3 bd e7 2e 5b bc
       0.11098354 0.0003448356 -0.07962845 -0.013377882
0002a0 26 09 fc bd 93 f5 18 3d 9e 21 84 3c bc 29 23 bd
       -0.123064324 0.037343573 0.016129311 -0.039834723
0002b0 85 26 ef bd 0d 7b 2e bd 98 8e f7 bb 0c 12 97 3d
       -0.11677269 -0.04259782 -0.0075548403 0.07376489
0002c0 2b 88 d5 bd 55 1b 1f bd 46 9c 0f be 8a 8e de 3c
       -0.104263626 -0.038844425 -0.14024457 0.027167577
0002d0 b7 18 09 3e 5c f5 e3 39 10 75 09 bd 1f b9 63 bd
       0.13388334 0.0004347962 -0.033558905 -0.055596467
0002e0 cc b6 9b 3d 0d 8a 86 bd da 69 03 be 8f 34 c8 3d
       0.07603225 -0.065693 -0.12833348 0.0977565
0002f0 c2 4f 31 3c 40 c9 63 bc 58 4e 04 bd e4 8c 0b 3d
       0.010822238 -0.013902962 -0.032301277 0.03406991
000300 a3 1a 2e bc d9 08 bf 3b a4 17 a3 bd ef f0 bc bd
       -0.010626468 0.005829912 -0.079634935 -0.09225642
000310 b1 2d 2b bd 9b ec ef 3d 8b fa f6 3d 06 f3 f9 3d
       -0.04179162 0.11715051 0.12059506 0.12204556
000320 0a d9 23 3b 83 62 20 3d 20 4d 81 bb 36 8e dd bc
       0.0025001192 0.039156448 -0.0039459616 -0.02704535
000330 ee d5 89 3c f5 fb 71 3d 74 95 d5 bc b6 7f 63 bb
       0.016825642 0.059078176 -0.026072241 -0.0034713573
000340 4a f9 b5 3d 59 e4 43 3d a7 f1 4e 3d a1 3f a3 3c
       0.08885439 0.04782519 0.050523426 0.019927802
000350 63 83 86 3a 30 1f f0 bc 7b ac ec bc c7 43 92 3c
       0.0010262545 -0.029311746 -0.028890839 0.017854584
000360 eb 25 8d 3d b7 7b 4d 3b 89 bc 65 bd 04 bb a0 3d
       0.06891998 0.0031354257 -0.056088004 0.078481704
000370 94 a5 82 bc 13 2d 25 3c f8 c4 03 bd 4c 15 e7 bd
       -0.015948094 0.010081547 -0.032170266 -0.11283359
000380 67 6f fa 3c 15 12 a5 3d 31 cb dc bd d4 f0 50 bc
       0.030570699 0.080600895 -0.10780943 -0.01275273
000390 01 18 87 bb e8 76 a3 bc 84 b7 1d 3e 79 b2 58 bc
       -0.0041227345 -0.01995416 0.15402037 -0.013226145
0003a0 72 96 17 3d f0 34 30 bd 13 aa 02 3d 17 04 6b bc
       0.03700871 -0.043019235 0.031900477 -0.014344237
0003b0 fd 13 39 bd 39 6d 29 3d 4f a9 45 3c e3 dd a3 bd
       -0.045185078 0.04136393 0.012064292 -0.08001306
0003c0 3f 2a 44 3d cc d6 ef bd 2c a2 8f 3b b1 e6 ad 3c
       0.04789185 -0.11710891 0.004383346 0.021228166
0003d0 6a ef 40 3c a3 bb 7c bd 1c 39 8d bd cb 09 e9 bb
       0.011775831 -0.06170238 -0.068956584 -0.007111763
0003e0 89 d5 f3 bc a3 b5 f4 3d f5 bb fc 3b f6 5a 73 3d
       -0.029764907 0.11948707 0.007712836 0.05941292
0003f0 15 05 45 bd fc 50 92 bd 37 d6 c2 3d 06 73 a0 3d
       -0.04810055 -0.07144353 0.095135145 0.07834439
