results/MLDriver2/MLDriver/MLDriver-30720.onnx (onnx, 404427 bytes, 7 tensors)

action_model._continuous_distribution.log_sigma f4 [1, 3]
0.018122345 0.013624213 0.046326134
00000000: 5075 943c 1738 5f3c 79c0 3d3d

action_model._continuous_distribution.mu.bias f4 [3]
-0.0018581456 0.002125033 0.0006567896
00000000: 058d f3ba 2344 0b3b 672c 2c3a

action_model._continuous_distribution.mu.weight f4 [3, 256]
-0.02026895 0.004035274 -0.016759427 -0.0058283154 -0.0015357173 0.013263062 -0.025031034 0.0032791595
-0.0005299824 -0.0013685077 0.006284244 -0.0122018065 -0.009865141 0.0012376563 0.016144637 -0.009272817
0.02770229 0.031150308 0.0111816265 0.016901081 -0.00052917725 -0.0047973776 -0.00909827 -0.0049736025
-0.0025082524 -0.002593393 0.008603047 -0.025250185 -0.008706433 -0.0018032844 -0.013342606 -0.017413504
-0.006424115 -0.01587223 0.011739251 0.020824056 0.012891893 0.0009923319 0.0012061131 0.0075017954
-0.017355898 0.0038174978 -0.001738807 0.0036112969 0.024653586 -0.015613453 -0.00024562652 -0.007341235
0.010631575 0.008195075 0.0049447753 -0.012702476 0.000456843 0.011174809 0.003362002 -0.00722906
-0.020110754 -0.026391821 0.0013199142 -0.010618452 -0.024138339 0.02251938 0.006389285 0.0031527327
-0.0064668083 -0.022444839 -0.006303677 0.0016576533 0.010819262 0.014555011 -0.011121635 0.00767836
-0.0009854237 0.017647455 -0.015227482 -0.0006132192 0.015606105 -0.0042440374 -0.009818047 0.0112523455
-0.024196604 0.012925845 0.007989684 2.005598e-05 0.021424547 0.003495881 0.0026947372 0.0060142833
-0.0042756847 -0.00403058 -0.014720721 0.01076259 -0.017628131 -0.012530142 -0.004246226 -0.00298479
0.0058786334 0.0162824 0.000546994 0.0007346532 -0.021640629 0.011032479 0.0021732445 -0.0115024205
0.0026241147 -0.016746927 0.024680374 0.0073751067 -0.020260116 -0.013231523 0.023115171 -0.013206883
0.004601036 0.0009664074 0.010497011 -0.010978632 -0.007346165 0.014244303 0.0007805526 -0.0038996802
0.0043442636 -0.011005621 0.0020155844 -0.0037460271 0.017158872 0.0011040526 -0.0012182825 0.009072313
-0.011424837 -0.010906739 -0.005204787 0.000573499 0.008449228 0.0005766512 0.0027040837 0.005050347
-0.0061898255 0.012496008 -0.003810179 -0.025214788 0.00760983 -0.001566435 -0.00595067 -0.0065089604
-0.02786591 -0.00033186938 -0.011837899 -0.007930722 -0.0065000113 0.017058527 -0.002346325 0.02612728
0.005362747 -0.018709062 -0.02026533 0.0058922484 -0.016809378 0.0030620988 -0.008297189 -0.014159508
0.00031522926 -0.0016548922 5.21713e-05 0.015653409 0.01730291 -0.010099387 0.012245925 -0.013158159
-0.0132090105 -0.013524041 0.015713353 0.0015186216 -0.004105356 -0.009469166 -0.016762365 0.0008137314
-0.01082032 -0.00041373275 -0.010410278 0.014868573 0.001626974 -0.00958958 -0.0011961631 -0.0020690279
0.013427428 0.0033737964 0.00879065 0.0069470904 0.006710528 0.003292244 -0.0121831605 -2.8875565e-05
0.00047761435 0.002836033 0.012607085 0.0010312783 -0.020467898 0.005051399 0.006588134 0.009588584
-0.008268992 -0.003240467 -0.01596416 0.0034176095 -0.0071930797 -0.0018869342 -0.055766996 0.014438932
0.0015211756 0.013983842 -0.00012621396 0.017691642 0.01580816 -0.00704489 -0.0052155084 0.008827314
0.018632667 -0.006353183 -0.025154572 -0.020803923 -0.012598261 -0.024732595 0.00030114327 -0.0026940734
-0.015193879 0.008600842 -0.007438115 0.002131145 0.0016039183 -0.013328677 0.018418137 0.007931389
0.019175664 0.002532696 -0.006098169 0.010153346 -0.000283569 0.012110873 0.011884243 0.0040282067
-0.018687345 0.0021066766 0.006626142 -0.009796022 0.012512643 0.0049188547 -0.008878356 -0.00867589
-0.004441563 -0.006207489 0.025129402 -0.013052073 0.0074781533 -0.007399514 -0.0059164725 0.019825105
00000000: 120b a6bc 553a 843b 114b 89bc 74fb bebb
00000010: 1f4a c9ba 504d 593c e20d cdbc 2be7 563b
00000020: 84ee 0aba 805f b3ba 0fec cd3b 16ea 47bc
00000030: 66a1 21bc db38 a23a c241 843c 03ed 17bc
00000040: eaef e23c ee2e ff3c 2433 373c 2374 8a3c
00000050: 7cb8 0aba 5233 9dbb e910 15bc 9af9 a2bb
00000060: 7e61 24bb eaf5 29bb cbf3 0c3c 7ad9 cebc
00000070: 6da5 0ebc 2f5c ecba f29a 5abc c4a6 8ebc
00000080: 6281 d2bb 7b06 82bc fd55 403c 3697 aa3c
00000090: 8538 533c 2211 823a 7116 9e3a 9fd1 f53b
000000a0: f52d 8ebc fc2e 7a3b aee8 e3ba 82ab 6c3b
000000b0: 51f6 c93c 92cf 7fbc 6fc7 80b9 be8e f0bb
000000c0: 0f30 2e3c a344 063c c807 a23b 0c1e 50bc
000000d0: 6e84 ef39 8c16 373c 0955 5c3b c0e1 ecbb
000000e0: 4fbf a4bc a933 d8bc f900 ad3a 04f9 2dbc
000000f0: c4bd c5bc 907a b83c 355d d13b 149e 4e3b
00000100: 85e7 d3bb 3dde b7bc 138f cebb 9d45 d93a
00000110: 4643 313c 2478 6e3c 8537 36bc c19a fb3b
00000120: 5529 81ba 6591 903c b07c 79bc 72c0 20ba
00000130: c0b0 7f3c 9111 8bbb e0db 20bc c25b 383c
00000140: f537 c6bc ecc6 533c 2ae7 023c e43d a837
00000150: 8882 af3c 271b 653b 309a 303b 7713 c53b
00000160: 0b1b 8cbb f512 84bb 2e2f 71bc 9355 303c
00000170: df68 90bc 3a4b 4dbc ed23 8bbb 779c 43bb
00000180: 8da1 c03b ab62 853c 2564 0f3a be95 403a
00000190: b047 b1bc 92c1 343c fe6c 0e3b a674 3cbc
000001a0: 57f9 2b3b da30 89bc 7f2e ca3c e1aa f13b
000001b0: 8bf8 a5bc 08c9 58bc 075c bd3c af61 58bc
000001c0: 4ac4 963b 8156 7d3a a8fb 2b3c b8df 33bc
000001d0: 19b8 f0bb f060 693c 009e 4c3a c791 7fbb
000001e0: 535a 8e3b ec50 34bc e517 043b e87f 75bb
000001f0: c390 8c3c dcb5 903a c7ae 9fba 0aa4 143c
00000200: 3d2f 3bbc 2eb2 32bc eb8c aabb de56 163a
00000210: a16e 0a3c 682a 173a ff36 313b 627d a53b
00000220: 05d4 cabb 0ebc 4c3c 32b4 79bb 3e8f cebc
00000230: e15b f93b d650 cdba d7fd c2bb 1e49 d5bb
00000240: 0d47 e4bc c1fe adb9 bff3 41bc dcef 01bc
00000250: 0cfe d4bb 53be 8b3c cdc4 19bb e108 d63c
00000260: fbb9 af3b bf43 99bc 7a03 a6bc c313 c13b
00000270: d2b3 89bc 7ead 483b eff0 07bc 48fd 67bc
00000280: 5b45 a539 f8e8 d8ba 82d2 5a38 943b 803c
00000290: d5be 8d3c e677 25bc 22a3 483c 5295 57bc
000002a0: 9b6a 58bc f093 5dbc 4ab9 803c 7c0c c73a
000002b0: 3986 86bb 9024 1bbc 3a51 89bc 9750 553a
000002c0: b647 31bc 45ea d8b9 df8f 2abc 519b 733c
000002d0: 3040 d53a 9d1d 1dbc 93c8 9cba 8798 07bb
000002e0: b7fe 5b3c e91a 5d3b a906 103c 6ba4 e33b
000002f0: fde3 db3b b0c2 573b e19b 47bc ce39 f2b7
00000300: 5068 fa39 bddc 393b f28d 4e3c f52b 873a
00000310: 4bac a7bc 3586 a53b 46e1 d73b 7019 1d3c
00000320: ab7a 07bc 045e 54bb 45c7 82bc f9f9 5f3b
00000330: edb3 ebbb 0153 f7ba ef6b 64bd 4591 6c3c
00000340: 2f62 c73a 7c1c 653c 4d58 04b9 10ee 903c
00000350: 1d80 813c d2d8 e6bb dbe6 aabb 70a0 103c
00000360: 89a3 983c 5d2e d0bb f610 cebc fd6c aabc
00000370: f068 4ebc 039c cabc c4e2 9d39 0d8f 30bb
00000380: bfef 78bc 8cea 0c3c 6ebb f3bb aeaa 0b3b
00000390: 913a d23a 8660 5abc a2e1 963c a8f2 013c
000003a0: 4816 9d3c 96fb 253b 26d3 c7bb 385a 263c
000003b0: fdab 94b9 af6c 463c 21b6 423c 0cff 833b
000003c0: 3416 99bc 2b10 0a3b 1c20 d93b 7f7f 20bc
000003d0: d401 4d3c 582e a13b 8676 11bc 5225 0ebc
000003e0: 888a 91bb 3168 cbbb 2ddc cd3c 5dd8 55bc
000003f0: 4c0b f53b 9f77 f2bb f8de c1bb 4268 a23c

network_body._body_endoder.seq_layers.0.bias f4 [256]
-0.013436179 -0.0014980092 -0.0026451182 -0.007641713 -0.0015570192 -0.0035933962 -0.001504532 -0.002131589
0.0063694394 0.0015443541 -0.0053543802 -0.003877984 -0.0062088193 -0.00814589 -0.005647389 -0.004700238
0.0018400968 -0.0033778124 -0.00412649 -0.0018670791 -0.0041819504 0.000868358 0.0029135616 -0.0023347554
-0.0077054184 -0.004090787 -0.0037305313 -0.0043047774 -0.0024350856 -0.003776399 -0.005029865 -0.004346916
-0.004867147 0.0017676374 0.0009738791 -0.0038217132 0.0033143668 -0.0040321825 -0.00183321 -0.003719379
-0.0007099762 0.0029524225 6.713418e-05 -0.0006481503 0.00010648911 -0.003428614 -0.0041492227 -0.002214148
0.0036383262 -0.00096451 -0.0035267607 -0.0033645998 -0.0018059397 -0.007663745 0.009388699 -0.002792563
-0.0013889353 0.005622933 -0.0045632133 -0.0059208954 -0.0047215214 0.00024246512 -0.009250986 -0.0049646175
-0.0004207855 -0.007433652 -0.009019136 0.008983854 -0.004783604 0.0017314159 -0.0010588373 -0.0027368567
-0.0028211798 -0.004333111 0.0033395856 -0.00437886 0.0035024201 -0.0044963937 -0.0063039055 -0.0032482436
0.00060667476 -0.0060206014 -0.0045424635 -0.0064120097 0.0022896125 0.0038500335 -0.0005975307 -8.188714e-05
-0.0017146685 0.00079030584 0.0063795536 0.0011103163 -0.0019244725 0.0121393725 -0.0021390875 -0.0013709107
0.0006042578 -0.0076455153 -0.0070650987 -0.011351317 -0.0029493996 0.0011345034 -0.0009129772 0.0031928238
-0.0045514368 -0.010733231 -0.003070236 -0.0073216865 -0.004986929 -0.009810187 -0.0027205194 -3.0154468e-05
-0.0069207107 0.004193857 -0.0011455755 -0.0015912863 -7.418257e-05 0.0031531851 0.0109982435 -0.0038409159
-0.0006323399 -0.00017534883 -0.0019640941 0.0010818547 -0.0030751994 0.0022552856 -0.007270653 -0.0006785377
-0.0066649998 -0.0020617973 -0.0028591005 0.00068155886 -0.0027498421 -0.0077102506 -0.0035826848 0.0056033973
-0.0035486452 -0.0029831487 0.0037316543 -0.00039555997 -0.008802708 -0.005931198 -0.0043186573 -0.004272563
0.0026558223 -0.00065916387 -0.0023372793 -0.0010089658 -0.0061711785 -0.0027965414 -0.005616308 -0.0033378426
-0.0034635768 -0.008738972 -0.00068235694 -0.004583717 -0.0022828826 -0.0030917411 0.00044730867 0.00013789447
-0.0030640883 -0.00031999176 -0.007901306 -0.00089721865 0.00012739254 -0.0035190703 0.007932271 -0.004028649
-0.012310247 0.0029761314 -0.0036069157 -0.01133282 0.0016175655 0.0036085541 -0.007529378 -0.005258905
0.0036046356 -0.007777667 -0.0025419248 -0.004016776 -0.009300478 8.8485955e-05 0.0046599964 -0.00796546
-0.004742115 -0.0019559017 -0.0068329605 0.0012799252 0.0008595103 -0.0016989863 -0.0054650046 -0.0048719635
-0.000306283 -0.0058086272 -0.0018833745 -0.0009745228 -0.004528403 0.0021276316 -0.0027701596 -0.0026698401
0.00091346574 -0.004734951 -0.0025379953 -0.005086652 0.002485838 -0.0023686418 -0.0062883077 -0.0019000191
0.008536966 -0.00015673375 0.00045403317 -0.002358879 -0.004538184 -0.0005406638 -0.0067133307 0.0029849994
-0.012547132 -0.0033453896 -0.0015599952 0.0039599016 0.0050673313 0.0060222517 -0.0047988207 -0.0028150443
-0.0053297034 -0.0010246129 -0.008614161 0.0130835865 -0.0031006678 -0.007193364 -0.00382827 -0.009111122
-0.004966078 -0.0004911958 -0.006853514 0.009334739 -0.0063078003 -0.0013063942 -0.006094183 -0.003522322
-0.00036997625 -0.0036697 -0.010489343 0.00023955171 -0.0033481335 -0.0033404285 0.0033129617 -0.0008279579
-0.012834206 -0.0062161335 -0.0028590718 -0.004007077 0.0067728725 0.0032681765 -0.0075428947 0.0025240108
00000000: 6b23 5cbc d958 c4ba b859 2dbb 5667 fabb
00000010: e514 ccba 2f7f 6bbb b733 c5ba 21b2 0bbb
00000020: bbb6 d03b ed6b ca3a cc73 afbb c625 7ebb
00000030: 5a73 cbbb 5776 05bc bc0d b9bb 7404 9abb
00000040: 672f f13a 4a5e 5dbb 8237 87bb c7b8 f4ba
00000050: be08 89bb 85a2 633a 74f1 3e3b b202 19bb
00000060: bc7d fcbb 020c 86bb ee7b 74bb 170f 8dbb
00000070: f595 1fbb 767d 77bb 91d1 a4bb 9370 8ebb
00000080: 977c 9fbb 12b0 e73a ec4b 7f3a b575 7abb
00000090: d935 593b 6620 84bb 5248 f0ba d3c0 73bb
000000a0: b21d 3aba 6e7d 413b 63ca 8c38 a1e8 29ba
000000b0: e852 df38 99b2 60bb 34f6 87bb 3d1b 11bb
000000c0: fc70 6e3b 2cd7 7cba 3a21 67bb 9e80 5cbb
000000d0: 48b5 ecba 2720 fbbb 0fd3 193c 6f03 37bb
000000e0: ef0c b6ba 9540 b83b 0287 95bb 1204 c2bb
000000f0: feb6 9abb 3c3e 7e39 7391 17bc 3bae a2bb
00000100: e09c dcb9 fe95 f3bb 00c5 13bc 0431 133c
00000110: c7bf 9cbb adf0 e23a afc8 8aba d65c 33bb
00000120: 8be3 38bb c5fc 8dbb f3dc 5a3b 8a7c 8fbb
00000130: dc88 653b 7c56 93bb fe90 cebb 7ce0 54bb
00000140: 4109 1f3a 7748 c5bb f2d8 94bb d61b d2bb
00000150: 530d 163b d850 7c3b 9ba3 1cba d3ba abb8
00000160: babe e0ba 872c 4f3a 930b d13b 0888 913a
00000170: 953e fcba 38e4 463c ef2f 0cbb 21b0 b3ba
00000180: 0e67 1e3a 3b87 fabb 5882 e7bb e0fa 39bc
00000190: b74a 41bb 9eb3 943a dd54 6fba b23e 513b
000001a0: 3824 95bb 6fda 2fbc 0336 49bb c2ea efbb
000001b0: 6469 a3bb e8ba 20bc be4a 32bb 3af4 fcb7
000001c0: 21c7 e2bb 9f6c 893b 2327 96ba b592 d0ba
000001d0: 7792 9bb8 aba5 4e3b fa31 343c e0b7 7bbb
000001e0: 9dc3 25ba d8dd 37b9 08b8 00bb 05cd 8d3a
000001f0: 4989 49bb 6acd 133b a83e eebb e5df 31ba
00000200: 1266 dabb 381f 07bb bf5f 3bbb a4aa 323a
00000210: b236 34bb 45a6 fcbb 7acb 6abb b49c b73b
00000220: 6390 68bb ee80 43bb c58e 743b 2963 cfb9
00000230: 3c39 10bc 7f5a c2bb 8683 8dbb db00 8cbb
00000240: 4e0d 2e3b bdcb 2cba 0a2d 19bb 463f 84ba
00000250: 9937 cabb 2e46 37bb 0209 b8bb b5bf 5abb
00000260: 2dfd 62bb e82d 0fbc 33e0 32ba 0133 96bb
00000270: 6a9c 15bb cf9e 4abb c184 ea39 c497 1039
00000280: dfce 48bb 91c4 a7b9 7b74 01bc 5333 6bba
00000290: ad94 0539 34a0 66bb 5bf6 013c c202 84bb
000002a0: ebb0 49bc 330b 433b 0162 6cbb 4bad 39bc
000002b0: 7e04 d43a 7e7d 6c3b 00b9 f6bb e452 acbb
000002c0: c03b 6c3b cddb febb 6c96 26bb 299f 83bb
000002d0: 0861 18bc 8991 b938 e2b2 983b 9081 02bc
000002e0: be63 9bbb 962e 00bb 07e7 dfbb 2ac3 a73a
000002f0: c350 613a 85b0 deba c813 b3bb fea4 9fbb
00000300: 9c94 a0b9 4c56 bebb 90db f6ba 1e77 7fba
00000310: ff62 94bb bc6f 0b3b 918b 35bb 7cf8 2ebb
00000320: a675 6f3a a627 9bbb 7f54 26bb eead a6bb
00000330: 71e9 223b 373b 1bbb 260e cebb 100a f9ba
00000340: a1de 0b3c e558 24b9 4d0b ee39 6c97 1abb
00000350: 0cb5 94bb 55bb 0dba 80fb dbbb fb9f 433b
00000360: 7c92 4dbc 533e 5bbb c178 ccba 10c2 813b
00000370: db0b a63b 4f56 c53b 6d3f 9dbb 9b7c 38bb
00000380: cba4 aebb 4e4c 86ba 6922 0dbc 8a5c 563c
00000390: 9334 4bbb 50b6 ebbb b6e3 7abb d146 15bc
000003a0: 7bba a2bb 98c3 00ba 7193 e0bb bcf0 183c
000003b0: aab1 cebb 513b abba b6b1 c7bb c2d6 66bb
000003c0: 5ff9 c1b9 597f 70bb 7edb 2bbc 2c30 7b39
000003d0: 5c6c 5bbb 17eb 5abb 461e 593b 500b 59ba
000003e0: 9046 52bc b5b0 cbbb 445f 3bbb cc4d 83bb
000003f0: f9ee dd3b e72e 563b 632a f7bb e069 253b

network_body._body_endoder.seq_layers.0.weight f4 [256, 132]
0.050662804 -0.04229896 0.08658235 -0.030319355 -0.20091897 0.04471385 -0.2855 0.062187847
-0.04512202 -0.05382477 0.017960781 -0.07081029 0.09670331 -0.20062467 0.103901945 0.049258593
0.037233107 0.07388484 -0.050509848 0.117860965 -0.10197722 0.23961762 -0.08882039 0.24249041
-0.11217043 -0.004433728 0.024358142 0.08306587 0.025818203 0.06595219 0.028591836 -0.056195315
-0.023594743 0.059999734 0.07821284 -0.06207969 -0.05538554 0.03256696 -0.06134569 0.07453528
0.004192744 -0.010230177 -0.09562287 -0.023043523 0.035092473 -0.020461481 0.02790431 0.10325736
-0.09863032 -0.035480767 -0.016407948 -0.07487955 0.00062472187 0.13893521 -0.010376792 0.016949696
0.03406808 -0.05189815 0.0112217385 -0.0012150957 -0.027775355 0.0294794 0.060365684 0.12748562
-0.077284366 -0.08019094 0.14942414 0.17071739 -0.07386819 0.061997563 0.1103746 0.049151856
0.0060201082 -0.08033085 0.023239156 -0.19820775 0.14372806 -0.07251953 -0.16155699 0.0071841744
-0.20872097 -0.06389591 0.012228449 0.119058676 -0.0021930858 0.08174226 0.13411117 -0.095089845
-0.04084903 0.04297248 -0.022020876 0.037867982 -0.08748607 0.103834644 -0.044179726 -0.16130151
0.013271812 0.013977897 0.047061253 0.091010794 0.051405344 0.06440067 -0.1589365 -0.10913727
-0.028039152 0.018055083 -0.018866435 0.04130992 0.18178834 -0.13086796 0.10337898 -0.035295635
0.04263975 0.08126913 -0.18245085 0.024094418 0.061637603 0.03093741 0.099486075 0.0007672259
0.08615289 -0.0023785364 -0.1358391 0.11691819 -0.09475162 -0.3071554 -0.04200208 -0.010063288
0.09106705 0.020676766 0.017132627 -0.12021941 -0.05412728 -0.02014512 0.24218482 0.11912038
-0.09406434 -0.051309638 0.049540468 0.047474623 0.028149957 -0.094988495 0.08429702 0.013992065
0.11126791 0.15846543 -0.027975548 0.0021877647 0.087990694 -0.04560881 -0.010373926 -0.08303385
-0.020639323 -0.03781777 0.067546465 0.04405851 -0.05470894 0.006837538 -0.08121737 -0.0559845
-0.082252994 0.07977731 -0.0892822 -0.07816212 -0.08077209 -0.06570594 -0.015496153 -0.049910195
0.15445408 -0.09426901 -0.076673135 -0.13125029 -0.053399365 0.16303056 -0.018401463 -0.07540725
-0.03371876 0.051345922 0.13385402 0.119257614 0.040117584 0.053244796 0.02156562 0.14195578
-0.14252478 -0.015970927 0.12615222 -0.029216727 0.15443029 0.0829126 0.060971703 -0.16651882
-0.10364482 0.08773409 -0.083607115 -0.02341402 0.17623839 0.08593296 0.062224906 0.07616523
-0.011675071 -0.076892644 0.12791395 0.09710294 -0.043899927 -0.025835808 0.021354435 -0.19626279
-0.087806694 0.018589245 -0.08793749 0.1294968 0.032061778 -0.0077982335 0.01285188 -0.056811012
0.060269564 -0.08264424 0.059407182 0.12227509 -0.011963103 -0.1489947 -0.041385144 0.08024295
0.03572722 0.019735679 -0.03889129 -0.059209555 -0.026163585 0.061541393 0.015292201 0.07686838
-0.17172197 0.1836214 0.06579054 0.026872642 0.028691115 0.012321379 -0.11754724 0.03136858
-0.14408357 0.037237898 -0.036035024 0.0800925 0.0067989966 -0.05274413 -0.11133797 0.04222587
-0.023735797 0.13142183 -0.04378514 0.012566132 0.037081324 -0.023710059 0.24076529 -0.039124798
00000000: cd83 4f3d ad41 2dbd 1652 b13d 4c60 f8bc
00000010: b4bd 4dbe df25 373d 0e2d 92be afb8 7e3d
00000020: ded1 38bd 5d77 5cbd 7d22 933c fc04 91bd
00000030: 630c c63d 8e70 4dbe 8bca d43d 61c3 493d
00000040: be81 183d ef50 973d 6ae3 4ebd 1761 f13d
00000050: 6fd9 d0bd 525e 753e 77e7 b5bd 684f 783e
00000060: 9cb9 e5bd ce48 91bb ba8a c73c 701e aa3d
00000070: b280 d33c f111 873d 6d39 ea3c 0f2d 66bd
00000080: c349 c1bc 48c2 753d 0e2e a03d 4647 7ebd
00000090: f3db 62bd ef64 053d 9e45 7bbd f4a5 983d
000000a0: 4963 893b 799c 27bc ecd5 c3bd c5c5 bcbc
000000b0: 20bd 0f3d d69e a7bc 9497 e43c 9878 d33d
000000c0: b1fe c9bd 4854 11bd f669 86bc 735a 99bd
000000d0: 60c4 233a 0845 0e3e 6c03 2abc 17da 8a3c
000000e0: f98a 0b3d 2893 54bd 62db 373c d943 9fba
000000f0: 2489 e3bc c87e f13c 0242 773d 978b 023e
00000100: 4447 9ebd 263b a4bd a402 193e 8ad0 2e3e
00000110: 3548 97bd 28f1 7d3d 140c e23d 7553 493d
00000120: 5444 c53b 8084 a4bd 0b60 be3c f9f6 4abe
00000130: 732d 133e 1f85 94bd 326f 25be 3969 eb3b
00000140: f3ba 55be dcdb 82bd d559 483c 09d5 f33d
00000150: e0b9 0fbb 7c68 a73d 7054 093e 77be c2bd
00000160: 5051 27bd e903 303d 2065 b4bc 751b 1b3d
00000170: e62b b3bd 42a7 d43d cdf5 34bd 392c 25be
00000180: 0472 593c 8d03 653c 4dc3 403d de63 ba3d
00000190: 698e 523d 80e4 833d 40c0 22be 5c83 dfbd
000001a0: 5db2 e5bc 41e8 933c c88d 9abc 9734 293d
000001b0: b926 3a3e 4002 06be 5cb8 d33d 2892 10bd
000001c0: 05a7 2e3d 6e70 a63d 65d4 3abe a861 c53c
000001d0: b677 7c3d 7470 fd3c 5bbf cb3d a91f 493a
000001e0: ed70 b03d 38e1 1bbb 6819 0bbe ce72 ef3d
000001f0: 230d c2bd 7943 9dbe 5f0a 2cbd 7de0 24bc
00000200: 5d81 ba3d 5262 a93c b959 8c3c 9835 f6bd
00000210: 91b4 5dbd 6107 a5bc 4cff 773e 63f5 f33d
00000220: cea4 c0bd 0e2a 52bd f2ea 4a3d c074 423d
00000230: bd9a e63c 5489 c2bd eba3 ac3d f93e 653c
00000240: 6ee0 e33d c344 223e fa2c e5bc 9a60 0f3b
00000250: 7734 b43d 4ed0 3abd 66f7 29bc a70d aabd
00000260: cc13 a9bc cee6 1abd cd55 8a3d b276 343d
00000270: 7b16 60bd 6d0d e03b 4b55 a6bd 0150 65bd
00000280: 4274 a8bd 4962 a33d 96d9 b6bd 7613 a0bd
00000290: d66b a5bd d690 86bd 94e3 7dbc a26e 4cbd
000002a0: 3629 1e3e 1c10 c1bd ce06 9dbd 7a66 06be
000002b0: 4bb9 5abd 7cf1 263e aabe 96bc 1e6f 9abd
000002c0: af1c 0abd 1a50 523d 0711 093e 563d f43d
000002d0: 5652 243d 3717 5a3d 62aa b03c db5c 113e
000002e0: 04f2 11be 76d5 82bc 0c2e 013e eb57 efbc
000002f0: f922 1e3e 15ce a93d 77bd 793d e983 2abe
00000300: bc43 d4bd eead b33d 353a abbd c2ce bfbc
00000310: d677 343e 9ffd af3d 8bdf 7e3d 84fc 9b3d
00000320: cc48 3fbc e479 9dbd e0fb 023e e8dd c63d
00000330: 69d0 33bd 9ea5 d3bc 7fef ae3c 1df9 48be
00000340: ffd3 b3bd 7948 983c 9218 b4bd cf9a 043e
00000350: 3653 033d 5388 ffbb b190 523c aab2 68bd
00000360: 38dd 763d 6241 a9bd f254 733d 5d6b fa3d
00000370: e400 44bc 1192 18be 7883 29bd 6a56 a43d
00000380: b556 123d b8ac a13c 794c 1fbd b885 72bd
00000390: 0455 d6bc d412 7c3d 248c 7a3c 2b6d 9d3d
000003a0: e2d7 2fbe 4007 3c3e 31bd 863d 0424 dc3c
000003b0: a109 eb3c 9cdf 493c 9bbc f0bd 577c 003d
000003c0: a58a 13be c486 183d 7699 13bd 8907 a43d
000003d0: 1eca de3b 3b0a 58bd 2905 e4bd 09f5 2c3d
000003e0: 9371 c2bc 7293 063e 0c58 33bd 2de2 4d3c
000003f0: 96e2 173d 993b c2bc 2d8b 763e 5341 20bd

network_body._body_endoder.seq_layers.2.bias f4 [256]
-0.0012353706 0.0076876874 -0.0009699417 -0.00052590476 0.0033323483 -0.005149642 -0.002966086 -0.002106561
-0.0031509039 -0.0016922009 -0.0026883013 -0.0017628969 0.0013163065 -0.0035576208 -0.0049131964 -0.0022362797
8.0906284e-05 -0.0010219206 0.008687193 -0.009936789 -0.0058167744 0.00033170776 -0.0054771896 -0.007300263
-0.00667458 0.00018117626 -0.00926971 0.0017352629 -0.0015498061 -0.0012483537 -0.00089665916 0.0055716727
-0.0099013 0.0006260364 0.0048975274 0.0022449025 -0.0015893015 -0.0056655062 -0.0008142445 -0.0029528416
0.0005267698 -0.008451312 0.0025518409 -0.005524672 -0.0027012413 0.005228261 -0.0016015148 -0.009674518
-0.0023091284 0.00122667 -0.0061072554 -0.004088909 -0.002647997 0.0010909204 -0.0007703765 -0.0024336695
9.175867e-05 -0.0015179189 0.0006659178 -0.004981474 0.0007930009 0.0007010942 -0.0021146724 -0.002223693
-0.008474338 0.0014370362 -3.5678913e-05 -0.0031196766 0.00597775 -0.0022382971 -0.005991234 0.0027828144
-0.0036973334 0.00012032664 -0.004085021 -0.00473624 -0.00439847 -0.0030610103 -0.0014590215 -0.0015019666
-0.0071216375 0.0019425522 -0.005337391 -0.0032003103 0.008237723 -0.0047302074 -0.0047474937 -0.0023161457
-0.0049465294 0.007912559 -0.001906336 -0.0033525547 0.0037853923 0.00048425156 0.00055367796 -0.0030797352
-0.0066290344 -0.0037661493 -0.0020524424 -0.003351847 0.009699131 -0.007227271 -0.0016115936 -0.0018242892
-0.0034987663 -0.004420587 -0.0022357672 -0.0028730095 -0.0023457566 -0.006186982 -0.001598801 0.0008139127
-0.00023590401 -0.0042146654 -0.002181656 0.0010717617 0.00027121478 0.00492703 -0.0007259538 -0.007390619
-0.0018401813 -0.0024832543 -0.0057484573 -0.003622968 -0.008903797 -0.001251928 -0.004823894 4.6691217e-05
-0.0031829346 -0.0016334691 -7.806201e-05 -0.002615031 -0.0065531433 -0.010594677 -0.0045315796 -0.0019635793
0.0047653485 -0.006906507 0.00032573187 -0.0014676997 -0.0087010665 -0.0063898913 -0.0029053686 0.008576455
-0.008891797 0.0055870665 -0.0038589844 -0.0059966557 -0.0025594628 -0.0033842567 -0.0044075027 -0.001957037
-0.0005654512 -0.0035929854 -0.0019516896 -0.0026048175 -0.00075072394 0.010712128 -0.00020211565 -0.005097648
-0.0087295845 -0.0003922905 -0.005658069 0.00096124754 -0.0040683243 -0.0016446849 -0.0034485683 0.005544299
0.00085450214 -0.000247323 -0.0011897124 -0.00588445 -0.0012233756 -0.0014079605 -0.002974596 -0.004113066
0.0013378725 -0.005814847 0.000843155 -0.004929676 -0.0020474424 0.0036457917 -0.0019532728 0.0013367115
0.0015729268 -0.0038704015 -0.003430008 -0.0036425411 0.00032508085 -0.0036818134 -0.0075915935 -0.003627
0.0050943457 -0.0015464983 -0.002518411 -0.003519428 0.0007418503 -0.0040427158 -0.001380574 -0.0040352726
-0.0021089725 -0.0031671317 0.0012837392 -0.009444369 0.007740449 -0.003137717 -0.0035083226 -0.0036674
0.00050603115 0.005486178 -0.004720706 0.00027609878 -0.009436279 -0.00077868934 -0.0037534188 0.0011757056
-0.00013943265 -0.00069821236 0.00141534 -0.0014239933 0.0007571041 0.005421992 -0.008000492 -0.003492218
-0.0035399934 -0.004809545 0.0010893494 -0.0003187696 -0.0034921055 1.6072687e-05 -0.004808881 -0.003159598
-0.0034040448 -0.0019743517 -0.005677035 -0.0011432293 -0.0051820665 -0.0059154998 -0.0034448458 -0.0009594441
3.4532244e-05 -0.0005424528 0.0082890475 -0.0060918033 -0.008239175 -0.009059949 -0.00037476025 -0.0074407347
-0.0066052736 -0.007293678 -0.0039546588 -0.0077691604 -0.004558096 -0.00071014365 -0.0016175448 0.0031699617
00000000: 29ec a1ba ffe8 fb3b b043 7eba dfdc 09ba
00000010: 8763 5a3b 54be a8bb aa62 42bb 3b0e 0abb
00000020: 657f 4ebb d7cc ddba 362e 30bb 0111 e7ba
00000030: eb87 ac3a f926 69bb e1fe a0bb 8c8e 12bb
00000040: 3bac a938 f7f1 85ba ba54 0e3c eacd 22bc
00000050: a49a bebb 10e9 ad39 ff79 b3bb 0b37 efbb
00000060: 6fb6 dabb 22fa 3d39 fbdf 17bc c371 e33a
00000070: dd22 cbba cd9f a3ba c70d 6bba 9492 b63b
00000080: 1039 22bc 971c 243a 707b a03b 371f 133b
00000090: 1c50 d0ba b6a5 b9bb 0673 55ba 7684 41bb
000000a0: ec16 0a3a 5f77 0abc c93c 273b 4f08 b5bb
000000b0: 4f07 31bb d551 ab3b ebe9 d1ba df81 1ebc
000000c0: bf54 17bb 37c8 a03a 5f1f c8bb 41fc 85bb
000000d0: 058a 2dbb 37fd 8e3a 17f3 49ba 337e 1fbb
000000e0: 906e c038 e8f4 c6ba fd90 2e3a a23b a3bb
000000f0: 64e1 4f3a a3c9 373a 5196 0abb 61bb 11bb
00000100: f3d7 0abc ef5a bc3a f1a5 15b8 7d73 4cbb
00000110: 00e1 c33b 65b0 12bb 1d52 c4bb e15f 363b
00000120: f64e 72bb df57 fc38 a4db 85bb 7632 9bbb
00000130: 0a21 90bb 3b9b 48bb a33c bfba a3dd c4ba
00000140: a05c e9bb 3c9d fe3a 48e5 aebb 4cbc 51bb
00000150: 84f7 063c dbff 9abb dd90 9bbb 7aca 17bb
00000160: 7f16 a2bb aea3 013c 06de f9ba 89b6 5bbb
00000170: 5814 783b 25e3 fd39 b324 113a 62d5 49bb
00000180: 5f38 d9bb 80d1 76bb 4582 06bb a9aa 5bbb
00000190: 1be9 1e3c bed2 ecbb 1c3c d3ba fd1c efba
000001a0: 8f4b 65bb 92da 90bb f385 12bb 1a49 3cbb
000001b0: 44bb 19bb 2bbc cabb dc8e d1ba c25c 553a
000001c0: 005d 77b9 2d1b 8abb 1dfa 0ebb 5b7a 8c3a
000001d0: d531 8e39 ec72 a13b ef4d 3eba 012d f2bb
000001e0: 3d32 f1ba 18be 22bb 8e5d bcbb 516f 6dbb
000001f0: 3be1 11bc bc17 a4ba c111 9ebb 50d6 4338
00000200: c898 50bb 211a d6ba 39b5 a3b8 f160 2bbb
00000210: c0bb d6bb 4c95 2dbc a57d 94bb 65af 00bb
00000220: a426 9c3b fb4f e2bb fec6 aa39 d45f c0ba
00000230: eb8e 0ebc 4b62 d1bb ff67 3ebb 4284 0c3c
00000240: e6ae 11bc b613 b73b 04e7 7cbb 987f c4bb
00000250: a9bc 27bb 68ca 5dbb d06c 90bb a241 00bb
00000260: ca3a 14ba 4b78 6bbb d6cf ffba 96b5 2abb
00000270: 3bcc 44ba ec81 2f3c 02ef 53b9 2c0a a7bb
00000280: 8806 0fbc 57ac cdb9 5367 b9bb 3bfc 7b3a
00000290: 944f 85bb 7892 d7ba 6001 62bb f3ac b53b
000002a0: ab00 603a 22ab 81b9 20f0 9bba 58d2 c0bb
000002b0: ac59 a0ba 518b b8ba 71f1 42bb e6c6 86bb
000002c0: 8d5b af3a 798a bebb 2d07 5d3a 1f89 a1bb
000002d0: 622e 06bb 3cee 6e3b 7b02 00bb 9834 af3a
000002e0: aa2a ce3a 90a6 7dbb fcc9 60bb b3b7 6ebb
000002f0: 9d6f aa39 944a 71bb e7c2 f8bb f6b2 6dbb
00000300: 78ee a63b dfb3 caba ed0b 25bb 34a6 66bb
00000310: bb78 423a c278 84bb 60f4 b4ba 523a 84bb
00000320: b036 0abb a78f 4fbb 2443 a83a 8ebc 1abc
00000330: 98a3 fd3b 28a2 4dbb e3eb 65bb c358 70bb
00000340: 2da7 043a 66c5 b33b 27b0 9abb 5ac1 9039
00000350: 9f9a 1abc f520 4cba ebfb 75bb 221a 9a3a
00000360: ab34 12b9 3d08 37ba ee82 b93a 49a5 baba
00000370: 6578 463a f7aa b13b 7f14 03bc b2dd 64bb
00000380: 3cff 67bb 6399 9dbb 80c8 8e3a 8820 a7b9
00000390: cfdb 64bb d5d3 8637 d193 9dbb 4211 4fbb
000003a0: 6516 5fbb 2064 01bb 6c06 babb 69d8 95ba
000003b0: 53ce a9bb cfd6 c1bb ecc2 61bb 3483 7bba
000003c0: b7d6 1038 6433 0eba c9ce 073c c09d c7bb
000003d0: 9bfd 06bc 2e70 14bc 787b c4b9 68d1 f3bb
000003e0: 0d71 d8bb ceff eebb 1596 81bb 7194 febb
000003f0: 155c 95bb ef28 3aba cc03 d4ba 22bf 4f3b

network_body._body_endoder.seq_layers.2.weight f4 [256, 256]
0.009389172 -0.07368749 -0.069471404 0.04951911 -0.014473102 -0.0071769045 0.0248171 -0.032516073
0.100488715 0.04932942 0.041310888 0.010591106 -0.010549021 -0.018346779 0.040308107 0.0051157754
-0.07527168 0.09937869 -0.10005477 -0.10785538 0.061842237 -0.16786294 -0.011755688 0.099984735
0.10804755 0.051828694 0.045472175 0.04836299 -0.03526814 0.07973012 -0.13608651 -0.08296514
0.037370645 0.0046192463 -0.018719023 0.12429003 0.011473048 -0.014058452 -0.044140667 -0.101641595
-0.023908641 -0.031448916 -0.00811016 -0.027361035 0.09339138 -0.0043832776 -0.10004725 -0.13722739
0.040940583 -0.010869586 0.0053935642 -0.027907463 -0.009266482 -0.007868132 0.022430634 -0.009589852
-0.03385295 -0.056265898 -0.065606795 0.058095194 -0.025518544 0.0042480025 0.020398924 -0.06756547
-0.0060595577 0.08542673 -0.03343328 0.04887202 0.08918756 0.08748422 -0.021736324 -0.030105373
-0.031926166 -0.035584036 -0.053010363 0.07638597 0.07373829 -0.009913355 0.019524598 0.0010717926
0.039912097 0.063648015 -0.006724516 0.115364954 -0.0716702 0.16239017 -0.07201851 -0.054810543
-0.04112315 -0.018364768 -0.059741136 0.00091157085 0.065244354 0.011144541 0.008386432 0.07294381
0.053473502 -0.005349917 -0.08020898 -0.0068795895 -0.042767767 -0.0193719 -0.056288116 -0.0064542503
0.041796006 0.021307267 0.036215696 -0.017313635 0.059965968 0.064566195 0.17607425 -0.07066766
0.12916502 0.014557677 0.08339144 -0.07330004 -0.044071082 -0.02354041 0.11297433 0.007166003
-0.008495805 0.14255136 -0.012225785 0.07936648 0.042280193 0.06811523 0.07802142 -0.022195973
0.008289771 0.043768663 0.09428625 0.04982 0.04234495 0.10444839 -0.0488349 0.12268889
0.09941843 -0.13131954 -0.033786673 -0.0020323903 0.0020789162 0.036288265 -0.009912839 -0.1028453
0.029861027 -0.13674924 -0.020175636 0.026026526 0.05781094 0.038880084 -0.094279625 -0.057250954
0.037330028 0.053285033 0.0025526162 -0.003036536 -0.0024726205 0.08917731 0.034168527 0.049954057
0.010959992 0.042830035 -0.0037883942 0.051219232 -0.04093643 -0.004786864 0.0007872915 0.01654921
0.07622971 -0.017394576 -0.06913423 -0.07347852 -0.15410693 0.11920043 -0.025082286 0.014320503
-0.0134519385 0.12595253 0.0614084 0.07928627 0.11129423 -0.035298247 -0.08849888 -0.038149513
0.007912487 -0.083353706 0.09272926 -0.06298972 0.034467805 0.115521364 0.08784437 -0.12268476
-0.045653448 -0.0115314135 0.0362034 -0.087237954 0.0087352395 -0.027394079 0.030760335 0.041287884
-0.02027643 0.016677076 -0.039755866 -0.05676997 0.040787693 0.0021671948 0.048014056 0.021597194
-0.08667912 -0.042457826 -0.01521836 -0.026450654 0.041700214 -0.12412603 0.09618901 0.081932366
0.0023846212 -0.033153467 -0.0033212837 0.06608006 0.035407323 -0.020182215 -0.14515728 -0.058092225
-0.03967442 -0.02606461 0.047761958 0.096010186 0.115769856 -0.0580516 -0.008783243 0.09427059
-0.05083014 0.0343863 0.03620806 -0.033723794 -0.04027622 -0.05033812 -0.07618469 -0.027880596
-0.08679836 0.080292664 0.00020907827 0.021378582 -0.006418337 -0.06162071 -0.046767067 -0.0647065
0.047306936 -0.08053376 -0.093431264 0.027316157 0.04806929 -0.033765066 0.00678439 -0.0017520371
00000000: 0bd5 193c 77e9 96bd 0647 8ebd 8dd4 4a3d
00000010: 9720 6dbc 3d2c ebbb 3b4d cb3c 932f 05bd
00000020: 07cd cd3d a50d 4a3d 9b35 293d 5186 2d3c
00000030: cdd5 2cbc fc4b 96bc 1d1a 253d 3ca2 a73b
00000040: 0a28 9abd 0e87 cb3d 84e9 ccbd 48e3 dcbd
00000050: 494e 7d3d 43e4 2bbe ee9a 40bc ccc4 cc3d
00000060: 0948 dd3d 534a 543d 0841 3a3d 4518 463d
00000070: 5375 10bd 8c49 a33d 435a 0bbe a1e9 a9bd
00000080: f611 193d 0c5d 973b a358 99bc c58b fe3d
00000090: 73f9 3b3c 6c55 66bc d8cc 34bd 7829 d0bd
000000a0: 0edc c3bc 94d0 00bd 7ae0 04bc 4024 e0bc
000000b0: fb43 bf3d 99a1 8fbb 93e5 ccbd 5685 0cbe
000000c0: 50b1 273d 5916 32bc 7fbc b03b 319e e4bc
000000d0: 71d2 17bc 56e9 00bc 73c0 b73c c11e 1dbc
000000e0: 64a9 0abd 1277 66bd db5c 86bd 3af5 6d3d
000000f0: 440c d1bc d432 8b3b a51b a73c c45f 8abd
00000100: 418f c6bb 36f4 ae3d 56f1 08bd 072e 483d
00000110: f8a7 b63d ed2a b33d 6010 b2bc 8b9f f6bc
00000120: 03c5 02bd 91c0 11bd 6521 59bd 3f70 9c3d
00000130: 1a04 973d a06b 22bc 0df2 9f3c 647b 8c3a
00000140: de7a 233d e459 823d 5459 dcbb 7644 ec3d
00000150: d3c7 92bd 9c49 263e 717e 93bd 0581 60bd
00000160: c070 28bd b671 96bc 1fb3 74bd 7cf6 6e3a
00000170: d59e 853d 9897 363c 3f67 093c 9063 953d
00000180: 0807 5b3d 5b4e afbb 9b44 a4bd 2e6e e1bb
00000190: 412d 2fbd d2b1 9ebc 5e8e 66bd 2d7e d3bb
000001a0: 4a32 2b3d 948c ae3c e956 143d 53d5 8dbc
000001b0: e09e 753d 483b 843d cf4c 343e 35ba 90bd
000001c0: d643 043e 5383 6e3c 22c9 aa3d 551e 96bd
000001d0: e183 34bd d1d7 c0bc 165f e73d cad0 ea3b
000001e0: fd31 0bbc fcf8 113e a94e 48bc e58a a23d
000001f0: ff2d 2d3d ff7f 8b3d b2c9 9f3d 54d4 b5bc
00000200: d2d1 073c c546 333d 2619 c13d 0e10 4c3d
00000210: e671 2d3d 0ae9 d53d 1b07 48bd 5044 fb3d
00000220: e49b cb3d a178 06be e563 0abd da31 05bb
00000230: 6d3e 083b 01a3 143d 7669 22bc 8fa0 d2bd
00000240: 1d9f f43c fe07 0cbe 6047 a5bc 9535 d53c
00000250: 2acb 6c3d b940 1f3d ad15 c1bd fa7f 6abd
00000260: 5fe7 183d 6841 5a3d cb49 273b 9f00 47bb
00000270: b00b 22bb 98a2 b63d 4cf4 0b3d a09c 4c3d
00000280: 8a91 333c 8c6e 2f3d b546 78bb 42cb 513d
00000290: f5ac 27bd 20db 9cbb 3d62 4e3a 3592 873c
000002a0: 521e 9c3d 127f 8ebc 3f96 8dbd e87b 96bd
000002b0: 35ce 1dbe 5b1f f43d 5e79 cdbc 8ba0 6a3c
000002c0: 8565 5cbc b3f9 003e 6087 7b3d d760 a23d
000002d0: 3bee e33d e594 10bd e73e b5bd aa42 1cbd
000002e0: 60a3 013c 59b5 aabd d7e8 bd3d c100 81bd
000002f0: 1d2e 0d3d 7796 ec3d c0e7 b33d 2642 fbbd
00000300: 1cff 3abd 41ee 3cbc 044a 143d d0a9 b2bd
00000310: 401e 0f3c 8c69 e0bc 19fd fb3c 7c1d 293d
00000320: c11a a6bc 5d9e 883c 0cd7 22bd a187 68bd
00000330: ff10 273d 7f07 0e3b 63aa 443d 99ec b03c
00000340: d384 b1bd 42e8 2dbd 6e56 79bc 0baf d8bc
00000350: d8cd 2a3d ca35 febd befe c43d 28cc a73d
00000360: 4e47 1c3b eecb 07bd e5a9 59bb fc54 873d
00000370: 4507 113d 2c55 a5bc 1ca4 14be 1df2 6dbd
00000380: a581 22bd 7385 d5bc 0ba2 433d fda0 c43d
00000390: bf18 ed3d 84c7 6dbd 97e7 0fbc f010 c13d
000003a0: 4433 50bd a6d8 0c3d e74e 143d f621 0abd
000003b0: adf8 24bd 582f 4ebd b806 9cbd d965 e4bc
000003c0: 57c3 b1bd 7b70 a43d 053c 5b39 2322 af3c
000003d0: ea50 d2bb ff65 7cbd d38e 3fbd d784 84bd
000003e0: ebc4 413d e2ee a4bd e458 bfbd 22c6 df3c
000003f0: 4ee4 443d 3d4d 0abd 974f de3b 9ca4 e5ba
