results/MLDriver2/MLDriver/MLDriver-76389.onnx (onnx, 404427 bytes, 7 tensors)

action_model._continuous_distribution.log_sigma f4 [1, 3]
0.032227483 0.02611299 0.043582063
00000000: f700 043d e9ea d53c 1b83 323d

action_model._continuous_distribution.mu.bias f4 [3]
0.0035266168 -0.0017013092 -0.0011352393
00000000: d01e 673b 77fe deba 4fcc 94ba

action_model._continuous_distribution.mu.weight f4 [3, 256]
-0.004096803 0.0010925954 0.013055366 0.0134991845 0.0058096102 0.020828344 0.006977165 0.0021038996
-0.014285742 -0.00083897304 -0.0088023 -0.0032135062 0.00025235247 0.0062401453 0.0068958052 -0.0016584323
-0.0041673174 0.018342579 0.039711412 0.0074602743 0.003293414 0.011150211 -0.010473654 0.0064141518
0.020074064 0.009741451 -0.007821426 0.029611804 0.009196007 -0.005099488 0.0066978903 0.0053697336
0.00577982 0.0019576624 0.011081995 -0.007990007 0.0045731943 -0.002118679 0.008039257 -0.0028573456
0.011334876 0.018384108 0.01221766 0.00078879314 -0.0030212845 -0.011813511 0.016580336 0.0018255741
0.011022088 0.008955027 0.0025517717 -0.0148933735 -0.02070313 0.005057583 0.0044946885 0.006122924
0.0064585456 0.02153199 0.0030813878 -0.011016855 0.0026317737 -0.0017852283 -0.009340666 -0.02976918
0.0019580068 0.020734333 -0.004947427 0.008927549 0.035529394 0.0005560904 -0.000175782 -0.0002555229
0.0032054405 0.0027533674 -0.011313769 -0.01577889 0.008642309 0.0101272045 0.0060339333 -0.003951934
-0.013812409 -0.0066322032 -0.0025787323 0.006195445 0.008161599 0.009704642 0.022057552 0.016483484
-0.017550549 0.0021821777 0.014230623 0.009690514 -0.017399995 -0.00079394603 -0.0043012616 -0.014175673
-0.010694832 0.01041512 -0.0046604523 -0.008023751 -0.026929883 0.028179096 -0.014689215 0.009473162
-0.0041317465 0.03851871 0.027187226 -0.008450264 0.03900468 -0.0023137568 0.02722066 0.03742484
-0.010448586 -0.004511566 0.01971834 0.023001758 0.013778426 -0.0083448775 0.018167019 -0.00022885266
0.025022067 -0.004530876 0.02770621 0.013208111 0.01771993 0.0076164575 -0.0077758194 0.023591489
-0.01049374 -0.0072421944 -0.00017607657 0.01648579 0.005627931 0.020629954 0.027386047 0.00035629584
-0.0023281157 -0.010780853 0.017502252 -0.0006657179 0.0094206575 0.008119417 -0.011444536 -0.008140905
-0.010117292 0.012674694 0.0013268753 -0.00222021 -0.0030484782 0.042247925 0.04301938 -0.0023114067
0.018070487 0.0027349237 0.00028234994 0.0045058588 0.013077215 -0.00014551406 -0.02747717 0.00318985
-0.0038117226 0.00081424235 0.0014834837 0.018759718 0.016837334 0.015444845 -0.00676684 0.0017517526
0.0037004289 0.0014282028 0.0002378701 -0.0051940535 0.0015896583 0.0013097578 0.0058541973 0.009113219
0.0010782453 0.006640099 -9.447647e-05 0.03172958 0.001859616 0.011268706 0.006659387 0.001181172
-0.0046361475 0.0017168971 -0.017518317 0.0055183093 -0.019327223 0.0022469386 0.015024276 0.018825004
0.013473641 0.031595867 -0.012636331 0.013625831 -0.0013900913 0.031538624 0.007988668 -0.005863669
-0.0039779865 0.042829998 -0.0070243254 -0.011135272 0.013373338 0.0077403 0.014011852 0.0086160125
-0.0029654494 -0.0075528277 0.022301326 -0.021061629 -0.001239004 0.023748107 0.0021813307 -0.0015768724
0.019154927 -0.0010448127 -0.005612079 0.013360831 -0.0007199359 0.034129348 0.012748568 0.0067738984
0.0039752303 -0.008039682 -0.002367692 -0.008796189 -0.0044708923 -0.0041075796 0.014154169 0.009316339
0.0014780088 -0.0012897707 -0.003076263 0.021115514 -0.0113839 0.027955664 -0.01628148 0.0009833036
0.027440611 0.02031933 -0.0070313374 0.010998519 0.005261597 -0.002316248 -0.0034507315 -0.0048776106
0.011551542 0.007229446 0.0060946885 0.009736382 -0.00061535824 0.018257907 -0.0015645543 0.0050704028
00000000: 793e 86bb 6b35 8f3a 2de6 553c af2b 5d3c
00000010: 8b5e be3b 34a0 aa3c b4a0 e43b 94e1 093b
00000020: bf0e 6abc 87ee 5bba 8637 10bc b099 52bb
00000030: 2d4e 8439 227a cc3b 35f6 e13b c15f d9ba
00000040: fe8d 88bb 2d43 963c 6fa8 223d 5175 f43b
00000050: 51d6 573b 60af 363c b099 2bbc ce2d d23b
00000060: 5d72 a43c 9b9a 1f3c 7025 00bc 7494 f23c
00000070: d9aa 163c 9b19 a7bb fa79 db3b 97f4 af3b
00000080: a564 bd3b 204c 003b 4291 353c 85e8 02bc
00000090: bcda 953b 89d9 0abb 16b7 033c 4e42 3bbb
000000a0: eab5 393c 459a 963c 952c 483c 03c7 4e3a
000000b0: be00 46bb 758d 41bc 7cd3 873c 1a48 ef3a
000000c0: fd95 343c 1bb8 123c a03b 273b 5603 74bc
000000d0: 9c99 a9bc 15ba a53b 2e48 933b cfa2 c83b
000000e0: 35a2 d33b db63 b03c 1cf1 493b 0a80 34bc
000000f0: d679 2c3b 52fe e9ba 9809 19bc 7fde f3bc
00000100: e751 003b 0cdb a93c 071e a2bb db44 123c
00000110: 4587 113d 98c6 113a 1f52 38b9 b4f7 85b9
00000120: 5e12 523b d771 343b 635d 39bc bb42 81bc
00000130: 7998 0d3c 93ec 253c 4db8 c53b 3a7f 81bb
00000140: 714d 62bc f452 d9bb f3ff 28bb 2903 cb3b
00000150: 3ab8 053c 3800 1f3c 0ab2 b43c 5f08 873c
00000160: 2bc6 8fbc de02 0f3b 8f27 693c f6c4 1e3c
00000170: 6f8a 8ebc d120 50ba 99f1 8cbb 1541 68bc
00000180: 6039 2fbc 2ea4 2a3c b5b6 98bb 0d76 03bc
00000190: 0f9c dcbc d9d7 e63c 09ab 70bc 5235 1b3c
000001a0: 9a63 87bb cbc5 1d3d bfb7 de3c fa72 0abc
000001b0: 5fc3 1f3d 66a2 17bb ddfd de3c ca4a 193d
000001c0: 8c30 2bbc c2d5 93bb 5b88 a13c 2f6e bc3c
000001d0: e8be 613c f4b8 08bc 00d3 943c 2bf8 6fb9
000001e0: 14fb cc3c be77 94bb 22f8 e23c d566 583c
000001f0: 6329 913c 7a93 f93b 4dcc febb f042 c13c
00000200: f0ed 2bbc ee4f edbb 32a1 38b9 350d 873c
00000210: 826a b83b 2600 a93c b458 e03c 38cd ba39
00000220: 4d93 18bb 2da2 30bc e260 8f3c 9283 2eba
00000230: 1a59 1a3c 4e07 053c dd81 3bbc 6e61 05bc
00000240: 00c3 25bc 85a9 4f3c 8cea ad3a f180 11bb
00000250: fac8 47bb 290c 2d3d 1735 303d f87a 17bb
00000260: 8f08 943c 683c 333b 5e08 9439 e2a5 933b
00000270: d141 563c 2295 18b9 cd17 e1bc cd0c 513b
00000280: 18ce 79bb e172 553a 7471 c23a fbad 993c
00000290: 73ee 893c 600c 7d3c 5ebc ddbb 109b e53a
000002a0: e582 723b 8932 bb3a c56c 7939 e132 aabb
000002b0: 155c d03a 2eac ab3a 91d4 bf3b 9c4f 153c
000002c0: e953 8d3a 3095 d93b ab21 c6b8 e0f6 013d
000002d0: 5cbe f33a 61a0 383c fd36 da3b 8ed1 9a3a
000002e0: d3ea 97bb 8209 e13a 9382 8fbc efd2 b43b
000002f0: 2054 9ebc 6041 133b 6228 763c e536 9a3c
00000300: 8cc0 5c3c ab6a 013d 9d08 4fbc e13e 5f3c
00000310: b933 b6ba a52e 013d e7e2 023c 0524 c0bb
00000320: c559 82bb 826e 2f3d 502c e6bb b770 36bc
00000330: d81b 5b3c 58a2 fd3b f891 653c 2d2a 0d3c
00000340: fc57 42bb b67d f7bb 45b1 b63c 7089 acbc
00000350: 1366 a2ba 648b c23c a8f4 0e3b 0faf ceba
00000360: cbea 9c3c 19f2 88ba 88e5 b7bb 63e7 5a3c
00000370: 15ba 3cba 37cb 0b3d 5fdf 503c 94f7 dd3b
00000380: a642 823b dfb8 03bc 482b 1bbb e41d 10bc
00000390: 9080 92bb e098 86bb e3e6 673c 8fa3 183c
000003a0: bfb9 c13a 860d a9ba 219b 49bb 71fa ac3c
000003b0: 8a83 3abc 4703 e53c bd60 85bc 32e2 803a
000003c0: 22cb e03c b974 a63c 2267 e6bb 2233 343c
000003d0: 7a69 ac3b 31cc 17bb ab25 62bb 5dd4 9fbb
000003e0: ae42 3d3c fde4 ec3b f4b5 c73b 5985 1f3c
000003f0: fe4f 21ba 9b91 953c bb11 cdba 9f25 a63b

network_body._body_endoder.seq_layers.0.bias f4 [256]
-0.0008790004 0.0030076636 -0.004143428 -0.007876777 0.023265842 -0.0105265835 -0.010596469 0.013872866
-0.01026969 -0.005610885 -0.012959174 -0.0050235963 -0.0021273969 -0.004436098 0.00010904487 -0.0068354323
-0.014328508 0.01730423 -0.0047406545 -0.012672141 -0.007539734 -0.0034763534 0.01324012 -0.022380406
-0.0002482407 0.004811978 -0.0100916745 -0.009635735 -0.0060894997 -0.004068285 0.002255972 -0.0041733384
-0.003849752 0.0014871943 -0.0029600689 -0.008532533 -0.00665122 -0.003925787 -0.0045147394 -0.0009862342
-0.0036417823 -0.0056939786 0.0015670958 -0.0061219926 0.0018044203 -0.0050741173 -0.008811868 -0.0062555904
-0.004401753 -0.006403903 0.0028597892 -0.0068072067 -0.0069281175 -0.0050397157 -0.0013278736 -0.0048411908
-0.008244856 -0.0017884469 -0.00016047881 -0.0039108014 -0.00052137225 -0.0008186292 -0.0037666983 -0.013324219
-0.0049210866 0.01435871 -0.0051259375 0.018071013 -0.007526897 0.002230456 -0.0060597695 0.03754225
-0.0065320977 -0.008503668 -0.002476062 -0.00607241 0.0004166795 -0.0049641645 0.009305411 -0.0020178258
-0.00830955 -0.0075129136 -0.0056580664 -0.0043643937 -0.008734978 -0.0070861857 -0.0060354364 0.0008391204
-0.0046519265 0.0063904314 0.025847299 -0.006815806 0.0041640624 0.0024232732 -0.008041573 -0.004817241
-0.014545575 -0.006936571 0.0192449 -0.0033016994 -0.012868807 -0.0075343507 -0.0015958477 -0.003545379
-0.005123575 0.0023342252 -0.0060335235 -0.0070093726 -0.016078666 -0.0056196316 -0.00933252 -0.005200629
-0.004449514 -0.0032492476 -0.0077057583 -0.0073583564 -0.003228621 -0.006914717 -0.0060240813 0.019161947
-0.0010779698 -0.0009239592 -0.0022652627 -0.007860657 -0.00011234452 0.009553741 -0.007980899 -0.009257587
-0.004316419 -0.010672839 0.010413229 -0.006149214 0.013448726 -0.002932694 -0.007646822 0.013358095
-0.005697621 -0.007966451 -0.0062488886 -0.0032770166 -0.00062690966 -0.0032324754 -0.0064527183 -0.0047252937
0.0004327095 -0.0049703005 0.0013681139 0.004663335 -0.009136157 0.00056934735 0.011030426 0.013058869
0.0025488362 -0.015453788 -0.0013047989 0.001252151 0.008216584 0.009869018 -0.01155958 -0.011929296
-0.008489256 -0.007313114 -0.009634542 -0.0012109745 -0.006664814 0.022064557 0.0062143947 -0.008729176
-0.0021207093 -0.0065365084 0.009612722 -0.00026787704 0.022053331 -0.0045552556 -0.012337332 -0.0042365803
-0.01513202 0.03113236 0.0035542801 -0.004073427 0.0130706495 -0.0066984156 -0.0010450371 -0.0068547702
-0.009637824 -0.00287297 -0.01598192 -0.0026297912 0.008111996 -0.013642815 -0.008538928 -0.0008323354
-0.0060852007 -0.0021785721 -0.01396212 -0.0129811885 0.0070103174 0.014227693 -0.0057910313 0.016355218
-0.0051549664 -0.00516065 0.0010457484 -0.00622284 -0.002439434 -0.011356245 -0.0022712583 0.01192563
-0.007637145 0.033049505 -0.0063665817 0.007057928 -0.01114996 0.012621054 -0.0052081565 -0.011555246
-0.0039968356 0.00014082697 -0.006693163 -0.009875555 -0.0023066995 0.0012068587 0.0021447653 -0.005544788
-0.0070732175 -0.00061341043 -0.006379844 -0.009253054 -0.0036250001 0.0026580174 0.01614088 0.0029172606
-0.00055247796 0.018087966 -0.010863741 0.025905045 -0.003981541 -0.009306905 -0.015143397 -0.0042524063
-0.010020219 -0.0029590575 -0.003936245 -0.0019096197 -0.010646277 -0.014906929 -0.004687483 -0.0023035752
-0.007073877 0.004974847 -0.0035246175 -0.0026038701 0.0017317727 0.0004731267 0.002121189 -0.008597413
00000000: b86c 66ba 391c 453b 98c5 87bb 990d 01bc
00000010: 0298 be3c b177 2cbc d09c 2dbc 044b 633c
00000020: 3442 28bc 84db b7bb b752 54bc fb9c a4bb
00000030: cc6b 0bbb b05c 91bb 05af e438 c3fb dfbb
00000040: 1ec2 6abc 9ac1 8d3c 7e57 9bbb d09e 4fbc
00000050: df0f f7bb 88d3 63bb 17ed 583c 1d57 b7bc
00000060: 4e26 82b9 ccad 9d3b 8d57 25bc 34df 1dbc
00000070: 6d8a c7bb 404f 85bb eed8 133b 80c0 88bb
00000080: 1f4c 7cbb f6ed c23a b7fd 41bb 0acc 0bbc
00000090: 7af2 d9bb e3a3 80bb 61f0 93bb 8744 81ba
000000a0: f8aa 6ebb 8e94 babb 0267 cd3a ff9a c8bb
000000b0: 4c82 ec3a c844 a6bb a75f 10bc b2fb ccbb
000000c0: 953c 90bb d5d7 d1bb 4d6b 3b3b fd0e dfbb
000000d0: 4305 e3bb 3324 a5bb 0b0c aeba daa2 9ebb
000000e0: 6f15 07bc 526a eaba 3446 28b9 2e26 80bb
000000f0: b3ac 08ba 4799 56ba b6da 76bb d34d 5abc
00000100: 1141 a1bb cb40 6b3c 7bf7 a7bb a909 943c
00000110: 30a4 f6bb d82c 123b 0891 c6bb e7c5 193d
00000120: 350b d6bb f852 0bbc 6d45 22bb 11fb c6bb
00000130: c775 da39 6eaa a2bb b975 183c 803d 04bb
00000140: c724 08bc e32e f6bb 4d67 b9bb 3003 8fbb
00000150: 271d 0fbc 3c33 e8bb e9c4 c5bb 6bf8 5b3a
00000160: 306f 98bb d366 d13b b7bd d33c 2057 dfbb
00000170: b072 883b c7cf 1e3b cdc0 03bc f2d9 9dbb
00000180: 9050 6ebc 2d4c e3bb 7ba7 9d3c 5361 58bb
00000190: b0d7 52bc b7e2 f6bb c32b d1ba 9759 68bb
000001a0: aae3 a7bb cdf9 183b ddb4 c5bb e1ae e5bb
000001b0: 68b7 83bc e324 b8bb 6de7 18bc 0a6a aabb
000001c0: 3bcd 91bb 54f1 54bb 9680 fcbb 5e1e f1bb
000001d0: 4697 53bb da94 e2bb a865 c5bb 84f9 9c3c
000001e0: aa4a 8dba da35 72ba cd74 14bb fcc9 00bc
000001f0: 819a ebb8 4b87 1c3c 51c2 02bc 22ad 17bc
00000200: bf70 8dbb 22dd 2ebc 409c 2a3c 597f c9bb
00000210: 0c58 5c3c 7132 40bb 3192 fabb e9db 5a3c
00000220: 1cb3 babb b885 02bc 7ac3 ccbb 37c3 56bb
00000230: 3257 24ba f0d7 53bb 5371 d3bb a3d6 9abb
00000240: 49dd e239 e7dd a2bb 4952 b33a e4ce 983b
00000250: d2af 15bc 4140 153a f6b8 343c def4 553c
00000260: 600a 273b e331 7dbc c905 abba 371f a43a
00000270: da9e 063c a9b1 213c 6564 3dbc 1873 43bc
00000280: 8516 0bbc d9a2 efbb 33da 1dbc 90b9 9eba
00000290: 8364 dabb bbc0 b43c 1fa2 cb3b d104 0fbc
000002a0: 99fb 0abb 3530 d6bb ae7e 1d3c d971 8cb9
000002b0: 30a9 b43c 4144 95bb 8522 4abc 03d3 8abb
000002c0: 4bec 77bc 4b09 ff3c edee 683b 627a 85bb
000002d0: 4726 563c 627e dbbb a0f9 88ba fb9d e0bb
000002e0: f7e7 1dbc 7048 3cbb 84ec 82bc 9358 2cbb
000002f0: 2de8 043c 1d86 5fbc dce6 0bbc 1531 5aba
00000300: 5d66 c7bb 60c6 0ebb 60c1 64bc 0daf 54bc
00000310: ceb6 e53b 451b 693c b1c2 bdbb 61fb 853c
00000320: feea a8bb ab1a a9bb 7e11 893a f7e8 cbbb
00000330: e9de 1fbb 8b0f 3abc 64d9 14bb b863 433c
00000340: 0441 fabb eb5e 073d c29e d0bb 3146 e73b
00000350: 52ae 36bc 8ac8 4e3c 2fa9 aabb 3752 3dbc
00000360: e3f7 82bb f4aa 1339 5252 dbbb 14cd 21bc
00000370: ff2b 17bb 752f 9e3a 318f 0c3b 0eb1 b5bb
00000380: 73c6 e7bb 47cd 20ba 030e d1bb 1f9a 17bc
00000390: 6991 6dbb 2232 2e3b e139 843c 832f 3f3b
000003a0: 2bd4 10ba 372d 943c d5fd 31bc d136 d43c
000003b0: 9677 82bb fd7b 18bc 031c 78bc c557 8bbb
000003c0: d82b 24bc bfec 41bb 9efb 80bb 344c faba
000003d0: b96d 2ebc 313c 74bc 7599 99bb 94f7 16bb
000003e0: fbcb e7bb 0b04 a33b 45fd 66bb b1a5 2abb
000003f0: a6fc e23a fe0d f839 a503 0b3b 2adc 0cbc

network_body._body_endoder.seq_layers.0.weight f4 [256, 132]
-0.042550832 -0.12702298 -0.01585807 -0.012145795 -0.08389218 -0.15815718 0.2360577 0.05154459
-0.008612297 0.014413777 -0.051180243 0.0031886243 0.0122746 0.0403574 0.12976216 0.04466828
-0.17681731 -0.0050302777 -0.018799504 0.006900699 0.0825824 0.017496608 0.114584304 0.0848854
0.089750126 -0.122159265 0.098228194 0.053869896 0.043581072 0.10897023 0.010652598 -0.00410375
0.063404694 -0.069844104 0.0027060558 -0.05031846 -0.18587272 0.048989758 -0.0545705 0.08921824
0.028334562 0.038803056 -0.18076561 0.0476092 0.1492846 0.19185652 0.050669163 -0.028664332
0.025625288 0.15947703 0.016334439 0.033871356 -0.09568854 0.045862578 -0.011974583 0.05961858
-0.0073005706 0.15651631 0.2083229 -0.089013286 -0.013093895 -0.014973273 0.055460583 0.02233832
0.06185072 -0.016171467 0.061663896 -0.036493752 0.07728767 0.014796324 -0.10135602 0.104785345
-0.042271305 0.058797188 0.03877469 0.023802223 0.019986704 -0.037855558 -0.035377666 0.049474128
0.14203064 -0.13301261 0.18831412 0.03170875 -0.062996894 0.008474392 0.009821332 0.04955036
-0.11943272 0.00016701283 0.015329161 -0.18123785 -0.062344775 0.08510678 0.06314256 -0.00783992
-0.02004869 -0.009647333 -0.0075175664 0.036280803 -0.07131157 -0.054026593 -0.089757 0.024046514
-0.04075746 0.13087739 -0.053036977 -0.104635075 -0.026916202 0.021746434 -0.057034034 0.103880525
-0.120063804 -0.11412777 0.08455881 0.03501507 -0.12771846 0.0044024386 -0.030639153 -0.02945412
0.033791162 -0.13393056 0.025092501 -0.08856674 -0.065979734 -0.009999234 -0.06466641 -0.13716361
-0.05821864 0.040577415 0.09152803 -0.07096417 -0.08078877 -0.06477163 -0.097594105 -0.03584833
-0.028223539 0.058725417 -0.10542456 -0.2000506 -0.06362954 0.06375539 -0.030139282 0.124276176
-0.06748227 -0.08359264 0.03836048 -0.06666487 -0.013888302 0.045804746 -0.025956716 0.048135113
0.05244501 0.04012111 -0.09875608 0.17771222 0.022750517 0.055780496 0.017131895 -0.068200655
0.22579302 0.039632026 0.06813028 0.15750098 -0.007616731 0.09914518 -0.05512424 -0.103384934
-0.0101991305 -0.007020388 -0.023135027 -0.11777405 0.02813822 -0.029181093 0.118833736 -0.024052804
0.26332134 0.13878636 -0.0002749944 0.014699158 -0.023556437 0.039604038 -0.1250125 -0.0334323
-0.18545467 -0.0863089 -0.03349737 -0.051470052 0.09728136 -0.05956984 0.16262956 0.07591726
-0.07511114 0.011036255 -0.004100919 -0.011813937 -0.013597819 -0.06387115 -0.032828163 0.047648188
-0.0103807775 -0.14092836 -0.006775249 -0.049636867 -0.021545887 -0.00425045 0.02513333 -0.047926802
-0.118811786 0.06987703 0.09238323 -0.14065371 -0.11577908 -0.07932739 -0.11783877 -0.04057361
-0.034860276 -0.09204615 -0.022202875 0.06420428 -0.012386569 0.019248346 0.060239624 0.12460853
-0.043929156 -0.034509517 -0.03204793 -0.13644242 -0.01903611 -0.09687398 0.08623169 -0.017750444
0.014997195 0.20295313 -0.01737904 -0.09336729 -0.016030975 -0.22767055 0.022902451 -0.015610793
0.0071116486 0.0062320135 -0.07463854 0.02533814 0.04600826 0.123443276 -0.08229481 -0.09742226
-0.16626902 0.006150441 -0.1135893 -0.027451947 0.049883105 0.06848263 -0.022011926 0.08330309
00000000: c849 2ebd 5012 02be c9e8 81bc 28ff 46bc
00000010: aacf abbd f5f3 21be 1cb9 713e 6c20 533d
00000020: 971a 0dbc c327 6c3c 60a2 51bd 3df8 503b
00000030: 671b 493c cd4d 253d 5fe0 043e 16f6 363d
00000040: 990f 35be 07d5 a4bb 6b01 9abc 421f e23b
00000050: f620 a93d 0c55 8f3c 2dab ea3d 66d8 ad3d
00000060: eace b73d a32e fabd dd2b c93d aea6 5c3d
00000070: 1182 323d c92b df3d 3c88 2e3c c078 86bb
00000080: 52da 813d 6d0a 8fbd 1558 313b bb1a 4ebd
00000090: 6b55 3ebe 7ca9 483d 5185 5fbd 0db8 b63d
000000a0: e21d e83c f4ef 1e3d 9f1a 39be dd01 433d
000000b0: 10de 183e 0976 443e 788a 4f3d 76d1 eabc
000000c0: 20ec d13c f24d 233e cdcf 853c b1bc 0a3d
000000d0: 5af8 c3bd 66da 3b3d 0b31 44bc 9d32 743d
000000e0: a039 efbb d045 203e 9952 553e 994c b6bd
000000f0: c787 56bc 7552 75bc a32a 633d dafe b63c
00000100: 2e57 7d3d 067a 84bc 4893 7c3d 797a 15bd
00000110: ff48 9e3d 486c 723c bf93 cfbd b399 d63d
00000120: ad24 2dbd 52d5 703d 36d2 1e3d e1fc c23c
00000130: 28bb a33c 6e0e 1bbd 2ce8 10bd 62a5 4a3d
00000140: 7b70 113e 7534 08be 6bd5 403e 09e1 013d
00000150: 8404 81bd 2dd8 0a3c a7e9 203c 51f5 4a3d
00000160: 2499 f4bd 2a20 2f39 2927 7b3c 6a96 39be
00000170: 3c5d 7fbd 774c ae3d e350 813d 0273 00bc
00000180: 263d a4bc d90f 1ebc eb55 f6bb 2e9b 143d
00000190: cd0b 92bd fd4a 5dbd 85d2 b7bd 32fd c43c
000001a0: 4bf1 26bd b904 063e 4d3d 59bd ea4a d6bd
000001b0: 5e7f dcbc 9425 b23c 859c 69bd 50bf d43d
000001c0: 03e4 f5bd d2bb e9bd 2b2d ad3d f66b 0f3d
000001d0: a1c8 02be 5542 903b f6fe fabc c449 f1bc
000001e0: 9a68 0a3d 1825 09be ca8e cd3c 7b62 b5bd
000001f0: 6220 87bd d4d3 23bc d36f 84bd 9e74 0cbe
00000200: ab76 6ebd 8134 263d 0c73 bb3d aa55 91bd
00000210: 9574 a5bd fda6 84bd 6bdf c7bd b3d5 12bd
00000220: 0d35 e7bc 108a 703d d5e8 d7bd 11da 4cbe
00000230: 3450 82bd 3092 823d a8e6 f6bc 8284 fe3d
00000240: 2534 8abd 9e32 abbd e11f 1d3d 9787 88bd
00000250: c38b 63bc c29d 3b3d 2ea3 d4bc 5329 453d
00000260: 94d0 563d 0856 243d a140 cabd 31fa 353e
00000270: 4b5f ba3c 177a 643d 3058 8c3c c9ac 8bbd
00000280: 4936 673e 3155 223d e387 8b3d f047 213e
00000290: c595 f9bb a10c cb3d f5c9 61bd 7bbb d3bd
000002a0: 411a 27bc 480b e6bb ab85 bdbc 8533 f1bd
000002b0: 2082 e63c 300d efbc 1a5f f33d 630a c5bc
000002c0: 0ed2 863e 031e 0e3e 202d 90b9 bdd4 703c
000002d0: 6ef9 c0bc d837 223d 4703 00be 4ff0 08bd
000002e0: d4e7 3dbe b8c2 b0bd 8a34 09bd 43d2 52bd
000002f0: 733b c73d 81ff 73bd 5d88 263e 827a 9b3d
00000300: dfd3 99bd 69d1 343c 0061 86bb 3e8f 41bc
00000310: 63c9 5ebc e1ce 82bd d376 06bd bf2a 433d
00000320: 2314 2abc 864f 10be e802 debb 0750 4bbd
00000330: 0081 b0bc 5c47 8bbb 6ae4 cd3c e54e 44bd
00000340: 9853 f3bd b01b 8f3d 6b33 bd3d 8707 10be
00000350: 951d edbd 6676 a2bd 7455 f1bd 8430 26bd
00000360: a6c9 0ebd b182 bcbd cee2 b5bc 897d 833d
00000370: 09f1 4abc b5ae 9d3c d3bd 763d c232 ff3d
00000380: 0fef 33bd da59 0dbd b144 03bd 90b7 0bbe
00000390: 9ef1 9bbc dd65 c6bd 3e9a b03d 6169 91bc
000003a0: ccb6 753c f2d2 4f3e 7d5e 8ebc 5a37 bfbd
000003b0: 6453 83bc 7822 69be ec9d bb3c 69c4 7fbc
000003c0: d508 e93b eb35 cc3b 17dc 98bd ee91 cf3c
000003d0: 2873 3c3d d4cf fc3d 2e8a a8bd 5285 c7bd
000003e0: 6d42 2abe a389 c93b 82a1 e8bd e8e2 e0bc
000003f0: 3a52 4c3d 9f40 8c3d 5b52 b4bc cf9a aa3d

network_body._body_endoder.seq_layers.2.bias f4 [256]
-0.0057334234 -0.01551239 -0.0008504757 -0.0012484137 -0.0021532616 0.0007232937 -0.009096322 -0.0005831625
0.005616617 -0.0052288924 -0.0049860436 -0.0018488772 -0.0044128015 -0.0034532263 -0.00097200635 -0.0010484001
-0.0047829878 0.0002895201 0.0037579313 -0.0068754875 -0.008731321 -0.0037637523 -0.005283055 -0.0022746907
-0.0036249857 -0.0039385986 -0.0028422019 0.0047848183 -0.006372693 -0.012350133 -0.0025548027 -0.0071118134
-0.0043825507 -0.004595178 -0.00068010564 0.009724257 -0.010145601 -0.007339948 -0.005681825 -0.004904259
-0.0023379205 -3.4507284e-05 -0.0001429124 -0.006199346 -0.003918224 -0.003962438 -0.0014643886 -0.005014579
-0.008699623 -0.0038861618 -0.0064855777 -0.004052428 0.004818451 -0.0024524191 -0.010108202 0.0033834723
-0.0054879235 -0.007015217 -0.005354177 -0.006587908 -0.004083784 -0.0033932147 -0.0004514354 0.0053713755
0.0010967088 0.004341132 -0.009598214 -0.0035522545 0.001738218 -0.009483479 -0.004806355 -0.0032144024
-0.013388007 0.0053354576 -0.0064989403 0.0089593725 0.00011758136 -0.008252931 -0.0035065063 -0.00932148
0.0002204004 -0.0031664888 -0.00562765 -0.0010453305 0.0007553671 -0.0029652908 -0.0065184566 -0.006626647
0.014380797 -0.008767847 0.0038194226 0.0036898425 -0.006265798 -0.0052480055 -0.00442695 -0.005018595
0.013369816 -0.0037624042 0.001123869 0.005258553 0.0040413225 0.0024019037 -0.001004146 -0.00030235096
-0.005326615 0.009008887 0.0026693013 -0.0036608013 0.023988675 -0.0036555033 0.01063336 0.00510068
-0.003969084 -0.007273856 -0.006504506 -0.0019490885 -0.0022886354 -0.004536492 0.0022062506 -0.0043555563
-0.010166829 -0.00019015664 0.011517959 -0.0078741945 0.004568352 -0.0044901087 -0.004150851 -0.0079403035
-0.0036167132 -0.004960143 -0.011844853 -0.0020946143 -0.010199879 -0.0016385484 0.0020146766 -0.0016790533
-0.0048495014 -0.009575835 -0.00033569732 -0.00651143 -0.0019416476 0.0001264392 -0.0036911166 -0.00028202648
0.00058434944 -0.0022423791 -0.007638228 -0.0061746826 -0.0061566876 0.005766596 -0.0036323934 -0.0009782725
0.005614101 -0.004975876 -0.0009841565 -0.0062172213 -0.0011383479 -0.011538513 0.004183048 -0.005444754
0.0048494157 -0.0016281457 -0.0057032635 0.011134306 0.0009874972 0.0004727165 0.0057899896 -0.007362252
-0.0049509266 -0.0011647972 -0.0063034897 -0.0027179027 -0.0149772065 -0.013904129 -0.0072187744 -0.00048757644
-0.014493265 -0.0037712392 -0.0076359743 0.021911228 -0.007021467 -0.0025943678 0.015636118 -0.0076972474
-0.011042753 -0.0025840416 -0.0020266026 -0.010079577 -0.0034211196 -0.007779895 -0.0047892523 -0.0005741626
-0.00088188896 0.0019386634 -0.004827977 0.0007737516 0.0001190207 0.00058666803 0.012125261 -0.0048161033
-0.008941004 0.010676728 -0.002227516 -0.002075588 5.4004104e-05 -0.0067543564 -0.009908526 -0.0035883533
-0.005477856 -0.0065105394 0.00049793423 0.0004009914 -0.0009647908 -0.0006772348 -0.01110503 -0.008555948
-0.0011645459 -0.010544984 0.00043912 -0.0019504491 0.002841964 0.0010375163 -0.014126985 -0.0066441353
0.00885402 -0.004619011 -0.0072881957 -0.004191274 0.01643766 -0.0056240098 -0.0018661802 -0.0066852705
-0.006015897 -0.0038324997 -0.0011584065 0.0065856436 -0.008897441 0.0020686765 -0.00305714 -0.0077815587
0.0114438115 -0.0003877455 -0.0073331497 0.00025546586 -0.0056602717 -0.010295616 -0.0069879224 -0.002117771
-0.009276872 -0.0053340876 -0.00412851 -0.0029980706 -0.0070754113 -0.014845233 -0.008531973 -0.0075714043
00000000: 71df bbbb ae27 7ebc 75f2 5eba d0a1 a3ba
00000010: bc1d 0dbb 6b9b 3d3a bd08 15bc 5fdf 18ba
00000020: 990b b83b 2157 abbb f761 a3bb 0656 f2ba
00000030: 4399 90bb 864f 62bb 3ece 7eba 786a 89ba
00000040: 9cba 9cbb bbca 9739 a047 763b c54b e1bb
00000050: d10d 0fbc 49a9 76bb 7a1d adbb fa12 15bb
00000060: 2b91 6dbb 5c0f 81bb 3c44 3abb f7c9 9c3b
00000070: 06d2 d0bb 3658 4abc 7a6e 27bb 370a e9bb
00000080: 809b 8fbb 2693 96bb 1e49 32ba 7d52 1f3c
00000090: bc39 26bc f283 f0bb 9a2e babb e8b3 a0bb
000000a0: cc37 19bb eabb 10b8 c1da 15b9 e223 cbbb
000000b0: 7264 80bb 57d7 81bb baf0 bfba 5651 a4bb
000000c0: dd88 0ebc faae 7ebb f884 d4bb 3bca 84bb
000000d0: 19e4 9d3b c4b8 20bb df9c 25bc 3fbd 5d3b
000000e0: 0ad4 b3bb e8df e5bb 1872 afbb 61df d7bb
000000f0: 43d1 85bb b260 5ebb a2ae ecb9 5d02 b03b
00000100: 71bf 8f3a 0e40 8e3b d441 1dbc f1cc 68bb
00000110: ebd4 e33a 9860 1bbc a17e 9dbb b9a8 52bb
00000120: 5f59 5bbc 10d5 ae3b 10f5 d4bb 55ca 123c
00000130: 0396 f638 4d37 07bc 6acd 65bb 1fb9 18bc
00000140: 481b 6739 de84 4fbb 2668 b8bb 7903 89ba
00000150: d403 463a 5355 42bb c798 d5bb 5824 d9bb
00000160: 6f9d 6b3c 04a7 0fbc 474f 7a3b 49d1 713b
00000170: 5351 cdbb 76f7 abbb f30f 91bb 0773 a4bb
00000180: 130d 5b3c ab92 76bb c94e 933a f14f ac3b
00000190: 126d 843b 4269 1d3b 8c9d 83ba dc84 9eb9
000001a0: e38a aebb 039a 133c 72ef 2e3b 0eea 6fbb
000001b0: e683 c43c 2b91 6fbb 8b37 2e3c 9b23 a73b
000001c0: 170f 82bb 8759 eebb c023 d5bb 8f78 ffba
000001d0: eefc 15bb daa6 94bb be96 103b 0eb9 8ebb
000001e0: c692 26bc c964 47b9 d2b5 3c3c c402 01bc
000001f0: 1db2 953b c321 93bb dd03 88bb 0c18 02bc
00000200: 6106 6dbb b288 a2bb ea10 42bc cc45 09bb
00000210: 651d 27bc 90c4 d6ba aa08 043b ae13 dcba
00000220: 91e8 9ebb f7e3 1cbc 8800 b0b9 d55d d5bb
00000230: e27e feba c494 0439 a9e6 71bb f4dc 93b9
00000240: 072f 193a e1f4 12bb 1a4a fabb fe54 cabb
00000250: 0abe c9bb b7f5 bc3b 730d 6ebb 6139 80ba
00000260: 7ef6 b73b ac0c a3bb d0fe 80ba d5b9 cbbb
00000270: 9e34 95ba 080c 3dbc f311 893b e869 b2bb
00000280: d9e7 9e3b 8167 d5ba 71e2 babb aa6c 363c
00000290: e86e 813a efd6 f739 f4b9 bd3b 0c3f f1bb
000002a0: 623b a2bb 1cac 98ba 818d cebb d71e 32bb
000002b0: f562 75bc 25ce 63bc 788b ecbb 67a1 ffb9
000002c0: 2975 6dbc e526 77bb 3237 fabb 2d7f b33c
000002d0: 5614 e6bb 4506 2abb 5117 803c 3139 fcbb
000002e0: aaec 34bc 0659 29bb c0d0 04bb cf24 25bc
000002f0: dd34 60bb 7dee febb 29ef 9cbb 6683 16ba
00000300: 912e 67ba c01a fe3a 0234 9ebb 97d5 4a3a
00000310: c09a f938 a0ca 193a 08a9 463c 67d0 9dbb
00000320: 4a7d 12bc 71ed 2e3c 84fb 11bb 9706 08bb
00000330: 7782 6238 a653 ddbb 5f57 22bc 942a 6bbb
00000340: 967f b3bb 5d56 d5bb cd87 023a 283c d239
00000350: 04ea 7cba 7588 31ba dff1 35bc 3f2e 0cbc
00000360: ada3 98ba dec4 2cbc b039 e639 36a6 ffba
00000370: 3e40 3a3b 45fd 873a df74 67bc 0cb7 d9bb
00000380: 7410 113c 135b 97bb d1d1 eebb f456 89bb
00000390: 46a8 863c 9d49 b8bb 9e9a f4ba 1d10 dbbb
000003a0: 0021 c5bb ad2a 7bbb acd5 97ba 62cc d73b
000003b0: 93c6 11bc a292 073b 4c5a 48bb 72fc febb
000003c0: d37e 3b3c 524a cbb9 eb4a f0bb 0cf0 8539
000003d0: cd79 b9bb f2ae 28bc f1fa e4bb 4dca 0abb
000003e0: 05fe 17bc 92c9 aebb 7448 87bb 477b 44bb
000003f0: dad8 e7bb 6c39 73bc b0c9 0bbc 8b19 f8bb

network_body._body_endoder.seq_layers.2.weight f4 [256, 256]
-0.011115703 -0.07969705 0.025238924 0.074066155 0.019503575 0.20931369 0.062066123 -0.05759623
0.053738847 -0.056274436 -0.04592645 0.04693403 -0.09258022 -0.015140127 0.011896126 -0.00012656394
0.091597684 -0.059124906 0.07117423 -0.03749346 -0.044252656 0.0113425385 -0.024227647 0.091887765
-0.104371935 0.017964201 -0.040165562 0.03542635 0.048922654 0.03780646 0.07563713 -0.10705014
0.017402394 -0.02215362 0.14398287 0.04689693 -0.027321555 -0.015019682 0.0557374 0.018082412
0.04050962 0.07789962 0.024628548 -0.023879852 0.0595415 0.021760598 -0.03909046 0.0054798927
-0.08491608 -0.030537602 0.07259741 -0.02615451 -0.04377153 -0.040011458 -0.06977381 0.011009285
0.09702816 0.1327355 0.08036471 -0.033976678 -0.029277252 0.03323533 0.05594399 0.06274421
0.10134211 0.005500203 0.017634956 0.020396702 0.082744904 -0.08733608 0.031222591 0.115689404
-0.023857225 -0.011022399 0.048031274 0.044390388 0.07988832 -0.11179041 0.019670028 -0.099234596
-0.0058844145 -0.062802136 0.03376526 0.019635886 0.094587974 0.01752998 0.06594056 -0.022477722
-0.024389487 -0.037779175 0.0353478 -0.023430334 0.043523297 0.0063450285 -0.01850383 -0.0687706
0.08616615 0.06404531 0.0017028521 -0.043317035 -0.046767063 0.0035879125 0.019206151 0.04016454
0.047099717 -0.042650092 0.03201019 0.03420097 0.025811186 0.014507679 -0.0025626265 -0.0051469565
-0.06393575 -0.05169502 -0.11275978 0.022979444 -0.059756674 -0.037380867 0.0002797577 0.08742779
0.041826807 0.08393452 0.0042249304 0.074002735 -0.056893412 0.042083893 0.063824154 0.008968783
-0.030885467 0.037667565 0.054066952 -0.03530764 0.0031796885 -0.014860789 0.08937613 0.07444781
-0.030953245 0.027422363 -0.01482677 0.022405073 -0.05097598 -0.062942535 0.08612159 0.04763353
-0.005888075 0.003558484 -0.048142966 0.036101755 0.0070744664 0.020095475 0.09111035 -0.040314246
-0.035457198 -0.008823229 0.023853766 -0.023338068 0.031729043 -0.06691809 -0.03356105 -0.09906145
0.0045199106 -0.031924322 -0.10001385 -0.023551444 0.111139245 0.0005500756 -0.07936388 -0.013280851
-0.12290481 0.03744982 0.0061909663 -0.039747648 -0.11934409 -0.0425296 -0.0074714674 0.07368291
-0.104291715 -0.04011754 -0.114125974 0.027882328 0.11867534 0.000645549 -0.032319527 -0.054899838
0.07620033 -0.06554243 -0.12829837 0.09821245 0.011020798 -0.013705773 -0.032384746 0.03407514
-0.010374283 0.0073670405 -0.07907879 -0.092041634 -0.04130555 0.11824694 0.120618165 0.11643092
0.002806005 0.039305754 -0.003449479 -0.023394588 0.016530437 0.059285387 -0.025919797 -0.0015934
0.088931926 0.047463205 0.050810926 0.02180231 0.00052720675 -0.03020984 -0.0285729 0.016338866
0.06908431 0.0033422501 -0.055930346 0.07869732 -0.018033598 0.010253084 -0.031955775 -0.11225663
0.030544069 0.08079852 -0.10753724 -0.013006297 0.00031881008 -0.02073458 0.14753295 -0.0126506295
0.037564833 -0.04532641 0.031917572 -0.0065892013 -0.04445009 0.04125142 0.01942369 -0.07992805
0.048075248 -0.117069356 0.004273914 0.021317668 0.011062954 -0.059309907 -0.06867964 -0.006888698
-0.029237103 0.10756121 0.008879747 0.059681013 -0.04750299 -0.0716762 0.09517319 0.07870266
00000000: a31e 36bc 3538 a3bd dcc1 ce3c ffaf 973d
00000010: f6c5 9f3c 5456 563e 0c39 7e3d 06ea 6bbd
00000020: 441d 5c3d 0680 66bd 601d 3cbd e63d 403d
00000030: b39a bdbd 4c0e 78bc f8e7 423c 40b6 04b9
00000040: 9197 bb3d f52c 72bd cbc3 913d be92 19bd
00000050: 4642 35bd 0ed6 393c 0f79 c6bc a72f bc3d
00000060: f4c0 d5bd a929 933c a584 24bd 381b 113d
00000070: 1f63 483d f2da 1a3d a4e7 9a3d 1b3d dbbd
00000080: 778f 8e3c 827b b5bc 3f70 133e ff16 403d
00000090: 74d1 dfbc 1d15 76bc e64c 643d 9121 943c
000000a0: 6aed 253d d689 9f3d cfc1 c93c ae9f c3bc
000000b0: cae1 733d 4843 b23c 511d 20bd ac90 b33b
000000c0: 7be8 adbd fe29 fabc f3ad 943d fc41 d6bc
000000d0: c749 33bd 0ee3 23bd 92e5 8ebd 4a60 343c
000000e0: b3b6 c63d d1eb 073e 4196 a43d 212b 0bbd
000000f0: d9d6 efbc c521 083d 8625 653d 0980 803d
00000100: 748c cf3d 0c3b b43b 2f77 903c fc16 a73c
00000110: 2976 a93d 42dd b2bd 85c6 ff3c 91ee ec3d
00000120: 3a70 c3bc 4b97 34bc 71bc 443d b2d2 353d
00000130: 7d9c a33d 5ff2 e4bd 0a23 a13c 823b cbbd
00000140: 0cd2 c0bb 689e 80bd 714d 0a3d 70db a03c
00000150: 57b7 c13d 089b 8f3c d80b 873d 3323 b8bc
00000160: 76cc c7bc 56be 1abd dbc8 103d f9f0 bfbc
00000170: 7c45 323d f5e9 cf3b 5895 97bc 9ad7 8cbd
00000180: e177 b03d 302a 833d 3c32 df3a 346d 31bd
00000190: d28e 3fbd 2f23 6b3b 3856 9d3c 9383 243d
000001a0: a2eb 403d ddb1 2ebd 1e1d 033d 5116 0c3d
000001b0: fb71 d33c 9eb1 6d3c bdf1 27bb cda7 a8bb
000001c0: bff0 82bd 28be 53bd 99ee e6bd 633f bc3c
000001d0: 6ac3 74bd ae1c 19bd 71ac 9239 570d b33d
000001e0: 9652 2b3d dde5 ab3d 4971 8a3b bf8e 973d
000001f0: 1109 69bd 2960 2c3d 3db6 823d cdf1 123c
00000200: 8503 fdbc 4e49 1a3d 4f75 5d3d be9e 10bd
00000210: 5262 503b ab7a 73bc d50a b73d 1878 983d
00000220: a991 fdbc dda4 e03c fbeb 72bc d88a b73c
00000230: 30cc 50bd 04e8 80bd 8460 b03d 601b 433d
00000240: c1f0 c0bb 7435 693b 8f31 45bd 6fdf 133d
00000250: edd0 e73b 449f a43c 1098 ba3d 8d20 25bd
00000260: 913b 11bd 4e8f 10bc f968 c33c 7a2f bfbc
00000270: 50f6 013d 5a0c 89bd 5077 09bd bbe0 cabd
00000280: c21b 943b 14c3 02bd 10d4 ccbd f5ee c0bc
00000290: f99c e33d f332 103a 8889 a2bd ed97 59bc
000002a0: 84b5 fbbd fc64 193d 97dd ca3b 6ece 22bd
000002b0: ad6a f4bd 8533 2ebd 36d3 f4bb 11e7 963d
000002c0: e596 d5bd 4a52 24bd e1ba e9bd 7b69 e43c
000002d0: 0f0c f33d 0f3a 293a 7b61 04bd a7de 60bd
000002e0: eb0e 9c3d 1c3b 86bd a660 03be 9c23 c93d
000002f0: 9490 343c 2e8e 60bc dea5 04bd 6092 0b3d
00000300: e6f8 29bc 3767 f13b 10f4 a1bd 5380 bcbd
00000310: 0230 29bd 742b f23d a806 f73d 5673 ee3d
00000320: f4e4 373b 12ff 203d a710 62bb 02a6 bfbc
00000330: d76a 873c 3cd5 723d c155 d4bc a2d9 d0ba
00000340: f121 b63d c768 423d 1e1f 503d c29a b23c
00000350: 3f34 0a3a a07a f7bc b711 eabc 16d9 853c
00000360: 137c 8d3d a709 5b3b 3817 65bd 0f2c a13d
00000370: 32bb 93bc 8dfc 273c 0fe4 02bd cee6 e5bd
00000380: 8e37 fa3c b279 a53d 7c3c dcbd 5d18 55bc
00000390: f725 a739 91db a9bc e112 173e 9644 4fbc
000003a0: 95dd 193d 30a8 39bd 00bc 023d 3aea d7bb
000003b0: 4c11 36bd 40f7 283d 6e1e 9f3c 51b1 a3bd
000003c0: 8dea 443d 0fc2 efbd 300c 8c3b 64a2 ae3c
000003d0: 6441 353c f2ee 72bd e9a7 8cbd 96ba e1bb
000003e0: a682 efbc 0d49 dc3d 5c7c 113c 1474 743d
000003f0: 7f92 42bd f9ca 92bd 29ea c23d dc2e a13d
