results/MLDriver2/MLDriver/MLDriver-11520.onnx (onnx, 404427 bytes, 7 tensors)

action_model._continuous_distribution.log_sigma f4 [1, 3]
000000 24 f3 22 3c b2 eb 95 3c 95 3b f7 3b
       0.009945665 0.018300865 0.0075449445

action_model._continuous_distribution.mu.bias f4 [3]
000000 73 45 4b 39 c9 d6 55 39 3d 91 af b9
       0.0001938546 0.00020393277 -0.00033486812

action_model._continuous_distribution.mu.weight f4 [3, 256]
000000 65 b2 09 bc 05 56 50 3c 2f 7c 4b bb fc 05 90 3c
       -0.008404349 0.012715821 -0.003104936 0.017580979
000010 cb da be 3c 54 a9 ce 3c ba 97 18 bc 0c 08 ab 3b
       0.023297688 0.025227226 -0.009313518 0.005219465
000020 bf 6b ba 3b e3 c0 77 bc 6c 78 8e 3c 99 d7 83 3c
       0.005689114 -0.015121671 0.017391406 0.016094016
000030 66 fc c4 3b 45 ea 69 bc 3e 8a d5 bb 1e 0e aa 3b
       0.0060115336 -0.014277046 -0.006516724 0.005189671
000040 f4 bd de bb 52 87 f2 3b 94 57 23 3c 4f ab ea 39
       -0.0067975465 0.0074013853 0.009969611 0.00044759593
000050 c5 dd 72 3b 34 ef 41 bc 6a 20 be bb a9 2c 39 3a
       0.0037058454 -0.011836816 -0.005802204 0.0007063845
000060 11 3f 81 bc f5 a3 02 bc 77 af d3 bc 0e 50 79 3b
       -0.015777143 -0.007973661 -0.025840504 0.00380421
000070 d7 e5 a0 bb e7 62 5c bc ec e5 70 bb bb ff e9 bb
       -0.0049102115 -0.0134513145 -0.0036758138 -0.007141081
000080 95 10 c6 39 f6 8c 81 bc d9 c0 87 3c 8a 05 f0 bb
       0.00037777858 -0.015814286 0.01657145 -0.007324879
000090 a2 61 f6 bb 8c 4c 0c 3c 07 b1 a8 3c d8 1b a3 3b
       -0.007518963 0.008563172 0.020592226 0.0049776845
0000a0 f9 9c 67 bb 23 ad 4e 3c 30 34 cb 3c 1a 3f b0 bb
       -0.0035341366 0.012614521 0.024805158 -0.005378616
0000b0 e6 2c 44 bc ee 74 0b bc 5c f9 84 3b 83 1b 77 bb
       -0.011973595 -0.008511765 0.0040580463 -0.0037705607
0000c0 ee aa e9 3b a6 2a ca 3b 39 78 46 3c d3 ed f1 bb
       0.007130972 0.006169635 0.012113624 -0.007383087
0000d0 8c 1a 0b b8 24 23 0b bd b2 d3 b0 3c db db 66 3b
       -3.3164906e-05 -0.03396906 0.02158532 0.003522626
0000e0 d2 4f c3 ba 4f fd 18 bc 61 58 00 bc aa e2 95 3c
       -0.0014901108 -0.009337737 -0.007833571 0.018296558
0000f0 83 ac f1 bb 66 de fe 3a 88 34 81 bc f9 63 b4 3c
       -0.0073753013 0.0019444942 -0.01577212 0.022020327
000100 c9 39 a4 3c 48 3b 98 3b a8 34 8e bb 9a a8 9d bb
       0.020047085 0.0046457388 -0.004339773 -0.0048113586
000110 39 09 c2 3a 0b 3b a1 3c 2e a6 8c bb a1 31 b3 3b
       0.0014803774 0.019681474 -0.004292271 0.0054685627
000120 39 a0 0f bb 31 a5 ca 3b 42 5a 4f 3b 01 88 35 3c
       -0.0021915569 0.006184243 0.0031639491 0.011079789
000130 64 c4 d8 3b c0 23 52 bc b4 b6 12 bc 81 e6 da bc
       0.0066152085 -0.012825906 -0.008954693 -0.026721241
000140 15 b7 5a 3c f4 15 c8 3b 38 15 00 bc d2 bc 0d bd
       0.013349314 0.0061061326 -0.007817559 -0.0346039
000150 03 23 87 bb e2 4c b3 bc e3 d5 1f bc 3e 4b 42 bb
       -0.004124047 -0.021887247 -0.009755584 -0.0029646899
000160 10 e5 96 3c 72 65 5e bc 56 6c a8 bc b3 e9 9d bb
       0.018419772 -0.013573991 -0.020559471 -0.004819119
000170 05 e3 ad bb ee 90 3c bc 12 1f 42 3b 82 ba d7 3c
       -0.005306604 -0.011509163 0.002962057 0.026334051
000180 b1 51 a2 bc 7b cb 87 bc eb e9 ea ba 04 87 52 bb
       -0.019814344 -0.01657652 -0.0017922496 -0.0032123933
000190 ab 95 b0 ba 8a 2d 35 bc 51 f1 ea 3c 65 f7 b6 3b
       -0.0013472339 -0.011058221 0.028679522 0.005583691
0001a0 f8 82 9d 3a b1 49 87 3a fc aa 02 3b 91 85 14 bc
       0.0012017181 0.0010321644 0.001993834 -0.009065048
0001b0 c1 3b 18 bc f6 76 3b 3c 71 cd b5 3c 8f 37 c9 3c
       -0.00929159 0.011441937 0.022192689 0.024562625
0001c0 2a 39 0c 36 18 29 87 3c 55 79 5e 3c c8 8f 1d bc
       2.08949e-06 0.016499087 0.0135787325 -0.0096168
0001d0 6e 28 27 bc 68 e6 03 3d cb 85 d6 bb 51 34 a1 bb
       -0.01020251 0.032202154 -0.006546711 -0.0049195667
0001e0 d4 f6 85 bb 82 a1 ba b9 c9 b1 d5 bc 24 ef b4 39
       -0.004088262 -0.00035597017 -0.026085751 0.0003451045
0001f0 cc 6e b2 ba 37 ae c7 bb b8 3b 17 bc fb a2 85 3b
       -0.0013613342 -0.006093766 -0.009230547 0.0040782667
000200 a0 81 ab bb ad 72 7c bc 32 02 c5 3b 83 e7 4f 3b
       -0.0052339584 -0.0154082 0.0060122246 0.0031723685
000210 0f 41 2a 3b af 4d 96 3b e9 89 27 bc 1a 38 d9 bb
       0.002597872 0.0045868973 -0.010225751 -0.0066290023
000220 7e 3f 9f ba d1 86 de bb 83 e6 80 b9 54 30 72 bb
       -0.001214966 -0.0067909737 -0.00024585807 -0.0036955075
000230 d3 29 95 bc be a7 8d bb c8 93 f9 3a 86 44 65 3c
       -0.01820842 -0.004322975 0.0019041235 0.013993388
000240 95 19 67 3b 44 0c f8 3c 47 1d 86 bc 11 c1 48 bc
       0.003526305 0.030279286 -0.016371382 -0.012253062
000250 f8 91 00 bc 97 44 d9 bb 89 91 97 3c 9a 3a e4 ba
       -0.007847302 -0.006630491 0.018502014 -0.0017412484
000260 aa 8b 49 3b 5a 95 59 3b 84 8e 9c ba 33 cc b7 3b
       0.0030753412 0.0033200593 -0.0011944328 0.0056090592
000270 1b 73 12 bc 39 50 ab bb bf f0 43 bc 1e 0e 54 3c
       -0.008938576 -0.005228069 -0.011959254 0.012942819
000280 6c f5 68 3a fd 55 1a 3c 08 3c 45 bc 2f 9f db 39
       0.00088866684 0.009419915 -0.012038238 0.00041889536
000290 e2 8d 25 3c a9 66 5b bc bf 5c 1b bc cf d2 77 3b
       0.010104628 -0.013391175 -0.009482562 0.003781486
0002a0 3f bd 2e ba d1 cc 9c bc 56 9c 80 bc 9d f3 9f bc
       -0.0006665773 -0.019140633 -0.015699547 -0.019525344
0002b0 90 c9 94 3c 75 2a f1 bb de 5e cc 3a 51 2c 22 bb
       0.018162519 -0.0073597976 0.0015592237 -0.0024745653
0002c0 0c 34 8c bb 56 7e 71 39 75 1c 87 bb 45 8d 2b 3b
       -0.0042786654 0.00023030615 -0.0041232654 0.0026176732
0002d0 c1 ec b4 3b 1e 4e 8c bc 5c 17 bc 3b 75 20 58 3b
       0.0055213873 -0.017127093 0.0057400893 0.003297833
0002e0 7b df c2 3c cf 68 5d bc b5 6f fc bb f0 c6 19 bb
       0.023788204 -0.013513758 -0.007703746 -0.0023464523
0002f0 08 88 64 3b 44 4d 93 3a 9a 8a 05 bb ae 52 39 3a
       0.003487112 0.0011238237 -0.0020376802 0.000706951
000300 2b d7 b4 bb 22 08 01 bc 10 88 b1 39 d1 ab 81 3c
       -0.005518814 -0.007875474 0.00033861445 0.015828999
000310 86 88 25 bc c3 83 ce bb c8 20 8f bc f0 9b aa ba
       -0.0101033505 -0.0063023283 -0.017471686 -0.0013016444
000320 df 6d 11 b8 29 98 2a bc c6 6a a6 bb df 2e 2e 3c
       -3.467302e-05 -0.010412254 -0.0050786464 0.010631292
000330 a8 73 44 3b a2 44 d2 bb f3 a8 cc bb 9c 36 ad ba
       0.0029976163 -0.006416873 -0.0062457263 -0.0013215127
000340 47 d2 82 3b bb 03 c8 3c 5d a7 77 bb 7c f3 05 bc
       0.003992352 0.024415841 -0.0037788965 -0.008175727
000350 04 20 9f 3c 98 19 23 bc 1e 6e 80 3c b0 12 ed bb
       0.019424446 -0.0099548325 0.015677508 -0.0072348937
000360 ed e4 96 bb 05 cc 4c bc e4 12 2b bc f3 0e 7e 3b
       -0.004604927 -0.012499814 -0.010441516 0.0038766235
000370 4d 16 17 bc de e0 62 3b 08 03 5e bb 51 cf c7 3a
       -0.0092216255 0.0034618895 -0.0033876318 0.001524428
000380 e1 7d 50 bc 3c 2f 7f bc 64 5b d3 3c 7b 0d 0c bc
       -0.012725324 -0.015575226 0.025800414 -0.008548136
000390 6b ef 9b bc ba bd 29 3c a5 15 62 bc 38 36 26 3b
       -0.019035062 0.010360176 -0.013799106 0.0025361907
0003a0 bb f1 e3 b9 bd 44 12 bc 60 5b 2b 3b 84 77 96 bb
       -0.00043476917 -0.008927521 0.0026146993 -0.004591884
0003b0 3c 5b b2 bc 48 48 44 3c 16 49 ac 3b 7f ed b2 3a
       -0.02177202 0.011980124 0.005257736 0.0013651102
0003c0 b8 6f 05 3a 0a a7 9e bb 7c 03 72 3b d9 4b aa bc
       0.0005090195 -0.00484169 0.0036928346 -0.02078812
0003d0 51 9f 47 3a 95 80 f9 bb bf da 57 3c 2e a4 38 bb
       0.00076149876 -0.007614205 0.013174712 -0.002817403
0003e0 36 af 2c 3b 17 dc 89 3a 5f 15 b0 bb 61 e3 d8 bb
       0.002634955 0.0010517862 -0.0053736414 -0.0066189026
0003f0 80 2f d5 3c 2f 08 53 bc 4a da b1 bb 28 f7 80 3c
       0.026023626 -0.012880369 -0.0054276334 0.015742853

network_body._body_endoder.seq_layers.0.bias f4 [256]
000000 61 34 fa ba 55 77 1a 3b 65 af 78 ba ed 99 8c 3a
       -0.0019089096 0.0023569663 -0.0009486585 0.0010727026
000010 c3 73 a4 ba 11 dd 16 bb 58 94 51 ba ac 96 3d bb
       -0.0012546707 -0.002301995 -0.0007994822 -0.0028928919
000020 e0 2f f7 bb f7 30 34 3a d1 33 0f bb ad 0f 94 ba
       -0.007543549 0.00068737514 -0.0021850953 -0.0011296176
000030 bb 3c 69 bb 2b ec 7d ba e6 bc 9a 3a 65 91 ec ba
       -0.0035589177 -0.0009686376 0.0011805564 -0.0018048702
000040 77 8b 84 bb 8c a7 09 bb 1e 24 54 bb 46 4e 80 ba
       -0.004044946 -0.0021004407 -0.003237016 -0.0009788952
000050 14 a9 92 3a 9c df fc 3b 5c 2c 65 3b a2 40 06 ba
       0.0011189305 0.007717086 0.0034969067 -0.00051213254
000060 f3 d5 8e 3a e7 67 a7 ba 25 99 af b9 ec 04 e6 ba
       0.0010897502 -0.0012772054 -0.00033492703 -0.0017549074
000070 ba af 48 bb 52 cd 39 bb fc fb 7b ba c1 eb d8 ba
       -0.003062232 -0.002835114 -0.0009612439 -0.0016549752
000080 16 2a d8 ba 74 a5 eb ba 07 8f 9f ba 77 10 b6 ba
       -0.0016492035 -0.0017978386 -0.0012173363 -0.0013890405
000090 2f 89 5a bb 97 b2 6f b8 49 70 21 39 22 45 96 ba
       -0.0033345928 -5.7148365e-05 0.00015395986 -0.0011464695
0000a0 7e f3 0c ba fc 3d 5d 3b c1 ee 15 bb aa b2 8c bb
       -0.00053768593 0.003375887 -0.0022877904 -0.0042937594
0000b0 58 9d 6d ba ff e6 16 bb 1a af 1c b8 cc 85 54 3b
       -0.00090642786 -0.0023025868 -3.7356374e-05 0.0032428382
0000c0 b1 ef 37 3c 1d 63 fd 3b 17 41 95 ba 47 a5 a4 bb
       0.0112265805 0.0077327625 -0.0011387196 -0.0050245854
0000d0 cb 76 35 bb d7 30 b0 ba da 06 2a ba 42 20 12 ba
       -0.0027689214 -0.001344229 -0.00064860063 -0.0005574265
0000e0 6a 41 91 ba 1f 52 d2 ba cd 6c 84 b9 cf 32 a7 ba
       -0.0011082117 -0.0016046203 -0.00025258065 -0.0012756231
0000f0 8a 85 7b 39 59 80 e3 b9 3e e0 b0 ba 2b ab 72 bb
       0.00023986973 -0.0004339244 -0.0013494564 -0.0037028294
000100 d6 fb bd bb ff 4f ac 39 cb 00 5a ba 77 9e 17 3a
       -0.0057978434 0.00032865998 -0.0008316158 0.0005783806
000110 f4 97 2b 39 c0 ce 64 38 19 f1 eb 39 81 8f ef ba
       0.00016364438 5.4551987e-05 0.00045002325 -0.001827702
000120 93 57 a5 3b 2e 28 15 3a e9 e6 8b ba 60 24 8d ba
       0.00504584 0.0005689886 -0.0010673675 -0.0010768287
000130 5d 25 9c b9 1e 9c a7 ba ba 35 48 ba cc fa 09 ba
       -0.00029782476 -0.0012787615 -0.00076374004 -0.0005263507
000140 79 dd cc b9 77 90 cb ba 94 03 77 bb fc 45 0a bb
       -0.00039074922 -0.0015530725 -0.0037691342 -0.0021098843
000150 a7 0f cb ba 22 52 ac b7 5a 7e 28 39 77 bc 95 3b
       -0.0015492336 -2.0542244e-05 0.00016068798 0.004569586
000160 1a d1 c3 3b dd 87 02 3a c0 35 24 3a a9 2e 84 39
       0.0059758546 0.00049793517 0.0006264113 0.00025211766
000170 08 ab 72 bb 01 23 4b bb ea 49 5c ba 44 62 e7 ba
       -0.0037028212 -0.0030996206 -0.0008403348 -0.0017653187
000180 44 52 a8 ba 74 9c 4a bb 83 e9 fe ba d9 ef 49 ba
       -0.00128419 -0.0030916007 -0.0019448254 -0.00077032816
000190 fc 99 c4 3b 4c 2c aa b8 df 87 ec 3a 20 d9 3a 3a
       0.0059998017 -8.1144826e-05 0.0018045864 0.0007127691
0001a0 6a c4 5d ba 09 71 aa ba 78 19 0f bb a3 99 e6 b9
       -0.0008459749 -0.0013003658 -0.002183525 -0.00043983487
0001b0 13 56 8d ba 19 c9 08 bb ae 53 99 ba 5b b2 1d bb
       -0.0010783098 -0.0020871817 -0.0011697912 -0.0024062607
0001c0 49 f2 56 ba ff 4f 04 ba 80 2f ae ba 95 ea c7 ba
       -0.00081995555 -0.0005047321 -0.0013289303 -0.0015252406
0001d0 9b ad e1 b9 f0 82 3c bb 83 77 94 bb af 3a 3b ba
       -0.0004304469 -0.0028764568 -0.0045308485 -0.00071422284
0001e0 95 11 30 bb 78 e3 e4 bb 2b 79 88 ba 99 bd c9 ba
       -0.0026865948 -0.006985124 -0.0010412087 -0.0015391588
0001f0 e2 1c 83 ba de 99 ce ba e9 fd 5f ba 8f e9 cc ba
       -0.0010003115 -0.0015762409 -0.00085446105 -0.0015633571
000200 f3 18 46 bb 94 2f 40 bb d6 e9 95 ba e8 d4 1a bb
       -0.0030227273 -0.0029325234 -0.0011437486 -0.0023625437
000210 76 1d a6 3a ab a6 37 b9 03 16 fa b9 c1 ed f1 ba
       0.0012673575 -0.00017514329 -0.00047700116 -0.0018457697
000220 c9 30 57 3b 1e aa 9a ba df 9a 0c bb 5a 30 4c ba
       0.0032835475 -0.0011799966 -0.0021454615 -0.00077891874
000230 05 36 48 bb d8 93 2b ba 9e 42 0c ba ec cf f3 3a
       -0.0030549776 -0.0006545163 -0.0005350503 0.0018601394
000240 12 4d bd 38 84 e9 fa ba 49 b3 b1 ba f5 af 9b ba
       9.026578e-05 -0.0019143079 -0.001355746 -0.0011878001
000250 ab 25 9b ba be 25 ec ba 28 e9 a4 bb d1 46 e4 ba
       -0.0011836787 -0.0018016619 -0.005032677 -0.0017416124
000260 ef 70 f7 ba 3c c9 01 bb 05 d6 cd 3a af 26 92 ba
       -0.0018878261 -0.0019803783 0.0015704042 -0.0011150445
000270 70 b5 c9 39 3c 34 96 b8 ca d8 e6 b9 3c da 8f ba
       0.0003847289 -7.162287e-05 -0.0004403054 -0.0010975073
000280 e9 94 e2 bb 51 11 0c ba f5 90 28 bb 41 fc 86 bb
       -0.006914724 -0.00053431565 -0.0025721167 -0.0041194265
000290 72 8f 23 39 5a 0c 12 3a 89 7e 19 ba 43 aa 84 ba
       0.00015598329 0.00055712985 -0.0005855342 -0.0010121543
0002a0 57 ff ed 3a 9a 14 89 bb eb 14 f9 3b 80 55 5a bb
       0.0018157762 -0.004183364 0.0076013706 -0.0033315122
0002b0 b1 6a 45 bb 27 b4 10 bb 03 06 c3 ba e5 ed 2c ba
       -0.0030123407 -0.0022080035 -0.0014879111 -0.00065967283
0002c0 ff d6 90 bb 5a 85 a4 b7 02 49 8f bb 71 62 c4 ba
       -0.004420161 -1.961242e-05 -0.004372717 -0.0014982951
0002d0 e0 0f 6f bb 79 ee 8a bb fe 19 b1 3a ce fe fd ba
       -0.0036477968 -0.004239854 0.0013511775 -0.0019378306
0002e0 6f 8a 6b ba 49 14 5d bb ea 35 ba ba a2 c4 d8 ba
       -0.0008985167 -0.0033734015 -0.0014206741 -0.0016538093
0002f0 b6 0e c5 3b 19 79 da b8 d2 4e 9b ba 82 e3 43 38
       0.0060137166 -0.00010417606 -0.0011849052 4.6703506e-05
000300 cd ef 6b bb ad 9c 86 ba 21 bc 88 3b 51 c4 06 bb
       -0.0036001087 -0.0010270082 0.0041728173 -0.002056379
000310 b6 74 a0 ba e7 b5 8c bb 6b dd ee ba b5 ee b2 ba
       -0.0012241814 -0.0042941454 -0.0018223947 -0.0013651463
000320 07 d3 18 ba fd e8 86 3a 49 62 0e 3a e4 b2 ae ba
       -0.00058297854 0.0010292825 0.0005431516 -0.001332846
000330 30 04 be ba 95 ce 04 3b b0 1b 2e ba ff 6e 7a 3b
       -0.0014497098 0.0020264734 -0.0006641699 0.0038213131
000340 6a 8d 8b 3a 0f e6 54 3b e6 8a db 3b dc 02 24 ba
       0.0010647003 0.0032485758 0.0066999076 -0.00062565296
000350 4d 17 01 bb 17 63 20 bb ac 94 39 39 2a cf d1 ba
       -0.0019697726 -0.0024473125 0.0001769836 -0.0016007174
000360 76 90 73 b9 c2 f1 2e bb 98 76 f4 b8 43 b5 bb ba
       -0.00023228102 -0.0026694392 -0.000116569165 -0.0014320988
000370 28 50 e7 ba f9 61 b9 b9 77 67 b9 ba 6c b1 9f ba
       -0.001764779 -0.00035358945 -0.0014145215 -0.0012183613
000380 08 93 c7 ba 9b 3f 8e ba 7e 74 b1 ba ee b2 8a ba
       -0.0015226314 -0.0010852696 -0.0013538746 -0.001058189
000390 ba e9 4d ba c1 b1 f0 ba f2 42 6b b9 ed 11 4c bb
       -0.00078549574 -0.0018363522 -0.00022436286 -0.0031138614
0003a0 7d da 30 bb d6 cf b1 ba d8 b2 31 3a d0 c5 fd b9
       -0.0026985698 -0.0013565968 0.0006778664 -0.00048403302
0003b0 55 43 33 ba f4 e1 1a bb 10 f8 06 bb 64 a5 d1 b8
       -0.00068383414 -0.0023633214 -0.0020594634 -9.996703e-05
0003c0 8d f0 cb ba 01 14 2e bb 61 27 04 bb 5c 01 e1 3a
       -0.0015559361 -0.0026562216 -0.0020165073 0.0017166543
0003d0 77 08 fa ba 32 25 18 3a d7 ba 95 ba b0 97 23 bb
       -0.0019076009 0.00058038824 -0.001142348 -0.002496224
0003e0 98 e9 09 b9 c8 82 57 39 c2 16 49 ba 4b 82 4c 39
       -0.00013152359 0.00020552718 -0.00076709327 0.00019503494
0003f0 8e 5c a6 bb 68 8e 33 bb 0a 21 4a bb e2 ed 8f b9
       -0.0050769513 -0.0027398113 -0.0030842447 -0.00027452322

network_body._body_endoder.seq_layers.0.weight f4 [256, 132]
000000 ad 90 97 bd 46 93 a7 bd a4 20 98 bc 2e 9e aa bd
       -0.074006416 -0.08182387 -0.018570252 -0.08330952
000010 5a f4 28 bd 5a c4 f0 3d 13 2b 0f 3e b4 38 ce bd
       -0.041248657 0.11756201 0.13981275 -0.10069409
000020 2f a8 86 bd cd 4b 70 3d 83 f3 00 be bc f1 b1 38
       -0.06575047 0.05866604 -0.12592892 8.485044e-05
000030 8f 66 06 be 4b 54 0b 3b b2 a5 9c 3d 16 0d 34 3e
       -0.1312506 0.002125996 0.076487914 0.17583117
000040 0a 88 5d bd a8 77 eb 3a 30 8a 20 3d e6 39 d9 3d
       -0.054084815 0.0017964737 0.039194286 0.106067464
000050 53 e0 54 bd 5f 83 e7 3c 66 8b 80 3d 81 68 86 3b
       -0.051971745 0.028260885 0.06276588 0.0041018133
000060 58 a1 0f bd 52 49 1c 3d a2 fd 39 3a c1 a5 b4 3d
       -0.03506598 0.03815586 0.0007094984 0.088206775
000070 69 22 ef 3c 14 23 a8 bd 65 c2 fe bc ef 47 c6 3d
       0.029191213 -0.082098156 -0.031098554 0.09681689
000080 14 ea e8 bb 66 c4 75 3d 9e 0d 1d bd 09 cb 9e 3d
       -0.0071079824 0.060001753 -0.038343064 0.0775357
000090 df 50 18 be 90 ab a5 bd 2a 0f ba 3d e0 aa 56 3d
       -0.148746 -0.080893636 0.090849236 0.052409053
0000a0 92 37 ca bd 5a ea 39 3e ed b5 81 3d 5c ea 00 bc
       -0.098738804 0.18155804 0.06333528 -0.007868376
0000b0 08 3f ae 3d 9f a6 90 3d d1 f9 9e bd 05 8b 0d 3e
       0.08508116 0.070630305 -0.077624924 0.13822563
0000c0 21 25 98 bd 81 23 4a 3e 14 7f bf bd 31 a0 79 3d
       -0.07428957 0.19740106 -0.0935041 0.060943786
0000d0 bb 09 ea 3d 63 03 29 bd 6e 32 ba bc 99 13 29 3d
       0.11427637 -0.041262995 -0.022729125 0.041278455
0000e0 56 d8 c3 3d e3 d6 a7 bc e8 3a 9a bd c0 78 0b be
       0.09562747 -0.020488208 -0.07530767 -0.13620281
0000f0 da 53 d6 3d 65 4d 90 3c 77 3f 8b bd 0f 95 2e 3e
       0.10465212 0.01761503 -0.06799214 0.17049049
000100 d0 ec b4 3d ce fa c7 bc 78 27 db bd 6f 0a 11 bd
       0.08834231 -0.024411585 -0.107008874 -0.03541034
000110 0c eb 50 bc d1 de c7 3c 07 fc 92 3d b6 a2 21 be
       -0.012751352 0.02439824 0.07176977 -0.15784726
000120 91 84 3d 3e 46 6e 3c bc 89 e2 2a be 07 c8 ac 3d
       0.18507601 -0.011500901 -0.16687979 0.0843659
000130 f3 68 0b 3e f0 79 05 be ea fd 09 bd 0b 91 21 bd
       0.13614254 -0.13034797 -0.033689417 -0.039444964
000140 1d e1 0f 3d 60 ae 7a 3d 9c a4 16 be 93 78 9f 3c
       0.035126794 0.061201453 -0.14711231 0.019466674
000150 0e a1 23 bd bf 17 f0 3c 7d 0a e9 3d e7 e2 cc bd
       -0.039948516 0.029308198 0.113789536 -0.10004216
000160 ef db 0a bd 5d 05 00 3b 0c 3a 0d bc 97 38 0c bd
       -0.03390115 0.0019534447 -0.0086197965 -0.034233656
000170 ad f6 d1 3d e4 85 a2 bd d9 21 d3 bd 03 59 0e bd
       0.10252128 -0.07935694 -0.1030919 -0.034752857
000180 0e 83 88 3d 4b 82 c8 bc 17 a6 f8 bc 5f 3e 9b bd
       0.06665622 -0.024476191 -0.030352635 -0.07580256
000190 7c 67 e1 bd 91 92 1b bd fd c3 83 bc 6f 6a c1 3c
       -0.11006066 -0.037981573 -0.016084665 0.023610322
0001a0 12 57 a6 3b 69 d0 08 3e e1 cf aa 3c 70 25 33 3c
       0.0050762976 0.13360752 0.020851078 0.010934219
0001b0 ce de fe 3d 6b 39 d9 3d aa e3 c6 3d f2 db b8 bc
       0.1244484 0.10606655 0.09711392 -0.022565816
0001c0 05 c8 07 bc c7 5a 4a 3d 05 ce b1 3d b3 cd d3 3d
       -0.0082874345 0.04940298 0.08681873 0.103419684
0001d0 48 71 20 bd 0a 97 83 3d 45 7c 98 3b 78 2a a0 3c
       -0.039170533 0.06425293 0.004653486 0.0195515
0001e0 80 75 fc 3c e5 b2 70 3d 49 38 bf bc cf fc 63 3d
       0.030817747 0.058764357 -0.023342269 0.05566102
0001f0 4b c3 57 bd 2b 3d fc 3c 56 00 6b 3c f4 b7 1c bd
       -0.05267648 0.030790886 0.014343342 -0.03826137
000200 ab 0a 71 3d d9 9f ff 3c 33 85 9d 3d 65 1b 99 bd
       0.058848064 0.031204151 0.07691421 -0.07475928
000210 7e 05 61 bd bf 72 70 3c 9e 62 9f 3d 4c b4 cc 3b
       -0.05493688 0.014675795 0.077824816 0.006247079
000220 04 c9 2f be 70 f3 09 3e 2f c9 71 bd b9 e3 7a bb
       -0.17166525 0.1347177 -0.059029754 -0.0038282706
000230 fb d9 2e be 23 30 e8 3c c1 7c 90 3d 15 6c ae bd
       -0.1707534 0.028343266 0.07055045 -0.08516709
000240 2e 74 12 bd 2e 0c 0e be f4 53 a2 3d c4 ea aa bc
       -0.03575533 -0.13871834 0.07926169 -0.020863898
000250 f3 20 a7 bd ff c2 b8 bd 42 e8 84 3d 9b 67 d0 bd
       -0.081605814 -0.090215676 0.06489612 -0.10176011
000260 c7 7f 0d 3d cc 23 7f 3d 4f 5f 91 bd 3f ee 22 bd
       0.034545686 0.062289998 -0.07098257 -0.03977799
000270 4f 54 31 3e 2d bb f0 3d 60 da 40 3d ba bc f7 3c
       0.17317317 0.11754451 0.04708326 0.030241359
000280 c7 7f d7 3d ed fe 65 3d e8 48 ac 3d 70 47 d6 3d
       0.105224185 0.05615132 0.08412343 0.10462844
000290 d1 50 17 bd 8e 6e a2 bd 2a af 2b bd 8f 9f e5 3c
       -0.036942307 -0.07931243 -0.041915096 0.028030185
0002a0 9b 58 5c 3d b3 6b 02 3b 6b 87 5e 3d 06 aa 9d 3d
       0.05379544 0.001990062 0.054328363 0.07698445
0002b0 45 6c 7b 3d 85 21 7b bd f8 73 1b be fb b6 7f 3d
       0.06138255 -0.061311264 -0.15180957 0.062430363
0002c0 2f ff 55 be 80 80 89 bd e0 6b 1d be e7 e8 fc 3d
       -0.20898126 -0.067139626 -0.15373182 0.1234911
0002d0 ce 46 91 bd 99 ea 1c bc d6 db ba bc ca 1b 05 be
       -0.07093583 -0.009577417 -0.022809904 -0.12998882
0002e0 61 4f de bc 74 30 91 3c 9d be db bc 8e 3b de bd
       -0.02713746 0.0177233 -0.02682429 -0.10851203
0002f0 6e f7 1e be 30 d5 7e 3d 43 13 e5 3d 9d 9c 84 bd
       -0.15524074 0.06221503 0.111853145 -0.06475184
000300 94 51 22 3d b4 dc 29 bd f0 5c e6 bd 2f 98 1e 3d
       0.03962858 -0.041470245 -0.11248195 0.038719352
000310 04 17 b2 bd 40 17 a4 bd a7 c8 80 bd 7d e8 a0 3d
       -0.08695796 -0.08012247 -0.062882714 0.078568436
000320 94 92 50 bc 8c f3 62 3d d2 b5 0b 3d f1 68 57 3b
       -0.012730259 0.055408046 0.034108944 0.0032868946
000330 88 78 8c bb 77 f9 d5 3d 1c aa 65 3d e7 64 79 bd
       -0.0042868294 0.10447972 0.056070432 -0.060887244
000340 65 d0 b3 3d 77 f7 a2 bd 2d 1f 8a bd ce 0c c1 3d
       0.087799825 -0.079573564 -0.067442276 0.094262704
000350 b9 a7 91 3d 58 b0 d1 bd 6d 08 80 3d 1b 10 9d 3d
       0.07112069 -0.10238713 0.06251607 0.076690875
000360 98 ee 2a be dc 32 1c be 48 03 ec bd a1 8c c7 bc
       -0.16692579 -0.15253776 -0.11524063 -0.02435905
000370 f8 c4 75 bc ff a5 74 bd 29 92 35 3d 01 d1 5f bd
       -0.015000574 -0.05972862 0.044328842 -0.05464268
000380 05 31 53 bc 35 17 a1 bc d5 ed 9f bd a4 53 ba 3d
       -0.012890105 -0.019664386 -0.07809035 0.090979844
000390 4e 21 81 3d d9 3f 3a bd ee 67 3c be 01 9b 2b 3d
       0.063051805 -0.045471046 -0.18399021 0.04189587
0003a0 2e 29 ba 3d a9 ca bf bd 5f 92 ec 3b f9 f6 b0 bb
       0.09089886 -0.09364826 0.007219597 -0.005400535
0003b0 8f 94 f4 3d 65 2b 5a bd 90 21 a8 bd f9 ae a9 3c
       0.11942398 -0.05326404 -0.082095265 0.020713316
0003c0 c3 d7 29 3d 1b bf dc 3d 63 94 36 be 24 c3 1b bd
       0.041465532 0.10778638 -0.17830043 -0.038027897
0003d0 d1 73 22 bd 6d 9f 0a be 5f 5c 86 ba 06 c5 b2 bd
       -0.039661232 -0.13537379 -0.0010250917 -0.087289855
0003e0 06 6b 1b bd f3 05 13 3e 39 2b 50 bc 13 eb 29 3e
       -0.037943862 0.14357738 -0.012705618 0.1659358
0003f0 20 98 8b 3b 16 cb 3e bb e9 cc 9b 3c d3 a6 7d bd
       0.004260078 -0.0029112748 0.019018607 -0.061926674

network_body._body_endoder.seq_layers.2.bias f4 [256]
000000 59 9d aa ba 32 bf 41 3b 0d 6b 82 38 52 b6 c0 39
       -0.0013016864 0.0029563424 6.218823e-05 0.00036756933
000010 da 73 95 bb ad 23 cd bb ef b4 ff ba af 0a 02 ba
       -0.0045609297 -0.0062603564 -0.0019508878 -0.00049606984
000020 50 17 85 ba 27 c8 b5 bb 00 32 80 bb 5b ea 57 bb
       -0.0010154042 -0.0055475417 -0.0039122105 -0.0032946083
000030 72 05 f3 ba 1d 00 38 bb 56 93 79 bb 61 16 df b9
       -0.0018541052 -0.002807624 -0.0038082204 -0.00042550548
000040 1a 16 0d 39 0d 54 8b b9 6e 8d fc b9 f2 2f 8f bb
       0.00013455041 -0.0002657477 -0.0004817056 -0.004369729
000050 89 bc 3a 3b a4 b2 49 ba 71 86 7a bb ef 94 63 b9
       0.0028493723 -0.0007694161 -0.0038227106 -0.00021703889
000060 bb 61 c4 ba 57 2b 2e b9 2d 00 6b ba f4 5e 9f ba
       -0.0014982739 -0.00016610078 -0.0008964565 -0.0012159036
000070 96 4e f4 ba 5b 88 90 b9 f3 2c 3e bb 42 3b e9 37
       -0.0018639143 -0.00027567413 -0.002901849 2.7803359e-05
000080 13 09 de ba d8 de 24 b9 34 21 fd b9 e0 51 b0 ba
       -0.001693996 -0.00015723275 -0.0004828066 -0.0013452135
000090 88 f4 1e b9 21 cc 5f ba 56 77 cf b9 5a 83 53 ba
       -0.00015159149 -0.00085371925 -0.0003957103 -0.0008068584
0000a0 45 8f f2 3b 09 1b 51 38 91 99 d0 3a 0b 98 76 b9
       0.007402333 4.985466e-05 0.0015914907 -0.00023517029
0000b0 fb 4b 20 ba a0 80 af ba a1 48 32 bb 5a 43 0c 3c
       -0.00061148376 -0.0013389774 -0.0027203935 0.00856098
0000c0 9b 06 32 bb 8e d1 cd b9 6d f8 4e bb 42 47 36 bb
       -0.0027164582 -0.00039256777 -0.0031581179 -0.002781347
0000d0 aa 9b 31 ba 82 c9 e7 ba b9 85 f7 b9 56 73 3e ba
       -0.000677521 -0.0017683955 -0.00047211142 -0.0007265111
0000e0 90 3d ff ba e7 63 17 39 83 72 a5 b9 4a de 1a b9
       -0.0019473303 0.00014437699 -0.0003155657 -0.00014769394
0000f0 66 fa 77 bb 74 c4 4a b9 09 ca c9 ba 6d db c8 b9
       -0.0037838458 -0.00019337406 -0.0015395294 -0.00038310458
000100 6d 98 ac 3a 34 ab b3 ba dc 51 60 ba 16 b6 21 bb
       0.0013167985 -0.0013707639 -0.000855712 -0.0024675182
000110 c9 4e cf ba 0e 3b a9 bb e4 23 39 ba f7 d8 0d ba
       -0.0015816326 -0.0051645106 -0.0007062538 -0.00054110534
000120 17 ed ba b9 a9 c5 43 ba 84 f3 ba b9 05 50 1f ba
       -0.0003565333 -0.00074681133 -0.00035658118 -0.00060772925
000130 af 38 15 b9 1a 70 4f ba 6c 47 ed b9 c5 d1 80 b9
       -0.00014230864 -0.0007913128 -0.00045257376 -0.00024570353
000140 83 19 07 b9 d0 db 4c ba cd 02 31 bb 11 8f 15 3c
       -0.00012884107 -0.0007814737 -0.0027009726 0.009128348
000150 e7 b1 da b9 26 9b c6 3b 10 63 80 ba 0d ca 96 b9
       -0.00041712748 0.0060609756 -0.0009795148 -0.0002876077
000160 b3 e5 ae 3b bf 20 30 ba 5b 6d a9 b9 18 a7 a2 b9
       0.005337441 -0.0006718747 -0.00032315668 -0.00031023542
000170 98 b4 1f ba 1e d9 ab b9 2e de 90 ba 2e 0a 70 bb
       -0.0006092279 -0.00032777427 -0.0011052543 -0.0036627161
000180 78 98 4c 3b a5 f1 3e b9 db 61 43 bb a7 ca bb 3a
       0.0031218808 -0.00018209832 -0.0029812965 0.0014327363
000190 9d 57 ac ba c7 62 66 ba 42 dc c2 3b c1 11 98 ba
       -0.0013148669 -0.00087885227 0.005946667 -0.0011601971
0001a0 47 1c 10 bb 53 17 42 3c f1 f5 71 bb 2e 19 da bb
       -0.002198951 0.011846381 -0.0036920274 -0.0066558337
0001b0 e7 ec 9c ba af 42 d0 b9 32 3f 09 bb 75 1b be ba
       -0.0011972458 -0.00039722535 -0.0020942208 -0.0014504032
0001c0 a2 71 37 39 aa d9 08 ba c7 19 23 bb 48 4d 98 b9
       0.00017494572 -0.0005220423 -0.002488719 -0.00029049278
0001d0 08 2d c5 b9 e6 1a a4 b7 08 f2 7b ba 71 48 c7 ba
       -0.0003760832 -1.9562849e-05 -0.00096109556 -0.0015204084
0001e0 50 b5 98 b9 b9 78 80 ba 36 db 99 ba 70 3f 76 ba
       -0.00029126788 -0.0009801603 -0.0011738304 -0.0009393608
0001f0 9c 0c 75 bb 83 84 41 ba 3c 6c 36 b9 07 a9 2f ba
       -0.003739155 -0.00073821115 -0.00017397193 -0.0006700907
000200 67 79 b5 ba 61 ae 13 ba 6c 79 81 bb 29 13 3e bb
       -0.0013845385 -0.00056335895 -0.003951242 -0.002900312
000210 4a e3 d8 b9 77 13 bd bb 44 1f 9b 3a 95 bf a0 ba
       -0.00041368074 -0.0057701427 0.0011834879 -0.0012264127
000220 bd ce 21 bb 38 17 ca b9 8c d5 21 bb 75 9f a9 ba
       -0.0024689876 -0.00038545742 -0.0024693934 -0.0012941199
000230 59 ba 0f ba 20 2c 59 ba 6d 3e 5e ba 7e 2e 33 ba
       -0.0005482785 -0.0008284468 -0.000847793 -0.0006835236
000240 8f 78 b8 3b aa fa c6 b9 63 5a 9b b9 17 e5 64 38
       0.005629606 -0.00037952262 -0.00029631247 5.4572793e-05
000250 d8 5c 5a bb 39 39 17 bb 5b 38 98 b9 ca f0 0d b9
       -0.00333195 -0.002307488 -0.00029033687 -0.00013536509
000260 76 94 4d bb 9d 5b 54 ba 0f 0d 29 bb 2d 4a d1 3b
       -0.0031369007 -0.00081008096 -0.0025795137 0.0063870163
000270 b2 e1 af ba 49 ed 3f b8 e0 12 b3 ba 55 e6 ad b7
       -0.0013418703 -4.5758938e-05 -0.0013662241 -2.0730464e-05
000280 4c 5c a3 ba b1 a4 32 ba 53 41 4c ba cc 9b 13 bb
       -0.001246342 -0.0006814702 -0.00077917165 -0.0022523282
000290 54 db 8b 3b 1f 72 b9 b9 b4 6d 51 bb 4a b5 1f 3a
       0.0042680893 -0.00035370977 -0.0031956257 0.0006092383
0002a0 05 5e 8e ba f0 d2 2e ba 27 9f a1 bb fe b3 31 b8
       -0.001086176 -0.00066690054 -0.0049323025 -4.236772e-05
0002b0 9a 5b d8 b9 87 d4 48 bb 21 09 68 ba 22 5f 16 bb
       -0.0004126698 -0.0030644254 -0.0008851458 -0.0022944887
0002c0 f5 27 88 ba ef e8 b4 38 47 13 7f 3b ce a6 dd 3b
       -0.0010387885 8.626456e-05 0.0038921402 0.0067642694
0002d0 fa 28 f8 ba a5 24 86 ba c0 19 72 bb dd 5d 35 ba
       -0.001893311 -0.001023431 -0.0036941618 -0.0006918589
0002e0 65 c5 a3 ba 13 47 0a 39 da 07 af ba c2 d9 29 bb
       -0.0012494741 0.00013187183 -0.001335378 -0.0025917147
0002f0 b5 05 9b bb 63 23 24 bb 59 f3 55 ba 6f 9f 99 ba
       -0.004730905 -0.0025045506 -0.0008161567 -0.0011720489
000300 04 a5 8c ba f7 cd 15 bb da 70 71 ba aa c9 51 b9
       -0.0010730331 -0.002285836 -0.00092102366 -0.00020006919
000310 1c df ee ba 8b ca 36 3b 30 8f a1 ba 30 7a 9e ba
       -0.0018224451 0.002789172 -0.0012325998 -0.0012090858
000320 7b 0b 7b ba 10 ad 22 ba 84 45 d6 ba 8f 21 9a ba
       -0.0009576601 -0.0006205598 -0.0016347622 -0.0011759269
000330 a7 47 ff ba ff d1 12 bb 76 d3 c2 b9 55 d1 55 ba
       -0.001947631 -0.0022403 -0.00037160114 -0.0008156498
000340 3a 15 4b ba dc 64 84 ba 90 7d 5a bb c8 9a 78 ba
       -0.00077469985 -0.0010100859 -0.0033339001 -0.00094835134
000350 e0 5d 0d ba c7 ea ff b9 33 9e 06 ba 22 fc d3 ba
       -0.00053927116 -0.00048812313 -0.0005135268 -0.0016173164
000360 12 0f 9b bb 5b 2e 3b ba 1a b1 8f ba 95 6c aa bb
       -0.004732021 -0.00071403914 -0.0010962815 -0.0052009323
000370 57 dc a4 ba 60 16 d7 ba 7e 50 a1 b9 4d 04 3e bb
       -0.0012577873 -0.0016409867 -0.00030768284 -0.0028994263
000380 0b c0 25 39 1a f6 cf ba 83 db 69 bb 66 98 ab ba
       0.00015807168 -0.0015866191 -0.0035683818 -0.0013091683
000390 4e a5 58 b9 b8 15 1a bb 6a c6 5f ba b5 54 5f ba
       -0.00020660946 -0.002351148 -0.0008536341 -0.0008519397
0003a0 3a c9 10 bb d0 4e 21 b9 42 0a ac ba 1a da e9 b9
       -0.0022092597 -0.00015383516 -0.0013125616 -0.00044603721
0003b0 9a b9 66 b9 11 b5 6f ba 13 e0 ac b9 e8 d8 6c ba
       -0.00022003651 -0.00091441075 -0.00032973345 -0.0009035007
0003c0 b9 f9 40 bb e5 81 0d ba 9e 71 84 ba ea c2 11 38
       -0.0029445721 -0.0005398079 -0.0010104661 3.4752222e-05
0003d0 30 61 6d bb 84 ed 71 3b 5d b8 4c bb cf 96 6a ba
       -0.0036221258 0.0036915252 -0.0031237819 -0.0008948864
0003e0 ec 13 0a ba c0 37 82 bb 95 22 73 ba f6 2a 63 ba
       -0.0005267251 -0.003973931 -0.00092748675 -0.00086657645
0003f0 17 c4 96 b8 48 d1 0b ba ca 13 cd b9 85 c6 b5 b9
       -7.189082e-05 -0.00053336145 -0.0003911539 -0.0003467092

network_body._body_endoder.seq_layers.2.weight f4 [256, 256]
000000 7e b0 3c 3d 38 f8 44 3d 8d d5 25 3d 00 fe e5 3c
       0.046066754 0.048088282 0.04048686 0.028075218
000010 27 9c e5 bc fb c9 65 be 6c d4 2d bd 3a df d3 3d
       -0.02802856 -0.2244033 -0.04243891 0.103453115
000020 12 2c de bd 74 80 89 bc a6 88 eb 3c 31 50 78 bc
       -0.108482495 -0.016784884 0.028751682 -0.015155838
000030 dd 2d b5 bc 1a 4d c4 bd 29 43 58 3d 8e 83 3a 3d
       -0.022116596 -0.095850185 0.052798424 0.045535617
000040 e8 23 d8 3b 1c 12 a0 3c fc 49 a7 bd cf 7f 75 3d
       0.0065960772 0.019539885 -0.08168408 0.05993634
000050 8c 99 eb 3c 88 2a eb b9 01 15 a0 bd ae 5e 2d 3d
       0.02875974 -0.0004485438 -0.07816506 0.04232662
000060 62 57 91 bd 03 51 5d bd da 91 86 3d 18 94 52 3d
       -0.07096745 -0.054032337 0.06570788 0.051410764
000070 d9 2a 01 bd cd 98 0d 3d e8 2d 06 3d 55 91 82 3c
       -0.031535003 0.03456955 0.032758623 0.01593844
000080 4e c0 a3 3c 06 01 c9 3d 07 af 02 be 50 28 94 3c
       0.019989159 0.09814648 -0.1276208 0.018085629
000090 d7 77 86 bc 91 08 a9 bd 53 89 5d 3d 99 e7 6a bc
       -0.016414566 -0.08253587 0.05408604 -0.014337444
0000a0 82 75 9f 3d ee 81 94 3d a0 2f 55 bd 84 92 81 3d
       0.07786085 0.072513446 -0.052047372 0.06326774
0000b0 e0 20 37 bd 9e 4c 11 bc 84 79 1c bd d8 fe d4 bb
       -0.044709086 -0.008868365 -0.038201824 -0.0065001063
0000c0 2d bd 85 3d a3 e7 bc bc aa b4 8a 3c e6 44 2b 3d
       0.06530223 -0.023059672 0.01693185 0.041813754
0000d0 a3 df 50 3d 59 2f 8b bd f7 22 57 bd 0e 20 f6 3d
       0.050994527 -0.0679614 -0.05252358 0.12017833
0000e0 51 e0 8a bd 50 09 76 3d 92 21 97 bd ee 8d e5 3d
       -0.06781066 0.060067475 -0.0737945 0.112087116
0000f0 a6 8d 96 bd 8c ff 8a 3d 75 5f 0c 3d 8c 6b 08 bd
       -0.07351236 0.06787023 0.034270722 -0.03330569
000100 d1 d7 b4 bc 3b 29 f3 bd c6 b9 b1 bd 95 9d 65 bd
       -0.022075566 -0.118730985 -0.086780116 -0.056058485
000110 7d bd 61 3d 81 0d 6e 3d c4 8a ab bd ed 27 7c bd
       0.05511235 0.058118347 -0.08376077 -0.061561514
000120 6a b8 f8 bd 7a 0c 76 bc 04 5f 62 bd 81 f6 1f bd
       -0.12144549 -0.015017623 -0.055266395 -0.039053444
000130 ed 7b 8f bb 62 82 19 bd b5 01 9d bd 40 41 d4 bd
       -0.004378787 -0.03747786 -0.07666341 -0.10364008
000140 54 d2 43 bd 69 4b f8 3b 7e 93 80 3d 61 3b cd 3d
       -0.047808006 0.007577349 0.06278132 0.10021091
000150 9f db bd 3d fe 45 81 3c b7 0b 82 3b b8 e9 66 bc
       0.09270405 0.015780445 0.0039686817 -0.014093809
000160 dc 93 56 bd b8 97 64 bd 7b 02 2e 3c 63 d8 93 bc
       -0.052387103 -0.055808753 0.010620709 -0.018047517
000170 59 d0 87 3d ad 70 f9 3c da 71 d6 3c 04 96 3f 3d
       0.06631536 0.030449236 0.026177336 0.046773925
000180 31 12 fd 3c 12 ed e1 3b ac 09 6f bd 60 dd b6 bd
       0.030892463 0.006894716 -0.058358833 -0.08928943
000190 37 87 da bc 3c 29 f3 bc 7e 60 aa bd e6 4e a3 bb
       -0.026675804 -0.029682748 -0.08319186 -0.0049837707
0001a0 fd ac 91 bd cd a2 0e 3c ba 84 3d 3d 9b f0 7e 3d
       -0.07113073 0.008705807 0.046269156 0.062241178
0001b0 9f fc 7c 3d 76 2c 43 3d 28 ac 7a 3d c4 09 0d 3e
       0.061764356 0.047649823 0.061199337 0.13773257
0001c0 a8 29 e2 3b dc 0c 57 3d 5c e2 c7 bd 3c 00 9e 3b
       0.0069019385 0.052502498 -0.097599715 0.0048218053
0001d0 a1 52 ac bc 63 a2 81 3d 9a 6e 1d 3d a8 2b a3 3c
       -0.021035494 0.06329801 0.038435556 0.019918278
0001e0 41 05 b4 bd 6b a2 06 bc 00 0c 64 3d 5c ea 6d bc
       -0.087900646 -0.008217434 0.055675507 -0.014521208
0001f0 ff 6a d6 bc 34 3c b0 3d f1 bd f4 bc d4 e1 6a bd
       -0.026174067 0.08605233 -0.029875727 -0.057344273
000200 9d 09 e5 bc 71 14 48 3d 1d ed e1 bc d0 6d 84 3d
       -0.027958686 0.04884762 -0.027578885 0.064662576
000210 67 58 60 3c 82 bb 14 be cc 7b 98 bd 1f d7 56 3c
       0.013692952 -0.14524654 -0.074454874 0.013112812
000220 e2 c1 d8 bb 07 1b 0b bb 94 70 10 bd 90 5f ce 3d
       -0.0066149095 -0.0021225826 -0.035263613 0.10076821
000230 8f 66 87 3d 22 4b a1 bd 73 c6 81 bc 7d 88 ba bd
       0.066113584 -0.078756586 -0.015841698 -0.09108064
000240 2a 9a 06 3d 62 b0 ba 3d f1 f5 d7 bc b0 3f f5 3d
       0.032861866 0.091156736 -0.026362391 0.11975038
000250 23 da 0c bd db c9 e8 3c 41 ee 23 3d dd 6f b2 bd
       -0.03438772 0.028416565 0.04002214 -0.087127425
000260 1c fe 70 3d bf 42 08 bb 80 09 61 bd 5c 93 04 3d
       0.058836088 -0.0020791737 -0.0549407 0.032367095
000270 c0 4d 51 bd a7 b6 c4 3b fa 18 ce 3b 78 17 2b 3d
       -0.05109954 0.006003219 0.0062895985 0.04177043
000280 36 a5 be bb 01 be f6 3d 92 aa 16 3d 21 89 2f 3d
       -0.0058180345 0.12047959 0.036783762 0.042855386
000290 39 2b 11 bd e7 29 88 3c e8 0b dc bd 98 0a 46 3d
       -0.03544161 0.016621543 -0.107444584 0.048349947
0002a0 45 02 c7 3d ae f7 a6 3a dd c7 89 3d 82 1a 3c 3c
       0.0971723 0.0012738609 0.06727574 0.011480929
0002b0 56 ce a1 bc 88 8d 20 3c f9 f9 b9 bd 80 80 ff bc
       -0.019751709 0.009799369 -0.090808816 -0.031189203
0002c0 3d 4c 2a be 7c 01 8d 3d f5 f7 f0 bb 66 07 80 ba
       -0.16630645 0.06885049 -0.0073537775 -0.000976783
0002d0 f2 88 db bd 6f 10 ed 3c 8f a9 e4 bc 43 0c a6 3c
       -0.107194796 0.0289385 -0.027912883 0.020269519
0002e0 b6 42 23 bd 49 4d a7 3d 4d eb c3 ba d4 de a0 bd
       -0.039858542 0.08169038 -0.0014947444 -0.07855001
0002f0 ee 52 06 3e 5e d0 67 bd af 1d 13 3d 79 db 03 3e
       0.13117573 -0.0565952 0.03591698 0.12876691
000300 e1 41 84 3c f2 0f f5 bc 77 65 f3 bd 29 54 8a 3c
       0.016144695 -0.02991483 -0.11884587 0.016885834
000310 35 1f d4 3c ae 26 8f 3d 97 00 f7 bd 3d a6 c5 3c
       0.025893787 0.069897994 -0.120606594 0.02412712
000320 28 20 40 3c c6 cc 46 bd 28 64 e5 bb 69 80 2f bd
       0.011726417 -0.04853513 -0.007000465 -0.04284707
000330 10 58 95 bc 13 ba d9 bd 4f 14 54 3c e7 f5 c4 3c
       -0.018230468 -0.10631194 0.012944295 0.024043037
000340 e1 57 4c be cc 1f 39 3d c0 a1 8b bc 42 6e a5 3c
       -0.19955398 0.04519634 -0.017044902 0.020194177
000350 0d 91 12 bd 87 79 4a 3d e0 1c f0 bb f7 5c 83 bd
       -0.035782862 0.049432304 -0.007327661 -0.06414216
000360 8c e8 0a bd b3 7f 83 bd c6 43 33 bd 90 9b d7 3d
       -0.03391318 -0.06420841 -0.043765806 0.10527718
000370 58 2d f3 3c f7 8e 40 bd 0a 2f 2f 3d b5 95 86 3d
       0.029684708 -0.047011342 0.04276947 0.06571523
000380 98 30 19 be 6a bf fb 3a f4 af 18 be af f1 05 3e
       -0.14959943 0.0019206826 -0.14910871 0.13080476
000390 70 0e 8f 3d 46 68 73 bd 1e 8c cf 3d d7 54 75 bd
       0.069851756 -0.059425615 0.10134147 -0.059895363
0003a0 f9 39 9d 3d f7 dd 4e 3d 4b e5 89 3b aa bd 95 bd
       0.07677073 0.05050465 0.004208242 -0.07311566
0003b0 24 46 68 3d 7d f9 58 3c 3b 02 7b 3c 5b 4c 56 3a
       0.056707516 0.013243076 0.015320356 0.000817483
0003c0 75 be 1d bd d5 1c 85 3c 6c 50 2e bd eb cb 06 bc
       -0.038511712 0.0162491 -0.042557165 -0.008227329
0003d0 bc 1a 28 bd bc 86 9c 3d 04 c3 2a bb 57 fd 9e 3d
       -0.04104112 0.07642886 -0.002605618 0.077631645
0003e0 5a e3 1e bc a6 01 80 3d f6 f0 da bd 0b 6c d9 bc
       -0.0096977595 0.062503144 -0.10690491 -0.026540777
0003f0 e6 04 88 3d 7b 05 06 3e f9 5c 53 bc 18 46 30 bd
       0.06641559 0.13088028 -0.012900584 -0.043035597
