results/MLDriver2/MLDriver/MLDriver-72091.onnx (onnx, 404427 bytes, 7 tensors)

action_model._continuous_distribution.log_sigma f4 [1, 3]
000000 02 cf fc 3c f4 9d d0 3c 4f 61 31 3d
       0.030860428 0.025465943 0.04330569

action_model._continuous_distribution.mu.bias f4 [3]
000000 8e b8 64 3b 2b 6a ca 38 f3 ba 8d ba
       0.0034900042 9.651886e-05 -0.0010813161

action_model._continuous_distribution.mu.weight f4 [3, 256]
000000 3e f4 85 bb 4a 38 92 39 dd b0 4f 3c 54 2e 34 3c
       -0.004087954 0.0002788923 0.012676445 0.010997374
000010 8e ac be 3b dd 8a aa 3c 58 60 19 3c 64 fd 4a 3b
       0.00581891 0.020818168 0.009361349 0.0030973786
000020 43 3b 70 bc d6 d3 8b ba 97 4c 22 bc ff 7c c3 ba
       -0.014662567 -0.001066799 -0.009905956 -0.0014914571
000030 d0 b2 55 39 e3 c3 d7 3b 85 65 df 3b 5b f8 c4 ba
       0.00020379876 0.006584631 0.006817522 -0.0015027629
000040 fd 92 64 bb e3 ae 95 3c bf 4d 1f 3d 1f e3 01 3c
       -0.003487765 0.018271869 0.038892504 0.007927685
000050 44 20 5d 3b fe a6 37 3c b7 1a 2b bc 21 10 d7 3b
       0.0033741156 0.011209248 -0.010443381 0.006563202
000060 c0 a7 b1 3c 8d d5 1d 3c ba fd ea bb cb b2 f2 3c
       0.021686435 0.009633434 -0.00717136 0.02962627
000070 b3 f1 1b 3c cc b9 81 bb 81 db d5 3b 76 45 ab 3b
       0.009518075 -0.0039589163 0.006526411 0.0052267862
000080 7d fc b9 3b 19 5d 01 3b b8 25 2f 3c e5 58 fa bb
       0.005675851 0.0019739328 0.010690145 -0.0076399916
000090 3f b1 8e 3b 43 c8 0a bb 3c 01 06 3c 2b 00 2f bb
       0.0043546255 -0.0021176494 0.008179005 -0.002670298
0000a0 8d 72 3b 3c d2 9d 96 3c ac e9 45 3c d8 7d 3b 3a
       0.011440885 0.018385801 0.0120796375 0.0007152236
0000b0 d9 87 2a bb a9 9c 41 bc f1 7e 88 3c 99 c8 0b 3b
       -0.0026020913 -0.011817136 0.016662093 0.0021329282
0000c0 ab 3b 3f 3c 62 1c 1a 3c b3 a9 22 3b 35 4f 73 bc
       0.011671941 0.009406181 0.0024820387 -0.014850427
0000d0 82 32 ab bc 2e bf a2 3b 67 32 a4 3b 2b 05 38 3b
       -0.020898107 0.004966638 0.0050108912 0.0028079252
0000e0 b0 84 ce 3b eb f4 ae 3c 27 80 57 3b 6c 70 34 bc
       0.0063024387 0.02135702 0.0032882781 -0.011013132
0000f0 6b af 5d 3b d2 57 d6 ba 1a ab 09 bc ca 17 e6 bc
       0.003382648 -0.0016353077 -0.00840261 -0.028087515
000100 51 51 2f 3a 51 c4 a5 3c e7 de 5c 3a 22 cf 10 3c
       0.00066878373 0.020235213 0.0008425549 0.008838447
000110 9d 9d 06 3d 3f 4f 84 3a 5f 5c e7 b9 0f f9 b3 b9
       0.032865155 0.0010094418 -0.00044128575 -0.00034327104
000120 76 10 45 3b 90 37 86 3b 0c db 39 bc c3 23 4f bc
       0.0030069626 0.004095979 -0.011343729 -0.012642804
000130 7c 66 e2 3b 25 6f 29 3c 35 cf c5 3b ef 5e 89 bb
       0.0069091897 0.01034144 0.006036664 -0.004192225
000140 db 9f 53 bc d2 92 d4 bb 91 66 18 bb 9d e0 c9 3b
       -0.0129165305 -0.006487229 -0.0023254494 0.006160809
000150 96 7d 08 3c 7b 0e 2f 3c 33 08 bd 3c c2 e1 32 3c
       0.008330723 0.010684605 0.023075199 0.010918083
000160 18 88 7a bc 5e dc 14 3b 4f ae 56 3c c2 40 0a 3c
       -0.015291236 0.0022714357 0.013103082 0.008438291
000170 8f b9 97 bc 4b 6c 52 ba fd d6 78 bb a9 7e 69 bc
       -0.018521098 -0.0008027001 -0.003796994 -0.01425139
000180 d6 1e 9b bc 05 3a 2a 3c cb 39 94 bb 27 0b ba bb
       -0.018935602 0.0103898095 -0.004523491 -0.005677599
000190 f3 1c de bc 19 8e e7 3c 77 8a 41 bc 02 d9 1a 3c
       -0.027113413 0.028266 -0.011812798 0.009451153
0001a0 6c a8 8b bb 36 1c 18 3d 12 d9 dc 3c 9a eb 15 bc
       -0.004262021 0.03713628 0.026958976 -0.00915041
0001b0 89 ee 1d 3d 98 7d 16 bb 4e f3 e2 3c c9 bf 0d 3d
       0.038557563 -0.0022963043 0.027703907 0.03460673
0001c0 d4 5b 2d bc 13 34 98 bb 5d e6 9a 3c 1d 2d a5 3c
       -0.010580976 -0.0046448796 0.018908674 0.020163113
0001d0 fb ee 5f 3c 62 2c 08 bc 63 f7 8b 3c d2 15 2d ba
       0.013667817 -0.008311363 0.017085737 -0.0006602678
0001e0 40 35 cf 3c e9 d8 9c bb f6 81 d0 3c 27 90 36 3c
       0.025293946 -0.0047866 0.025452595 0.011142767
0001f0 b6 b0 92 3c 15 11 fa 3b d8 be ff bb 2a db c2 3c
       0.017906528 0.007631431 -0.007804733 0.023786146
000200 dc 62 2c bc 53 9c ee bb d4 c2 84 ba 52 55 87 3c
       -0.010521617 -0.007281819 -0.0010128864 0.016520176
000210 8f 8a c2 3b a8 8c a9 3c 04 8a df 3c 3b e8 de 39
       0.0059369276 0.020696953 0.02728749 0.00042516165
000220 55 61 14 bb b3 fc 34 bc 5e a4 8a 3c b6 f6 2c ba
       -0.0022641022 -0.011046576 0.01692408 -0.0006598042
000230 f6 24 2e 3c e3 15 05 3c e4 27 3a bc 1a 67 08 bc
       0.010628929 0.008122894 -0.01136205 -0.008325363
000240 e5 66 41 bc 26 fa 47 3c 2f 1e af 3a e1 4e 0e bb
       -0.011804317 0.012205636 0.0013360436 -0.0021714496
000250 b9 58 47 bb 09 8c 2d 3d 82 e6 2f 3d 0f 6e 95 ba
       -0.0030417873 0.042369876 0.04294444 -0.0011400598
000260 99 60 9a 3c f1 08 33 3b df 37 60 3a 51 eb 8f 3b
       0.01884489 0.0027318562 0.00085532473 0.0043920656
000270 91 e3 53 3c 5b e5 00 b9 65 f8 e1 bc f9 de 52 3b
       0.012932674 -0.00012292473 -0.027584264 0.003217636
000280 1d 27 60 bb 8c 46 4d 3a 7a dc c7 3a 42 f5 92 3c
       -0.0034203 0.00078306417 0.0015248202 0.017939214
000290 2f d4 8a 3c 15 6f 7c 3c 6b bd a9 38 c5 0b f6 3a
       0.01694688 0.015407343 8.09383e-05 0.0018771818
0002a0 ab f5 52 3b 01 52 ad 39 c2 74 80 bb 86 d3 ca bb
       0.0032189887 0.0003305823 -0.0039201686 -0.0061897663
0002b0 a0 65 de 3a 3c ae a7 3a 2a 4a cb 3b eb 51 12 3c
       0.0016967542 0.0012793015 0.0062039094 0.008930664
0002c0 a5 26 0d b9 3c 84 db 3b a9 de d3 b9 75 5b 01 3d
       -0.00013461204 0.006699113 -0.0004041095 0.03158136
0002d0 0c 76 09 3b 20 92 36 3c a4 e5 e0 3b d1 77 4e 3b
       0.0020974902 0.011143237 0.006863313 0.0031504522
0002e0 40 f9 72 bb 81 7d cc 3a 7d 3d 81 bc a5 87 b4 3b
       -0.0037074834 0.0015601368 -0.01577639 0.005509334
0002f0 df 32 9f bc 47 d6 4f 3a 50 ee 7e 3c 51 b6 99 3c
       -0.019433437 0.0007928353 0.015559748 0.018763693
000300 a3 34 5d 3c d6 95 01 3d 11 95 4f bc ee 83 5d 3c
       0.013501319 0.031637035 -0.012669818 0.013520224
000310 55 e4 2c b9 e5 1c 00 3d 75 c4 9d 3b a8 62 c3 bb
       -0.00016488259 0.031277556 0.0048146793 -0.0059626885
000320 a2 d6 10 bb 51 cc 23 3d 5d ed e1 bb b4 2b 38 bc
       -0.0022100587 0.039989773 -0.006894751 -0.011240888
000330 39 be 5b 3c 18 33 c6 3b fb 79 82 3c a5 b2 05 3c
       0.013412052 0.0060485713 0.015927305 0.008160268
000340 e3 98 54 bb a8 f5 f7 bb c3 8a b5 3c b5 71 ae bc
       -0.003243976 -0.0075671263 0.022160893 -0.021294454
000350 70 fc 9a ba 41 8b c2 3c 92 59 09 3b 47 8c 0a bb
       -0.00118245 0.023748042 0.002095793 -0.002114074
000360 36 3e 9d 3c df e1 82 ba 01 87 ae bb 99 4c 5c 3c
       0.019194704 -0.0009985528 -0.0053261523 0.013445997
000370 8a 86 2f bb d6 ea 0a 3d 1b fa 57 3c 59 e1 d7 3b
       -0.0026783072 0.033915363 0.013182188 0.006588143
000380 3c e9 8f 3b f7 ff 0e bc 4c 7c 44 bb 5d 31 11 bc
       0.0043918174 -0.008728019 -0.0029981313 -0.008861867
000390 39 7b 92 bb 0c 06 8f bb 34 2e 69 3c a6 81 35 3c
       -0.0044702557 -0.0043647345 0.014232207 0.011078274
0003a0 aa e2 0b 3b 54 f8 a7 ba 19 dd 12 bb c3 8d aa 3c
       0.002134482 -0.0012815096 -0.0022409617 0.02081955
0003b0 e8 91 37 bc 03 d6 e3 3c 80 35 87 bc e4 ff 87 3a
       -0.01120422 0.02781201 -0.016505003 0.0010375944
0003c0 39 76 e2 3c 0b 17 a7 3c 3a a7 1e bc 7c e3 31 3c
       0.027644264 0.02039673 -0.009683425 0.010857459
0003d0 d9 12 a7 3b de 9f 14 b9 80 33 60 bb c1 f6 a1 bb
       0.0050986824 -0.00014173935 -0.0034210384 -0.0049427454
0003e0 18 37 32 3c 3a 45 f4 3b 07 24 cd 3b 62 83 1e 3c
       0.010877393 0.0074545415 0.0062603983 0.009674879
0003f0 65 56 6d ba 97 e1 9c 3c 23 8f a8 ba b1 09 b3 3b
       -0.00090537063 0.019150538 -0.0012860041 0.005463802

network_body._body_endoder.seq_layers.0.bias f4 [256]
000000 5a cb c9 ba d3 91 ed 39 2f 87 83 bb e6 93 f6 bb
       -0.0015395686 0.0004531281 -0.004013918 -0.007524955
000010 2a c8 bf 3c a6 c2 37 bc 57 20 31 bc c9 24 9b 3b
       0.023410875 -0.011215841 -0.010810933 0.0047346097
000020 e7 3d ee bb 98 ca ca bb 4e 3d 3e bc c1 6a a8 bb
       -0.007270563 -0.006188702 -0.011611296 -0.005139679
000030 b4 66 4e bb 8c 70 8f bb e8 13 81 39 93 32 de bb
       -0.0031494321 -0.0043774303 0.0002461963 -0.0067809313
000040 27 20 52 bc db 47 68 3c ba 5c a7 bb 90 a4 37 bc
       -0.0128250485 0.014177288 -0.0051074894 -0.011208668
000050 21 a1 eb bb 6e 3e 67 bb 95 64 77 3c 4f 08 b4 bc
       -0.007190839 -0.0035285014 0.015099664 -0.021976618
000060 51 85 1d ba 67 4d 8f 3b 97 68 1a bc e2 f3 14 bc
       -0.00060089404 0.0043732408 -0.00942435 -0.009091349
000070 0b e4 af bb 1d e4 8b bb 05 0f 30 3b f6 54 87 bb
       -0.005367761 -0.0042691366 0.002686442 -0.004130001
000080 84 dd 73 bb 36 20 08 3a b2 f9 62 bb 15 30 0c bc
       -0.003721089 0.0005192788 -0.0034633693 -0.0085563855
000090 d9 3d a6 bb 6b ba 89 bb a5 ae ee bb a3 16 22 bb
       -0.005073291 -0.004203131 -0.007284003 -0.002473273
0000a0 4b 6e d7 ba 56 09 a5 bb 1e 28 b4 ba 21 71 b4 bb
       -0.0016436068 -0.0050365133 -0.0013744866 -0.00550665
0000b0 42 e0 0c 3b 25 ef 96 bb 63 3d 02 bc 7d 7b cb bb
       0.0021495973 -0.004606145 -0.007949206 -0.0062097893
0000c0 a5 d7 a8 bb e4 95 d9 bb 5c 0e 42 3b c4 d1 c6 bb
       -0.00515266 -0.006640183 0.002961061 -0.0060674865
0000d0 f3 eb cc bb 1b d9 7a bb 60 3a be ba 3a 59 ac b9
       -0.0062537133 -0.0038276378 -0.0014513247 -0.00032872875
0000e0 21 4e 03 bc b5 68 19 bb c1 38 a9 b9 8c e6 96 bb
       -0.008014233 -0.0023408358 -0.00032276477 -0.00460512
0000f0 3e b8 fe b9 fe 61 02 ba 23 8f 98 bb 67 f2 60 bc
       -0.00048583926 -0.00049737084 -0.004655735 -0.013729668
000100 2a 81 66 bb 31 16 5c 3c 0d 4d 89 bb 65 75 a4 3c
       -0.0035172203 0.013433025 -0.0041900934 0.02007551
000110 82 1e e7 bb e6 f9 c2 3a 30 65 e9 bb 23 cd 26 3d
       -0.0070531974 0.0014875501 -0.007122658 0.040722977
000120 c2 14 9c bb 12 44 e0 bb 8c 7f 28 bb 92 89 b4 bb
       -0.0047632167 -0.006844052 -0.002571079 -0.0055095637
000130 a7 8d 8d 3a f4 45 6c bb 0e 8c c2 3b 2b 5a 28 bb
       0.0010799662 -0.0036052437 0.005937106 -0.002568851
000140 7e d9 f2 bb 2b 75 c8 bb 82 b0 9c bb 0f 06 97 bb
       -0.007411181 -0.006117483 -0.0047817836 -0.0046088765
000150 ef 19 07 bc 25 4a da bb 71 64 aa bb f0 ac 1b 3a
       -0.008245929 -0.0066616707 -0.005199962 0.00059385505
000160 2c 5d 88 bb 3d 68 cc 3b ba d3 c9 3c 87 f2 c0 bb
       -0.0041614976 0.006238012 0.024637092 -0.0058882865
000170 82 4b ff 39 44 99 41 3a e9 5f 02 bc 44 ed 66 bb
       0.00048693648 0.0007385204 -0.007957437 -0.0035236636
000180 0c e1 67 bc 0e 12 cf bb 59 77 a1 3c 9b ad 4b bb
       -0.014152776 -0.006319291 0.01971023 -0.0031078819
000190 37 1b 4e bc 13 99 fc bb bc 5f 3d bb 74 36 6d bb
       -0.012579731 -0.0077086776 -0.0028896173 -0.0036195787
0001a0 8d 4d d3 bb eb 64 de 39 56 d9 8b bb 2f cc c9 bb
       -0.0064484538 0.0004241833 -0.004267852 -0.006158374
0001b0 4f 16 6f bc 4a b4 82 bb e2 9f 06 bc a0 22 af bb
       -0.014592721 -0.0039887773 -0.00821683 -0.005344704
0001c0 f2 ed 8f bb 7e 1c 81 bb 79 88 00 bc da 3e dc bb
       -0.004392379 -0.003940164 -0.007845038 -0.0067213597
0001d0 51 33 49 bb ae 8c 0b bc b3 25 c3 bb d4 b6 a9 3c
       -0.0030700753 -0.008517427 -0.005955422 0.020717062
0001e0 24 03 0a 3b fe 09 8a b8 24 b7 6c bb 76 58 14 bc
       0.0021059 -6.582214e-05 -0.0036119903 -0.009054294
0001f0 d7 13 b9 b9 64 36 08 3c b7 d8 ad bb c9 a4 16 bc
       -0.00035300732 0.008313749 -0.0053053754 -0.009194561
000200 52 16 89 bb e3 00 2b bc 3a fb 39 3c 7a db d4 bb
       -0.004183569 -0.010437223 0.011351401 -0.00649589
000210 3f 12 ce 3b 7e d3 12 bb 30 33 02 bc d3 b0 54 3c
       0.006288796 -0.0022403891 -0.007946774 0.012981611
000220 9e c1 8f bb 3a f2 56 bb 48 8d c6 bb 4f 20 35 bb
       -0.0043870946 -0.0032798187 -0.0060593225 -0.0027637666
000230 1a 01 3b ba 81 35 24 bb 81 88 be bb e1 3d 9d bb
       -0.0007133648 -0.0025056305 -0.0058146124 -0.0047986363
000240 1e 10 08 ba 71 f8 bb bb 14 07 a5 3a 33 d6 a2 3b
       -0.000519039 -0.0057364036 0.001259061 0.004969382
000250 5c 8a 17 bc e7 c5 a0 ba 89 22 e3 3b a6 06 27 3c
       -0.009249296 -0.0012266011 0.006931607 0.010194456
000260 1f 12 bf 3a 83 7f 6d bc 51 a9 0b ba 81 43 80 3b
       0.0014577544 -0.014495733 -0.00053276593 0.003914297
000270 35 ba e6 3b 93 22 26 3c ea ba 18 bc 3c 3b 2f bc
       0.0070412406 0.010140079 -0.009321908 -0.010695275
000280 4f e7 10 bc 8c 72 e6 bb 26 82 10 bc 2c 74 a9 ba
       -0.008844211 -0.007032698 -0.008820092 -0.0012928299
000290 c5 87 e7 bb 3f fb a1 3c 3c 93 b7 3b 78 b7 10 bc
       -0.0070657455 0.019773124 0.0056022685 -0.008832805
0002a0 a0 e5 e8 ba 0a 76 f2 bb 77 b5 22 3c 72 32 71 ba
       -0.0017768629 -0.0073993253 0.00993096 -0.00092009373
0002b0 aa d0 b6 3c 5b bb 54 bb 73 f4 56 bc d4 6c ce bb
       0.022316296 -0.0032460305 -0.013119805 -0.0062995944
0002c0 43 24 68 bc 08 dd 00 3d 81 6c 05 3b c6 f8 96 bb
       -0.014168802 0.03146079 0.0020358863 -0.004607293
0002d0 de 1f 3d 3c 93 15 e6 bb 01 be 46 bb 48 fd f5 bb
       0.011543242 -0.007021615 -0.0030325653 -0.007507
0002e0 97 99 1d bc 5a 13 18 bb e5 02 82 bc 26 7c 84 bb
       -0.009619138 -0.0023204894 -0.01587052 -0.00404312
0002f0 12 d7 0b 3c 7b 8f 66 bc 5c 33 02 bc 63 70 b9 ba
       0.0085351635 -0.014072294 -0.007946815 -0.0014147874
000300 b5 03 c4 bb eb 8c 05 bb 2d a4 4e bc 29 39 4c bc
       -0.005981887 -0.0020378183 -0.012612385 -0.0124648
000310 16 23 cb 3b 8c 84 82 3c 63 a2 c5 bb e1 78 7b 3c
       0.006199251 0.015932344 -0.006031321 0.015348644
000320 06 06 b7 bb 43 72 97 bb 6b 75 d6 ba 52 16 9f bb
       -0.005585435 -0.0046217754 -0.0016361898 -0.0048549557
000330 b7 11 89 ba bd f7 22 bc d0 de 10 bb 03 8d 35 3c
       -0.001045755 -0.009946761 -0.0022105463 0.011080983
000340 2e 88 f0 bb ea e5 17 3d eb f6 b1 bb 2b dd 22 3b
       -0.0073404526 0.037084498 -0.0054310462 0.0024851065
000350 cc f4 20 bc ad 46 58 3c c9 0a bc bb ad b0 2c bc
       -0.009823989 0.013200444 -0.0057385904 -0.01054017
000360 87 96 93 bb eb c9 0a bb 40 34 b2 bb 34 cd 1e bc
       -0.0045040282 -0.0021177481 -0.0054383576 -0.009692479
000370 3b 2b 84 38 5f 3c 7c 3a ec 62 dc 3a 38 e3 5a bb
       6.302303e-05 0.0009622033 0.0016814149 -0.0033399593
000380 21 14 e8 bb cd df 8d b9 94 a3 bf bb c2 3c 21 bc
       -0.0070824777 -0.0002706036 -0.0058483575 -0.009841146
000390 75 06 f9 bb b9 d0 f6 3a 17 d5 78 3c 8e 4e 1e 3b
       -0.0075996467 0.0018830515 0.015187523 0.002415571
0003a0 91 6f c3 ba 56 ee 8a 3c 6c dc 29 bc 8a a0 d3 3c
       -0.0014910569 0.01695935 -0.010367494 0.025833387
0003b0 f4 1c 82 bb 0e 01 b7 bb c5 d1 7c bc c9 a4 dd bb
       -0.0039707366 -0.0055848425 -0.015430872 -0.0067640287
0003c0 63 b3 2a bc 8c 49 20 bb c3 33 86 bb 18 f8 d4 ba
       -0.010418746 -0.00244579 -0.004095526 -0.0016248254
0003d0 49 a3 0f bc 30 ba 65 bc 88 66 8a bb 4d 4b 44 bb
       -0.008766958 -0.014021441 -0.0042236485 -0.002995211
0003e0 ec 32 df bb 01 cd 13 3c e4 41 6a bb 79 8b 5a bb
       -0.0068114903 0.009021045 -0.003574484 -0.0033347292
0003f0 57 12 9c 3a e0 9c f2 b9 4f c9 11 3b 97 a2 10 bc
       0.0011907321 -0.00046274718 0.0022245233 -0.008827827

network_body._body_endoder.seq_layers.0.weight f4 [256, 132]
000000 c1 7a 33 bd df f8 02 be 76 1f 91 bc 3f 6f 5c bc
       -0.04381824 -0.1279025 -0.017715197 -0.0134542575
000010 60 9e ad bd 28 4a 23 be fd d2 70 3e c0 e5 4d 3d
       -0.08477473 -0.15946257 0.23517986 0.050267935
000020 c0 85 1b bc 86 ad 57 3c 88 40 55 bd 2c 86 8a 3b
       -0.009492338 0.01316393 -0.052063495 0.0042274203
000030 29 16 38 3c ca 98 28 3d b6 ba 05 3e dc 6f 3a 3d
       0.011235752 0.041161336 0.13059506 0.045516834
000040 57 d3 33 be 98 a6 85 bb 72 57 89 bc c7 82 f4 3b
       -0.17561089 -0.0040786974 -0.01676533 0.007461879
000050 a6 81 ad 3d 7b f2 94 3c b2 79 ec 3d 67 b3 af 3d
       0.08471994 0.01818203 0.11546649 0.0857914
000060 85 89 af 3d ab 93 fa bd 3a d3 c8 3d 1f 2f 5d 3d
       0.08571152 -0.12235197 0.09805913 0.054000016
000070 40 41 3b 3d 34 a4 e0 3d 88 d5 3e 3c 24 c2 5b bb
       0.045716524 0.10968819 0.0116475895 -0.0033532465
000080 49 84 82 3d 2c 8e 8c bd 76 e8 6e 3b 81 38 4a bd
       0.06372888 -0.06863055 0.0036454475 -0.049370293
000090 16 02 3d be 7b a4 4b 3d 35 23 59 bd ec 86 b8 3d
       -0.18457827 0.049717408 -0.05301209 0.09010109
0000a0 72 a3 f1 3c 48 20 22 3d c8 da 37 be 0c f0 46 3d
       0.029496882 0.039581567 -0.17954552 0.04856877
0000b0 56 11 18 3e cc 94 43 3e 57 05 4a 3d 50 5c f1 bc
       0.14850363 0.1909973 0.0493215 -0.029462963
0000c0 ca df ca 3c d7 7c 22 3e 89 77 7d 3c b4 8a 07 3d
       0.024764914 0.15867935 0.015470394 0.033091262
0000d0 d1 c2 c5 bd b0 aa 38 3d 4d a0 52 bc 86 26 77 3d
       -0.09656299 0.045084655 -0.0128556015 0.060339473
0000e0 96 6c 03 bc 80 c6 20 3e 51 dd 55 3e 0f 9f b4 bd
       -0.008021494 0.15700722 0.20885207 -0.088194005
0000f0 0f b9 4c bc a0 bc 63 bc c9 88 69 3d 46 b0 b8 3c
       -0.012495293 -0.013899952 0.057015214 0.022544991
000100 c4 46 82 3d 90 92 82 bc 73 07 83 3d 84 3f 14 bd
       0.06361154 -0.015939027 0.06397905 -0.036193386
000110 ae cb 97 3d 35 f8 76 3c 33 0b d3 bd 18 79 d7 3d
       0.07411896 0.015073826 -0.103048705 0.10521144
000120 95 ab 23 bd 26 7c 72 3d 5f 3e 23 3d ba 95 c3 3c
       -0.039958555 0.05920043 0.039854404 0.023875106
000130 82 ad ac 3c 2d b2 19 bd 0d 6d 0f bd 1f 35 4e 3d
       0.021078829 -0.037523437 -0.03501611 0.05034363
000140 b2 09 12 3e 6c d8 07 be 19 e7 41 3e 66 07 04 3d
       0.14261511 -0.13266152 0.18935813 0.03223362
000150 f5 bf 7c bd f0 33 16 3c 78 3f 34 3c 5a 96 4d 3d
       -0.061706502 0.009167656 0.01100146 0.050192215
000160 8b 36 f6 bd dc c7 2a ba 7f 37 66 3c a8 6b 3a be
       -0.12022122 -0.0006514767 0.014051317 -0.1820513
000170 a3 5f 81 bd 2b a1 ac 3d 78 3b 7f 3d 7d 75 0d bc
       -0.063170694 0.08429178 0.062312573 -0.008633968
000180 b2 18 ab bc d3 19 2b bc 5a f5 08 bc d8 4f 17 3d
       -0.0208858 -0.010443169 -0.008359278 0.03694138
000190 22 66 93 bd 89 5e 5b bd db c3 b6 bd a6 13 c9 3c
       -0.07197215 -0.053556953 -0.08924075 0.024545502
0001a0 4a cc 23 bd 8d 7c 06 3e 96 dc 52 bd 5c a8 d5 bd
       -0.039989747 0.1313345 -0.0514799 -0.104325026
0001b0 2c 63 d1 bc fa 23 b2 3c f5 45 5f bd 71 ec d3 3d
       -0.025559984 0.02174567 -0.054510076 0.10347832
0001c0 95 b0 fb bd 4c 32 ea bd c4 d9 a8 3d a5 f3 10 3d
       -0.1228954 -0.114353746 0.082446605 0.035388608
0001d0 f3 53 02 be c3 3e 91 3b c1 5c e8 bc d4 76 ef bc
       -0.12727337 0.0044325306 -0.028364541 -0.029231466
0001e0 2c 48 0b 3d 70 44 09 be 3e e5 d4 3c 25 a7 b4 bd
       0.034004375 -0.13405013 0.025988217 -0.08820943
0001f0 a5 7d 86 bd 7c 72 1d bc e4 5c 83 bd 42 f7 0b be
       -0.065669335 -0.009609815 -0.06414202 -0.1366854
000200 a5 5c 6a bd d3 c6 28 3d 48 ba bd 3d a0 22 90 bd
       -0.05721726 0.04120524 0.09264046 -0.07037854
000210 cc 07 a3 bd 87 83 82 bd c7 4f c5 bd 91 8a 0e bd
       -0.079604715 -0.06372743 -0.09634357 -0.034800116
000220 c4 b7 de bc b2 b2 74 3d be cb d5 bd bd d9 4b be
       -0.027187236 0.05974073 -0.10439251 -0.1990728
000230 98 33 80 bd 60 82 84 3d 33 77 ee bc 3e 89 fc 3d
       -0.06259841 0.064701796 -0.029109573 0.12330864
000240 e3 d5 87 bd e2 2d ad bd 53 29 19 3d db 82 8a bd
       -0.066325925 -0.08456017 0.037392925 -0.0676324
000250 c3 c6 73 bc 30 a7 37 3d 76 bf dc bc c5 32 41 3d
       -0.014878931 0.044837177 -0.026946764 0.04716756
000260 65 cb 52 3d 96 5f 20 3d e5 3b cc bd 33 09 35 3e
       0.051463503 0.039153658 -0.099723615 0.1767929
000270 37 72 b2 3c 95 b6 60 3d 38 6b 84 3c a4 8d 8d bd
       0.021782978 0.054861624 0.016164407 -0.069117814
000280 7c 39 66 3e 8e 5e 1e 3d c3 90 89 3d 3d 4a 20 3e
       0.22482866 0.038664393 0.06717064 0.1565332
000290 e4 ac 0c bc 2d 11 c9 3d 16 c2 65 bd d4 b6 d5 bd
       -0.008586142 0.09817729 -0.056093298 -0.10435262
0002a0 9f f6 36 bc d1 df 02 bc 19 51 c5 bc c9 2e f3 bd
       -0.0111671975 -0.007987932 -0.024086522 -0.11874158
0002b0 c3 b6 de 3c 44 fa f6 bc d6 63 f1 3d 77 f7 cc bc
       0.027186757 -0.030148633 0.1178662 -0.025020344
0002c0 de f2 86 3e 46 96 0d 3e fe 20 29 bc 88 2f 75 3c
       0.26357168 0.13826856 -0.010322807 0.014964946
0002d0 0c 1d c5 bc fc 51 22 3d 18 4a 00 be 17 b3 09 bd
       -0.024061702 0.039628968 -0.12528265 -0.03361806
0002e0 ac f1 3d be 9b 63 b1 bd 64 e6 08 bd 0c 83 52 bd
       -0.18549222 -0.08661576 -0.033422843 -0.051394507
0002f0 a0 13 c7 3d 4a b0 73 bd 2e 9c 26 3e 1a a2 9b 3d
       0.0972054 -0.059494294 0.16270515 0.07599278
000300 a5 ac 99 bd 4b 0e 36 3c c0 e7 83 bb 54 52 40 bc
       -0.075036325 0.011111806 -0.0040254295 -0.011738379
000310 e3 97 5d bc 49 a7 82 bd 9a 27 06 bd c8 7a 43 3d
       -0.013524982 -0.06379563 -0.03275261 0.047724515
000320 79 d8 28 bc 6f 3b 10 be 02 97 db bb a3 00 4b bd
       -0.010305517 -0.14085172 -0.006701351 -0.049561154
000330 a2 e2 af bc c9 d2 88 bb c7 82 ce 3c b8 fc 43 bd
       -0.021470372 -0.004175518 0.025208844 -0.047848433
000340 fd 2b f3 bd b2 44 8f 3d 00 5b bd 3d b8 f3 0f be
       -0.118736245 0.069955245 0.092458725 -0.14057815
000350 fc f5 ec bd ce 4e a2 bd e0 2d f1 bd 4d e1 25 bd
       -0.11570355 -0.07925187 -0.11776328 -0.040498067
000360 e3 7a 0e bd 19 5b bc bd 5a 44 b5 bc 21 a5 83 3d
       -0.034785163 -0.09197063 -0.02212732 0.0642798
000370 32 44 4a bc 25 8a 82 3c 31 d5 6d 3d 37 38 ff 3d
       -0.012345361 0.015935013 0.058064643 0.12461894
000380 82 7c 41 bd 26 86 0d bd db c8 10 bd 88 d0 0b be
       -0.04723788 -0.034551762 -0.0353478 -0.13653767
000390 33 ef b6 bc 0b a6 c6 bd 30 dd a9 3d 4a f8 78 bc
       -0.022330856 -0.09699639 0.08294141 -0.0151959155
0003a0 1f d8 4b 3c 25 6f 52 3e e7 fd 72 bc 3d 92 ba bd
       0.012441664 0.20550211 -0.014831043 -0.09109924
0003b0 7e cc 5c bc 0b d1 66 be 1f 8b d0 3c 90 fd 55 bc
       -0.013476489 -0.22540681 0.025456963 -0.013060942
0003c0 c3 06 0f 3c 6f f5 0f 3c 5e a1 95 bd cd 44 e4 3c
       0.008729639 0.008786543 -0.07306169 0.027864838
0003d0 99 18 43 3d 56 94 00 3e 15 02 a6 bd cc 20 c3 bd
       0.04763088 0.12556586 -0.08105866 -0.0952774
0003e0 8c a5 27 be 59 dc 11 3c 7b 6e e3 bd d7 0a ce bc
       -0.16371745 0.008902633 -0.11105057 -0.025151653
0003f0 f5 93 53 3d 6d fe 90 3d 48 25 a3 bc e9 d7 af 3d
       0.051654775 0.07079778 -0.019915238 0.085861035

network_body._body_endoder.seq_layers.2.bias f4 [256]
000000 d4 16 b8 bb d7 25 6c bc 01 cb d7 ba 3c ff 54 bb
       -0.0056179557 -0.014413319 -0.0016463698 -0.0032500764
000010 73 5a 40 bb 7f 49 c7 3a cf 79 0b bc 46 1d 19 ba
       -0.0029350787 0.0015204399 -0.008512928 -0.0005840849
000020 19 63 ef 3b 12 7d 93 bb cc 40 86 bb 8a 4f 6c ba
       0.0073055145 -0.0045009935 -0.00409708 -0.0009014538
000030 db 33 80 bb 13 70 38 bb 26 cd 0b ba 41 22 af ba
       -0.0039124317 -0.0028142973 -0.00053329987 -0.0013361649
000040 1b e0 be bb 71 f8 c3 b7 00 db 8d 3b 82 15 dc bb
       -0.0058250553 -2.3361501e-05 0.0043290854 -0.006716431
000050 7a 41 10 bc ac fc 6d bb 6c 57 c0 bb ce 38 44 bb
       -0.008804673 -0.0036313934 -0.0058697965 -0.0029941085
000060 ba 56 00 3a 3c 04 a3 bb 51 a6 05 bb b1 03 99 3b
       0.0004895736 -0.00497487 -0.0020393322 0.0046696295
000070 8c b4 92 bb d6 32 3f bc f6 24 4e bb 8d 3f de bb
       -0.0044770893 -0.011669835 -0.0031455136 -0.006782478
000080 5e 4f 7d bb 97 13 8b bb 82 b9 9f ba 3a e0 20 3c
       -0.0038652043 -0.0042442787 -0.0012186023 0.009819085
000090 c2 42 25 bc b3 26 ed bb 67 82 96 bb c7 38 88 bb
       -0.010086717 -0.0072372793 -0.004593182 -0.004157159
0000a0 81 3e 11 bb 70 2a c3 38 39 04 90 ba 92 0d c9 bb
       -0.00221625 9.306229e-05 -0.0010987587 -0.006135651
0000b0 de ee 60 bb d0 fe 69 bb 22 b1 58 ba ba 52 61 bb
       -0.0034322063 -0.0035704859 -0.0008266141 -0.0034381584
0000c0 f6 02 07 bc e7 13 75 bb e1 b8 d2 bb b1 ed 88 bb
       -0.008240452 -0.0037395896 -0.0064307307 -0.0041787256
0000d0 f0 3a a9 3b 5b 2e 53 bb b3 32 07 bc da 21 6e b9
       0.0051644966 -0.0032223675 -0.008251834 -0.0002271006
0000e0 2f dc a8 bb 31 8a eb bb 2a ca a4 bb 51 7b d3 bb
       -0.005153201 -0.0071881046 -0.0050289826 -0.0064539094
0000f0 d0 0a ae bb b1 b3 25 bb 24 3e b3 b9 d3 27 7e 3b
       -0.0053113475 -0.0025284106 -0.0003418784 0.0038781061
000100 7a 41 5a 3a b5 eb 76 3b 42 1b 0b bc 24 57 4b bb
       0.0008325797 0.0037677113 -0.0084903855 -0.0031027282
000110 1f 47 29 3a 37 ae 21 bc ca 43 a7 bb dd 0a 71 bb
       0.0006457436 -0.009868196 -0.0051045166 -0.0036780157
000120 ab 6e 56 bc 19 69 8c 3b 11 03 b4 bb 58 63 fe 3b
       -0.013087909 0.0042849896 -0.0054935296 0.0077633075
000130 64 3e 6a b9 06 8c bb bb a6 2c 19 bb c0 3d 84 bb
       -0.00022339221 -0.005723479 -0.002337256 -0.0040356815
000140 4a b9 51 b9 8b 75 5f bb 89 12 bd bb df 7a d7 b9
       -0.00020000819 -0.003409716 -0.005770032 -0.00041099542
000150 38 78 8d 3a b7 15 f6 ba 3e ef b8 bb e9 ea 2b bc
       0.0010793274 -0.0018774782 -0.0056437543 -0.010493019
000160 d3 90 66 3c 65 09 e7 bb 1d 3c 64 3b 39 21 3a 3b
       0.014072615 -0.0070506805 0.003482587 0.002840115
000170 5d 84 7d bb ec 48 96 bb f2 7a 97 bb e3 73 8f bb
       -0.003868363 -0.0045863297 -0.0046228105 -0.0043778284
000180 6f 67 81 3c 46 58 4f bb cd be da 3a df 74 ba 3b
       0.015796391 -0.0031638308 0.0016688943 0.0056902017
000190 4f 0b 90 3b 74 c8 3c 3b 25 fe 67 bb d6 12 00 3b
       0.0043958793 0.0028806003 -0.0035399285 0.0019542477
0001a0 b7 c8 b8 bb 39 b0 25 3c b1 2e c6 3a 5a 57 62 bb
       -0.0056391614 0.010112816 0.0015120116 -0.003453693
0001b0 c4 61 cd 3c 35 07 8c bb 63 c1 1a 3c 13 d7 ce 3b
       0.025071032 -0.00427332 0.009445521 0.00631226
0001c0 48 a1 84 bb 44 4a e6 bb 36 a5 ea bb 8f 91 c7 ba
       -0.0040475465 -0.007027896 -0.007160808 -0.0015225875
0001d0 17 4d af ba 75 9a a1 bb 7c 4f 66 3b 98 6e b4 bb
       -0.0013374415 -0.004931743 0.0035142591 -0.005506348
0001e0 dc 0e 20 bc 2b 35 1e b8 17 26 29 3c 96 85 cc ba
       -0.009769168 -3.7719652e-05 0.010324023 -0.0015603777
0001f0 2e 80 b3 3b fb a0 86 bb 1a 5f 83 bb 34 06 03 bc
       0.0054779267 -0.004108546 -0.0040091397 -0.007997084
000200 40 72 87 bb 8d 9d 97 bb ba 8c 48 bc 34 03 8a ba
       -0.0041334927 -0.004626936 -0.012240583 -0.0010529519
000210 c0 20 28 bc 98 62 8a ba 27 f8 9b 3a 32 26 51 bb
       -0.010261714 -0.0010557948 0.0011899517 -0.0031913635
000220 68 ab b2 bb 53 19 02 bc 4d 52 73 ba 39 b5 a2 bb
       -0.005452562 -0.007940608 -0.0009281978 -0.004965451
000230 47 90 a0 b9 e2 4d 91 ba c8 d2 82 bb c7 32 bd b9
       -0.00030625073 -0.0011085833 -0.0039924122 -0.0003608672
000240 19 c8 f9 3a d8 13 f6 ba 38 a5 ee bb ab f9 c7 bb
       0.0019056826 -0.0018774224 -0.007282879 -0.006102761
000250 8f d6 bc bb 84 37 9b 3b 0d f8 73 bb 5f 17 aa ba
       -0.005762882 0.0047368426 -0.0037226707 -0.0012976936
000260 9f 0f ba 3b 2d 62 90 bb e5 dc b0 ba bd f4 d0 bb
       0.0056781317 -0.0044062347 -0.0013493566 -0.0063768313
000270 b6 06 c0 ba 69 ff 37 bc e6 31 c5 3b e9 e7 ae bb
       -0.0014650438 -0.011230328 0.0060179112 -0.0053377044
000280 84 55 61 3b 41 41 2e bb e7 fb be bb 8f fc 2d 3c
       0.0034383247 -0.0026589187 -0.005828369 0.010619297
000290 78 88 73 39 e2 25 80 b9 ff 50 36 3b 0c e7 9b bb
       0.00023225124 -0.00024442287 0.0027819274 -0.0047577675
0002a0 ee 51 7b bb 5b e5 21 bb 53 1b 72 b9 c2 40 0f bb
       -0.0038348394 -0.0024703357 -0.00023089098 -0.0021858667
0002b0 ae 37 73 bc ec 6a 63 bc 77 92 f3 bb 2c 6c ae ba
       -0.014844818 -0.013880473 -0.0074332315 -0.0013307384
0002c0 e8 9c e1 bb 19 09 1b bb 02 4f d6 bb 8c 09 c0 3c
       -0.0068851598 -0.0023656546 -0.00654018 0.023442052
0002d0 ad eb c7 bb d0 00 a2 ba d7 82 8a 3c 2a 34 0e bc
       -0.006101093 -0.0012359861 0.016908092 -0.008679429
0002e0 eb c6 40 bc ec 70 45 bb 37 dc 0f bb d1 e7 2d bc
       -0.011766176 -0.003012712 -0.0021951327 -0.010614351
0002f0 c2 79 5d bb 95 c2 c5 bb c3 66 a3 bb 13 b4 f1 38
       -0.0033794497 -0.006035159 -0.0049866154 0.00011525317
000300 78 1d ae ba 7a 2c 00 3b bd d1 a7 bb f8 ff 7c b9
       -0.0013283929 0.001955776 -0.0051214383 -0.00024127949
000310 a3 6e ba 3a 6e 46 d2 38 05 f1 82 ba 43 9b a1 bb
       0.0014223646 0.00010026699 -0.0009990042 -0.0049318387
000320 6f 05 24 bc d7 68 29 3c 7e 04 38 bb 93 25 b4 ba
       -0.010011061 0.010339937 -0.002807885 -0.0013744108
000330 50 c0 25 ba 71 5c d1 bb 03 b7 1d bc f3 a2 75 bb
       -0.0006322907 -0.0063891937 -0.009626153 -0.0037481159
000340 b3 5e 43 bb e7 97 c1 bb 68 c1 db 39 4a f9 0c 3b
       -0.0029811084 -0.0059080007 0.00041915034 0.0021510893
000350 e0 f0 98 ba aa 4f f0 b9 2d 9e 36 bc be 26 0e bc
       -0.0011668466 -0.00045835722 -0.0111461105 -0.008676229
000360 77 4e 9b b9 7a 5f 10 bc 55 1d 4b ba ee 47 ca ba
       -0.00029622365 -0.008811826 -0.0007748206 -0.0015432814
000370 c8 96 d6 3a 1f ac 33 3a 78 e2 5f bc c5 ff cd bb
       0.0016371841 0.0006853956 -0.013664834 -0.0062865936
000380 27 49 20 3c 9d f6 1c bb d3 53 d9 bb 47 2a e7 ba
       0.009783066 -0.0023950704 -0.006632307 -0.0017636501
000390 87 86 8b 3c 88 80 6e bb cb 87 ad ba 0e bb cf bb
       0.017031921 -0.0036392529 -0.0013239322 -0.0063394373
0003a0 17 eb eb bb db 76 8a bb 51 08 66 ba fc cc b1 3b
       -0.0071996558 -0.0042255945 -0.0008775043 0.0054260474
0003b0 e0 1a 06 bc e2 db a4 3a 9b 35 32 bb 98 25 ee bb
       -0.008185118 0.0012577737 -0.0027192596 -0.007267665
0003c0 59 e6 4d 3c 51 3e 3a 38 1d a4 93 bb 52 21 9e ba
       0.012567126 4.4403892e-05 -0.004505648 -0.0012064374
0003d0 ee d1 d5 bb 82 a8 fe bb 81 4f e7 bb a5 21 dd ba
       -0.0065252697 -0.0077715525 -0.007059038 -0.0016870989
0003e0 17 8f 11 bc ea ce bf bb 5a 36 9f bb 8c eb 5a bb
       -0.008884213 -0.0058535235 -0.004858774 -0.0033404557
0003f0 4f eb cb bb bd 74 63 bc 09 cc 07 bc e3 9a ef bb
       -0.0062231193 -0.013882813 -0.008288392 -0.007312165

network_body._body_endoder.seq_layers.2.weight f4 [256, 256]
000000 c1 c8 2c bc 1e 04 a3 bd c7 e6 ce 3c 10 ba 97 3d
       -0.01054591 -0.0795977 0.025256528 0.074085355
000010 1f 23 a3 3c 45 62 56 3e 45 66 7e 3d fb 4f 6f bd
       0.019914208 0.20935924 0.06210925 -0.058425885
000020 0c 24 5c 3d e8 4a 66 bd 85 8e 3c bd 52 fd 3e 3d
       0.053745314 -0.05622378 -0.046034355 0.046628304
000030 4a 48 bd bd d1 4a 76 bc 6a 68 4a 3c 9b 71 89 b8
       -0.09242304 -0.015032486 0.012353996 -6.55383e-05
000040 09 9b bb 3d 25 7d 71 bd 62 c9 92 3d 95 90 19 bd
       0.0916043 -0.058957238 0.07167317 -0.0374914
000050 b1 ef 34 bd 67 78 3b 3c 96 78 d2 bc f2 84 bc 3d
       -0.0441739 0.01144228 -0.025692265 0.09205045
000060 28 95 d5 bd 49 d1 95 3c 92 72 24 bd 13 4b 11 3d
       -0.1042884 0.018288272 -0.040148325 0.035471987
000070 d4 93 48 3d c5 fb 1a 3d 11 f5 9a 3d 59 d3 da bd
       0.048969105 0.037837762 0.07566274 -0.106848426
000080 f9 c1 8e 3c a3 49 b5 bc 45 71 13 3e 14 15 40 3d
       0.017426478 -0.02212984 0.14398678 0.0468951
000090 12 d3 df bc 7e 64 75 bc 04 57 63 3d 4b 91 94 3c
       -0.027322326 -0.0149775725 0.055502906 0.018135687
0000a0 f8 6d 25 3d 39 99 9f 3d fd 9e cc 3c 3c 17 c3 bc
       0.040388077 0.07792897 0.024978155 -0.02381479
0000b0 2b d4 77 3d 25 ed b6 3c 48 e0 1f bd ca 32 b5 3b
       0.060505074 0.022329876 -0.03903225 0.005529736
0000c0 7e f6 ae bd 40 ef f9 bc 71 c8 94 3d dc 48 d6 bc
       -0.085431084 -0.030509591 0.07264794 -0.026157789
0000d0 54 37 33 bd ef 8c 23 bd ba 42 8e bd f7 86 2f 3c
       -0.043753937 -0.039929327 -0.06946321 0.0107133305
0000e0 9c a4 c6 3d 12 4e 08 3e df b8 a4 3d 0b f7 0a bd
       0.096993655 0.13311031 0.08043074 -0.033927005
0000f0 2b 14 f0 bc e2 28 08 3d 42 30 65 3d cc 50 80 3d
       -0.029306492 0.033242114 0.055954225 0.06265411
000100 02 b3 cf 3d f6 5c b4 3b 1c d5 90 3c b0 7d 91 3c
       0.10141565 0.005504246 0.017679743 0.017760128
000110 a5 90 a9 3d 4f c5 b2 bd 0c 3a 00 3d a6 8f ef 3d
       0.08279542 -0.0872904 0.031305358 0.11697321
000120 87 1e c3 bc 7d 49 4c bc ae fe 44 3d 02 d4 35 3d
       -0.023818268 -0.012468693 0.048094444 0.04439164
000130 48 08 a3 3d 72 bc e4 bd 50 10 a1 3c 08 66 cb bd
       0.07960564 -0.111687556 0.019661099 -0.0993157
000140 20 12 bf bb 25 89 80 bd 0b 67 0a 3d 2e a9 a1 3c
       -0.005831018 -0.06276158 0.033789676 0.019733991
000150 65 b6 c1 3d 30 00 90 3c 93 0a 87 3d da 03 b8 bc
       0.09458617 0.017578214 0.06593814 -0.022462774
000160 dd 7b c7 bc 55 d5 1b bd 7c fc 0c 3d 7d c5 bf bc
       -0.024351055 -0.038045246 0.034420475 -0.0234096
000170 b1 06 32 3d a6 35 f4 3b 03 5d 97 bc 8e c2 8c bd
       0.043463413 0.0074526845 -0.018476969 -0.06873046
000180 02 9e b0 3d 2c 07 83 3d 85 5d b0 38 07 69 31 bd
       0.086238876 0.06397852 8.409753e-05 -0.043313053
000190 ff b2 3f bd 0e ac 6f 3b 76 d3 9f 3c 29 6d 24 3d
       -0.046801563 0.0036571058 0.019510012 0.040143166
0001a0 5c f9 40 3d 07 e0 30 bd df f6 00 3d ab 15 0c 3d
       0.047112808 -0.0431824 0.031485435 0.03420035
0001b0 a3 03 d4 3c b1 2f 6e 3c b6 b1 26 bb 2d 6b a6 bb
       0.02588064 0.014537738 -0.0025435514 -0.0050786943
0001c0 d2 06 83 bd 1a 9f 53 bd 14 f5 e6 bd 45 45 bc 3c
       -0.06397785 -0.051665403 -0.11277214 0.022982249
0001d0 8e a0 74 bd 46 89 19 bd fd ee a9 39 cb 65 b3 3d
       -0.05972343 -0.03748443 0.00032412252 0.0875965
0001e0 57 ec 2b 3d a4 7e ab 3d d7 8f 8c 3b 0d 6d 98 3d
       0.041973438 0.08373764 0.004289608 0.07442675
0001f0 4f 28 67 bd 96 cb 2a 3d 99 39 83 3d 54 ec 12 3c
       -0.056434926 0.04169806 0.0640747 0.008967478
000200 b5 b1 fc bc 14 7b 1a 3d a7 39 62 3d 9b 95 10 bd
       -0.030846456 0.037715033 0.055230763 -0.035298925
000210 6e b1 48 3a f9 9f 72 bc e1 0b b7 3d b5 c1 9e 3d
       0.00076558336 -0.014808648 0.089378126 0.077517904
000220 45 ed fc bc f9 a5 e0 3c db 77 78 bc 0c ea b7 3c
       -0.030874858 0.027422892 -0.0151652945 0.02245047
000230 03 54 50 bd 4e da 80 bd 24 83 b0 3d b7 6c 41 3d
       -0.05086137 -0.06291638 0.08618763 0.04722282
000240 06 d0 c0 bb 2e 32 6b 3b 1a e5 44 bd d9 07 15 3d
       -0.0058841733 0.0035888064 -0.04807005 0.036384437
000250 88 b9 e7 3b 64 27 a4 3c b6 2e b7 3d 1a 6b 21 bd
       0.0070716776 0.020038314 0.08944456 -0.03940878
000260 89 7f 0f bd a6 1f 09 bc b9 56 c3 3c 6a 47 c5 bc
       -0.035033736 -0.008369362 0.023845064 -0.024081904
000270 1b 8c 02 3d d2 fe 88 bd d9 3a 09 bd 84 ca ca bd
       0.031871896 -0.06689228 -0.033503387 -0.09901908
000280 d5 cb 94 3b 81 3c 02 bd f7 b0 cc bd de 36 bf bc
       0.0045409002 -0.031795982 -0.09994691 -0.023341592
000290 8f 93 e3 3d f5 78 e0 3b ed 6b a2 bd f0 4e 59 bc
       0.11112129 0.0068503567 -0.079307415 -0.013263449
0002a0 0c a1 fb bd de 7b 19 3d 5a a4 90 3b fd c6 22 bd
       -0.12286577 0.037471645 0.0044141235 -0.03974055
0002b0 0c 54 f4 bd c3 2f 2e bd e9 58 f3 bb d7 f0 96 3d
       -0.11930093 -0.042526018 -0.0074263704 0.07370155
0002c0 3f 72 d5 bd 14 bb 27 bd d0 7b e9 bd 5e ee e9 3c
       -0.10422181 -0.040949896 -0.114005685 0.028556045
0002d0 35 d2 ef 3d 8c de 31 3a ef e0 04 bd c6 2f 5d bd
       0.11710016 0.0006785176 -0.032441076 -0.05400064
0002e0 50 21 9c 3d 1a 35 86 bd 51 5c 03 be 2f b9 cb 3d
       0.07623541 -0.06553097 -0.12828185 0.0994743
0002f0 ac e4 33 3c 8a f5 5f bc 4e b2 04 bd 3a 55 0b 3d
       0.010979813 -0.013669381 -0.032396607 0.034016825
000300 28 12 29 bc 21 17 f4 3b aa 9b a1 bd 95 67 bc bd
       -0.01031927 0.0074490462 -0.07891019 -0.09199444
000310 9f a3 28 bd 25 e8 f4 3d d7 ef f6 3d 98 9f ed 3d
       -0.041171666 0.119583406 0.120574646 0.11602706
000320 2e 9d 3c 3b 97 26 21 3d 81 41 5f bb 11 c0 c0 bc
       0.002878021 0.039343443 -0.0034066143 -0.023529084
000330 0c a9 87 3c 0f f7 72 3d 02 19 d4 bc 05 ee d2 b9
       0.0165601 0.059317645 -0.02589083 -0.0004023166
000340 ee 38 b6 3d 70 5f 3e 3d 1b 67 50 3d c8 ee b0 3c
       0.08897577 0.046477735 0.05087958 0.021598235
000350 ad 7e 01 3a 68 2b fc bc 1c 73 e9 bc e9 85 86 3c
       0.00049398356 -0.030782416 -0.028497271 0.016421275
000360 6a 97 8d 3d 5e 81 5e 3b b0 f1 64 bd 58 49 a1 3d
       0.069136456 0.003395162 -0.055894554 0.07875317
000370 7e fa 99 bc 40 e3 28 3c 83 bb 02 bd 72 90 e5 bd
       -0.018796202 0.010308087 -0.031917106 -0.112091914
000380 5d 41 fa 3c c6 97 a5 3d a5 25 dc bd 66 c5 50 bc
       0.030548746 0.08085589 -0.107493676 -0.012742376
000390 8e a2 d4 b8 c2 30 a7 bc c0 80 17 3e 2f 47 4f bc
       -0.00010139226 -0.020408992 0.14795208 -0.012651249
0003a0 20 06 1a 3d 21 6e 3e bd 7b b1 02 3d 3a be 0d bc
       0.037603498 -0.046491746 0.03190754 -0.008651311
0003b0 4c 7f 36 bd c6 7e 29 3d bc 16 9f 3c 97 b0 a3 bd
       -0.044554994 0.041380666 0.01942002 -0.07992666
0003c0 4d 1a 45 3d ca b7 ef bd e7 44 8b 3b fd e9 ae 3c
       0.048120786 -0.11704977 0.004250157 0.021351809
0003d0 57 41 2f 3c fa ed 72 bd 4c 8c 8c bd 0f 37 e0 bb
       0.010696731 -0.059308983 -0.06862697 -0.006842501
0003e0 cd 4d ed bc 6f 71 d8 3d 3f f4 17 3c 1e b7 74 3d
       -0.028967762 0.10568511 0.009274541 0.059744947
0003f0 aa 32 42 bd d4 54 92 bd 7c fd c2 3d 48 59 a1 3d
       -0.0474116 -0.07145086 0.095210046 0.07878357
