results/MLDriver2/MLDriver/MLDriver-138885.onnx (onnx, 404427 bytes, 7 tensors)

action_model._continuous_distribution.log_sigma f4 [1, 3]
0	0x3d28e5dd	0.04123484
1	0x3d1cdacf	0.03829461
2	0x3daaf1aa	0.08346875

action_model._continuous_distribution.mu.bias f4 [3]
0	0x3bcd952e	0.006273887
1	0x3ada57b5	0.0016658219
2	0x3b30c411	0.0026972333

action_model._continuous_distribution.mu.weight f4 [3, 256]
0	0xbb8469cc	-0.0040409323
1	0x36f37825	7.255951e-06
2	0x3c827643	0.015925532
3	0xbc060721	-0.008180411
4	0xbabd4c99	-0.0014442384
5	0x3cb507cc	0.022098444
6	0x3abb57f3	0.0014293179
7	0xb9c7ba41	-0.00038095008
8	0xbc42d4bf	-0.011891543
9	0xbab78ec0	-0.0014004335
10	0xbb8ffc86	-0.004394117
11	0xb8a5efb3	-7.9124606e-05
12	0x3a9c8d3a	0.0011943944
13	0x3bac951e	0.0052667996
14	0x3bee28de	0.0072680553
15	0xba30983d	-0.00067365525
16	0xbc018e8d	-0.007907522
17	0x3ca11fb9	0.019668447
18	0x3d23db17	0.040003862
19	0x3b8d5148	0.004312668
20	0x3b1e19d9	0.0024124293
21	0x3c291419	0.010319733
22	0xbc25aa20	-0.010111362
23	0x3c04fb6b	0.008116583
24	0x3cb39eb1	0.021926256
25	0x3c21fc18	0.009886764
26	0xbc276429	-0.010216751
27	0x3d1e7491	0.038685385
28	0x3c066b6b	0.008204321
29	0x3b1c7d35	0.002387834
30	0x3bd6b478	0.0065522753
31	0x3bb9083e	0.0056467345
32	0x3bdddb41	0.006770522
33	0x3ad4de8c	0.001624064
34	0x3c277861	0.010221572
35	0xb9654ee7	-0.00021868535
36	0x3c72958a	0.014806161
37	0x3c08a3a0	0.0083397925
38	0x3bee0408	0.007263664
39	0xbb548fc0	-0.0032434314
40	0x3c4b1f31	0.012397573
41	0x3ca22b48	0.019796029
42	0x3c611fd6	0.0137405
43	0x3aee3c44	0.001817592
44	0xbb4cd72d	-0.0031256184
45	0xbc446162	-0.0119861085
46	0x3c972182	0.018448595
47	0xba666648	-0.0008789045
48	0x3bd32aee	0.0064443266
49	0x3bc5c4f8	0.0060354434
50	0x3a17c4c3	0.00057895127
51	0xbc7be3e8	-0.015374161
52	0xbc8a5478	-0.016885981
53	0x3bb434a8	0.005499441
54	0xba494ba3	-0.0007678812
55	0xb9846b19	-0.00025256796
56	0x3beae57a	0.007168469
57	0x3cd2e82a	0.02574547
58	0x3a574657	0.00082120806
59	0xbc35cf25	-0.01109675
60	0x3a0d9071	0.00054002466
61	0xbb265ebb	-0.0025386054
62	0xbc1fced9	-0.009753906
63	0xbd05ee4e	-0.03269797
64	0x3c548efa	0.012973541
65	0x3cc10bfa	0.023565281
66	0xbbf2da0d	-0.0074112476
67	0x3c2b6848	0.010461874
68	0x3d41e704	0.047339454
69	0x3b783529	0.0037873483
70	0x3b433dba	0.002979143
71	0x3a4ecdd2	0.0007888946
72	0x3b5995da	0.003320089
73	0x3bd71e47	0.0065648886
74	0xbc22a0a8	-0.009925999
75	0xbc22eb50	-0.009943798
76	0x3d0748b8	0.033028334
77	0x3b9012af	0.0043967585
78	0x3bf2a9ce	0.007405496
79	0xba9f0f45	-0.0012135288
80	0xbc6a0bb2	-0.014285015
81	0xbbe92735	-0.0071152695
82	0xbb674a39	-0.0035292043
83	0x3bde6fb4	0.0067882184
84	0x3bce093b	0.0062877215
85	0x3b67cc9d	0.0035369762
86	0x3ca509c7	0.020146264
87	0x3cbb0f10	0.02283433
88	0xba48271d	-0.0007635223
89	0x3ac21c11	0.001480939
90	0x3ca5dc31	0.020246597
91	0x3c177bd9	0.009245836
92	0xbc6194ea	-0.013768414
93	0xba4e91b4	-0.0007879988
94	0xbbe1fb82	-0.006896437
95	0xbc61d7d8	-0.013784371
96	0xbbc231db	-0.0059263534
97	0x3c2699ec	0.010168534
98	0xbad1a8f7	-0.001599579
99	0xbc328866	-0.010896778
100	0xbd0a8e94	-0.03382738
101	0x3cf58097	0.029968543
102	0x3a9fb768	0.0012185397
103	0x3bebe5c4	0.007199021
104	0xbb968bf1	-0.004594319
105	0x3d4bb5b5	0.049733836
106	0x3ceb5961	0.028729143
107	0xbbdfdae6	-0.0068315146
108	0x3d26a5aa	0.040685333
109	0xbb3662c5	-0.0027829867
110	0x3ccd1a39	0.025036918
111	0x3d340921	0.04395402
112	0xbc324be0	-0.010882348
113	0xbb93dfba	-0.0045127543
114	0x3ca3385f	0.01992434
115	0x3c8dbe14	0.01730255
116	0x3c67614f	0.014122321
117	0xbc06f706	-0.008237606
118	0x3c1962e1	0.0093619535
119	0xbadc21ca	-0.0016794738
120	0x3cb55aae	0.022137966
121	0xbb8b076d	-0.0042428286
122	0x3cea9a61	0.028638067
123	0x3bf0111b	0.007326258
124	0x3c82eafa	0.015981186
125	0x3c0b0920	0.008486062
126	0xbbee12e2	-0.0072654346
127	0x3cb3e533	0.021959877
128	0xbc173f08	-0.009231336
129	0xbbece362	-0.0072292546
130	0x3ae9e85f	0.0017845741
131	0x3c93e6e4	0.018054433
132	0x3bbeacca	0.005818938
133	0x3cab4403	0.020906454
134	0x3cee32c0	0.029076934
135	0x3a62c121	0.0008649994
136	0xbb335bed	-0.0027368024
137	0xbbd78eef	-0.0065783183
138	0x3cbf4e76	0.023352843
139	0x3a76d2b7	0.0009415554
140	0x3c0d819b	0.008636857
141	0x3c12bfb4	0.008956838
142	0xbc3eb7e3	-0.011640522
143	0x3b159e54	0.0022829967
144	0xbc3344a5	-0.010941659
145	0x3c5c7ddd	0.0134577425
146	0x3b10ec55	0.002211352
147	0xbb377d46	-0.0027998253
148	0xbb3a1b00	-0.002839744
149	0x3d365ef8	0.044524163
150	0x3d56f654	0.05248101
151	0xbb8fddd4	-0.0043904576
152	0x3c9c6c2d	0.019094551
153	0x3b56a7b8	0.0032753777
154	0x3b9ba08e	0.004749364
155	0x3bb6cc8d	0.0055785836
156	0x3c6387f6	0.013887396
157	0x3931febd	0.00016974933
158	0xbca1131a	-0.019662429
159	0x3ba836c8	0.0051334836
160	0xbbbb3d62	-0.0057141045
161	0x3ab56a1e	0.001384083
162	0xbb1a6ccb	-0.002356338
163	0x3ccf5f02	0.025313858
164	0x3c8f1810	0.017467529
165	0x3c853c1b	0.016264012
166	0xbc3d3c6a	-0.011550048
167	0x3bae5580	0.005320251
168	0x3b00e9d2	0.0019670618
169	0x3bb18daf	0.0054185013
170	0xba3605cd	-0.00069436134
171	0xbb236809	-0.0024933836
172	0x3bda6699	0.0066650626
173	0x3bc62fb2	0.006048166
174	0xbae0c22a	-0.0017147709
175	0x3c221b0d	0.009894145
176	0x3b65f002	0.0035085683
177	0x3bf3ed22	0.00744404
178	0xb9909803	-0.00027579078
179	0x3d0dd66a	0.03462831
180	0xbbbd9cee	-0.0057865297
181	0x3c4c511f	0.012470513
182	0x3a41d799	0.0007394492
183	0xb92b187e	-0.00016316955
184	0xb9850533	-0.0002537161
185	0x3b3a8fd2	0.0028467071
186	0xbc137b67	-0.009001589
187	0xbade3905	-0.0016954249
188	0xbca4aa60	-0.020100772
189	0x3b443d0e	0.0029943618
190	0x3c2998d3	0.010351378
191	0x3ca97c79	0.020689236
192	0x3c68c930	0.014208123
193	0x3d05a13e	0.032624476
194	0xbc432da2	-0.011912735
195	0x3c59ea90	0.013300553
196	0xba115ea4	-0.00055454136
197	0x3d2005c0	0.039067984
198	0x3b5c3233	0.0033599257
199	0xbbbefc15	-0.0058283904
200	0xbbd2f7e7	-0.0064382437
201	0x3d4a507b	0.04939316
202	0xbbcb28d6	-0.0061999364
203	0xbc211280	-0.009831071
204	0x3c5f7c74	0.013640512
205	0x3c0b695b	0.008509005
206	0x3c7b2e7c	0.015330907
207	0x3c0fd01f	0.008777647
208	0xbbd28f9c	-0.006425811
209	0xbbe65db7	-0.0070302146
210	0x3cc554ac	0.024088226
211	0xbca4ec84	-0.02013231
212	0xba8b72b5	-0.0010639044
213	0x3ccddf25	0.025130818
214	0x3ba6c07c	0.005088864
215	0x3c5d03c8	0.013489671
216	0x3caf582e	0.021404352
217	0xba0446db	-0.00050459587
218	0xbb935da1	-0.0044972454
219	0x3c38d45b	0.011281098
220	0xbc50b6f3	-0.012738931
221	0x3d285229	0.04109398
222	0x3c2d0224	0.010559592
223	0x3be0b9c5	0.006858083
224	0xb86ef6cd	-5.6973473e-05
225	0xbba880cb	-0.0051423064
226	0x3b988d62	0.004655526
227	0xbc1e0ad3	-0.009646135
228	0xbbd18928	-0.006394524
229	0xbba40225	-0.0050051385
230	0x3c75e671	0.015008555
231	0x3c29641a	0.0103388075
232	0x3ac3476b	0.0014898604
233	0xbab52506	-0.0013820238
234	0xbaa0ca38	-0.0012267297
235	0x3cbfd944	0.02341903
236	0xbbb58b29	-0.005540271
237	0x3ceac045	0.028656134
238	0xbc8420af	-0.016128866
239	0x39e18630	0.00043015322
240	0x3ce067ff	0.02739334
241	0x3caf150f	0.021372346
242	0xbbed2508	-0.0072370805
243	0x3c516964	0.012781475
244	0x3bb30eba	0.005464402
245	0xbc1b5665	-0.009481047
246	0xbb6a2abf	-0.0035731045
247	0xbb218d79	-0.0024650975
248	0x3c6d004a	0.014465401
249	0x3b5c2d6b	0.0033596407
250	0x3ba7dcf5	0.0051227757
251	0x3c2f1ec4	0.010688487
252	0x3b2d8b79	0.0026480837
253	0x3c8d5505	0.017252455
254	0xbb8058a1	-0.0039168154
255	0x3bb940b1	0.005653464

network_body._body_endoder.seq_layers.0.bias f4 [256]
0	0xbb971136	-0.004610206
1	0xbb7f4277	-0.0038949528
2	0xbbe11083	-0.0068684234
3	0xbbc525d1	-0.006016471
4	0x3ca55bb5	0.02018533
5	0xbc62ea15	-0.013849755
6	0xbc657719	-0.014005446
7	0x3cfa081b	0.030521443
8	0xbc495821	-0.012289078
9	0xbbd52c58	-0.0065055303
10	0xbc81f527	-0.015863968
11	0xbc351dad	-0.011054439
12	0x36e7f704	6.913093e-06
13	0xbc07288f	-0.008249416
14	0xbb61a684	-0.0034431526
15	0xbc2c0e61	-0.010501475
16	0xbc938024	-0.018005438
17	0x3c8d10de	0.017219957
18	0xbb6661be	-0.0035153474
19	0xbc878ca3	-0.016546553
20	0xbc1b76b4	-0.00948875
21	0xbbc12a49	-0.0058949334
22	0x3be393ba	0.0069451006
23	0xbce2ff1b	-0.027709534
24	0x39c8bea3	0.00038289008
25	0x3b759f31	0.0037478919
26	0xbc844f32	-0.016151045
27	0xbc7fa7aa	-0.015603939
28	0xbbb4c327	-0.005516428
29	0xbc121b6e	-0.008917673
30	0x3bc1d899	0.005915713
31	0xbb0be574	-0.0021346482
32	0xbc18b1a3	-0.009319696
33	0xbbae8a52	-0.0053265477
34	0xbbddd40a	-0.006769662
35	0xbc419006	-0.011814123
36	0xbc1a87c0	-0.009431779
37	0xbbaff349	-0.005369578
38	0xbb91747a	-0.004438934
39	0x3b10743e	0.0022041942
40	0x3b863a7e	0.0040963283
41	0xbbcbec82	-0.0062232623
42	0x3c474f36	0.012164881
43	0xbbbce5d7	-0.0057647037
44	0xbb3fe232	-0.002927911
45	0xbc2debe7	-0.0106153255
46	0xbba6b433	-0.0050873994
47	0xbc2f532d	-0.010700983
48	0xbaea31ad	-0.0017867588
49	0xbc6c2832	-0.01441388
50	0x3bf8f08e	0.0075970357
51	0xbb715676	-0.0036825216
52	0xbc214367	-0.00984273
53	0xbb4d3654	-0.00313129
54	0xba86a945	-0.0010273835
55	0xbb585f13	-0.0033015653
56	0xbc05c29e	-0.008164076
57	0xbba98c59	-0.0051742014
58	0x3a64dccc	0.0008730411
59	0xbbce958c	-0.0063044485
60	0xbb37bdb7	-0.0028036663
61	0x3c0b8424	0.0085153915
62	0xbbb9b6e7	-0.0056675556
63	0xbc1b427c	-0.0094763
64	0xbc2aba59	-0.010420405
65	0x3c35fe10	0.0111079365
66	0xbacea1d3	-0.001576478
67	0x3c22c2bc	0.009934124
68	0xbbaa86f0	-0.005204074
69	0xb9c619c7	-0.0003778471
70	0xbc17b0da	-0.009258473
71	0x3d13e979	0.03611133
72	0xbb73c260	-0.0037194714
73	0xbc1279ea	-0.008940199
74	0xbbc3d65e	-0.0059764823
75	0xbbfa8bfa	-0.007646081
76	0xba9a48f0	-0.0011771005
77	0xbc04c3ff	-0.00810337
78	0x3c54fc1c	0.012999561
79	0xbaa57616	-0.0012623693
80	0xbc353bb3	-0.011061597
81	0xbc23321c	-0.0099606775
82	0xbc0257f9	-0.007955545
83	0xbbe73595	-0.007055948
84	0xbc30c4d3	-0.010789114
85	0xbc3984be	-0.011323152
86	0xbbeb5d0c	-0.007182723
87	0xbb8037e1	-0.0039129113
88	0x3b294f0f	0.0025834476
89	0x3c1a2ccf	0.009410097
90	0x3ced8ba8	0.028997257
91	0xbba5d5e8	-0.0050609
92	0x3bdc2e65	0.006719398
93	0x3bebc908	0.0071955957
94	0x3bd00018	0.0063476674
95	0xbb8f17e8	-0.0043668635
96	0xbc58ddc4	-0.013236467
97	0xbc28410f	-0.010269417
98	0x3c576883	0.013147476
99	0xbc424ad4	-0.011858661
100	0xbc26b6ce	-0.01017542
101	0xbc149358	-0.009068333
102	0xbab3d9fe	-0.0013721583
103	0xbb7cb2d4	-0.0038558738
104	0xbc536cde	-0.012904374
105	0x3b817f3b	0.0039519346
106	0xbc37d4d0	-0.011220172
107	0xbb63c893	-0.0034757003
108	0xbc6826f0	-0.01416944
109	0xbbda7efc	-0.0066679697
110	0xbb8c6393	-0.004284331
111	0xbb21fb62	-0.0024716486
112	0xbbe1e13e	-0.006893306
113	0xbbd21595	-0.006411264
114	0xbc12b12e	-0.008953376
115	0xbbb576aa	-0.0055378275
116	0xbb658b80	-0.0035025775
117	0xbc4390c9	-0.011936375
118	0xbc068e34	-0.008212615
119	0x3cdb2ff4	0.026756264
120	0x3c16aeb1	0.009196923
121	0xbc363b7b	-0.01112258
122	0xbbf31de4	-0.0074193347
123	0xbc51c1e5	-0.012802576
124	0x3b8d3087	0.0043087634
125	0x3c84e2a7	0.016221358
126	0xbc395236	-0.0113111045
127	0xbc17112b	-0.009220402
128	0xbc16da3f	-0.009207307
129	0xbc57ee10	-0.013179317
130	0x3c38ef7e	0.011287568
131	0xbc196b4e	-0.009363962
132	0x3c342ab3	0.010996508
133	0x3ab6da09	0.0013950478
134	0xbc4ad881	-0.01238072
135	0x3ca0b18c	0.019615911
136	0xbc0b3fcb	-0.008499096
137	0xbbad8ece	-0.0052965647
138	0xb9fb82c5	-0.00047971882
139	0xbbc231eb	-0.005926361
140	0xba999ec8	-0.0011720294
141	0x39caf4e6	0.00038710906
142	0xbc12043d	-0.008912143
143	0xbc540f1d	-0.012943056
144	0x3b37df89	0.0028056821
145	0xbbafbf4a	-0.0053633796
146	0x3b38038f	0.0028078293
147	0x3bf9d11f	0.007623806
148	0xbc384591	-0.011247055
149	0xbc1af842	-0.009458603
150	0x3c18895e	0.009310095
151	0x3c954914	0.018223323
152	0x3be6a9db	0.0070392913
153	0xbcc20160	-0.023682296
154	0xbb50ac85	-0.003184111
155	0xbb6d0644	-0.0036167065
156	0xbb5636bb	-0.003268643
157	0xbb22e2b6	-0.0024854369
158	0xbca327ca	-0.019916434
159	0xbc6cea41	-0.014460147
160	0xbc611f11	-0.013740317
161	0xbc4ade75	-0.012382139
162	0xbc35dc0e	-0.011099828
163	0xbbdfd8ef	-0.0068312804
164	0xbc6b9a00	-0.014379978
165	0x3c80cced	0.015722716
166	0x3b657f8b	0.0035018648
167	0xbbb05555	-0.005381266
168	0xbb8470a2	-0.004041747
169	0xbc7f605d	-0.01558694
170	0x3789db21	1.6433713e-05
171	0xbc073f26	-0.008254802
172	0x3cc8da5d	0.024518186
173	0xbad94826	-0.0016577288
174	0xbc289036	-0.010288289
175	0xbc572244	-0.013130728
176	0xbc88a8f5	-0.016682127
177	0x3d030a97	0.03199252
178	0x3c97c226	0.018525194
179	0xbc8ed170	-0.017433852
180	0x3c977ce0	0.018492162
181	0xbc3d34b9	-0.011548215
182	0xbc2a0acf	-0.0103785535
183	0xbc8465d3	-0.016161835
184	0xbc3447fd	-0.0110034915
185	0xbbc82315	-0.0061076977
186	0xbcb03345	-0.021508822
187	0xbb1ada2b	-0.0023628573
188	0x3c792cbe	0.015208421
189	0xbc7eb168	-0.015545227
190	0xbc59fd22	-0.0133049805
191	0xbade1f32	-0.0016946553
192	0xbc1fefc5	-0.009761755
193	0xb92f8893	-0.00016740178
194	0xbc8eae87	-0.017417205
195	0xbc879696	-0.016551297
196	0x3c30b261	0.010784716
197	0x3c6d5de6	0.014487719
198	0xbb98b289	-0.004659955
199	0x3d0a72a9	0.033800755
200	0xbbca3fc6	-0.006172153
201	0xbc050f5a	-0.008121336
202	0xbc10d960	-0.008840889
203	0xbc24b0f7	-0.010051957
204	0xbb5861ca	-0.0033017271
205	0xbc621c4d	-0.013800693
206	0xbac3444d	-0.0014897675
207	0x3c1f4fd0	0.009723619
208	0xbc0a5138	-0.008442216
209	0x3d03d44e	0.03218489
210	0xbba5f6a0	-0.0050648004
211	0x3c7df1ac	0.015499514
212	0xbcb04542	-0.0215174
213	0x3ca1123f	0.01966202
214	0xbbe6fb5e	-0.0070490083
215	0xbc56d055	-0.013111194
216	0xbab324d8	-0.0013667597
217	0xba9608af	-0.001144668
218	0xbc258ae8	-0.010103919
219	0xbc8cda66	-0.017193984
220	0xbc0c5723	-0.008565697
221	0x3bfa60fd	0.0076409564
222	0x3c2acf23	0.010425362
223	0x3ba6213f	0.005069881
224	0xbc16139f	-0.0091599515
225	0x3b2cb73d	0.0026354336
226	0xbc1b32cb	-0.009472559
227	0xbc93a046	-0.01802076
228	0xbcb8fe37	-0.022582157
229	0x3c7c9b60	0.015417904
230	0x3c1736b5	0.009229352
231	0xbb4c0dc1	-0.0031136128
232	0xbb09fb28	-0.0021054242
233	0x3cd3b88b	0.025844833
234	0xbc126621	-0.008935482
235	0x3cc2495a	0.023716617
236	0xbbe785ab	-0.007065495
237	0xbc2b6c41	-0.010462821
238	0xba76ea25	-0.00094190455
239	0xbc4183a7	-0.0118111735
240	0xbbaa0cf4	-0.0051895324
241	0xbbbb3645	-0.0057132565
242	0xbbb1b485	-0.005423131
243	0x3b114974	0.0022169026
244	0xbc78d666	-0.015187835
245	0xbc83d384	-0.01609207
246	0xbbd8cefb	-0.006616471
247	0xba9a2160	-0.0011759214
248	0xbbcca36f	-0.0062450687
249	0xbb6cb84a	-0.0036120587
250	0xbb8fc85a	-0.0043878974
251	0xbb4e4410	-0.0031473674
252	0x398d6a2c	0.0002697272
253	0xba9e69d9	-0.0012085988
254	0xbb035378	-0.0020038765
255	0xbc7f7baf	-0.015593453

network_body._body_endoder.seq_layers.0.weight f4 [256, 132]
0	0xbd2abd9d	-0.041684736
1	0xbe018709	-0.12649168
2	0xbc5da412	-0.013527887
3	0xbc3835c0	-0.011243284
4	0xbdaadd30	-0.083429694
5	0xbe209f78	-0.15685833
6	0x3e7211b0	0.2363956
7	0x3d5a06cf	0.05322915
8	0xbc08f585	-0.008359318
9	0x3c87e04a	0.016586442
10	0xbd50d876	-0.050987683
11	0x3baccade	0.005273207
12	0x3c26f339	0.010189825
13	0x3d360dd1	0.04444677
14	0x3e083230	0.13300395
15	0x3d4b587d	0.049644936
16	0xbe2e2719	-0.17007102
17	0xb9f08fe1	-0.00045883565
18	0xbc8785b1	-0.016543241
19	0x3c1bd0cc	0.00951023
20	0x3da8eb9d	0.08248065
21	0x3c9f388b	0.019436141
22	0x3dec75ed	0.1154593
23	0x3dbd0065	0.09228591
24	0x3db534f9	0.08847994
25	0xbdf7c6e9	-0.12098486
26	0x3dc9202d	0.0982059
27	0x3d327f87	0.04357865
28	0x3d41e511	0.047337595
29	0x3dceabfc	0.10091397
30	0x3c08b705	0.0083444165
31	0xbbe45f31	-0.0069693555
32	0x3d85fea8	0.065427125
33	0xbd87650b	-0.06611069
34	0x3c0d7619	0.008634114
35	0xbd423ad1	-0.047419373
36	0xbe3c956c	-0.18416375
37	0x3d4081a5	0.04699864
38	0xbd856d07	-0.06514936
39	0x3db3d79f	0.08781361
40	0x3d045562	0.03230799
41	0x3d1a570a	0.037680663
42	0xbe37da3c	-0.17954344
43	0x3d404864	0.046944037
44	0x3e1710eb	0.14752547
45	0x3e43c6c2	0.19118789
46	0x3d56e112	0.052460738
47	0xbcf91432	-0.030405138
48	0x3ccb7beb	0.024839362
49	0x3e21d5b5	0.15804179
50	0x3c7c7f8e	0.015411271
51	0x3d063824	0.032768384
52	0xbdc60eb2	-0.09670772
53	0x3d39339d	0.045215238
54	0xbc562342	-0.01306993
55	0x3d81b5ab	0.063334785
56	0xbc3480d3	-0.011017042
57	0x3e27ef37	0.16399847
58	0x3e5a7723	0.2133451
59	0xbda85db4	-0.082209975
60	0xbc020b47	-0.007937259
61	0xbbd2d09d	-0.00643356
62	0x3d742c98	0.05961284
63	0x3cf1ed86	0.029532205
64	0x3d81502d	0.063141204
65	0xbc89b122	-0.016808096
66	0x3d85a077	0.06524747
67	0xbd0c3f1d	-0.034239877
68	0x3da5b988	0.08092028
69	0x3c1f36be	0.009717641
70	0xbdd86528	-0.10566169
71	0x3dcc8e2d	0.099880554
72	0xbd1db0e4	-0.038498774
73	0x3d584c7c	0.052807316
74	0x3d1837a2	0.03716243
75	0x3cb3fb93	0.021970546
76	0x3cbd3587	0.023096813
77	0xbcfc6b7e	-0.030812975
78	0xbd019d30	-0.031644046
79	0x3d5d4123	0.054017197
80	0x3e12b294	0.14325935
81	0xbe05256f	-0.13002561
82	0x3e3a1380	0.18171501
83	0x3d12bb11	0.03582293
84	0xbd6dcafd	-0.058054913
85	0x3c0276a0	0.007962853
86	0x3c4eee2e	0.012630029
87	0x3d5709b9	0.052499507
88	0xbdf826ee	-0.121168
89	0xb9bd17d2	-0.00036066637
90	0x3c86acb9	0.016439782
91	0xbe3b4f8b	-0.18292062
92	0xbd810933	-0.06300583
93	0x3dab6192	0.083682194
94	0x3d7f6559	0.062352512
95	0xbc12488a	-0.0089284275
96	0xbcab4a07	-0.020909322
97	0xbc288384	-0.010285262
98	0xbc0a6bee	-0.008448584
99	0x3d23e3a3	0.040012013
100	0xbd99b03d	-0.07504318
101	0xbd3eba70	-0.04656452
102	0xbdaa9d0d	-0.08330736
103	0x3cf213b6	0.029550415
104	0xbd0b1c89	-0.03396276
105	0x3e0ad0c4	0.135562
106	0xbd44747b	-0.047962647
107	0xbdcd9ecb	-0.10040053
108	0xbccae751	-0.024768503
109	0x3c97c2b0	0.018525451
110	0xbd5b5b9b	-0.05355416
111	0x3dd1a675	0.10236827
112	0xbdea7d76	-0.11449711
113	0xbdeb1ee9	-0.11480505
114	0x3db5d307	0.08878141
115	0x3cfa8bef	0.030584304
116	0xbe0207ac	-0.12698239
117	0x3ad85f57	0.0016507906
118	0xbcf70983	-0.030155903
119	0xbcedd473	-0.029031968
120	0x3d0ea134	0.034821704
121	0xbe030875	-0.12796195
122	0x3cf1c7be	0.02951419
123	0xbdabeb30	-0.08394468
124	0xbd6274cb	-0.055287164
125	0xbbd1af40	-0.0063990653
126	0xbd8d3190	-0.06894219
127	0xbe072b47	-0.13200103
128	0xbd59498c	-0.053048655
129	0x3d1ef8fd	0.038811672
130	0x3dc49dc9	0.09600408
131	0xbd9025f0	-0.07038486
132	0xbd9c3695	-0.07627598
133	0xbd80bdf3	-0.0628623
134	0xbdd4e276	-0.103947565
135	0xbd05e467	-0.032688525
136	0xbcd78329	-0.02630766
137	0x3d77db2d	0.060511757
138	0xbdd3f2f9	-0.10349078
139	0xbe4be531	-0.19911648
140	0xbd7cbae7	-0.06170168
141	0x3d82ee89	0.06393153
142	0xbce74869	-0.02823277
143	0x3dfb7c89	0.122796126
144	0xbd8628e3	-0.06550767
145	0xbda70fa0	-0.08157277
146	0x3d597830	0.053093135
147	0xbd8ac79f	-0.06776356
148	0xbc9b9379	-0.018991219
149	0x3d356b1e	0.044291608
150	0xbce20180	-0.027588606
151	0x3d3f164f	0.046652135
152	0x3d52817e	0.051393025
153	0x3d17a9d3	0.03702719
154	0xbdcd4ee2	-0.10024811
155	0x3e33641e	0.1751866
156	0x3cb655d7	0.022257729
157	0x3d5c27cf	0.053748902
158	0x3c596632	0.013268994
159	0xbd90bba1	-0.070670374
160	0x3e61760d	0.22017689
161	0x3d1f4492	0.038883753
162	0x3d8506ae	0.06495415
163	0x3e24ad2d	0.16081686
164	0xbc1513ec	-0.009098988
165	0x3dc5577f	0.09635829
166	0xbd67d7ba	-0.056602217
167	0xbdd9fe74	-0.10644236
168	0xbc3f2b94	-0.011668105
169	0xbc0beb6b	-0.008540015
170	0xbcc8a810	-0.024494201
171	0xbdf4656a	-0.11933406
172	0x3cda84c1	0.02667463
173	0xbcfad67a	-0.030619849
174	0x3df05b76	0.11736195
175	0xbcd00ac1	-0.025395753
176	0x3e8738a0	0.2641039
177	0x3e0986f9	0.13430394
178	0x388be12c	6.669978e-05
179	0x3c7d1ebc	0.015449222
180	0xbce4c1a6	-0.02792437
181	0x3d253240	0.040331125
182	0xbe04c6d6	-0.12966475
183	0xbd05dfb3	-0.03268404
184	0xbe42ffc5	-0.19042881
185	0xbdaf202a	-0.08551057
186	0xbd1dec36	-0.038555346
187	0xbd3ffb65	-0.046870608
188	0x3dbdcc64	0.092675
189	0xbd64319a	-0.055711366
190	0x3e2bccc1	0.16777326
191	0x3da7c9de	0.081928
192	0xbda28f2b	-0.079374634
193	0x3c847533	0.016169166
194	0x3b8bc052	0.0042648697
195	0xbbec6676	-0.0072143627
196	0xbc139cf9	-0.009009593
197	0xbd72a732	-0.05924148
198	0xbce74ee5	-0.028235862
199	0x3d55f5ac	0.052236244
200	0xbbbc278d	-0.0057420195
201	0xbe0ba1cb	-0.13635938
202	0xbb0acf17	-0.0021180564
203	0xbd38acb5	-0.04508658
204	0xbc812bb2	-0.015767906
205	0x39765a43	0.00023494013
206	0x3cf2b111	0.029625447
207	0xbd312bef	-0.04325479
208	0xbdea07b6	-0.11427252
209	0x3d993274	0.07480326
210	0x3ddde4c5	0.1083465
211	0xbe0b38b2	-0.13595846
212	0xbde3ae98	-0.111172855
213	0xbd9806f2	-0.074232
214	0xbde95e9f	-0.11395001
215	0xbd0e2171	-0.03469986
216	0xbcf7e871	-0.030262204
217	0xbdb310f6	-0.087434694
218	0xbc903222	-0.01760203
219	0x3d8cfd1a	0.06884213
220	0xbc3a1c0e	-0.011359228
221	0x3c3d364d	0.011548591
222	0x3d79216e	0.060822897
223	0x3e010af6	0.12601838
224	0xbd535003	-0.051589977
225	0xbd02a949	-0.031899724
226	0xbd21c80a	-0.039497413
227	0xbe081c5a	-0.13292065
228	0xbcd76d37	-0.026297195
229	0xbdbd95aa	-0.09257062
230	0x3da20913	0.07911887
231	0xbc31bb22	-0.010847839
232	0x3c049130	0.008091256
233	0x3e65b289	0.22431387
234	0xbc16e973	-0.009210932
235	0xbd9cb9ea	-0.07652648
236	0xbc209be2	-0.00980279
237	0xbe632fa7	-0.22186147
238	0x3ccd1c04	0.025037773
239	0xbc0ebf97	-0.008712671
240	0x3c4ccab6	0.012499502
241	0x3c5becc0	0.013423145
242	0xbd90a8be	-0.07063435
243	0x3d046027	0.03231826
244	0x3d583559	0.05278525
245	0x3dffce62	0.12490536
246	0xbd9fe0f9	-0.07806582
247	0xbdb9f965	-0.09080771
248	0xbe230117	-0.15918384
249	0x3c1a3f1d	0.009414461
250	0xbddd6a60	-0.10811305
251	0xbcc3f9a5	-0.02392275
252	0x3d54925c	0.05189739
253	0x3dac8656	0.0842406
254	0xbcce3f9f	-0.025176821
255	0x3db382de	0.08765195

network_body._body_endoder.seq_layers.2.bias f4 [256]
0	0xbbda3d61	-0.006660149
1	0xbca3eaa7	-0.020009352
2	0x3b122830	0.0022301786
3	0xbba1c537	-0.00493684
4	0x3c05cb8d	0.008166206
5	0x3a0fa9f8	0.00054803444
6	0xbc85f9d8	-0.016354486
7	0xbbb386e2	-0.005478726
8	0x3bcd7ee0	0.006271228
9	0xbc0289e3	-0.007967445
10	0xbc127d7d	-0.008941052
11	0xbc2a8de7	-0.010409809
12	0xbc21241f	-0.009835272
13	0xbbc47355	-0.005995194
14	0xbb8cdc65	-0.004298734
15	0x3b596527	0.0033171864
16	0xbbc2d5ea	-0.0059459107
17	0x3a84d051	0.0010132884
18	0xb8ec456d	-0.000112662885
19	0xbbfe42ca	-0.0077594267
20	0xbc260b80	-0.010134578
21	0xbad33f53	-0.0016116895
22	0xbb8a1730	-0.00421419
23	0xbbf1f63a	-0.007384089
24	0xbc0acfb5	-0.008472373
25	0xbbfe5d4b	-0.007762586
26	0xbb3cb1bf	-0.0028792468
27	0x3c06dad9	0.008230888
28	0xbc033fe0	-0.008010834
29	0xbb013001	-0.001971245
30	0xbc1a8cbd	-0.009432969
31	0xbc1cb679	-0.009564989
32	0xba53ceff	-0.0008079856
33	0xbb930c0c	-0.00448752
34	0xbaaac5f3	-0.0013028964
35	0x3c8032c4	0.015649207
36	0xbaec3b3a	-0.0018023022
37	0xba75ab7c	-0.00093715615
38	0xbb9eefb5	-0.0048503526
39	0xbbf89882	-0.0075865397
40	0xbb898078	-0.004196223
41	0xba47cd60	-0.0007621851
42	0xbb76bfcb	-0.0037650939
43	0xbacbe493	-0.0015555791
44	0xb9c12782	-0.00036841264
45	0xbbb52b1c	-0.0055288207
46	0x383e6560	4.5393943e-05
47	0xbb83db91	-0.004023977
48	0x3a4fb9ed	0.00079241284
49	0xbc3db32b	-0.0115783615
50	0xbc04e0d1	-0.008110241
51	0xbb9012e1	-0.004396782
52	0x3c3b8a39	0.011446529
53	0xbb9e7aa8	-0.004836399
54	0xbc463826	-0.012098348
55	0xbb9e3241	-0.004827768
56	0xbc0df431	-0.008664177
57	0xbbbdac0e	-0.005788333
58	0xbbc1afec	-0.005910864
59	0xbbcd6543	-0.006268175
60	0xbbda6895	-0.006665299
61	0xba93054e	-0.0011216791
62	0x3b3e1b7a	0.0029008077
63	0x3c7087dd	0.01468083
64	0xbb044fa4	-0.002018907
65	0x3b1b77aa	0.0023722448
66	0xbc72f142	-0.014828028
67	0xbbda220e	-0.0066568917
68	0xb957dd6b	-0.00020586482
69	0xbc3b08b9	-0.011415654
70	0xbb52483b	-0.003208651
71	0xbc178d69	-0.009250023
72	0xbc87af58	-0.016563103
73	0xba1e2795	-0.000603312
74	0xbc0658c0	-0.008199871
75	0x3baf076f	0.0053414623
76	0x3b2c5f93	0.0026302084
77	0xbc4753ff	-0.012166022
78	0x3adeca19	0.0016997486
79	0xbc708b70	-0.014681682
80	0x3b239d3b	0.0024965543
81	0xbaa3e65a	-0.0012504563
82	0xbba2e343	-0.0049709394
83	0xbbb560e7	-0.0055352333
84	0x3ace157e	0.0015722958
85	0xbbb2208b	-0.0054360083
86	0xbc443ec6	-0.011977857
87	0xbb2a217c	-0.00259599
88	0x3c281eaf	0.010261222
89	0xbbe6d0a1	-0.0070439135
90	0x3a8b6edc	0.0010637897
91	0x3ba8a657	0.0051467824
92	0xbc22193f	-0.009893714
93	0xbc10e3e6	-0.008843398
94	0xbbd45856	-0.006480257
95	0xbac482f1	-0.0014992637
96	0x3c900a5b	0.017583063
97	0x3ba6c53c	0.00508943
98	0xbb1b0bee	-0.0023658234
99	0x3b73fb10	0.0037228502
100	0x3c1042a9	0.0088049555
101	0x3b62d884	0.0034613917
102	0xbc37d8ff	-0.0112211695
103	0x3a587c99	0.00082583126
104	0xbc148885	-0.009065752
105	0x3bce19bb	0.0062896884
106	0x3b11a01e	0.0022220681
107	0xbb7b3626	-0.0038331836
108	0x3ca83b6a	0.020536143
109	0xbb42f542	-0.0029748236
110	0x3b67e098	0.003538167
111	0x3ba4dffe	0.0050315848
112	0xbb6c577c	-0.0036062887
113	0xbc15a592	-0.009133713
114	0xbc30f32a	-0.010800162
115	0xbb5b03b7	-0.0033418962
116	0x3ab831a1	0.0014052877
117	0xbbe4bd53	-0.006980577
118	0x3b317682	0.0027078693
119	0xbbe4888d	-0.006974286
120	0xbc691634	-0.014226485
121	0xbb6207bb	-0.003448947
122	0x3c19e8ff	0.0093939295
123	0xbbf77b2c	-0.007552525
124	0x3bd79253	0.0065787225
125	0xbaf1430f	-0.0018406826
126	0xbb6a20fd	-0.003572523
127	0xbc22dc57	-0.009940228
128	0xbc5984b7	-0.013276271
129	0xbba31895	-0.0049772956
130	0x3bee9878	0.0072813593
131	0x39799820	0.00023803161
132	0xbc38ee52	-0.011287289
133	0x3b0d457c	0.0021556308
134	0x3b0f7012	0.0021886867
135	0x3a102c73	0.00054997875
136	0xbc042b5b	-0.008066977
137	0xbc6a5f86	-0.014305001
138	0x3a969623	0.0011488836
139	0xbb0139eb	-0.001971836
140	0xbb50cb78	-0.0031859558
141	0xbb90f34d	-0.004423535
142	0xbb2da419	-0.0026495515
143	0x3b515618	0.0031942185
144	0xbb594659	-0.0033153503
145	0x3ac87387	0.0015293219
146	0xbb6b048d	-0.0035860867
147	0xbc057e67	-0.008147812
148	0xbbaf6973	-0.0053531467
149	0x3aa0ded6	0.0012273442
150	0x3b67f0d8	0.0035391357
151	0xbb76ad17	-0.003763979
152	0x39b9f713	0.00035470034
153	0xbc5e05c8	-0.013551183
154	0xb9440f4b	-0.00018697714
155	0xbba18384	-0.004929008
156	0xba40a1c1	-0.0007348322
157	0xbbd67fb1	-0.0065459837
158	0xbb319acd	-0.0027100325
159	0xbbf0af92	-0.0073451484
160	0x3bd660db	0.006542308
161	0xbbeaf384	-0.0071701426
162	0xbbd7a9cf	-0.006581522
163	0x3c18a820	0.009317428
164	0xba31ad40	-0.00067778304
165	0x3b1ac61d	0.002361662
166	0x3a956d5b	0.0011400388
167	0xbc571094	-0.013126511
168	0xbc066688	-0.008203156
169	0xbb5b7c66	-0.0033490895
170	0xbbb8ac49	-0.0056357724
171	0xbb8aaafe	-0.0042318096
172	0xbc8b42de	-0.016999658
173	0xbc60d2de	-0.01372215
174	0xbbe829f5	-0.00708508
175	0xbb95f0f7	-0.0045758444
176	0xbc8088f3	-0.015690302
177	0x3a075b9f	0.0005163494
178	0xbc2df8b1	-0.010618375
179	0x3c939e4b	0.018019816
180	0xba0741e7	-0.00051596615
181	0xbb52dcef	-0.0032175144
182	0x3c61c68b	0.0137802465
183	0xbc73ee62	-0.014888378
184	0xbc2235d2	-0.009900527
185	0xbc01f643	-0.0079322485
186	0xbc1922ea	-0.009346703
187	0xbc2d41ad	-0.01057474
188	0xbb835bb9	-0.004008737
189	0xbc123a93	-0.008925098
190	0xbb756f37	-0.0037450322
191	0x3a151aab	0.0005687873
192	0x3a9abf75	0.0011806326
193	0x3b18f959	0.0023341982
194	0xbc492ad6	-0.012278279
195	0xba927084	-0.0011172448
196	0xbb5bef31	-0.0033559317
197	0x3bde4c74	0.0067840163
198	0x3baf402d	0.0053482265
199	0xbc043405	-0.008069043
200	0xbc7b5a17	-0.015341303
201	0x3c1604ee	0.009156449
202	0xbb8cdbb9	-0.004298654
203	0xbb835ef0	-0.00400912
204	0xb9da81f7	-0.00041677032
205	0xbc22b679	-0.0099312
206	0xbc90f625	-0.017695496
207	0xba0c6596	-0.00053557137
208	0xbc114e25	-0.008868729
209	0xbc0d7915	-0.008634825
210	0x3a2614bd	0.00063354877
211	0xbb646310	-0.0034849085
212	0xbbb150ca	-0.005411242
213	0x3b9c525f	0.0047705616
214	0xbc3330ad	-0.010936898
215	0xbc02c308	-0.007981069
216	0x3b19ba63	0.0023457042
217	0xbc593f33	-0.013259697
218	0xbb02436f	-0.001987662
219	0xb9fe2c18	-0.00048479508
220	0x37845315	1.5774314e-05
221	0x3ae8519d	0.0017724518
222	0xbc983613	-0.018580472
223	0xbbfe0d11	-0.0077530225
224	0x3c308899	0.010774755
225	0xbb6d4ce5	-0.0036209163
226	0xbc0af8ca	-0.0084821675
227	0xba20fd3f	-0.0006141252
228	0x3c8debb7	0.017324312
229	0xbb0d8b6a	-0.002159799
230	0xbbaa7760	-0.005202219
231	0xbc8108b3	-0.015751218
232	0xbc3ab632	-0.011395978
233	0xbc2194f1	-0.009862171
234	0xbb8cf34d	-0.0043014647
235	0x3c0191f0	0.007908329
236	0xbc21ec91	-0.009883062
237	0x3aef7614	0.0018269443
238	0xbbdbf581	-0.006712616
239	0xbc0b581a	-0.008504892
240	0x3c0d4742	0.008622946
241	0x3b7ee2bc	0.0038892468
242	0xbbc78758	-0.0060891323
243	0xbb2b6830	-0.002615463
244	0xbc4b2969	-0.01240001
245	0x3c385143	0.011249843
246	0xbc26583f	-0.010152875
247	0xbb407263	-0.0029365055
248	0xbc2ec009	-0.010665902
249	0xbc1df431	-0.009640739
250	0xbc0e8f7a	-0.0087012
251	0xbae760de	-0.001765277
252	0xbbf3c080	-0.0074387193
253	0xbcb723e5	-0.022355983
254	0xbc59aa07	-0.013285167
255	0xbc55bee4	-0.013046

network_body._body_endoder.seq_layers.2.weight f4 [256, 256]
0	0xbc857fbd	-0.016296262
1	0xbda6f7a4	-0.081527025
2	0x3ccea3a8	0.025224522
3	0x3d974daa	0.0738786
4	0x3c45124f	0.012028291
5	0x3e5626bb	0.20913212
6	0x3d7d2241	0.061800245
7	0xbd3b50b2	-0.045731254
8	0x3d5c7d4e	0.053830437
9	0xbd680fc3	-0.056655657
10	0xbd3a0cac	-0.04542224
11	0x3d3d59c1	0.046228174
12	0xbdbbf501	-0.0917759
13	0xbc836c15	-0.016042748
14	0x3c20dae0	0.009817809
15	0x39c912fa	0.00038351846
16	0x3dbb701a	0.09152241
17	0xbd722ce3	-0.05912484
18	0x3d8a5a07	0.067554526
19	0xbd17702c	-0.03697221
20	0xbd39e119	-0.045380685
21	0x3c2f45be	0.01069778
22	0xbcd6be05	-0.026213655
23	0x3dba1113	0.09085288
24	0xbdd6d476	-0.104897425
25	0x3c8f61b3	0.017502641
26	0xbd2455ce	-0.040120892
27	0x3d0fdf49	0.03512505
28	0x3d46f60a	0.048574485
29	0x3d1a8fa2	0.037734635
30	0x3d9a8e1b	0.07546636
31	0xbddaf3e5	-0.106910504
32	0x3c8d699b	0.01726227
33	0xbcb6a8a5	-0.022297213
34	0x3e135d79	0.14391126
35	0x3d40983d	0.047020186
36	0xbcdfe55c	-0.027331047
37	0xbc7c0ea3	-0.015384349
38	0x3d6f1a4b	0.058374684
39	0x3c8f4e45	0.017493377
40	0x3d387366	0.045031928
41	0x3d9f321e	0.07773231
42	0x3cb0427f	0.021516083
43	0xbcc60fb0	-0.024177402
44	0x3d63e734	0.055640414
45	0x3caa3479	0.020776974
46	0xbd21f638	-0.039541453
47	0x3ba7907f	0.005113661
48	0xbd906550	-0.07050574
49	0xbcfb5508	-0.030680194
50	0x3d948f9b	0.07253953
51	0xbcd6edb7	-0.026236398
52	0xbd337138	-0.043809146
53	0xbd2675ef	-0.040639814
54	0xbd93c19d	-0.07214663
55	0x3c32f0a8	0.010921635
56	0x3dbac7c7	0.09120136
57	0x3e05f6c7	0.1308242
58	0x3da38982	0.07985212
59	0xbd0c897f	-0.034310814
60	0xbcefc718	-0.02926974
61	0x3d072980	0.03299856
62	0x3d64d738	0.05586931
63	0x3d75beef	0.05999654
64	0x3dce828e	0.10083495
65	0x3c059209	0.008152493
66	0x3c8dd162	0.017311756
67	0x3cc6963e	0.024241563
68	0x3da8ad1b	0.08236142
69	0xbdb30911	-0.08741964
70	0x3cfacab5	0.030614236
71	0x3df5b52d	0.11997447
72	0xbcc590bd	-0.024116868
73	0xbbe8bb11	-0.007102378
74	0x3d429a10	0.047510207
75	0x3d36349f	0.044483777
76	0x3da5ff60	0.081053495
77	0xbde686c9	-0.11256177
78	0x3c9ca04a	0.0191194
79	0xbdcd0263	-0.10010221
80	0xbbcd2e07	-0.0062615904
81	0xbd80d60b	-0.062908255
82	0x3d0a5169	0.033769045
83	0x3c9a78f6	0.018856507
84	0x3dc1c1f7	0.09460824
85	0x3c8cd3e2	0.017190877
86	0x3d887cea	0.066644505
87	0xbcba2993	-0.022724902
88	0xbc9abdc4	-0.018889315
89	0xbd4847f8	-0.04889676
90	0x3d4f9159	0.050675724
91	0xbcc0d8ce	-0.02354088
92	0x3d374ddb	0.044751983
93	0x3c5d438b	0.013504873
94	0xbc5f8f0b	-0.013644944
95	0xbd8d7e7a	-0.06908889
96	0x3dae6a0e	0.08516322
97	0x3d858e44	0.06521276
98	0x3b5690a0	0.0032740012
99	0xbd31a101	-0.043366436
100	0xbd3dbe9d	-0.04632436
101	0x3b4d40c5	0.0031319123
102	0x3c8c580e	0.017131831
103	0x3d244e86	0.04011395
104	0x3d409d0f	0.047024783
105	0xbd23224a	-0.039827622
106	0x3d09cc1d	0.033641923
107	0x3d0c74fc	0.034291252
108	0x3ccf93c1	0.02533901
109	0x3c69d0dd	0.014270988
110	0xbb26266e	-0.0025352496
111	0xbbba9961	-0.0056945537
112	0xbd81b922	-0.063341394
113	0xbd54c96c	-0.051949903
114	0xbde579aa	-0.11204846
115	0x3cb8d7fa	0.022563923
116	0xbd763e04	-0.060117736
117	0xbd0ffdfd	-0.03515433
118	0x38031460	3.125181e-05
119	0x3db7b9ec	0.08971009
120	0x3d367e31	0.04455394
121	0x3dad8d61	0.084742315
122	0x3b7c3267	0.003848219
123	0x3d94a2e2	0.0725763
124	0xbd5f17bb	-0.05446599
125	0x3d09b3c8	0.03361872
126	0x3d805149	0.06265504
127	0x3c12fdb7	0.008971623
128	0xbcfcaae2	-0.030843202
129	0x3d18b23c	0.037279353
130	0x3d48d166	0.049027823
131	0xbd107f78	-0.035277814
132	0x3bcd68ae	0.0062685823
133	0xbc79cdca	-0.015246818
134	0x3db71db8	0.08941215
135	0x3da1f623	0.07908275
136	0xbd010769	-0.031501208
137	0x3ce0d0fd	0.027443403
138	0xbc5dd7a6	-0.013540184
139	0x3cb46b91	0.022023948
140	0xbd541bb8	-0.051784247
141	0xbd815390	-0.063147664
142	0x3dafc618	0.08582705
143	0x3d4a49ec	0.049386904
144	0xbbc78a6a	-0.0060894983
145	0x3b5b8122	0.0033493717
146	0xbd471379	-0.048602555
147	0x3d0dfd62	0.034665473
148	0x3be85f75	0.0070914575
149	0x3ca7b915	0.020473996
150	0x3de12c86	0.1099482
151	0xbd0be807	-0.034156825
152	0xbd1c7437	-0.03819677
153	0xbc1a099b	-0.009401704
154	0x3cc22c7b	0.02370285
155	0xbca8bf23	-0.020598954
156	0x3cfa5edf	0.030562816
157	0xbd8b973a	-0.068159536
158	0xbd0a26af	-0.033728298
159	0xbdcb765f	-0.09934687
160	0x3b9166c8	0.0044373013
161	0xbd05161d	-0.032491792
162	0xbdce5420	-0.10074639
163	0xbcc97105	-0.024590025
164	0x3de34643	0.11097386
165	0xbb130003	-0.0022430427
166	0xbda3625c	-0.07977745
167	0xbc5d83b6	-0.013520172
168	0xbdfc138e	-0.12308417
169	0x3d191408	0.03737262
170	0x3c9a689e	0.018848713
171	0xbd234cb5	-0.039868075
172	0xbdef74b4	-0.11692181
173	0xbd2e661b	-0.042577844
174	0xbbfc56a8	-0.00770076
175	0x3d9790a9	0.074006386
176	0xbdd5c258	-0.10437459
177	0xbd2519e5	-0.040307898
178	0xbe0f5dc7	-0.14000617
179	0x3ce5550b	0.027994653
180	0x3e06b2b4	0.13154107
181	0x39ba32a6	0.0003551442
182	0xbd07cea4	-0.033156052
183	0xbd64dbab	-0.055873554
184	0x3d9b9cd1	0.0759827
185	0xbd8676ad	-0.06565604
186	0xbe0372e5	-0.12836798
187	0x3dc629b0	0.0967592
188	0x3c3e41f4	0.011612404
189	0xbc660358	-0.014038883
190	0xbd0408ef	-0.032235082
191	0x3d0b3310	0.033984244
192	0xbc3352b5	-0.010945012
193	0x3bc1aa75	0.0059102126
194	0xbda35038	-0.07974285
195	0xbdbd3ef5	-0.09240524
196	0xbd28f9b3	-0.041253757
197	0x3dec3cda	0.11535044
198	0x3df7ef2c	0.12106165
199	0x3dfafd1d	0.12255309
200	0x3b158bcf	0.0022818928
201	0x3d1ff94d	0.03905611
202	0xbb81946a	-0.00395446
203	0xbce6626b	-0.028123101
204	0x3c8d3ff5	0.017242411
205	0x3d715d54	0.058926895
206	0xbcd5ac8e	-0.026083257
207	0xbba129d0	-0.0049183145
208	0x3db5c030	0.088745475
209	0x3d3fe24e	0.04684668
210	0x3d4decc9	0.050274644
211	0x3bfd5df5	0.007732148
212	0x3a96072a	0.0011446227
213	0xbd02889c	-0.031868562
214	0xbceea510	-0.029131442
215	0x3c8f626f	0.017502991
216	0x3d8ccd36	0.068750784
217	0x3b44a599	0.003000593
218	0xbd6590c8	-0.056046277
219	0x3da061f8	0.07831186
220	0xbc7f570d	-0.015584719
221	0x3c220c39	0.009890609
222	0xbd044164	-0.032288924
223	0xbde870ac	-0.113496155
224	0x3cfaf6f5	0.030635336
225	0x3da4b420	0.080421686
226	0xbddcfc13	-0.10790267
227	0xbc525eb3	-0.012839961
228	0xba971940	-0.0011527911
229	0xbd080afb	-0.033213597
230	0x3e1e723e	0.15473267
231	0xbc560df3	-0.013064849
232	0x3d182353	0.037143063
233	0xbd025675	-0.031820733
234	0x3d02648a	0.031834163
235	0xbc5bf1f9	-0.01342439
236	0xbd3873ca	-0.0450323
237	0x3d2ab8ae	0.04168003
238	0x3c509c1d	0.012732533
239	0xbda3e862	-0.08003308
240	0x3d437ff1	0.047729436
241	0xbdefdb8a	-0.11711796
242	0x3b906bd1	0.004407384
243	0x3cafb909	0.021450536
244	0x3c4aee5d	0.012385932
245	0xbd77ec9b	-0.06052838
246	0xbd8d8d2c	-0.06911692
247	0xbbed5151	-0.0072423597
248	0xbcfa28ba	-0.030536998
249	0x3df1eed7	0.11813133
250	0x3bcfdca3	0.0063434406
251	0x3d7294d0	0.05922395
252	0xbd45c6af	-0.048285183
253	0xbd92b09c	-0.07162592
254	0x3dc2bb41	0.09508372
255	0x3da02a02	0.07820512
