results/MLDriver2/MLDriver/MLDriver-65383.onnx (onnx, 404427 bytes, 7 tensors)

action_model._continuous_distribution.log_sigma f4 [1, 3]
0	0x3d219712	0.039450713
1	0x3cd0d7e3	0.025493568
2	0x3d221f79	0.039580796

action_model._continuous_distribution.mu.bias f4 [3]
0	0x3b3483f2	0.0027544466
1	0xba420d4c	-0.0007402494
2	0xbaa247f5	-0.0012381064

action_model._continuous_distribution.mu.weight f4 [3, 256]
0	0xbb858a77	-0.004075344
1	0x3ab851bd	0.0014062446
2	0x3c51cd7a	0.012805337
3	0x3c4b8f78	0.012424342
4	0x3bcdf684	0.0062854905
5	0x3ca97ab1	0.020688387
6	0x3c5125cc	0.012765359
7	0x3b8aa6e5	0.004231321
8	0xbc7d11b0	-0.015446112
9	0xbaa85517	-0.0012842742
10	0xbc0c5a8e	-0.008566512
11	0xba7ba937	-0.0009600105
12	0x3901d92d	0.00012383303
13	0x3bcaa82d	0.006184599
14	0x3bdd3201	0.0067503457
15	0xbabc2345	-0.0014353773
16	0xbb6193f8	-0.0034420472
17	0x3c93a0f8	0.018021092
18	0x3d1fafed	0.038986135
19	0x3c1f0944	0.009706799
20	0x3b69ec72	0.003569391
21	0x3c2fdf5b	0.010734404
22	0xbc2ab35b	-0.010418738
23	0x3bd412ab	0.006471952
24	0x3ca57fdd	0.020202572
25	0x3c1f623a	0.009728009
26	0xbbdcba58	-0.006736081
27	0x3d0ce08d	0.034393836
28	0x3c21313b	0.009838398
29	0xbb8fb77f	-0.004385888
30	0x3bd4e760	0.0064973086
31	0x3baa0717	0.0051888335
32	0x3bb4bccb	0.00551567
33	0x3aff16aa	0.001946171
34	0x3c2a9ce0	0.0104133785
35	0xbb93cfe5	-0.004510867
36	0x3b86b0a8	0.0041104145
37	0xbb063fa5	-0.0020484712
38	0x3c0b6884	0.008508805
39	0xbadc241b	-0.0016795428
40	0x3c39cf03	0.011340859
41	0x3c94f57d	0.018183464
42	0x3c416d66	0.011805868
43	0x3a92af56	0.001119117
44	0xbb45b609	-0.0030168316
45	0xbc411854	-0.011785585
46	0x3c87e7b9	0.016589986
47	0x3b1ade33	0.0023630976
48	0x3c4f954f	0.012669875
49	0x3c10d0b5	0.008838822
50	0x3b2def5e	0.002654038
51	0xbc730119	-0.014831805
52	0xbc9c5a6a	-0.019086082
53	0x3ba0648b	0.004894798
54	0x3bcb3b49	0.0062021357
55	0x3b59fd8f	0.0033262705
56	0x3be30e78	0.006929215
57	0x3cb2e125	0.021835873
58	0x3b84b5b6	0.004049982
59	0xbc343eab	-0.011001269
60	0x3b4f7ec9	0.0031661263
61	0xbb9be29e	-0.0047572395
62	0xbc02de70	-0.007987604
63	0xbcde3ca9	-0.027128534
64	0x3b990be3	0.0046706065
65	0x3ca8ddb9	0.020613538
66	0x3a5408f7	0.0008088494
67	0x3c0c8f6a	0.008579114
68	0x3d12f185	0.035874862
69	0x3a33f98f	0.0006865495
70	0xb996257a	-0.00028638152
71	0xb9b923a7	-0.00035312513
72	0x3b5630f7	0.0032682994
73	0x3b832c96	0.004003118
74	0xbc3cf355	-0.011532624
75	0xbc3fca5f	-0.011705964
76	0x3bee195c	0.0072662067
77	0x3c2a15b7	0.010381154
78	0x3bbd5fda	0.0057792487
79	0xbbabc80b	-0.005242353
80	0xbc4669d4	-0.012110192
81	0xbbcc3b2c	-0.00623264
82	0xbb152cbf	-0.0022762266
83	0x3bbd2754	0.0057725105
84	0x3bf9b82e	0.007620833
85	0x3c4549f3	0.012041557
86	0x3cc942e5	0.02456803
87	0x3c5906d7	0.01324626
88	0xbc43ad52	-0.011943178
89	0x3b20ee76	0.0024556196
90	0x3c833029	0.016014175
91	0x3c12fc0e	0.008971227
92	0xbc9853b6	-0.018594604
93	0xba2a5a78	-0.0006498466
94	0xbb81d14a	-0.003961717
95	0xbc6ac0b6	-0.014328172
96	0xbc98c761	-0.018649759
97	0x3c2a0bea	0.010378817
98	0xbb795b7b	-0.0038048911
99	0xbbd0a920	-0.0063678175
100	0xbcf194cc	-0.029489897
101	0x3ce48c1a	0.027898837
102	0xbc19f916	-0.009397766
103	0x3beebeae	0.0072859144
104	0xbb89d06d	-0.0042057545
105	0x3d0fb458	0.0350841
106	0x3cd90ce1	0.026495399
107	0xbc09440c	-0.00837804
108	0x3d1e4eda	0.038649417
109	0xbb097ee0	-0.0020980164
110	0x3cfc7812	0.030818973
111	0x3d0aca77	0.03388449
112	0xbc2c221f	-0.010506182
113	0xbb97e8ca	-0.004635905
114	0x3cb28b71	0.021795006
115	0x3cc0d344	0.02353824
116	0x3c5e9a1a	0.013586545
117	0xbc088e77	-0.0083347475
118	0x3c9afe4f	0.018920092
119	0xb7a03a83	-1.9100733e-05
120	0x3cd63f09	0.026153104
121	0xbb95f00e	-0.004575736
122	0x3ce5cb43	0.028051024
123	0x3c376d6f	0.011195525
124	0x3c9225f6	0.017840367
125	0x3bf618bc	0.007510273
126	0xbc008c37	-0.00784593
127	0x3cbdeb5e	0.02318352
128	0xbc2f21a9	-0.010689178
129	0xbbedd6dc	-0.0072582792
130	0x384d3878	4.89284e-05
131	0x3c85f7a0	0.016353428
132	0x3bd71ab8	0.0065644644
133	0x3ca4d348	0.020120278
134	0x3cdca1ff	0.026932715
135	0x3911173a	0.0001383693
136	0xbb0568ad	-0.002035658
137	0xbc304b31	-0.0107601145
138	0x3c9bafbc	0.019004695
139	0xba72a59d	-0.00092562457
140	0x3c34799f	0.011015325
141	0x3c02b472	0.007977592
142	0xbc3965bc	-0.011315759
143	0xbc13cf9e	-0.009021668
144	0xbc563789	-0.013074764
145	0x3c4585a7	0.012055791
146	0x3a9feb17	0.00122008
147	0xbb1468aa	-0.0022645392
148	0xbb490058	-0.003067037
149	0x3d3fb0a6	0.046799324
150	0x3d37f432	0.044910617
151	0xbacae55a	-0.0015479729
152	0x3caeee78	0.021353945
153	0x3b22cce1	0.0024841356
154	0x3a408512	0.0007344048
155	0x3b8a01d9	0.004211646
156	0x3c4ee36e	0.012627466
157	0xb89ce25b	-7.480822e-05
158	0xbccd573f	-0.025066016
159	0x3b7c3a05	0.003848673
160	0xbbc7b107	-0.0060941014
161	0x3a1938d3	0.0005844954
162	0x3aeb6bdd	0.0017961223
163	0x3cb2f44b	0.021845004
164	0x3c8ad7b6	0.016948562
165	0x3c793993	0.015211481
166	0xb949bd7c	-0.00019239442
167	0x3a08b997	0.00052156433
168	0x3b3c9ada	0.0028778822
169	0x3abc0734	0.0014345408
170	0xbb34b751	-0.0027575085
171	0xbbb63711	-0.0055607636
172	0x3ac955ee	0.0015360692
173	0x3ac76709	0.0015213202
174	0x3bd7f718	0.006590735
175	0x3c0fc5b2	0.008775162
176	0x3ab63172	0.0013900234
177	0x3bd6a5de	0.0065505346
178	0xba2b9d4d	-0.0006546572
179	0x3cf0d9f9	0.029400812
180	0x3b3931c0	0.0028258413
181	0x3c3301b6	0.010925701
182	0x3b8f8e30	0.0043809637
183	0xba5235de	-0.0008018891
184	0xbb35d689	-0.002774628
185	0x3aa26601	0.0012390019
186	0xbc7aec47	-0.015315122
187	0x3ba1bdc7	0.0049359533
188	0xbc9ddd06	-0.019270431
189	0x3b394113	0.0028267547
190	0x3c920dbd	0.017828817
191	0x3c970ebb	0.018439641
192	0x3c5b3934	0.0133803375
193	0x3d00fbb4	0.031490043
194	0xbc4fa33f	-0.012673198
195	0x3c5ee5f9	0.013604634
196	0xb9f43348	-0.00046577514
197	0x3d09cca9	0.033642445
198	0x3b62ccb6	0.003460688
199	0xbbc3afc8	-0.0059718825
200	0xbaac30f6	-0.001313715
201	0x3d2967e7	0.041358855
202	0xbbe3608d	-0.006939
203	0xbc3f2ec4	-0.011668865
204	0x3c51af19	0.012798094
205	0x3be12d7e	0.006871878
206	0x3c92a580	0.017901182
207	0x3c0a6e28	0.008449115
208	0xbb113430	-0.002215635
209	0xbbfcb4a8	-0.0077119656
210	0x3cb2de34	0.02183447
211	0xbca542c2	-0.020173434
212	0xba78284d	-0.00094664545
213	0x3cc00495	0.023439685
214	0x3acf1024	0.0015797657
215	0xbb162d25	-0.0022915092
216	0x3c9a57c4	0.018840678
217	0xbae34a14	-0.0017340803
218	0xbbab1b28	-0.005221743
219	0x3c5ff43e	0.013669072
220	0x3bba1bee	0.005679599
221	0x3d1121b4	0.035432532
222	0x3c753396	0.014965912
223	0x3bd7c5b1	0.006584846
224	0x3c5137a4	0.012769613
225	0xbc085774	-0.008321632
226	0xbacc607f	-0.0015592723
227	0xbc31795c	-0.010832157
228	0xbb9fd9a2	-0.004878239
229	0xbb9dc4d2	-0.0048147226
230	0x3c609008	0.013706215
231	0x3c4431e6	0.011974787
232	0x3aff0160	0.0019455366
233	0xba93f07b	-0.0011286879
234	0xbb0aacf1	-0.002116021
235	0x3caf6991	0.021412643
236	0xbc57070d	-0.01312424
237	0x3ce102e2	0.027467195
238	0xbc86d510	-0.016459018
239	0x3a886a7e	0.0010407714
240	0x3cebd95c	0.028790168
241	0x3ca4a291	0.020097049
242	0xbc183877	-0.009290806
243	0x3c2c90fc	0.010532614
244	0x3b9adf4b	0.0047263256
245	0x39a6b292	0.00031795033
246	0xbb6074aa	-0.0034249225
247	0xbba2eb40	-0.0049718916
248	0x3c3dcf82	0.011585118
249	0x3bfb309f	0.007665708
250	0x3bd36246	0.006450924
251	0x3c1e6889	0.009668478
252	0x3a6e4997	0.0009089945
253	0x3ca6c944	0.020359643
254	0xbac15e77	-0.0014752884
255	0x3bd8b3b8	0.006613221

network_body._body_endoder.seq_layers.0.bias f4 [256]
0	0xba89461a	-0.0010473162
1	0xba95d16e	-0.0011430213
2	0xbb8290d2	-0.003984549
3	0xbc082a0b	-0.008310805
4	0x3cbe570d	0.023234868
5	0xbc3e7c4b	-0.011626313
6	0xbc2165d8	-0.009850942
7	0xba1f0ed7	-0.000606758
8	0xbbf0132c	-0.007326504
9	0xbbc91590	-0.0061366037
10	0xbc0e5742	-0.008687796
11	0xbb66d2d7	-0.0035220885
12	0xbb51b5a4	-0.0031999135
13	0xbb79cb08	-0.00381154
14	0x3aa3b43f	0.0012489631
15	0xbbf4129a	-0.0074485065
16	0xbc4274c9	-0.011868664
17	0x3c82c230	0.015961736
18	0xbb9ad3be	-0.0047249487
19	0xbc3529d7	-0.011057339
20	0xbbee2fd2	-0.007268884
21	0xbb2bb288	-0.0026198942
22	0x3c2ef05b	0.010677422
23	0xbcb522df	-0.022111354
24	0xba41dc31	-0.0007395177
25	0x3b976d9e	0.0046212217
26	0xbc096837	-0.008386663
27	0xbc10209c	-0.008796837
28	0xbbc9c326	-0.0061572967
29	0xbb9ac2d4	-0.0047229324
30	0x3b011bbc	0.001970037
31	0xbb8750d8	-0.0041295104
32	0xbb763d87	-0.0037573294
33	0x3a9dce6b	0.0012039667
34	0xbb83e7ac	-0.00402542
35	0xbc090a0d	-0.008364213
36	0xbbbab7d2	-0.0056981826
37	0xbb815227	-0.003946561
38	0xbbdf09e8	-0.006806601
39	0xbb115f8f	-0.0022182202
40	0x3a09e058	0.0005259565
41	0xbbb67e35	-0.0055692443
42	0xba98cf2f	-0.0011658425
43	0xbbb9dc5f	-0.0056720222
44	0x3b9b8f13	0.0047472804
45	0xbb87bcab	-0.004142364
46	0xbbfb0d1e	-0.007661476
47	0xbbd70e21	-0.0065629636
48	0xbbaad238	-0.0052130483
49	0xbbc69e78	-0.0060613714
50	0x3ba4634b	0.0050167195
51	0xbbf0bd32	-0.0073467726
52	0xbbc11868	-0.005892802
53	0xbb9abedc	-0.0047224592
54	0x3b238a4d	0.002495426
55	0x3af60543	0.0018769879
56	0xbba4c758	-0.0050286464
57	0xbb3dd723	-0.0028967343
58	0xba755578	-0.0009358744
59	0xbb72384b	-0.0036959823
60	0xba67a944	-0.0008837173
61	0x3b52aecf	0.003214765
62	0xbb7fca17	-0.0039030367
63	0xbc50e255	-0.012749274
64	0xbb966731	-0.004589938
65	0x3c1a7eb7	0.009429625
66	0xbba096c5	-0.0049007856
67	0x3ca83ee0	0.020537794
68	0xbbf771e4	-0.0075514186
69	0x3abee0f3	0.001456289
70	0xbbccb9f1	-0.006247752
71	0x3d278691	0.040899817
72	0xbbb35a3c	-0.0054734033
73	0xbc156f3b	-0.009120758
74	0xbb0f1e1b	-0.0021838013
75	0xbbae7a21	-0.0053246175
76	0x3a9b3c8a	0.0011843604
77	0xbb52dbbc	-0.003217443
78	0x3b95e98e	0.004574961
79	0x3a22d9ec	0.00062122825
80	0xbc031be9	-0.00800226
81	0xbbc32fa2	-0.005956606
82	0xbb952b1a	-0.0045522572
83	0xbb8397ef	-0.0040159146
84	0xbc0032d0	-0.007824615
85	0xbbf09b9a	-0.007342768
86	0xbbecb0a4	-0.0072232056
87	0x3aa61eed	0.0012674012
88	0xbb685acb	-0.0035454507
89	0x3bcb1038	0.006197002
90	0x3cd0fc9c	0.025511079
91	0xbbcdb685	-0.0062778615
92	0x3b83fea2	0.0040281573
93	0xbbc59dc6	-0.006030771
94	0xbbe026a0	-0.006840542
95	0xbb5bf1bb	-0.003356083
96	0xbc4a5ecd	-0.012351704
97	0xbbc92582	-0.0061385045
98	0x3cb00423	0.021486348
99	0xbb3d42bc	-0.0028878888
100	0xbc53ef49	-0.012935468
101	0xbc06bc0d	-0.008223546
102	0xbbcf1feb	-0.0063209436
103	0xbb4d6f48	-0.0031346846
104	0xbbacbce9	-0.0052715433
105	0x3b663f24	0.003513285
106	0xbbdbfb42	-0.006713302
107	0xbb8de665	-0.0043304437
108	0xbc7131c2	-0.014721336
109	0xbb97f067	-0.0046368125
110	0xbc04c969	-0.008104661
111	0xbbb99693	-0.005663702
112	0xbbba29b0	-0.005681239
113	0xbb7566b5	-0.0037445251
114	0xbbf5cd00	-0.0075012445
115	0xbb9e34b7	-0.0048280614
116	0xbb4b56e8	-0.0031027142
117	0xbbdaa34a	-0.0066722976
118	0xbbb8e066	-0.0056419848
119	0x3cbd3598	0.023096845
120	0x3aae4349	0.0013295199
121	0xbaf587cc	-0.0018732487
122	0xbb1abd82	-0.002361149
123	0xbc1a3e31	-0.009414242
124	0xb99387b3	-0.0002813913
125	0x3ba94420	0.005165592
126	0xbc02e355	-0.0079887705
127	0xbc15aaa1	-0.009134919
128	0xbb7c7d10	-0.0038526691
129	0xbc14cc6b	-0.00908194
130	0x3c3200b7	0.010864428
131	0xbbca52f1	-0.006174438
132	0x3bc3a514	0.0059706066
133	0xbb405a3a	-0.0029350654
134	0xbc026e3c	-0.007960852
135	0x3c49f900	0.012327433
136	0xbba3cbb5	-0.004998649
137	0xbb6dea4c	-0.0036302982
138	0xbb94d6b9	-0.0045421985
139	0xbb271d70	-0.0025499724
140	0xbade02a0	-0.0016938038
141	0xbb439193	-0.0029841408
142	0xbbb2f40e	-0.0054612225
143	0xbbc2c7b4	-0.0059442166
144	0x39852556	0.00025395554
145	0xbb9c8e53	-0.0047777086
146	0x3a957036	0.0011401239
147	0xba8d85ef	-0.0010797362
148	0xbc178563	-0.0092481105
149	0xbab2c3f2	-0.0013638719
150	0x3c016ab5	0.007898976
151	0x3c5cceb9	0.013477021
152	0x3b625016	0.0034532598
153	0xbc71d9ed	-0.01476143
154	0x3ab72eab	0.00139757
155	0x39e50967	0.0004368529
156	0xbaa08eba	-0.0012249567
157	0x3c2029cf	0.009775593
158	0xbc155c0e	-0.009116186
159	0xbc28e7a5	-0.010309135
160	0xbbfeb297	-0.0077727544
161	0xbbc09b15	-0.005877862
162	0xbc124fd2	-0.008930163
163	0xbba9b139	-0.0051785973
164	0xbbce047c	-0.0062871557
165	0x3c4dfc26	0.012572324
166	0x3bbe7b84	0.005813064
167	0xbc170411	-0.009217278
168	0xbb1be8cb	-0.0023789878
169	0xbbdbb909	-0.0067054075
170	0x3c23bf45	0.009994333
171	0xba312207	-0.00067570846
172	0x3cd7c59c	0.026339345
173	0xbb5ee053	-0.003400822
174	0xbc571671	-0.013127909
175	0xbb910ebc	-0.0044268053
176	0xbc4f9792	-0.0126704145
177	0x3d11ac40	0.03556466
178	0x3b0824c9	0.0020773879
179	0xbba262d7	-0.0049556303
180	0x3bda35d4	0.006659249
181	0xbbc9b9fe	-0.006156205
182	0xbb689e9b	-0.0035494927
183	0xbc21ca89	-0.009874948
184	0xbc1c1ec7	-0.009528822
185	0xbb08f0e3	-0.0020895533
186	0xbc80d58a	-0.015726823
187	0xbb6e859a	-0.003639555
188	0x3b7cee0f	0.0038594042
189	0xbc5ea9c5	-0.013590281
190	0xbc0b4d39	-0.008502298
191	0xbac9cbb9	-0.0015395797
192	0xbbd8d22b	-0.006616851
193	0xbb1714dc	-0.0023053205
194	0xbc51ef17	-0.012813351
195	0xbc4b586d	-0.012411219
196	0x3baa0bc3	0.0051893904
197	0x3c737d43	0.014861408
198	0xbbdd0860	-0.006745383
199	0x3c84df10	0.016219646
200	0xbbc3a121	-0.005970136
201	0xbba4e886	-0.0050326018
202	0xba0a58c6	-0.00052775105
203	0xbc0b97c7	-0.008520073
204	0xbb462cf8	-0.0030239206
205	0xbc0b8db4	-0.008517671
206	0xbb14a3d3	-0.0022680655
207	0x3c5aa352	0.013344603
208	0xbbe88009	-0.007095341
209	0x3d148a3c	0.036264643
210	0xbbc047ce	-0.005867935
211	0x3a560d8e	0.0008165472
212	0xbc344412	-0.011002557
213	0x3c71e21d	0.014763382
214	0xbbb9db18	-0.00567187
215	0xbc2fe701	-0.010736228
216	0xbb9adcc0	-0.0047260225
217	0xbabe78ed	-0.0014531888
218	0xbbca7ebf	-0.00617966
219	0xbc0d978e	-0.0086420905
220	0xb9eecb1c	-0.00045546226
221	0x3a10d70d	0.0005525209
222	0x39cf5cb8	0.00039551198
223	0xbb8a63f4	-0.004223341
224	0xbbec1e60	-0.0072057694
225	0xba2fdd56	-0.0006708702
226	0xbbcade3d	-0.0061910436
227	0xbbf577e2	-0.007491098
228	0xbc255bd3	-0.010092693
229	0x3b1c09e4	0.0023809606
230	0x3c9929e6	0.018696737
231	0x3b3623cb	0.002779233
232	0xbabe9603	-0.0014540557
233	0x3cbc8203	0.023011213
234	0xbc1fc79e	-0.009752182
235	0x3ccd194c	0.025036477
236	0xbb7d43b6	-0.0038645095
237	0xbbe10516	-0.0068670614
238	0xbc60d0f3	-0.013721692
239	0xbbce1895	-0.0062895515
240	0xbc38a1f8	-0.011269085
241	0xbb1e5f07	-0.0024165527
242	0xbb592467	-0.003313327
243	0xb9c3f2ce	-0.00037374202
244	0xbc01ba66	-0.007917976
245	0xbc6e2f5f	-0.014537661
246	0xbb85b8fe	-0.0040808907
247	0xbb61ec45	-0.0034473103
248	0xbbb00f33	-0.0053729056
249	0x3c3287f7	0.010896674
250	0xbb40e753	-0.0029434755
251	0xbb4ff08f	-0.0031729077
252	0x3a380fa9	0.00070213765
253	0x3a269913	0.00063552073
254	0x3b7ebfab	0.0038871567
255	0xbc08c036	-0.008346608

network_body._body_endoder.seq_layers.0.weight f4 [256, 132]
0	0xbd2e7d53	-0.042599987
1	0xbe024fc8	-0.12725747
2	0xbc9b667f	-0.018969772
3	0xbc49f8ce	-0.012327386
4	0xbdac50f4	-0.08413878
5	0xbe22409a	-0.15844956
6	0x3e717764	0.235807
7	0x3d51d807	0.05123141
8	0xbc11489b	-0.008867408
9	0x3c666946	0.014063185
10	0xbd52b6a7	-0.051443722
11	0x3b660194	0.0035096155
12	0x3c43d8f9	0.011953586
13	0x3d25550e	0.040364318
14	0x3e053c5f	0.13011311
15	0x3d318cae	0.043347053
16	0xbe346dca	-0.17620006
17	0xbbbbd943	-0.0057326867
18	0xbc8f281d	-0.017475182
19	0x3be2c5db	0.006920559
20	0x3da8c848	0.082413256
21	0x3c862b4c	0.016378067
22	0x3ded8d9c	0.115992755
23	0x3dae92b0	0.08524072
24	0x3db59e5b	0.088680945
25	0xbdfab82b	-0.122421585
26	0x3dc70e64	0.09719542
27	0x3d717965	0.05895366
28	0x3d379ef1	0.044829313
29	0x3ddf2307	0.10895353
30	0x3c241348	0.010014363
31	0xbb898183	-0.004196347
32	0x3d7d93f9	0.061908696
33	0xbd8e705c	-0.069550246
34	0x3b368987	0.0027852969
35	0xbd4ce9f8	-0.050027817
36	0xbe3dc28c	-0.18531245
37	0x3d4885c2	0.048955686
38	0xbd5815d0	-0.052755177
39	0x3db6ec17	0.08931749
40	0x3cf2c9c3	0.029637223
41	0x3d1f5352	0.03889782
42	0xbe384d8d	-0.17998333
43	0x3d444412	0.04791648
44	0x3e1900cd	0.14941712
45	0x3e43ed40	0.19133472
46	0x3d487faf	0.048949894
47	0xbcea97d6	-0.028636854
48	0x3ccd8783	0.025089031
49	0x3e233556	0.15938315
50	0x3c814c1e	0.015783366
51	0x3d0a2e3e	0.033735506
52	0xbdc521cb	-0.09625586
53	0x3d3b0d05	0.045666713
54	0xbc4dbf23	-0.012557778
55	0x3d74fa61	0.059809092
56	0xbbf577d2	-0.0074910903
57	0x3e1ec040	0.15503025
58	0x3e54f05b	0.20794813
59	0xbdb95445	-0.09049276
60	0xbc549226	-0.012974298
61	0xbc80a245	-0.015702376
62	0x3d673544	0.056447282
63	0x3caf1f20	0.021377146
64	0x3d814a2a	0.06312974
65	0xbc8e42eb	-0.017365893
66	0x3d842544	0.0645242
67	0xbd126ef2	-0.035750337
68	0x3d9aa264	0.07550505
69	0x3c8506c0	0.01623857
70	0xbdd27842	-0.102768436
71	0x3de24028	0.11047393
72	0xbd1e159a	-0.03859482
73	0x3d6eb7c7	0.058280732
74	0x3d1c7f54	0.038207367
75	0x3cc2795e	0.023739513
76	0x3ca8069c	0.020510964
77	0xbd1af4b2	-0.037831016
78	0xbd1e43de	-0.038638942
79	0x3d4ba353	0.049716305
80	0x3e106be7	0.14103661
81	0xbe0898eb	-0.13339584
82	0x3e413ddc	0.18871254
83	0x3d01e3ae	0.031711273
84	0xbd764d29	-0.06013218
85	0x3c0e18ae	0.008672876
86	0x3c33e80e	0.010980619
87	0x3d4ba72c	0.049719974
88	0xbdf451e4	-0.11929682
89	0xb9b3fdea	-0.0003433072
90	0x3c5f0dd4	0.013614137
91	0xbe39947f	-0.18123053
92	0xbd80c410	-0.06287396
93	0x3dae10b2	0.08499278
94	0x3d80336a	0.062598065
95	0xbc02c666	-0.007981872
96	0xbca8cf80	-0.020606756
97	0xbc219530	-0.009862229
98	0xbc048389	-0.008088001
99	0x3d154bab	0.036449116
100	0xbd92640e	-0.0714799
101	0xbd6297bd	-0.05532049
102	0xbdbb09f7	-0.0913276
103	0x3cc1866e	0.023623671
104	0xbd25aa45	-0.040445585
105	0x3e05fb6e	0.13084194
106	0xbd54c1c5	-0.051942606
107	0xbdd8b4d8	-0.10581368
108	0xbce2a4b3	-0.027666425
109	0x3cacd255	0.021096388
110	0xbd5fb321	-0.05461419
111	0x3dd52de9	0.10409147
112	0xbdfa40cb	-0.122193895
113	0xbde8c981	-0.11366559
114	0x3da8f065	0.082489766
115	0x3d264be2	0.04059971
116	0xbe01000f	-0.12597679
117	0x3b741d3d	0.0037248873
118	0xbce4fd7d	-0.027952904
119	0xbcf29937	-0.029614074
120	0x3d045828	0.032310635
121	0xbe09623f	-0.13416384
122	0x3cc7b607	0.02437879
123	0xbdb5cfb7	-0.08877509
124	0xbd898403	-0.06714632
125	0xbc284eb1	-0.010272668
126	0xbd82c400	-0.0638504
127	0xbe0c7951	-0.13718154
128	0xbd6aa3ba	-0.057285048
129	0x3d26ebab	0.040752094
130	0x3dc0e8ba	0.09419389
131	0xbd910632	-0.0708126
132	0xbda3952f	-0.07987439
133	0xbd8240a1	-0.06359983
134	0xbdc4cdda	-0.096095756
135	0xbd0f9de5	-0.03506269
136	0xbcddb86e	-0.027065482
137	0x3d73c53c	0.05951427
138	0xbdd58c15	-0.10427109
139	0xbe4c11ab	-0.19928615
140	0xbd7fe6fe	-0.06247615
141	0x3d840df2	0.06447972
142	0xbced758c	-0.028986715
143	0x3dfc4b5b	0.123190604
144	0xbd878ce6	-0.06618671
145	0xbdad6bc5	-0.08467821
146	0x3d18ad81	0.03727484
147	0xbd8ac0be	-0.06775044
148	0xbc75b605	-0.01499701
149	0x3d372b5d	0.04471909
150	0xbcddb71b	-0.02706485
151	0x3d40b6f2	0.04704947
152	0x3d524f94	0.051345423
153	0x3d1fe3c5	0.039035577
154	0xbdcc79c8	-0.099841654
155	0x3e34ea3c	0.17667478
156	0x3cb17a92	0.021664891
157	0x3d603aba	0.054743506
158	0x3c837398	0.01604633
159	0xbd8dcb85	-0.06923584
160	0x3e661aa4	0.224711
161	0x3d1de2bf	0.03854632
162	0x3d89535b	0.06705352
163	0x3e202b46	0.15641508
164	0xbc0e9d1a	-0.008704448
165	0x3dc8d344	0.09805921
166	0xbd663e17	-0.056211557
167	0xbdd5f4b9	-0.10447068
168	0xbc38e626	-0.01128534
169	0xbc04cf13	-0.008106011
170	0xbcc64525	-0.024202893
171	0xbdf36cac	-0.11885962
172	0x3cddc359	0.027070688
173	0xbcf7f1e9	-0.030266719
174	0x3df125f3	0.11774816
175	0xbccdef1c	-0.02513843
176	0x3e8539c7	0.26020643
177	0x3e0a5dd4	0.13512355
178	0xbc12b5e1	-0.008954496
179	0x3c3c59c6	0.011496013
180	0xbcdeca45	-0.027196059
181	0x3d134003	0.03594972
182	0xbe039701	-0.12850572
183	0xbd197350	-0.037463486
184	0xbe415503	-0.18880086
185	0xbdb9bd19	-0.09069271
186	0xbd16ab6c	-0.036784574
187	0xbd49e636	-0.049291812
188	0x3dc2bd39	0.095087476
189	0xbd6b1374	-0.0573916
190	0x3e28c36e	0.164808
191	0x3d9ff088	0.078095496
192	0xbd955e37	-0.07293361
193	0x3c58819f	0.013214498
194	0xbafc0460	-0.0019227378
195	0xbc1dde40	-0.009635508
196	0xbc3b25d4	-0.011422593
197	0xbd7cb1c1	-0.061692957
198	0xbcfb132d	-0.030648792
199	0x3d4c1736	0.049826823
200	0xbc068d76	-0.008212438
201	0xbe0e2470	-0.13881087
202	0xbb98d3f9	-0.004663941
203	0xbd4761c6	-0.04867723
204	0xbc9eaf86	-0.019370805
205	0xbb5883ad	-0.003303747
206	0x3cdfb5c0	0.027308345
207	0xbd3b5f85	-0.04574539
208	0xbdeedf59	-0.11663694
209	0x3d9392fe	0.07205771
210	0x3dc1a63e	0.09455536
211	0xbe0dcbfe	-0.13847348
212	0xbde87089	-0.113495894
213	0xbd9e005c	-0.07714912
214	0xbded0053	-0.115723275
215	0xbd1d4477	-0.03839537
216	0xbd05f04f	-0.03269988
217	0xbdb80cab	-0.08986791
218	0xbca40ac6	-0.020024668
219	0x3d87f38f	0.06638252
220	0xbc3865ca	-0.011254737
221	0x3c7646a6	0.015031492
222	0x3d6d8b0e	0.05799394
223	0x3e00d16c	0.12579888
224	0xbd452a43	-0.048136007
225	0xbd09249d	-0.033482183
226	0xbd148138	-0.036256045
227	0xbe0ae895	-0.13565286
228	0xbcbe75cf	-0.023249535
229	0xbdc50a3f	-0.09621095
230	0x3da7f978	0.08201879
231	0xbc5ed18d	-0.0135997655
232	0x3c31aef1	0.010844932
233	0x3e5410a7	0.20709477
234	0xbc58d9a9	-0.013235488
235	0xbdb75b9b	-0.08953019
236	0xbc42a5be	-0.011880336
237	0xbe653737	-0.22384344
238	0x3cdd9e7f	0.027053116
239	0xbc3be34a	-0.011467764
240	0x3c1f8654	0.009736616
241	0x3c2a1c27	0.010382689
242	0xbd91f410	-0.07126629
243	0x3cfc41c3	0.030793076
244	0x3d4a98b2	0.049462028
245	0x3e0352e5	0.1282459
246	0xbda46c28	-0.08028442
247	0xbdc01d6e	-0.09380613
248	0xbe25c69b	-0.16189043
249	0x3c2d70bf	0.010585963
250	0xbde0279b	-0.10945054
251	0xbcc0f6b8	-0.023555145
252	0x3d59d97a	0.053185917
253	0x3d944348	0.072393954
254	0xbc945b4f	-0.018109946
255	0x3db31bc6	0.08745532

network_body._body_endoder.seq_layers.2.bias f4 [256]
0	0xbbbf9e37	-0.005847718
1	0xbc3693c4	-0.0111436285
2	0xbafa3c95	-0.0019091541
3	0xbb9578ac	-0.0045615043
4	0xbb13f161	-0.0022574293
5	0x3a584622	0.00082501967
6	0xbbf38848	-0.0074320175
7	0xbaa08702	-0.0012247267
8	0x3bf60e28	0.007509012
9	0xbb88044e	-0.004150904
10	0xbb96359f	-0.004584029
11	0xbafe4c2b	-0.0019401362
12	0xbb7e9e67	-0.003885174
13	0xbb456566	-0.0030120253
14	0xba4059ee	-0.00073376193
15	0xba840a5a	-0.0010073886
16	0xbbb3a318	-0.005482089
17	0xb9ea296e	-0.00044662826
18	0x3b5c11ca	0.003357994
19	0xbbcb7850	-0.0062094107
20	0xbc0ae689	-0.008477815
21	0xbb89a0b6	-0.0042000664
22	0xbbbc0d7a	-0.005738911
23	0xbb2721c6	-0.0025502308
24	0xbb751087	-0.0037393884
25	0xbb6a53ef	-0.0035755595
26	0xbb0882fa	-0.0020830021
27	0x3beb2a5c	0.0071766805
28	0xbb66bd50	-0.0035208054
29	0xbc3653d1	-0.011128382
30	0xbb35af2b	-0.0027722816
31	0xbbd429a3	-0.00647469
32	0xbb90c527	-0.0044180336
33	0xbb942d6c	-0.0045220163
34	0xba9a279c	-0.0011761072
35	0x3c2374e8	0.009976603
36	0xbc1ee3c2	-0.009697856
37	0xbbe8d847	-0.0071058604
38	0xbb9a4164	-0.004707502
39	0xbb269b00	-0.0025421977
40	0xbb307319	-0.0026924072
41	0xb9df9df0	-0.00042651547
42	0xba521b21	-0.0008014907
43	0xbbaeaa1a	-0.0053303363
44	0xbb4c1eed	-0.0031146363
45	0xbb596854	-0.0033173757
46	0xbad3e619	-0.0016166597
47	0xbb8e7929	-0.0043479395
48	0xbbd887a8	-0.0066079684
49	0xbb2019a6	-0.002442935
50	0xbbd9804d	-0.006637609
51	0xbb8b42df	-0.004249915
52	0x3bb26098	0.005443644
53	0xbb3350f3	-0.0027361482
54	0xbbcd2a16	-0.0062611206
55	0xbb4d2088	-0.0031299908
56	0xbb9913da	-0.004671556
57	0xbbe1b3dd	-0.0068878965
58	0xbb9a3c04	-0.0047068615
59	0xbbd20fee	-0.0064105904
60	0xbba80b38	-0.0051282905
61	0xbb2869da	-0.0025697858
62	0xb8d65788	-0.00010220619
63	0x3b86e4f9	0.004116651
64	0x3b0b0a6f	0.0021215936
65	0x3b881b39	0.004153636
66	0xbc2aaa9e	-0.010416655
67	0xbb56857e	-0.0032733376
68	0x3ac35a3c	0.0014904211
69	0xbc268e02	-0.010165693
70	0xbb8ef724	-0.0043629576
71	0xbb485952	-0.0030570817
72	0xbc4f634d	-0.0126579525
73	0x3ade1551	0.0016943609
74	0xbbab89f1	-0.0052349498
75	0x3c092fe1	0.008373232
76	0xbb320a44	-0.0027166763
77	0xbbef84ce	-0.0073095327
78	0xbb4a75ff	-0.0030893085
79	0xbbd536e5	-0.006506788
80	0xba032975	-0.0005003431
81	0xbb59c0b3	-0.003322643
82	0xbbbbd8a2	-0.0057326118
83	0xb957d9bb	-0.00020585109
84	0x3aae7f58	0.0013313098
85	0xba989043	-0.0011639673
86	0xbb9f0c2f	-0.0048537473
87	0xbc2083b0	-0.009797022
88	0x3c75de7c	0.015006658
89	0xbbf9a2a3	-0.0076182648
90	0x3b89a3a0	0.004200414
91	0x3b5c80ec	0.003364618
92	0xbb434233	-0.0029794096
93	0xbba0a282	-0.004902185
94	0xbb74a025	-0.00373269
95	0xbb7e1880	-0.0038771927
96	0x3c3a23f7	0.011361114
97	0xbb86071f	-0.0040902044
98	0x3b1e422d	0.002414833
99	0x3b76f8ac	0.003768484
100	0x3c188a87	0.009310371
101	0x3b0faa38	0.0021921527
102	0xbbc9e97b	-0.0061618662
103	0x3bdf5e40	0.0068166554
104	0xbb8eee8d	-0.0043619336
105	0x3be8425e	0.0070879897
106	0x3ad0af76	0.0015921432
107	0xbb99072e	-0.0046700453
108	0x3cc8b4a5	0.0245002
109	0xbb285570	-0.002568569
110	0x3bbf51de	0.0058386168
111	0x3ba80525	0.0051275664
112	0xbb769ee6	-0.0037631332
113	0xbbd87288	-0.00660545
114	0xbb93ad68	-0.0045067556
115	0xbb263369	-0.0025360233
116	0xbb0dda08	-0.002164485
117	0xbb5ad9a0	-0.0033393875
118	0x3b030e6c	0.001999761
119	0xbbb7d61f	-0.005610242
120	0xbc08186b	-0.008306603
121	0xb8055387	-3.1787462e-05
122	0x3c3a79a5	0.011381541
123	0xbbada1ff	-0.0052988525
124	0x3b9dd612	0.004816779
125	0xbb95f4f1	-0.0045763184
126	0xbb82a26d	-0.003986648
127	0xbc05a73f	-0.00815755
128	0xbb510c08	-0.003189804
129	0xbb8dc587	-0.0043265256
130	0xbc3cd30f	-0.01152493
131	0xbb01c492	-0.0019801003
132	0xbc0f68ab	-0.008752982
133	0xbaf43202	-0.0018630626
134	0x3a7ba36a	0.0009599241
135	0xbb3908a6	-0.0028233915
136	0xbba97037	-0.0051708478
137	0xbc09e6df	-0.00841686
138	0x3a608e47	0.0008566123
139	0xbbc0464b	-0.0058677546
140	0xb9dc20c6	-0.00041986088
141	0xba1bf165	-0.00059487513
142	0xbb834b32	-0.0040067667
143	0x3a2ef818	0.0006674542
144	0x3b7d7f1c	0.00386805
145	0xbb162900	-0.0022912621
146	0xbbf65a44	-0.0075180847
147	0xbbc31116	-0.0059529645
148	0xbbb27451	-0.005445995
149	0x3c0b245a	0.008492554
150	0xbaf75046	-0.0018868528
151	0xbb7c4c06	-0.0038497462
152	0x3be118f9	0.006869432
153	0xbb8c6a03	-0.0042850985
154	0xba0e1213	-0.00054195634
155	0xbbd1b996	-0.0064002974
156	0xbae88b14	-0.0017741644
157	0xbc423e53	-0.01185568
158	0x3b97b5a9	0.00462981
159	0xbbad09c6	-0.005280706
160	0x3b956f49	0.0045603854
161	0xbafd808d	-0.0019340679
162	0xbbaae4a8	-0.005215246
163	0x3c2ad9b4	0.010427881
164	0x3928fdb2	0.00016116237
165	0xb9d64167	-0.0004086599
166	0x3b853cb7	0.0040660757
167	0xbbbd0ee9	-0.0057695997
168	0xbb43aa15	-0.0029856015
169	0xbb8c9e2a	-0.0042913156
170	0xba8ca60e	-0.001073064
171	0xbb2ab6bf	-0.0026048867
172	0xbc752dcf	-0.014964535
173	0xbc5c7306	-0.013455158
174	0xbbf0f419	-0.0073533175
175	0xba8aac51	-0.0010579919
176	0xbc140961	-0.009035439
177	0xbb5aad40	-0.0033367425
178	0xbbcc3d89	-0.0062329215
179	0x3cb13d06	0.021635544
180	0xbbd67cce	-0.0065456396
181	0xbb00c6de	-0.0019649784
182	0x3c82eec4	0.015982993
183	0x39d4e973	0.00040609724
184	0xbc1af5dd	-0.009458032
185	0xbb26b39a	-0.002543664
186	0xbb8194e7	-0.003954518
187	0xbc37c000	-0.01121521
188	0xbb676463	-0.0035307638
189	0xbbb2a6bf	-0.0054520066
190	0xbb75421e	-0.0037423442
191	0xba38ba9a	-0.0007046849
192	0xbad663ce	-0.0016356648
193	0x3ab4e616	0.0013801481
194	0xbb8712d8	-0.0041221194
195	0xb903a2c2	-0.00012553766
196	0x390fdcc0	0.00013719779
197	0x3b9b6fb8	0.0047435425
198	0xbbce6046	-0.006298098
199	0xbb8d3703	-0.0043095364
200	0xbc0ef0af	-0.008724376
201	0x3c1da863	0.009622666
202	0xbb19f612	-0.0023492617
203	0x39036da8	0.00012533984
204	0xba266d07	-0.0006348644
205	0xbbca99fc	-0.006182907
206	0xbbe14949	-0.0068751913
207	0xbb605100	-0.0034227967
208	0xbbc7a464	-0.006092595
209	0xbbb96f97	-0.0056590545
210	0xb8cf1805	-9.875003e-05
211	0x3abcae5b	0.0014395224
212	0xba7718ea	-0.0009426015
213	0xba996710	-0.0011703689
214	0xbc359405	-0.011082654
215	0xbc19588e	-0.009359492
216	0xbaa374e5	-0.001247075
217	0xbbfd385e	-0.0077276668
218	0x3a0d2011	0.00053835014
219	0xbb160b07	-0.0022894756
220	0x3ae4b510	0.001744898
221	0x3b0bd94d	0.0021339238
222	0xbc5a0c47	-0.013308591
223	0xbbda16d0	-0.0066555515
224	0x3c3cda5a	0.011526668
225	0xbb01add5	-0.001978745
226	0xbbe3a650	-0.006947316
227	0xbb2d8998	-0.0026479717
228	0x3c8cdad5	0.017194191
229	0xbacbd487	-0.0015551009
230	0xbab9c557	-0.0014173192
231	0xbc006514	-0.007836599
232	0xbbcd60ac	-0.0062676277
233	0xbb651569	-0.0034955388
234	0xbb38f438	-0.0028221738
235	0x3bd32410	0.006443508
236	0xbbcbd196	-0.006220053
237	0x3a8e693c	0.0010865103
238	0xbb57be77	-0.0032919922
239	0xbbeca1c7	-0.007221434
240	0x3c626c60	0.013819784
241	0xba526cea	-0.0008027094
242	0xbba324e8	-0.004978765
243	0xba4b83e6	-0.000776349
244	0xbbd1a1d1	-0.006397464
245	0xbbf8e883	-0.007596077
246	0xbbe16564	-0.006878542
247	0xba81f8e3	-0.0009916093
248	0xbc0661d6	-0.008202037
249	0xbba15c6c	-0.0049243476
250	0xbb95b5bc	-0.0045687836
251	0xbb58b14c	-0.0033064662
252	0xbbad74a4	-0.0052934457
253	0xbc6373af	-0.013882562
254	0xbbd8f5fd	-0.006621121
255	0xbbedeb19	-0.007260692

network_body._body_endoder.seq_layers.2.weight f4 [256, 256]
0	0xbc3e7ec6	-0.011626905
1	0xbda20c67	-0.07912522
2	0x3cceccf6	0.025244217
3	0x3d97a282	0.07404043
4	0x3c5a1f23	0.013313088
5	0x3e565006	0.20928964
6	0x3d7d0eb0	0.061781585
7	0xbd5fd354	-0.054644898
8	0x3d5c1054	0.05372651
9	0xbd66abf3	-0.056316327
10	0xbd3bbe8d	-0.04583602
11	0x3d40fea6	0.04711785
12	0xbdbce08a	-0.09222515
13	0xbc82d5fe	-0.01597118
14	0x3c2f3e6b	0.010696034
15	0xbac45ceb	-0.0014981305
16	0x3dbb8b0b	0.0915738
17	0xbd7b7648	-0.0613921
18	0x3d932a67	0.07185822
19	0xbd19b333	-0.037524413
20	0xbd34bdb0	-0.044126213
21	0x3c36e469	0.011162856
22	0xbcd6fa49	-0.026242392
23	0x3dbbb06a	0.09164508
24	0xbdd5fc6e	-0.10448538
25	0x3c8dc23a	0.017304529
26	0xbd249c13	-0.040187906
27	0x3d10f1ec	0.035386965
28	0x3d483a32	0.048883624
29	0x3d1273e4	0.035755053
30	0x3d9aee55	0.075649895
31	0xbddb2f5e	-0.10702394
32	0x3c8e82d5	0.01739637
33	0xbcb555cf	-0.022135643
34	0x3e137143	0.14398675
35	0x3d401773	0.046897363
36	0xbcdef62f	-0.027216999
37	0xbc77bb43	-0.01512033
38	0x3d694a42	0.056955583
39	0x3c93aaac	0.018025719
40	0x3d2458ed	0.04012387
41	0x3d9f90d6	0.07791297
42	0x3cc590a8	0.024116829
43	0xbcc38201	-0.023865702
44	0x3d6b627b	0.057466965
45	0x3cb90b22	0.022588316
46	0xbd206b7e	-0.039165013
47	0x3bb1438d	0.005409664
48	0xbdaf15a6	-0.08549051
49	0xbcfa5109	-0.030556219
50	0x3d94cba8	0.07265407
51	0xbcd6b2c9	-0.026208298
52	0xbd334779	-0.043769334
53	0xbd244b20	-0.040110707
54	0xbd868883	-0.06569006
55	0x3c1fbada	0.009749139
56	0x3dc19717	0.09452646
57	0x3e08398b	0.13303201
58	0x3da48805	0.08033756
59	0xbd0b53d9	-0.03401551
60	0xbcf040f9	-0.029327856
61	0x3d0972b2	0.033556648
62	0x3d6528a2	0.055946954
63	0x3d7fa14c	0.062409684
64	0x3dcf5be4	0.101249486
65	0x3bb25dd2	0.005443313
66	0x3c903f2d	0.01760825
67	0x3c8b55a8	0.017008618
68	0x3da96960	0.08272052
69	0xbdb2d2f4	-0.08731642
70	0x3cffa2e8	0.03120561
71	0x3dfd0018	0.123535335
72	0xbcc3bd30	-0.023893923
73	0xbc781305	-0.015141253
74	0x3d4467ab	0.047950428
75	0x3d36046c	0.04443781
76	0x3da3ad40	0.07992029
77	0xbde538af	-0.11192452
78	0x3ca0ffba	0.01965319
79	0xbdc569ab	-0.09639295
80	0xbbc27ff7	-0.0059356648
81	0xbd809a31	-0.0627941
82	0x3d09b2c8	0.033617765
83	0x3c9fae0b	0.01949217
84	0x3dc1b9f9	0.094592996
85	0x3c8f6d9f	0.017508326
86	0x3d86e88d	0.06587324
87	0xbcb6fb01	-0.022336485
88	0xbcc72793	-0.024310863
89	0xbd1bbdeb	-0.038022917
90	0x3d1e1132	0.038590617
91	0xbcc00f31	-0.023444744
92	0x3d2c6065	0.042084116
93	0x3c83e7b5	0.016101697
94	0xbc9480a7	-0.018127752
95	0xbd8cf588	-0.06882769
96	0x3dae245f	0.08503031
97	0x3d811f41	0.06304789
98	0x3bff32a4	0.0077880193
99	0xbd316531	-0.043309394
100	0xbd3f7ac8	-0.046747953
101	0x3b6aba29	0.0035816527
102	0x3ca0bfe4	0.01962275
103	0x3d2432a2	0.04008735
104	0x3d40e9ac	0.047097847
105	0xbd1f79dd	-0.038934577
106	0x3cfa9418	0.030588195
107	0x3d0bf148	0.03416565
108	0x3cd31174	0.025765158
109	0x3c6c6c85	0.01443017
110	0xbb280b4a	-0.0025641494
111	0xbba9a970	-0.005177669
112	0xbd83fb71	-0.06444443
113	0xbd53a5e4	-0.051671878
114	0xbde67481	-0.1125269
115	0x3cba3085	0.022728214
116	0xbd75024b	-0.05981664
117	0xbd0cbe84	-0.034361377
118	0x3989c797	0.00026279382
119	0x3da4fcd6	0.08056037
120	0x3d2ade7c	0.041716084
121	0x3dabd7d5	0.08390776
122	0x3b884bb7	0.0041594165
123	0x3d945bf0	0.07244098
124	0xbd6c1e79	-0.05764625
125	0x3d290c71	0.04127163
126	0x3d7e8ba1	0.06214488
127	0x3c12f124	0.008968625
128	0xbcfcc6b0	-0.03085646
129	0x3d19ffcd	0.037597466
130	0x3d5877ca	0.052848615
131	0xbd10946b	-0.035297792
132	0x3b89c95a	0.004204911
133	0xbc744363	-0.014908644
134	0x3db70c7b	0.08937927
135	0x3d9fc2cb	0.07800826
136	0xbcfe3bdb	-0.0310344
137	0x3ce38e95	0.02777795
138	0xbc6eae28	-0.014567889
139	0x3cb72280	0.022355318
140	0xbd50ef2f	-0.051009353
141	0xbd810ae1	-0.06300903
142	0x3daff538	0.08591694
143	0x3d3bd65c	0.045858726
144	0xbbc65362	-0.0060524205
145	0x3b66c8f6	0.0035214997
146	0xbd453105	-0.04814245
147	0x3d13c157	0.036073055
148	0x3be7bb0a	0.0070718573
149	0x3ca432b0	0.020043701
150	0x3dbedb95	0.09319226
151	0xbd331e82	-0.043730266
152	0xbd16fdde	-0.0368632
153	0xbc23a3ab	-0.009987752
154	0x3cc28a68	0.023747638
155	0xbcd0d28a	-0.025491018
156	0x3cfc6225	0.030808518
157	0xbd766d90	-0.06016308
158	0xbd0eb21f	-0.03483784
159	0xbdcaed79	-0.099085756
160	0x3b941660	0.004519269
161	0xbd039957	-0.03212866
162	0xbdcc4de1	-0.09975792
163	0xbcc24e05	-0.023718843
164	0x3de37b2d	0.11107478
165	0xbba0253a	-0.0048872503
166	0xbda29cf2	-0.07940091
167	0xbc594d16	-0.013263008
168	0xbdfbcb11	-0.12294591
169	0x3d195ee9	0.03744403
170	0x3c1d5d0e	0.0096047055
171	0xbd22c5df	-0.039739486
172	0xbde2eff7	-0.11080926
173	0xbd2e3316	-0.042529188
174	0xbbf7d007	-0.0075626406
175	0x3d93a62a	0.07209428
176	0xbdd5a40a	-0.104316786
177	0xbd50262a	-0.050817646
178	0xbde76e54	-0.1130034
179	0x3ce23c22	0.027616564
180	0x3df58ec5	0.11990122
181	0x3a17f10d	0.0005796112
182	0xbd02fc5b	-0.031978946
183	0xbd5d2489	-0.05398992
184	0x3d9c091a	0.076189235
185	0xbd86c764	-0.065809995
186	0xbe035c2e	-0.12828133
187	0x3dc974cc	0.0983673
188	0x3c336908	0.010950334
189	0xbc619b22	-0.013769897
190	0xbd042d77	-0.03226992
191	0x3d0b5d81	0.03402472
192	0xbc368baf	-0.011141702
193	0x3bb0db29	0.0053972197
194	0xbda44492	-0.08020891
195	0xbdbc9bcd	-0.09209404
196	0xbd347f84	-0.04406692
197	0x3df4c6a0	0.11951947
198	0x3df72a3c	0.120686024
199	0x3e06b681	0.13155557
200	0x3b3442f5	0.002750573
201	0x3d210ee9	0.03932086
202	0xbb5d9c4b	-0.0033815082
203	0xbccf2bd6	-0.025289457
204	0x3c89ab74	0.016805388
205	0x3d71bea6	0.059019707
206	0xbcd455ba	-0.025919784
207	0xbb253d35	-0.0025213484
208	0x3db61f9e	0.08892749
209	0x3d71b36d	0.059009004
210	0x3d4ff0f7	0.05076691
211	0x3caf8059	0.021423506
212	0xba89f551	-0.001052538
213	0xbd2e7799	-0.042594526
214	0xbceaf030	-0.028678983
215	0x3c8b3296	0.016991895
216	0x3d8d6cab	0.069054924
217	0x3b591e69	0.0033129698
218	0xbd65531f	-0.055987474
219	0x3da0ff76	0.07861225
220	0xbc862838	-0.0163766
221	0x3c27bf02	0.010238411
222	0xbd02eb75	-0.03196283
223	0xbde5e9da	-0.11226244
224	0x3cfa49d4	0.030552782
225	0x3da56dab	0.08077558
226	0xbddc66f1	-0.10761822
227	0xbc61189a	-0.013738776
228	0x3aa6b6f0	0.0012719315
229	0xbca580f7	-0.020203097
230	0x3e08df6f	0.13366483
231	0xbc512d58	-0.012767158
232	0x3d0f1823	0.034935128
233	0xbd27eb6f	-0.04099601
234	0x3d025a72	0.031824537
235	0xbc764e28	-0.015033282
236	0xbd35b7ed	-0.04436486
237	0x3d28bc14	0.04119499
238	0x3c9fa096	0.019485753
239	0xbda3afa8	-0.07992488
240	0x3d44dd9b	0.048062902
241	0xbdefbc83	-0.11705878
242	0x3b8cfbf6	0.004302497
243	0x3caeeea7	0.021354033
244	0x3c145f98	0.009055994
245	0xbd7023f0	-0.058628023
246	0xbd8cf7d0	-0.06883204
247	0xbbe1ee25	-0.006894844
248	0xbcf41bb5	-0.029798368
249	0x3db99956	0.0906245
250	0x3c08e8c6	0.008356279
251	0x3d7451bd	0.059648264
252	0xbd42f870	-0.04760021
253	0xbd92ac23	-0.07161739
254	0x3dc3085f	0.09523081
255	0x3da103cf	0.078620546
