results/MLDriver3/MLDriver/MLDriver-410557.onnx (onnx, 404427 bytes, 7 tensors)

action_model._continuous_distribution.log_sigma f4 [1, 3]
0.07736051 0.0007126831 0.10287849
00000000: 306f 9e3d 5ad3 3a3a f5b1 d23d

action_model._continuous_distribution.mu.bias f4 [3]
-0.00585558 -0.011101532 0.008602267
00000000: 2ae0 bfbb 33e3 35bc 86f0 0c3c

action_model._continuous_distribution.mu.weight f4 [3, 256]
-0.0010353574 0.034404002 -0.00439905 -0.008190605 0.0013612419 0.0007644654 -7.775566e-05 0.034493517
-0.0046627745 0.023516184 -0.014463332 -0.0093474835 0.009685321 0.0048206844 0.0250664 -0.0019435942
-0.0073969867 -0.001447661 0.006351757 -0.020245548 -0.0068005864 -0.0049767853 -0.01721486 -0.005963837
0.028234025 0.009548802 -0.00031391298 -0.009769306 -0.015545218 -0.012230648 0.013531209 -0.004792627
-0.003948348 0.0027863486 0.021706425 -0.0021736051 -0.0005914419 -0.019747103 -0.028545799 0.009282486
-0.0021007636 0.013464566 -0.01593724 -0.0059091775 0.003787688 -0.033104576 0.033231795 -0.011750786
0.00033991633 0.04353767 -0.03816355 0.011065341 0.014823288 -0.009610022 0.0013625801 0.023361262
-0.0039157136 -0.00027473588 0.007020355 0.035441387 0.0005838953 -0.040220622 -0.0058818515 0.015161568
-0.0014628308 -0.018753001 -0.0107617555 0.013095278 0.03149414 -0.006667422 0.0007951728 0.031617142
-0.00018698117 -0.022887953 -0.013149315 -0.011393969 -0.0018060304 0.025940105 -0.004310302 -0.013092612
-0.0027298199 -0.0014221409 0.00055113673 0.019907031 0.0031437266 -0.0072371573 0.008139927 -0.006572194
-0.002018811 0.00043222628 0.024079291 -0.010852971 -0.0019560854 0.0013464382 0.015759688 -0.00205781
0.0015990525 0.005607768 0.016618414 -0.012042325 0.004577827 -0.005734836 -0.005293773 -0.00011009146
-0.0019454357 0.0045571867 0.040468454 -0.013489878 -0.00551602 -0.0023208545 0.005930372 0.032596197
0.01144679 -0.009260306 -0.0019320849 -0.0142735075 -0.0011868229 0.0008806182 0.019048588 0.009047749
-0.016843012 0.005948087 0.0009733827 0.0015768238 -0.002518338 -0.0014665806 -0.006601919 -0.0063603497
0.0052844575 -0.0073682987 -0.012943425 0.0044533685 0.033093434 -0.022631718 0.0007250795 0.016366545
0.02508091 2.7455753e-05 0.01257428 -0.007171527 0.00011979514 -0.024890495 -0.0065132715 0.003911416
-0.0038805285 0.02321977 -0.0007126994 -0.005133656 -0.0007099814 0.0064481045 0.0027497367 -0.0075936513
-0.030390326 -0.0058132675 0.0047401325 0.02522258 0.003258177 -0.0030222635 0.00461733 -0.004506446
-0.025685053 -0.0025760285 0.0034297581 -0.01753976 0.0018573835 -0.00089252583 0.015280256 -0.0085666375
0.033521485 -0.00073107146 -0.0210564 -0.013132639 -0.020314611 0.013562875 -0.028588796 -0.012974734
-0.014580887 -0.0033134662 0.01564606 0.005157163 -0.0059652454 0.006002879 0.02680971 0.014757689
0.025762502 -0.0039280425 -0.009366366 0.019744169 -0.023613002 0.009285632 0.004497615 -0.005178394
-0.004925915 0.009861601 0.009431401 -0.011540044 -0.0012806432 0.019323165 -0.0015224124 -0.004320536
0.015404188 7.154547e-05 0.00018954165 -0.016840698 -0.013863247 -0.0117448205 -0.0018520182 -0.0050331694
-0.007883651 0.016385213 0.012077653 0.004599053 -0.0008659487 -0.0071295276 -0.015150498 0.010773855
0.019720474 0.00066735304 0.0032228706 -0.0071152835 -0.030204868 0.015825273 0.016918907 0.016767243
0.021465749 -0.005543912 0.009612107 -0.01605809 0.012014123 -0.008859171 0.026985886 0.0017977356
-0.009896569 -0.0024184075 0.0058940295 -0.0042872443 0.0067630038 -0.0036172136 0.026551347 -0.0008961202
-0.0066672103 0.008324709 0.014487829 0.018651979 -0.0051646177 0.0041932035 0.012416415 0.023414358
0.016772468 -0.018940091 0.013104848 -0.0039054255 -0.031838417 -0.025805157 -0.037321433 -0.01067303
00000000: d4b4 87ba 36eb 0c3d e825 90bb e331 06bc
00000010: b36b b23a 6866 483a c110 a3b8 1349 0d3d
00000020: 30ca 98bb 03a5 c03c 9cf7 6cbc 3026 19bc
00000030: 2eaf 1e3c d5f6 9d3b 0d58 cd3c 33c0 feba
00000040: 6c62 f2bb 71bf bdba 6622 d03b fed9 a5bc
00000050: 74d7 debb 4d14 a3bb 2e06 8dbc 4a6c c3bb
00000060: 0b4b e73c 9472 1c3c b094 a4b9 700f 20bc
00000070: 5fb1 7ebc 0e63 48bc 01b2 5d3c 780b 9dbb
00000080: 2561 81bb 2c9b 363b acd1 b13c 0b73 0ebb
00000090: fe0a 1bba adc4 a1bc e1d8 e9bc 9115 183c
000000a0: f7ac 09bb 7c9a 5c3c d18e 82bc c6a1 c1bb
000000b0: dc3a 783b aa98 07bd 101e 083d 5e86 40bc
000000c0: cc36 b239 8e54 323d 6251 1cbd 674b 353c
000000d0: 60dd 723c 5b73 1dbc 9a98 b23a 1e60 bf3c
000000e0: 634f 80bb 6d0a 90b9 020b e63b fd2a 113d
000000f0: 8d10 193a 61be 24bd 8cbc c0bb 3a68 783c
00000100: 75bc bfba e59f 99bc 1352 30bc 948d 563c
00000110: 0000 013d 647a dabb 2573 503a fa80 013d
00000120: 6010 44b9 847f bbbc 3970 57bc c5ad 3abc
00000130: 53b8 ecba 5880 d43c 6f3d 8dbb 6582 56bc
00000140: c7e6 32bb 2167 baba 297a 103a 1214 a33c
00000150: fb06 4e3b ad25 edbb 545d 053c 8f5b d7bb
00000160: 074e 04bb 6e9c e239 ef41 c53c a9d0 31bc
00000170: ab31 00bb f87a b03a 761a 813c 53dc 06bb
00000180: 4c97 d13a 5ec1 b73b 5723 883c 2c4d 45bc
00000190: 9901 963b 4beb bbbb 6377 adbb e7e0 e6b8
000001a0: fdfd feba 7454 953b 40c2 253d a604 5dbc
000001b0: bbbf b4bb 7a19 18bb 9153 c23b 9783 053d
000001c0: 518b 3b3c 8ab8 17bc 033e fdba 6edb 69bc
000001d0: 2b8f 9bba 49d9 663a c90b 9c3c 033d 143c
000001e0: 5bfa 89bc 2ce8 c23b 9b2a 7f3a 6dad ce3a
000001f0: b30a 25bb 473a c0ba e954 d8bb 7b6a d0bb
00000200: 3e29 ad3b c571 f1bb a910 54bc 90ed 913b
00000210: fb8c 073d 2766 b9bc 4313 3e3a 2213 863c
00000220: 7b76 cd3c c850 e637 5a04 4e3c 21ff eabb
00000230: 873a fb38 27e7 cbbc 486d d5bb 562b 803b
00000240: 7750 7ebb 6337 be3c 72d4 3aba 3a38 a8bb
00000250: 0c1e 3aba 9f4a d33b ed34 343b 2ad4 f8bb
00000260: 22f5 f8bc 397d bebb 1d53 9b3b 969f ce3c
00000270: 2487 553b 2b11 46bb f94c 973b cfaa 93bb
00000280: 7669 d2bc 96d2 28bb cbc5 603b 8baf 8fbc
00000290: 7373 f33a 65f8 69ba 0a5a 7a3c 155b 0cbc
000002a0: d34d 093d 60a5 3fba 797e acbc 482a 57bc
000002b0: d46a a6bc d236 5e3c 0d33 eabc fb93 54bc
000002c0: ace4 6ebc bd26 59bb 2b2c 803c 6bfd a83b
000002d0: 1b78 c3bb ccb3 c43b 09a0 db3c 3cca 713c
000002e0: e20b d33c cfb6 80bb 6375 19bc 86be a13c
000002f0: 0e70 c1bc c322 183c bb60 933b 84af a9bb
00000300: 9269 a1bb 8d92 213c 2a86 1a3c 7412 3dbc
00000310: 41db a7ba 9d4b 9e3c af8b c7ba 4893 8dbb
00000320: d961 7c3c af0a 9638 b3bf 4639 81f5 89bc
00000330: ac22 63bc 596d 40bc 6bbf f2ba 49ed a4bb
00000340: 6e2a 01bc 483a 863c 59e1 453c a7b3 963b
00000350: d500 63ba d09e e9bb cb39 78bc d384 303c
00000360: d58c a13c 4ef1 2e3a cc36 533b 5327 e9bb
00000370: 3370 f7bc 01a4 813c 8599 8a3c 755b 893c
00000380: f0d8 af3c b4a9 b5bb 197c 1d3c 418c 83bc
00000390: e2d6 443c 0e26 11bc 8111 dd3c ffa1 eb3a
000003a0: 3825 22bc 257e 1ebb b422 c13b 037c 8cbb
000003b0: 309c dd3b c60e 6dbb 3682 d93c 9ce9 6aba
000003c0: 9d78 dabb 5c64 083c 5c5e 6d3c 09cc 983c
000003d0: f43b a9bb 2467 893b 386e 4b3c 78cf bf3c
000003e0: 6a66 893c 4028 9bbc b7b5 563c 2bf2 7fbb
000003f0: 0069 02bd 5665 d3bc 5cde 18bd efdd 2ebc

network_body._body_endoder.seq_layers.0.bias f4 [256]
-0.020982824 0.0022827536 -0.0065587973 -0.0062543615 -0.011450019 -0.012845513 0.040248904 -0.038248383
-0.0034238833 0.0015429803 0.013821943 -0.002393679 -0.024638198 -0.013513154 0.0045814724 -0.0038846903
-0.030281125 -0.015678408 -0.017116839 -0.0106597 -0.010209518 -0.013725764 -0.0061777406 0.0052652387
0.012601481 -0.01577362 0.0024861288 0.008593031 0.03352766 0.015837336 0.014525306 -0.020188147
-0.008174689 0.0073389774 -0.009816621 -0.021804217 -0.017949423 -0.028069848 0.022625277 0.0025124606
-0.002039854 0.029826432 -0.0025473079 -0.009239358 -0.013381176 0.0029938095 0.001855092 -0.017668199
-0.020368993 -0.01980375 -0.00451511 -0.023766505 0.013221013 -0.011456805 -0.014731578 -0.012908136
0.02397534 -0.02199875 0.024648814 -0.019032255 0.00026844366 -0.010354705 -0.0017129671 -0.004742696
-0.009580722 0.002961894 0.006955199 0.00093596894 -0.0015659962 -0.011823368 -0.032460153 -0.009822323
-0.019098775 -0.015690895 -0.017043801 -0.01961564 -0.0010621647 0.07264075 -0.006321789 -0.035155684
-0.006757971 -0.016270969 -0.014211544 0.015573661 -0.011662696 -0.034650147 -0.016304137 -0.0035079867
-0.003528028 0.017597593 -0.014695795 0.003260264 -0.024610052 0.0048827315 0.021245396 -0.011659603
-0.005769672 0.0010721667 0.008334136 -0.012502059 -0.024173355 0.009011524 -0.02979794 -0.0203753
0.0013111596 0.039173067 -0.028951852 -0.014264744 -0.01911539 -0.002997827 0.0034964192 0.007888798
-0.025538754 -0.008248292 -0.008697722 -0.0220824 -0.012091165 -0.020965902 -0.02976894 0.0058390563
-0.007639027 -0.0025650633 -0.018321391 0.030726079 -0.0016312109 -0.00025289858 0.008381293 0.0069928365
-0.019820029 -0.0026389419 -0.020673867 0.023349153 -0.005045939 -0.010320198 -0.010448063 -0.0066329543
-0.0013866324 0.013712378 0.0021003962 -0.009251078 -0.002076744 0.04875553 -0.022660598 0.0006267896
-0.012818407 -0.010496258 0.005117337 -0.0071078427 -0.020580215 -0.0093932375 -0.0013805553 -0.005242197
-0.020841878 -0.007534816 -0.021398611 0.0018548107 0.00021986313 0.010660967 -0.020007992 -0.007867446
-0.019986032 -0.0063716117 -0.0053370846 -0.0026373465 -0.02134602 0.00160504 -0.008983289 -0.0014504128
0.0510065 -0.014799878 -0.022849023 -0.036011886 -0.0024381205 -0.0131635545 -0.012772304 -0.034516577
0.0012006477 -0.002439267 0.005958621 0.018346537 0.020701371 -0.007937581 0.0041107233 0.04000104
-0.00257114 -0.017274132 -0.037607186 0.016933499 0.07660079 -0.011912565 -0.0034922375 0.013244945
-0.022407824 -0.009803372 0.03143823 -0.0026555362 -0.0055246567 0.007175834 -0.0048885383 -0.0026944242
-0.00059094396 -0.006621522 -0.015167655 -0.03134655 -0.0013037559 -0.014763153 0.014416164 -0.007119603
-0.006818881 -0.0049498677 -0.017484713 -0.00521594 -0.005863338 -0.010026182 -0.015892781 -0.008940411
-0.017512402 0.0028382388 0.015600693 -0.03071695 -0.01985876 0.0054774894 0.014656718 -0.011323153
-0.023713412 0.016594246 0.035100296 -0.008475496 -0.03650587 0.006290644 -0.029935751 0.021341935
-0.0043426096 0.0011098973 -0.022963908 -0.013742969 0.017069608 0.008239595 0.0002037003 -0.004351801
0.002217793 -0.0016751749 -0.00335258 -0.007142198 -0.016678253 -0.011296017 0.0009274588 0.011071514
-0.011016301 0.0020918555 -0.020370657 0.002137155 -0.015096995 -0.010492612 -0.0063123936 -0.014362236
00000000: 2ce4 abbc 409a 153b 2eeb d6bb 63f1 ccbb
00000010: dc98 3bbc fd75 52bc 09dc 243d 56aa 1cbd
00000020: 3b63 60bb d43d ca3a 6e75 623c 45df 1cbb
00000030: 0cd6 c9bc 4766 5dbc 2d20 963b 4a96 7ebb
00000040: 1f10 f8bc 0170 80bc 9d38 8cbc 06a6 2ebc
00000050: d245 27bc 07e2 60bc a56e cabb 0688 ac3b
00000060: 7176 4e3c ae37 81bc 52ee 223b c9c9 0c3c
00000070: 4d54 093d 4dbd 813c 8dfb 6d3c 9d61 a5bc
00000080: 21ef 05bc ce7b f03b e5d5 20bc c29e b2bc
00000090: ab0a 93bc bdf2 e5bc a558 b93c 18a8 243b
000000a0: 12af 05bb 9056 f43c bcf0 26bb ad60 17bc
000000b0: b83c 5bbc ca33 443b 8f26 f33a e6bc 90bc
000000c0: e0dc a6bc 793b a2bc 7df3 93bb f9b1 c2bc
000000d0: f39c 583c 53b5 3bbc b75c 71bc a57c 53bc
000000e0: ef67 c43c b936 b4bc 4fec c93c 88e9 9bbc
000000f0: e6bd 8c39 c8a6 29bc a385 e0ba 9e68 9bbb
00000100: 76f8 1cbc 561c 423b 70e8 e33b d05b 753a
00000110: 1d42 cdba cdb6 41bc f0f4 04bd cfed 20bc
00000120: 0975 9cbc 318a 80bc 719f 8bbc fbb0 a0bc
00000130: 5538 8bba acc4 943d 0327 cfbb 68ff 0fbd
00000140: f871 ddbb b24a 85bc 89d7 68bc ab28 7f3c
00000150: e414 3fbc 50ed 0dbd 4190 85bc 40e6 65bb
00000160: 7d36 67bb d428 903c a2c6 70bc 27aa 553b
00000170: 059b c9bc 52ff 9f3b d30a ae3c eb07 3fbc
00000180: 840f bdbb f287 8c3a e68b 083c 70d5 4cbc
00000190: 3307 c6bc 12a5 133c cf1a f4bc 1aea a6bc
000001a0: 37db ab3a f073 203d 6f2c edbc acb6 69bc
000001b0: e197 9cbc 3177 44bb 2e24 653b 0440 013c
000001c0: a636 d1bc d823 07bc e480 0ebc 26e6 b4bc
000001d0: 061a 46bc afc0 abbc fedd f3bc 8e55 bf3b
000001e0: ce50 fabb 9f1a 28bb be16 96bc 42b5 fb3c
000001f0: 5bce d5ba 7997 84b9 b151 093c 2a24 e53b
00000200: 9d5d a2bc 19f2 2cbb 3e5c a9bc b946 bf3c
00000210: 6758 a5bb 0c16 29bc 5a2e 2bbc 4159 d9bb
00000220: aabf b5ba e2a9 603c cda6 093b d591 17bc
00000230: fc19 08bb e1b3 473d b8a2 b9bc 234f 243a
00000240: 4c04 52bc 7ff8 2bbc 56af a73b e8e8 e8bb
00000250: d797 a8bc 18e6 19bc c0f3 b4ba bcc6 abbb
00000260: 96bc aabc 9ee6 f6bb 244c afbc 1f1d f33a
00000270: 0f8b 6639 56ab 2e3c cde7 a3bc 76e6 00bc
00000280: bfb9 a3bc f4c8 d0bb b6e2 aebb 55d7 2cbb
00000290: d9dd aebc 3560 d23a a52e 13bc c71b beba
000002a0: 31ec 503d 307b 72bc e02d bbbc 3381 13bd
000002b0: e0c8 1fbb f3ab 57bc ed42 51bc 4161 0dbd
000002c0: 0d5f 9d3a 1cdc 1fbb 8940 c33b 7a4b 963c
000002d0: ec95 a93c a10c 02bc 3fb3 863b 21d8 233d
000002e0: 9280 28bb 7b82 8dbc fe09 1abd 1fb8 8a3c
000002f0: e0e0 9c3d eb2c 43bc 06de 64bb 5301 593c
00000300: 9d90 b7bc 539e 20bc 60c5 003d 8108 2ebb
00000310: 2e08 b5bb 4223 eb3b 0830 a0bb f094 30bb
00000320: 94e9 1aba 5af9 d8bb c281 78bc 3d65 00bd
00000330: cae2 aaba 27e1 71bc c631 6c3c 8f4b e9bb
00000340: eb70 dfbb 8032 a2bb 1a3c 8fbc 7aea aabb
00000350: 3e21 c0bb db44 24bc 9431 82bc cd7a 12bc
00000360: 2b76 8fbc bf01 3a3b 0d9a 7f3c 1da2 fbbc
00000370: d7ae a2bc 837c b33b bb22 703c bf84 39bc
00000380: a142 c2bc a8f0 873c 54c5 0f3d cfdc 0abc
00000390: 2e87 15bd bf21 ce3b d23b f5bc 48d5 ae3c
000003a0: 734c 8ebb f979 913a ce1e bcbc 312a 61bc
000003b0: 90d5 8b3c 5eff 063c 6298 5539 8d99 8ebb
000003c0: 6458 113b 8b91 dbba f5b6 5bbb 1909 eabb
000003d0: d5a0 88bc ee12 39bc b520 733a 4c65 353c
000003e0: b77d 34bc 8317 093b 5de0 a6bc 830f 0c3b
000003f0: 6359 77bc 34e9 2bbc 32d8 cebb 954f 6bbc

network_body._body_endoder.seq_layers.0.weight f4 [256, 132]
-0.13379839 0.18803349 -0.0344521 0.08692204 0.1359659 -0.10391368 -0.068962835 0.030121556
0.036601864 0.14486653 -0.06321972 -0.12096489 0.024790864 -0.061351467 -0.014550567 -0.13947624
0.11102109 0.037441816 0.021433428 -0.027184281 -0.2096218 0.13237496 -0.108671725 -0.24240643
0.036931813 0.06844828 0.12161702 0.1383309 -0.038328335 -0.0133602945 0.03135936 0.06394681
0.24145612 -0.048016936 0.13062754 0.16316503 0.016887931 0.06250807 0.14794701 -0.0030389687
0.09399972 -0.0071416083 0.055976953 0.10965009 -0.018723499 0.1273252 -0.037480537 -0.16379416
-0.005119015 -0.09504948 0.088355124 0.06919821 0.10819832 0.0053361394 -0.062393267 0.11346883
-0.17169932 -0.06170341 -0.024787454 0.11518401 -0.035203617 0.17781968 0.027071103 0.02609612
0.024316473 -0.11257212 0.09640405 0.064694755 0.13797824 -0.08380669 0.04494881 0.07514239
-0.027931424 0.06920491 -0.0497358 -0.019162724 0.07049898 -0.021001924 0.03476396 0.07912336
-0.06852827 -0.054142974 -0.022757584 0.058063403 0.22285554 0.035190687 0.116383135 0.14248246
0.18561593 0.051654603 0.057767767 0.15628712 0.0137008745 0.045434967 -0.07665018 -0.085447684
-0.078024074 0.08321989 0.019403426 -0.06595102 -0.026252307 0.080496125 -0.069940954 -0.015236654
0.18113448 0.09023502 0.026142484 -0.04928327 -0.09669513 0.1114688 0.11730679 -0.13233449
0.100287534 -0.059553426 0.09703724 0.00073130947 -0.11392672 -0.14105521 -0.0107517475 0.048900165
-0.016765457 0.09670582 -0.095466524 0.16228555 -0.008565376 0.016168462 -0.020808786 0.13114667
-0.042912118 -0.0026805042 0.002779672 0.12742548 0.06841214 0.092571504 0.050924443 0.07872465
0.027280902 0.0075021833 -0.011849263 0.1513932 -0.009238386 -0.07698954 -0.1797992 -0.20004019
0.09368448 0.056989186 0.03381665 0.1183358 -0.18134099 0.09004283 0.04227744 -0.052702475
-0.074194245 -0.009622378 0.07033993 0.06683899 0.12402869 0.022771796 -0.074450366 0.09448056
-0.1330349 -0.022313384 0.019458845 -0.024094637 -0.02218123 -0.02804762 0.095493495 0.1156903
0.04006921 -0.14182907 -0.20557162 0.027887454 -0.030429417 0.052638367 0.0125864465 -0.0041114655
0.16677581 -0.104460895 0.07898928 0.053996045 0.002888045 0.025743064 -0.02099898 0.09062435
0.20834085 0.06923991 -0.10836933 0.010355807 -0.013953993 -0.05656192 -0.06898664 -0.013820415
-0.015460643 -0.0035174466 0.080856904 -0.047308866 0.002312346 -0.13097206 0.041282594 -0.0772306
-0.111785844 0.017763944 0.122345716 0.09425154 -0.071575575 -0.0070269937 0.024161458 0.079346485
-0.18875939 0.060034025 -0.028328653 -0.11789019 -0.1810899 0.09304212 0.02909519 0.014374584
0.009694891 0.08841008 -0.15488575 0.1370344 -0.028451603 -0.03733541 -0.055683546 0.1155299
-0.0018497691 0.020710887 0.023953851 -0.07467398 0.031499576 0.08909394 0.04287864 0.013005587
-0.017889522 0.041585717 -0.14322567 0.031370487 -0.079961136 0.16088551 0.032956462 0.21094203
-0.118882105 0.14668922 0.03866067 0.122993805 0.01024629 0.045230754 -0.050144546 -0.004257275
-0.039921924 0.012125559 -0.15062867 0.035757888 -0.039439496 0.056895368 -0.151358 0.16057774
00000000: 7202 09be da8b 403e a51d 0dbd 2f04 b23d
00000010: a53a 0b3e b2d0 d4bd 633c 8dbd 7bc1 f63c
00000020: d6eb 153d e457 143e 5779 81bd 71bc f7bd
00000030: 3616 cb3c ad4b 7bbd 8065 6ebc dcd2 0ebe
00000040: 065f e33d 975c 193d 2895 af3c 92b1 debc
00000050: 19a7 56be 4d8d 073e 488f debd 6439 78be
00000060: d045 173d 9d2e 8c3d 5812 f93d 9ea6 0d3e
00000070: 2cfe 1cbd 23e5 5abc ac72 003d 8cf6 823d
00000080: 4640 773e 68ad 44bd 3ac3 053e bc14 273e
00000090: 8f58 8a3c 3b04 803d 6c7f 173e 6f29 47bb
000000a0: ed82 c03d 2704 eabb 1748 653d 3a90 e03d
000000b0: 0662 99bc 8a61 023e 3185 19bd a8b9 27be
000000c0: 69bd a7bb 4da9 c2bd 88f3 b43d cbb7 8d3d
000000d0: 1597 dd3d c8da ae3b 1590 7fbd 5962 e83d
000000e0: f2d1 2fbe b7bc 7cbd 0f0f cbbc 98e5 eb3d
000000f0: ab31 10bd 5d16 363e 38c4 dd3c 88c7 d53c
00000100: 5733 c73c 368c e6bd 7d6f c53d af7e 843d
00000110: 2b4a 0d3e d8a2 abbd 3e1c 383d 41e4 993d
00000120: 71d0 e4bc 4ebb 8d3d c4b7 4bbd 25fb 9cbc
00000130: c561 903d 3a0c acbc a764 0e3d 6e0b a23d
00000140: 8d58 8cbd 06c5 5dbd 1d6e babc e4d3 6d3d
00000150: 3e34 643e 1c24 103d 485a ee3d ece6 113e
00000160: 1a12 3e3e c793 533d e59d 6c3d bb09 203e
00000170: a279 603c 041a 3a3d c5fa 9cbd 32ff aebd
00000180: 16cb 9fbd 316f aa3d eff3 9e3c 5411 87bd
00000190: 140f d7bc 27db a43d 343d 8fbd 29a3 79bc
000001a0: 517b 393e 23cd b83d c328 d63c 41dd 49bd
000001b0: 1908 c6bd c149 e43d 8b3e f03d b182 07be
000001c0: 8d63 cd3d 4bee 73bd 76bb c63d 59b5 3f3a
000001d0: 6a52 e9bd c770 10be 1928 30bc 8a4b 483d
000001e0: b657 89bc b30d c63d f483 c3bd 2f2e 263e
000001f0: ca55 0cbc b973 843c 3077 aabc 504b 063e
00000200: 9ec4 2fbd 66ab 2fbb 282b 363b d37b 023e
00000210: aa1b 8c3d 2196 bd3d 2696 503d 643a a13d
00000220: 337c df3c e0d4 f53b 6923 42bc d206 1b3e
00000230: 995c 17bc b1ac 9dbd 481d 38be 56d7 4cbe
00000240: a6dd bf3d 7e6d 693d 5483 0a3d 0a5a f23d
00000250: 74b1 39be 6068 b83d 1c2b 2d3d 8dde 57bd
00000260: 27f3 97bd 2ea7 1dbc 620e 903d e1e2 883d
00000270: c102 fe3d eb8b ba3c 6f79 98bd 067f c13d
00000280: 4d3a 08be 8fca b6bc 2868 9f3c 1e62 c5bc
00000290: 69b5 b5bc 1fc4 e5bc 1892 c33d 09ef ec3d
000002a0: 9d1f 243d a43b 11be 5e81 52be 3b74 e43c
000002b0: 1d47 f9bc 549b 573d 6237 4e3c 79b9 86bb
000002c0: 47c7 2a3e 98ef d5bd 22c5 a13d f52a 5d3d
000002d0: 5b45 3d3b 1ee3 d23c 0e06 acbc 4299 b93d
000002e0: 4e57 553e a7cd 8d3d bdf0 ddbd 67ab 293c
000002f0: 4a9f 64bc 79ad 67bd de48 8dbd 066f 62bc
00000300: a34e 7dbc f684 66bb 4e98 a53d f1c6 41bd
00000310: ba8a 173b 8a1d 06be f017 293d 142b 9ebd
00000320: faef e4bd b185 913c 6490 fa3d f406 c13d
00000330: 3796 92bd b242 e6bb 40ee c53c 6980 a23d
00000340: 244a 41be 3de6 753d 7e11 e8bc 6970 f1bd
00000350: a16f 39be de8c be3d 0959 ee3c 6083 6b3c
00000360: 52d7 1e3c 5810 b53d 5f9a 1ebe bf52 0c3e
00000370: 5613 e9bc 04ed 18bd 6e14 64bd f19a ec3d
00000380: f473 f2ba e1a9 a93c de3a c43c acee 98bd
00000390: b305 013d e276 b63d 83a1 2f3d 6315 553c
000003a0: 0c8d 92bc c955 2a3d c0a9 12be 577e 003d
000003b0: aac2 a3bd 2cbf 243e 5bfd 063d 3001 583e
000003c0: 7678 f3bd b335 163e a75a 1e3d 2de4 fb3d
000003d0: 0ee0 273c e243 393d 5e64 4dbd 9c80 8bbb
000003e0: 2c85 23bd 48aa 463c 673e 1abe dd76 123d
000003f0: 4f8b 21bd 1e0b 693d 97fd 1abe 7e6e 243e

network_body._body_endoder.seq_layers.2.bias f4 [256]
-0.0034754842 -0.0047079474 -0.014908456 -0.009426575 -0.01403802 -0.0063983095 -0.0020772952 0.0011086303
-0.02531605 0.0007772674 0.00466467 -0.0053820615 -0.0145692155 -0.0012116022 0.008026925 -0.0048050536
-0.007777366 -0.010406813 -0.018651925 -0.0017122766 0.004308814 -0.011500493 -0.0025839382 -0.015088525
0.020134686 0.010977746 -0.024675444 -0.0076159425 -0.0060916976 0.013653257 0.0007516398 -0.0013644429
0.006167427 -0.018126056 0.0018040308 0.0015729609 0.0029735933 0.012081342 0.0017656947 -0.006750084
-0.00997576 -0.010211004 0.013255221 -0.007810638 -0.012361674 0.021107847 0.0074077626 -0.0027405987
-0.0033718664 0.005602275 0.007116442 -0.0012572712 0.00038898675 0.009485461 -0.0012561115 0.00056310743
-0.0008881523 -0.014061275 0.012139776 -0.0011115187 -0.020186318 0.015056008 -0.007813336 -0.009031659
-0.0064681997 -0.016119424 -0.014163073 -0.002371172 0.019281754 -0.016957771 0.0070900675 0.027587065
-0.0074561336 0.006062441 0.0044808327 -0.009915842 0.0019975062 0.0013310078 -0.023010818 -0.009210644
-0.012612729 0.008796732 -0.01033171 0.0043278015 -0.0024129916 -0.01073103 -0.002163533 -0.006801704
-0.0044672233 -0.015935667 0.0006941892 0.010323778 -0.010731114 -0.0038944245 -0.006790326 -0.009861332
0.0018917109 -0.0064292466 -0.008901455 -0.0073491335 -0.020229625 -0.012142717 -0.01634133 -0.008538774
-0.011448393 -0.014726965 0.033530198 -0.009542308 -0.0017121386 -0.0124008525 -0.010462365 0.00038817985
-0.00611776 -0.014872547 -0.02470182 0.0028916656 0.013762025 0.0047627697 0.002019921 -0.0028910327
0.008227547 -0.0033575248 -0.010949596 -0.008117608 0.001891041 -0.012925617 0.0022214989 -0.006936871
-0.014084008 -0.0011167531 -0.0003799118 -0.011087664 -0.0130835315 -0.011006699 -0.019436566 -0.0074403738
0.0034146144 -0.008752055 -0.013131071 -0.005946485 -0.014249758 -0.017053638 -0.007859393 -0.007091833
-0.0036718426 0.008372037 -0.018391559 0.0356397 -0.014861237 -0.0142805865 -0.010693559 -0.009505804
0.014533598 -0.015197395 -0.018913249 -0.0086870175 -0.0142678125 -0.0141176 -0.013849071 -0.014366159
-0.0020853193 -0.02785219 0.017885841 0.011178642 -0.009739271 -0.012420313 0.008661126 -0.024227023
-0.0030233024 -0.008499894 0.014160523 -0.005612982 0.017105365 0.009903893 0.008923282 -0.020033633
-0.0015657624 -0.0071975426 -0.008696626 -0.0052723214 -0.011885972 -0.009396351 -0.00093900174 0.00043957087
0.010875493 -0.015459446 -0.01566369 0.009139049 0.01580884 -0.009482145 -0.008320006 -0.017205562
-0.018693857 -0.0039187856 -0.012136361 -0.004219207 -0.012430176 -0.008205007 0.017417178 0.026425686
-0.0072696027 -0.019853743 -0.0021758084 -0.015603662 0.009731029 0.0051784874 -0.012277458 -0.009462388
-0.0022059977 -0.0016179663 -0.013535778 -0.016391018 0.0041607907 -0.008785975 -0.01023438 -0.013001862
0.009912817 -0.016764455 -0.008464633 -0.0009745112 0.023341244 -0.0037070864 0.00396652 -0.0071775755
-0.0010895903 -0.009863858 0.009270825 0.0010504904 -0.008270669 -0.0037352368 -0.002809833 0.0074866544
-0.009702932 0.001643753 0.027489543 -0.010359441 -0.011736376 0.012797879 -0.0072184964 -0.018496532
0.00031609065 -0.0019680562 -0.01636841 -0.011486201 -0.010048684 -0.0074466765 0.0034252962 0.0064849425
-0.012755144 0.003245704 -0.001316021 -0.011664417 -0.00493286 0.007701689 0.014500183 -0.0014829348
00000000: f3c4 63bb 2045 9abb 9942 74bc ec71 1abc
00000010: b9ff 65bc e9a8 d1bb 3b23 08bb 764f 913a
00000020: 9b63 cfbc 88c1 4b3a 17da 983b 015c b0bb
00000030: b8b3 6ebc a0ce 9eba 5d83 033c b673 9dbb
00000040: 46d9 febb 5681 2abc eccb 98bc 786e e0ba
00000050: f430 8d3b 906c 3cbc 4a57 29bb dc35 77bc
00000060: 7ff1 a43c 01dc 333c 2824 cabc 288f f9bb
00000070: dd9c c7bb e9b1 5f3c b109 453a 1bd7 b2ba
00000080: 2118 ca3b 187d 94bc 3b75 ec3a cf2b ce3a
00000090: 9ee0 423b d2f0 453c e26e e73a cf2f ddbb
000000a0: 5f71 23bc 0e4c 27bc 6d2c 593c 61f0 ffbb
000000b0: 9e88 4abc 5dea ac3c d1bc f23b 9e9b 33bb
000000c0: 88fa 5cbb 4a93 b73b 0b31 e93b 05cb a4ba
000000d0: ebf0 cb39 e868 1b3c 1ca4 a4ba 809d 133a
000000e0: e4d2 68ba 4361 66bc e9e5 463c 61b0 91ba
000000f0: c75d a5bc 79ad 763c 8203 00bc 86f9 13bc
00000100: 31f3 d3bb e20c 84bc 3c0c 68bc aa65 1bbb
00000110: c5f4 9d3c 06eb 8abc cc53 e83b 45fe e13c
00000120: 9552 f4bb 71a7 c63b f3d3 923b 0e76 22bc
00000130: 98e8 023b 3675 ae3a 2f81 bcbc 3ee8 16bc
00000140: 9fa5 4ebc 2b20 103c 5546 29bc 3bd0 8d3b
00000150: 4823 1ebb 34d1 2fbc 0fca 0dbb d4e0 debb
00000160: c961 92bb 848b 82bc 40fa 353a 1025 293c
00000170: 8ed1 2fbc 9a39 7fbb 6281 debb 6d91 21bc
00000180: 49f3 f73a 6eac d2bb 69d7 11bc 00d1 f0bb
00000190: 99b8 a5bc 3ff2 46bc 41de 85bc 37e6 0bbc
000001a0: 0a92 3bbc 5e49 71bc f656 093d 5757 1cbc
000001b0: d769 e0ba f22c 4bbc 576a 2bbc 9e84 cb39
000001c0: 7e77 c8bb fcab 73bc 795b cabc 1982 3d3b
000001d0: 1e7a 613c 0211 9c3b a760 043b 7b77 3dbb
000001e0: d5cc 063c eb09 5cbb ef65 33bc b7ff 04bc
000001f0: cfdc f73a f8c5 53bc 9196 113b b14e e3bb
00000200: 9cc0 66bc 0460 92ba e62e c7b9 09a9 35bc
00000210: 4f5c 56bc 7155 34bc 6f39 9fbc 61ce f3bb
00000220: b9c7 5f3b c764 0fbc b423 57bc bbda c2bb
00000230: d177 69bc 12b4 8bbc afc4 00bc 9b62 e8bb
00000240: 4ca3 70bb de2a 093c e5a9 96bc effa 113d
00000250: 8c7c 73bc 1ff9 69bc 0a34 2fbc 3bbe 1bbc
00000260: 541e 6e3c 7ffe 78bc f5ef 9abc fe53 0ebc
00000270: 8bc3 69bc 824d 67bc 37e7 62bc 0a60 6bbc
00000280: daa9 08bb 472a e4bc 5485 923c 9f26 373c
00000290: 7791 1fbc 927e 4bbc 65e7 0d3c c077 c6bc
000002a0: 9922 46bb 2443 0bbc 8a01 683c 1bed b7bb
000002b0: 8d20 8c3c f043 223c f532 123c 931d a4bc
000002c0: 453a cdba 5dd9 ebbb 4b7c 0ebc 70c3 acbb
000002d0: 61bd 42bc 27f3 19bc 5727 76ba 3476 e639
000002e0: 202f 323c 9e49 7dbc 2451 80bc f3bb 153c
000002f0: 8a81 813c 005b 1bbc a250 08bc aef2 8cbc
00000300: dc23 99bc 2869 80bb 96d7 46bc 4641 8abb
00000310: f0a7 4bbc 4b6e 06bc 78ae 8e3c ae7a d83c
00000320: d935 eebb 51a4 a2bc 0298 0ebb 80a6 7fbc
00000330: e56e 1f3c 4db0 a93b 6427 49bc 2208 1bbc
00000340: 8092 10bb f111 d4ba 2bc5 5dbc 7546 86bc
00000350: 3e57 883b 0df3 0fbc 1aae 27bc c305 55bc
00000360: 5e69 223c 9c55 89bc 3eaf 0abc 5776 7fba
00000370: 2336 bf3c 97f2 72bb 95f9 813b de31 ebbb
00000380: 95d0 8eba 059c 21bc a9e4 173c 9cb0 893a
00000390: b381 07bc e0ca 74bb 2d25 38bb 9c52 f53b
000003a0: 0cf9 1ebc 3373 d73a c031 e13c a5ba 29bc
000003b0: ee49 40bc 32ae 513c 2389 ecbb 0a86 97bc
000003c0: f8b8 a539 81fa 00bb 0b17 86bc 9e30 3cbc
000003d0: 3ca3 24bc 4003 f4bb ef7a 603b a47f d43b
000003e0: f4fa 50bc e1b5 543b 567e acba 1c1c 3fbc
000003f0: d4a3 a1bb 735e fc3b 2d92 6d3c 095f c2ba

network_body._body_endoder.seq_layers.2.weight f4 [256, 256]
0.010583509 -0.00081140525 -0.04310214 0.0047084875 -0.040059384 -0.0033208877 -0.11902975 -0.01108682
-0.080824904 -0.005696136 0.014447226 -0.029294873 -0.097061075 0.026990931 0.062879145 0.06255039
-0.09367731 0.064793736 -0.0001345732 -0.039543137 0.05049143 -0.02046406 -0.055405524 -0.020237943
0.021614032 0.0021144147 0.015461875 -0.10453305 -0.013211957 -0.15893017 0.08371245 -0.079615496
-0.010002366 0.018324776 0.029840875 0.029964523 0.06668226 0.020438308 0.038236313 -0.06602047
-0.117322475 0.081757955 -0.011242555 0.0014071164 0.06298651 -0.026906522 -0.011269452 0.05299065
0.073335126 -0.041403655 -0.10784695 -0.05563124 -0.04004186 0.09016219 0.023934731 -0.078869864
-0.019932093 -0.060415562 -0.023089606 -0.07557738 -0.022692196 -0.076018184 -0.072476365 0.09612166
0.014647676 -0.07675619 0.041586574 -0.04548622 0.09510912 -0.11365221 -0.00985325 -0.010552218
0.024315927 -0.052572668 -0.12230496 -0.085572824 0.028383648 -0.046426404 -0.0061250827 0.08593573
0.027087511 0.025441157 0.0045831823 -0.032608043 -0.054868985 0.029428968 -0.0056140968 0.06893464
0.08067359 0.0013269592 0.050099105 -0.03673739 0.10627575 -0.04304986 0.062705174 -0.02917447
-0.079413414 -0.004588832 -0.012431878 0.11808018 0.03656045 0.035032727 0.029757578 -0.08565128
-0.12049338 -0.17000161 0.036238104 0.011113981 0.091092706 0.10677108 0.03284868 -0.050225064
0.075413555 -0.012056198 0.03550405 0.022589592 0.0334408 0.04937357 -0.030628743 -0.03258814
0.011655013 0.017865146 0.07085399 -0.04596881 -0.042034008 -0.19188562 0.029586527 -0.03731402
0.0024301321 0.030843068 -0.056347687 0.018450888 -9.857671e-07 0.06360355 -0.09253855 0.07152913
-0.037477564 0.017964195 0.009549995 -0.08241039 0.07387833 0.033296626 -0.016140562 -0.12784031
0.1565035 0.06292938 0.038173713 0.035823304 0.05473681 -0.053603563 -0.05941451 -0.047201876
0.15748331 0.09865411 0.040614337 0.025983917 0.044865694 -0.10389703 -0.06994848 0.021846117
-0.03494828 0.055918302 0.018803967 0.03273681 0.04922885 0.0032346677 -0.07385652 0.051093172
0.020886805 -0.047587615 0.033677906 0.13053174 0.09280811 -0.034523986 0.006395868 -0.059454218
-0.007660047 -0.08214708 -0.06308724 -0.034345716 0.064433426 -0.018852785 -0.06214871 -0.006590073
-0.0068798084 0.02619987 0.020004706 -0.012562087 0.013614286 -0.07928912 0.011473511 -0.15069765
-0.024343302 -0.11271313 -0.0057621337 0.028736515 -0.022193572 -0.04508014 -0.022877753 -0.016116554
0.04428811 -0.033646375 -0.042236783 0.10835565 0.040839333 -0.0031379478 0.016057074 0.026404025
0.027292715 -0.07832809 0.1749051 -0.07365161 0.06569455 -0.059276212 0.036457304 -0.08309562
0.009478754 0.041739047 -0.10606554 -0.026024703 -0.07499883 0.04532154 -0.049840324 0.017135011
0.056336768 0.04612943 0.12441294 -0.13146879 -0.0055738273 -0.000492089 -0.0039722766 0.035991076
0.03249601 0.058515977 -0.018035624 -0.0025336477 -0.0068904706 -0.08104635 -0.017745163 0.02573342
-0.031368963 0.059094314 0.036416654 0.019131863 0.07668914 0.08358045 -0.011959896 0.008031982
-0.006584125 -0.0025046417 0.05772914 -0.032344874 -0.097899705 -0.10949194 0.006144144 0.04599646
00000000: 7466 2d3c 7cb4 54ba df8b 30bd a849 9a3b
00000010: 4f15 24bd 40a3 59bb dfc5 f3bd 7ea5 35bc
00000020: 8787 a5bd a7a6 babb 0fb4 6c3c cdfb efbc
00000030: f5c7 c6bd 161c dd3c c8c6 803d 6b1a 803d
00000040: e4d9 bfbd 94b2 843d 381c 0db9 fcf7 21bd
00000050: 1ad0 4e3d 3fa4 a7bc e7f0 62bd 0bca a5bc
00000060: e90f b13c fe91 0a3b ce53 7d3c 6c15 d6bd
00000070: f776 58bc 97be 22be 6f71 ab3d 730d a3bd
00000080: f7e0 23bc d71d 963c da74 f43c 2978 f53c
00000090: b590 883d 3d6e a73c ae9d 1c3d bd35 87bd
000000a0: c446 f0bd b770 a73d b232 38bc fe6e b83a
000000b0: 12ff 803d 116b dcbc 82a3 38bc b90c 593d
000000c0: ba30 963d e196 29bd ddde dcbd 95dd 63bd
000000d0: ef02 24bd f4a6 b83d c512 c43c 8686 a1bd
000000e0: a148 a3bc 4f76 77bd 6a26 bdbc 50c8 9abd
000000f0: fce4 b9bc 6caf 9bbd 7d6e 94bd 6fdb c43d
00000100: cefc 6f3c 5932 9dbd af56 2a3d c24f 3abd
00000110: 92c8 c23d 7dc2 e8bd 876f 21bc 36e3 2cbc
00000120: 3232 c73c 7056 57bd 067b fabd ce40 afbd
00000130: d384 e83c 9d29 3ebd ebb4 c8bb 12ff af3d
00000140: a1e6 dd3c f969 d03c 852e 963b 0390 05bd
00000150: 4dbe 60bd 0515 f13c 75f6 b7bb 9b2d 8d3d
00000160: 3238 a53d 5ded ad3a b834 4d3d f279 16bd
00000170: 1aa7 d93d 0d55 30bd 926b 803d 4cff eebc
00000180: 80a3 a2bd ea5d 96bb 13af 4bbc 05d4 f13d
00000190: 69c0 153d 7a7e 0f3d 2ac6 f33c f069 afbd
000001a0: 3cc5 f6bd e714 2ebe 686e 143d 6a17 363c
000001b0: d08e ba3d ccaa da3d 568c 063d ccb8 4dbd
000001c0: 6c72 9a3d 5c87 45bc b26c 113d cf0d b93c
000001d0: 38f9 083d f13b 4a3d 21e9 fabc 247b 05bd
000001e0: abf4 3e3c ed59 923c e61b 913d ca49 3cbd
000001f0: da2b 2cbd aa7d 44be 725f f23c 96d6 18bd
00000200: da42 1f3b 9aaa fc3c d5cc 66bd 5126 973c
00000210: b34e 84b5 9442 823d da84 bdbd dd7d 923d
00000220: 1382 19bd a629 933c 9577 1c3c c7c6 a8bd
00000230: 864d 973d 0b62 083d 3639 84bc 92e8 02be
00000240: 7442 203e 1ee1 803d 0a5c 1c3d 75bb 123d
00000250: b533 603d 698f 5bbd a15c 73bd c156 41bd
00000260: 4e43 213e 2b0b ca3d 385b 263d 39dc d43c
00000270: 17c5 373d f7c7 d4bd 2641 8fbd a1f6 b23c
00000280: ed25 0fbd 970a 653d c70a 9a3c 0917 063d
00000290: 31a4 493d b8fc 533b 1642 97bd 1347 513d
000002a0: ce1a ab3c 3beb 42bd d8f1 093d 1daa 053e
000002b0: 2e12 be3d 0669 0dbd 6e94 d13b 4486 73bd
000002c0: 2201 fbbb ba3c a8bd e233 81bd 18ae 0cbd
000002d0: acf5 833d 2871 9abc a58f 7ebd 8af1 d7bb
000002e0: 0470 e1bb 1ca1 d63c e9e0 a33c 36d1 4dbc
000002f0: 740e 5f3c 5662 a2bd 65fb 3b3c 7c50 1abe
00000300: 9b6b c7bc 24d6 e6bd 48d0 bcbb d768 eb3c
00000310: 4bcf b5bc f4a5 38bd 206a bbbc dd06 84bc
00000320: 7367 353d c8d0 09bd 7a00 2dbd 91e9 dd3d
00000330: 2547 273d 07a6 4dbb 208a 833c 414d d83c
00000340: f994 df3c 7a6a a0bd 531a 333e a8d6 96bd
00000350: dd8a 863d 9dcb 72bd 4154 153d 092e aabd
00000360: c74c 1b3c 90f6 2a3d e438 d9bd c231 d5bc
00000370: fd98 99bd 14a3 393d 5e25 4cbd b95e 8c3c
00000380: 62c1 663d 37f2 3c3d 36cc fe3d c19f 06be
00000390: a7a4 b6bb 89ff 00ba df29 82bb 616b 133d
000003a0: 891a 053d 73ae 6f3d 72bf 93bc 8e0b 26bb
000003b0: 75c9 e1bb a1fb a5bd 4e5e 91bc e5ce d23c
000003c0: be7c 00bd e10c 723d a129 153d 6dba 9c3c
000003d0: 320f 9d3d 3a2c ab3d 71f3 43bc 9398 033c
000003e0: a5bf d7bb ea24 24bb 6475 6c3d 0f7c 04bd
000003f0: a47f c8bd 4f3d e0bd d154 c93b c966 3c3d
