results/MLDriver3/MLDriver/MLDriver-142000.onnx (onnx, 404427 bytes, 7 tensors)

action_model._continuous_distribution.log_sigma f4 [1, 3]
00000000: 876c 94bb e927 c43c c1f8 e03b
-0.004529539 0.023944812 0.0068655913

action_model._continuous_distribution.mu.bias f4 [3]
00000000: 13f7 fa3b 9b74 8d3b 81ea e13b
0.007658848 0.004316879 0.00689441

action_model._continuous_distribution.mu.weight f4 [3, 256]
00000000: 4c45 21bb 887b f0bc 608e bd3a fc8c c1ba
00000010: e147 09bc 9659 c8bc 1d64 b93b 1a67 07bc
00000020: b535 5e3c 484e 7d3b 45a9 a03b 0a20 babb
00000030: b872 70bc 18a2 f2bb 0012 4d3c da15 a1ba
00000040: f331 84bd 1445 d2bc 483f cebc 31fe 9bba
00000050: 3922 eabb 3c2a f0bb 9297 88bb d45b d33b
00000060: f0ed 85bc 3f6e bbba ac20 3cbc 7c43 50bb
00000070: 7eb5 643c 122b 3b3c 3604 873c 8d12 833b
00000080: e75c 693b 62e0 f73b e639 543c 49ba 19bc
00000090: 335d c83c c699 73bc fa39 963c 8b4a f4ba
000000a0: 851b 093d ec15 87bb f5ba 9ebd a24f 4d3c
000000b0: 9515 aa3b 0a55 91bb a7c5 50bb d35e 133c
000000c0: a032 e6ba aa45 b0bb f334 a23b ff55 ffbb
000000d0: 7325 5c3c 23c2 203d 6942 15b8 8535 f73b
000000e0: 66b0 01bc 56f6 2ebc 31e0 a5bb 43bd 353c
000000f0: b9a0 81bc da85 833c 775b 8bba 8b69 c8bc
00000100: c03d bfbb 9643 57bb 7ccc de3a 9897 3139
00000110: 9d69 efbb 016d c4bb 84f7 e73a 77bc b93c
00000120: 197c 4ebc f9b9 2b3c f897 c0bb 7609 f9bc
00000130: 1c36 68bc 5291 25bc 72ca 583c b559 da3a
00000140: 5f16 2b3c 6451 3cbb 757f 26bd 46bd b1ba
00000150: cfed 933a b17f a73b 45a8 a0bb fc66 4e3c
00000160: 9a74 9ebb 2acf e13a 6e51 063d b08f 25bc
00000170: 0ed5 3a3c 4b56 013c c80a 78bb 0c0f fabc
00000180: 4a74 3ebc 89de 013b 3f41 443a 1c6b 1f3c
00000190: 8174 323c 770c cebc 608b 703b 74aa 59ba
000001a0: 132b 03bc c09e 2139 352f a8bb eb76 f9bc
000001b0: 315a 8abc d4fc d4bb b3ff a3ba 8933 31bc
000001c0: 0fef db3a 183b 1b3b ee15 e3ba c329 5bbc
000001d0: f0c6 863c fd7d a63b cb4a b5bb 2c76 d93b
000001e0: a09a b83c fd5e 163c a2f4 b8bb dec9 09bb
000001f0: 5bb5 c7bb 1f40 ae3b 06f7 a23b faef 2dbc
00000200: d0bb d5bb 1586 80bc e3ac 12bc 29f6 b839
00000210: 6c1e 8fbb 3a7c 27bc a76b 1d3c ab7e f63b
00000220: 61b1 8fbc ac60 1b3c c7f0 3dbd b9a5 abbc
00000230: f6c9 dd3b 5e5a 973c 8fcc f6bc 43a8 27bd
00000240: 6936 f73a c9ce 1939 2b10 253c 0138 10bd
00000250: bfca 04bc cf47 83bc 0401 2339 5aab 7c3b
00000260: 1b29 e6bc 6a80 c0bc 73a1 093a 470e ddbc
00000270: ff94 30bd 963a 803c 1ca2 9f3b 7680 273c
00000280: 45e7 2abb a346 733b 44cc be3c d27a d5bc
00000290: 897d a1bb 9b4a 8a3b d2f2 02bb 36bd a83c
000002a0: ce6c 473c e0e2 0bbb 21c4 fe3b 74c9 af3b
000002b0: 2d7f c3ba 890a 8dbb fae3 2ebb 1898 7c3b
000002c0: fe6e 4939 278c 01bb 9d21 70bd af0e 583c
000002d0: 882f b43c b623 f83a 0b97 903a 160f 593b
000002e0: 1ab4 62bc e5c1 303b 559d cfb9 9cc9 7dbc
000002f0: 00c2 763c 21e7 27bc 8887 3b3a a174 9a3c
00000300: bfd7 643c dd39 933c e395 8a3a 8f1f 8d39
00000310: 8eb3 683a 1b74 873c ea91 f13b 648e 033d
00000320: df6c 31bc aee7 a63c 47d3 13bc 0a2b c2bc
00000330: ac62 5ebc e87b a03a db1a 0fbb 800a e8bc
00000340: c51e 703b 45c5 edbb 7578 74bc 2f33 82ba
00000350: 62cf 6fbc 0a96 a33b 5252 d3bc ac29 89bc
00000360: 3898 e0bc 5a96 d03b f6b6 0dbc 9378 32bc
00000370: e93a 07bb 8cfe bdbc 3646 703b 0c15 b3bc
00000380: 968c 0ebd d165 9b3c 88ba 1d3b 44ac d9ba
00000390: 2a81 a739 6d40 d73a 99c2 16bc a600 1abd
000003a0: ff6a 2fbc ac65 e6bb e216 de3b dca6 d5bb
000003b0: 3bcb 2fbb 4600 5a3a c43d cc3b 4dcd 4bb9
000003c0: aaea c73b 82c6 eeba a4fe 7038 141c c5bb
000003d0: b3ca d0ba 427d 08bb 09e2 beb9 0dec e93a
000003e0: 5d1a 80bb fa3b e13c 0443 8e3c 88e5 d33a
000003f0: e49d 31bc c7c4 0cbb ea2e 283c 962c 903b
-0.0024607955 -0.02935578 0.0014461987 -0.0014766748 -0.008378954 -0.02445678 0.0056576864 -0.008264327
0.013562609 0.0038651396 0.004902991 -0.005680089 -0.014675789 -0.007404577 0.012516499 -0.0012289837
-0.064548396 -0.025667705 -0.02517666 -0.0011901316 -0.007145193 -0.0073292535 -0.004168459 0.0064501557
-0.016348809 -0.0014299824 -0.011482399 -0.0031778505 0.013959287 0.011423843 0.0164815 0.004000014
0.0035608353 0.0075645903 0.012953257 -0.009382793 0.024458503 -0.014868205 0.018338192 -0.0018637938
0.03347351 -0.0041224863 -0.07750503 0.012531193 0.005190561 -0.0044351863 -0.0031856091 0.008994776
-0.0017562695 -0.0053793984 0.0049501597 -0.007792234 0.013436663 0.039247643 -3.5586218e-05 0.007544222
-0.007915592 -0.010678848 -0.005062126 0.011092487 -0.015823709 0.016055036 -0.0010632117 -0.02446439
-0.0058362186 -0.003284668 0.0016998197 0.00016936508 -0.0073062913 -0.0059944396 0.0017697667 0.022672875
-0.012602829 0.010481351 -0.005877491 -0.03040002 -0.014173057 -0.010105448 0.0132318605 0.0016658815
0.010442345 -0.0028735036 -0.040648896 -0.0013560436 0.0011286082 0.0051116575 -0.004902872 0.012597796
-0.0048356773 0.0017227877 0.0327925 -0.010105059 0.011403335 0.007894109 -0.0037848223 -0.030524753
-0.011624405 0.001981648 0.0007486529 0.009730127 0.0108920345 -0.025152428 0.0036704168 -0.00083032926
-0.008005875 0.00015413295 -0.0051325806 -0.030452212 -0.01688871 -0.006499866 -0.0012512117 -0.01081551
0.0016779619 0.0023686346 -0.0017325261 -0.013376656 0.016452283 0.005080937 -0.0055325977 0.0066364016
0.022534668 0.00917792 -0.005644397 -0.0021024863 -0.0060946173 0.0053177024 0.004973295 -0.010616297
-0.006522633 -0.015688935 -0.008952352 0.00035278618 -0.0043676402 -0.010222489 0.009608186 0.007522424
-0.017540636 0.009483498 -0.0463722 -0.020953046 0.0067684604 0.018475708 -0.030126838 -0.04093195
0.001886082 0.0001466825 0.0100746555 -0.03520966 -0.008104979 -0.016025452 0.0001554527 0.0038554282
-0.028095772 -0.023498733 0.0005250193 -0.026984347 -0.043110844 0.015652936 0.00487162 0.010223499
-0.0026077789 0.003712096 0.02329076 -0.026059542 -0.004928295 0.0042203194 -0.0019981158 0.020598035
0.012171937 -0.0021344945 0.007774845 0.0053645913 -0.0014915221 -0.0043042344 -0.0026686178 0.0038542803
0.00019210202 -0.0019767375 -0.058625806 0.013187095 0.02199532 0.0018931541 0.0011031342 0.0033120564
-0.013836885 0.002697104 -0.00039599338 -0.015489962 0.015060902 -0.0102479765 0.00071536796 0.018854441
0.0139674535 0.017971927 0.0010573234 0.0002691713 0.00088768534 0.016534856 0.0073721306 0.032118216
-0.01082918 0.020374145 -0.00902254 -0.023702163 -0.01357333 0.0012243958 -0.0021836075 -0.02832532
0.0036639434 -0.0072561824 -0.014921297 -0.0009933467 -0.014636846 0.0049922513 -0.02579609 -0.016743504
-0.027416334 0.0063655796 -0.008649578 -0.010893005 -0.0020634478 -0.023192666 0.0036662943 -0.021860622
-0.034802042 0.018969448 0.002406748 -0.0016607125 0.00031948957 0.0016422399 -0.009201669 -0.037598275
-0.010706662 -0.007031163 0.00677763 -0.0065201353 -0.0026824016 0.0008316081 0.006232949 -0.00019436069
0.006100972 -0.0018217119 5.745761e-05 -0.00601531 -0.001592955 -0.0020826613 -0.00036408033 0.0017846838
-0.0039093927 0.02749442 0.01736594 0.0016166428 -0.010840867 -0.0021479593 0.010265091 0.0043998463

network_body._body_endoder.seq_layers.0.bias f4 [256]
00000000: ced9 c1bc 49ca 8c3a 3ba4 01bc 6288 a33b
00000010: d685 c1bb 93c1 ffba 3b77 a83b 3365 08bd
00000020: d4e0 4dbb 5b80 73bc 667d 883b 7440 18bb
00000030: 0955 4bbc c21f 36bc 3208 e93b 555a 8abb
00000040: 9c8e 083c e6d9 c4bb 1f65 6abc 371c 76bc
00000050: 6b25 b2bc dc86 98bb b88a ccbb b078 d3bb
00000060: ad2b 1c3b 5ff8 a6bb 7837 50b9 9147 db3b
00000070: 988d ba3b fdb5 a0bc 1247 67bc b670 97ba
00000080: d16d 533c 8ca4 933c 909b ea3c 4b91 0bbc
00000090: e74e ed3b 1868 9fbc 725e 4f3b d954 2d3c
000000a0: 04d8 95bc 01d0 3a3b ec08 803c 7f3f 253d
000000b0: 8970 67bc 2eb6 73bc dab7 f4bb a443 4e3b
000000c0: 1007 113d 884e 3fbc 6cf5 083d 6590 2d3c
000000d0: 523f 68bc e257 09bb 427f 32bc 4f6e f9bb
000000e0: f128 013c 1b83 5cbc 9897 a53b 6296 a5b9
000000f0: 092b 9dba 77d6 1f3b 0aa3 19bb 9d16 55bc
00000100: 855a 813c c485 72bb fa30 e1b9 a56f 88bc
00000110: 9cce 7c3b c734 ac39 a89b d93b 07cc 213c
00000120: 3e33 06bc 60fc 64bb d9ae 03bc db39 a2bc
00000130: 7049 62bc fb2e 9d39 52ec 76bc 0a97 04bb
00000140: 3190 96bc b1cd a33b 5b90 64bc 4b95 57bb
00000150: 992e 5c3b 4042 42bc 0871 6f3c 19e3 30bb
00000160: e19f 3cbc 543e 08bb 3e2b 35bb f8e0 9a3b
00000170: f3d5 87b9 ad60 93bc dc88 6bbb 7e4a 56b9
00000180: 2d8b 20bc bd0c 4b3c 3c73 cabc d1f5 5abb
00000190: da1f 6bbb 00a8 413c 53b7 d3bb 132b 39bb
000001a0: 63cf 47bc 9843 17bc 7910 ef39 d2aa 62bb
000001b0: 2503 0abc 6132 30bc 080d 5b3b 4e44 1e3d
000001c0: f0dc 093b 290e 56bc f257 323a e1ed 9bbb
000001d0: bbb6 6abc 9a29 83bc 59e5 7dbc cdcd b8bb
000001e0: 123d 223b 5972 f6bb 2179 08bc cff7 abba
000001f0: df3a 813c 4845 5abc b7e6 8e3a c0b4 d1bb
00000200: 9817 023b 99cc 0b39 0816 6eb9 f31a 2f3c
00000210: feca 1439 9c54 8e3c 1990 84bc 68b2 23bc
00000220: d57f e4ba 00e6 5ebb 094c 333c 63b1 9d3b
00000230: 9d86 3abb c3c5 09bc 65e1 cebc 0f4a f83c
00000240: cebf 11bc d62d 13bc d703 c0bb 10d6 d7bb
00000250: 52f4 08bc f3da 143c 9c88 10bc 2253 debb
00000260: a690 be3c dc9a edbb c2ed 6bbb a6a1 3abc
00000270: 0fe2 10bc 79a7 553d 3aae 6d3b b9e6 6dbb
00000280: 05b0 33bc 4977 16bc 297b ccbb 23e1 45bc
00000290: b7f4 6fbc 8d97 c6ba ef2a 253c b6f7 2ebb
000002a0: 0b4e 7bbb a78b 9fbb bd32 f2bb 38cc 48bc
000002b0: 8012 10bc 2a21 27bc 0f3c 003a ddcf 903a
000002c0: 28f3 433b 94f6 44bc 985c 7dbc 5536 cc3a
000002d0: 5346 f7ba f4f1 acbc 807a 82bc 593a a23c
000002e0: b13c 0dba 4836 3bbb 4cf8 26bb 482b ba3b
000002f0: 2943 05bc 3049 f9b7 ed66 26bc 6a17 173b
00000300: 17e9 99bc 4a47 28bc 7c15 3dbc af40 4c3c
00000310: 123c 85bb 8145 973c 3ae4 3ebb f310 e2bb
00000320: 062a 6cbb 2e61 29bc 9e1d 2c3c 0a22 35bc
00000330: edcb 37bc 9350 3fbc 05dc b43b 2b57 853b
00000340: 0705 5dbb 9d78 0abc 076c 1e3c e83c c4bb
00000350: e65e 08bc e35c 583c 6b5b 8dbc 6de9 e3ba
00000360: 10fe b8bb b494 87bc 2cbc 86bc 96c9 85bc
00000370: c91a 45bc 4436 c4ba cc8c 42bb 42a7 c7bb
00000380: 1153 1ebb eee5 87bb 8292 90bb 6b16 ecba
00000390: 5e22 27ba 8f12 83bc e1e4 8b3a 8d34 b63b
000003a0: c09a 993b 350c 763a 15de 4fbc 6304 a0bb
000003b0: 7f5c 4b3a f4da 13bc d4ee 0d3c 00fe 093d
000003c0: af15 4dbc 5d3b 14bc f37c 64bc 7eb1 69bb
000003d0: 6432 2bbc 4b36 383c 9e87 2fbc 82f9 d9b9
000003e0: 322f ae3c 47fd a0bc 086f b63a 159e 43bc
000003f0: b10f e2bc d778 2fbb 39fb 22bc b87e 9d3c
-0.023663428 0.0010741438 -0.007912691 0.0049906233 -0.005905847 -0.0019512646 0.0051411665 -0.033299636
-0.0031414526 -0.014862145 0.0041653393 -0.0023231776 -0.012410411 -0.01111597 0.0071115727 -0.004222194
0.008334782 -0.006007421 -0.014306336 -0.015021375 -0.021746358 -0.0046547484 -0.0062421225 -0.006453596
0.0023829744 -0.005095526 -0.0001985709 0.006691881 0.005693149 -0.019618029 -0.014116066 -0.0011553976
0.0129046 0.018022798 0.028638631 -0.008518527 0.007242072 -0.019458815 0.0031641987 0.010579311
-0.01829148 0.0028505328 0.015629254 0.040343758 -0.014125952 -0.014874978 -0.007468206 0.0031473422
0.035407126 -0.011676438 0.033437178 0.010593508 -0.014175253 -0.0020956923 -0.010894598 -0.0076120268
0.007883296 -0.013458992 0.005053472 -0.00031583296 -0.0011990975 0.0024389306 -0.0023443126 -0.01300588
0.015790233 -0.0037006 -0.00042951835 -0.016654799 0.0038575297 0.0003284572 0.00664087 0.009875304
-0.008190928 -0.0034940466 -0.008037292 -0.019802978 -0.013811454 0.00029980377 -0.015070992 -0.0020231628
-0.018379303 0.0049988856 -0.013950433 -0.0032895382 0.003359711 -0.011856616 0.014614351 -0.002699083
-0.0115127275 -0.0020789104 -0.0027644183 0.0047265254 -0.0002590861 -0.017990435 -0.003593973 -0.00020436381
-0.009798807 0.012393174 -0.024713151 -0.0033410678 -0.003587714 0.0118198395 -0.006461063 -0.0028254434
-0.012195441 -0.009232424 0.00045597905 -0.003458668 -0.008423601 -0.010754199 0.0033424515 0.03863936
0.002103623 -0.0130648995 0.0006803266 -0.004758582 -0.014325793 -0.016011048 -0.015496575 -0.0056397677
0.002475564 -0.0075209555 -0.008329661 -0.0013120117 0.015775142 -0.013322182 0.0010902499 -0.006399721
0.0019850489 0.00013332292 -0.00022705656 0.010687578 0.0001419 0.01737433 -0.016181992 -0.009991266
-0.0017433116 -0.0034011602 0.010943421 0.004812406 -0.0028461583 -0.0084089665 -0.02525396 0.030308751
-0.008895827 -0.008983096 -0.0058598327 -0.0065867975 -0.008359032 0.009085405 -0.008821633 -0.0067848125
0.023262333 -0.0072511267 -0.003599987 -0.011391079 -0.008842959 0.052161667 0.0036267177 -0.0036300851
-0.010967259 -0.009183713 -0.006240268 -0.012077603 -0.014645747 -0.0015151367 0.010081037 -0.002669794
-0.0038346078 -0.004868943 -0.0073913024 -0.012255721 -0.008793473 -0.010200778 0.0004891762 0.0011048276
0.002989957 -0.012021679 -0.015463971 0.0015580157 -0.0018865563 -0.021111466 -0.015927553 0.019803213
-0.0005387767 -0.002856629 -0.0025477586 0.005681429 -0.008133688 -2.9717194e-05 -0.010156375 0.0023054727
-0.018787904 -0.010270903 -0.011540767 0.012466594 -0.004065999 0.01846576 -0.0029127733 -0.006898993
-0.003603579 -0.010338111 0.010505108 -0.011055479 -0.011218053 -0.011676925 0.0055193924 0.004069229
-0.003372492 -0.008451608 0.00966931 -0.005988706 -0.008323407 0.01320574 -0.017255506 -0.0017388292
-0.005645521 -0.0165504 -0.01644715 -0.016331475 -0.012030312 -0.0014969786 -0.0029685972 -0.0060929367
-0.0024158398 -0.004147283 -0.0044119963 -0.0018012052 -0.00063756655 -0.01600006 0.001067307 0.0055604638
0.004687637 0.0009385974 -0.012687226 -0.0048833354 0.00077576184 -0.00902437 0.008662898 0.0336895
-0.012517377 -0.009047356 -0.013945806 -0.0035658772 -0.010449026 0.011243413 -0.010713486 -0.00041575363
0.021262739 -0.019652022 0.0013918588 -0.011939545 -0.027595373 -0.0026774907 -0.009947591 0.019225463

network_body._body_endoder.seq_layers.0.weight f4 [256, 132]
00000000: 2f1f 14bd 402d 8c3b bf0d 153c dddf 03be
00000010: 6ada ab3d fd92 103e a2fc 86bd 8152 b1bd
00000020: 2083 2abe e3e1 83bd be30 32bc 0184 a9bc
00000030: c291 a6bd 274a 9c3d efab f33c 8341 38bd
00000040: 9685 70bb 71fb b23d 7c63 3a3d 948e ffbd
00000050: 7b86 dc3c 6dd5 963c be5f 2a3e a5f3 753d
00000060: 8c2b b93d b0a5 b13d c6fc 373d ed79 03be
00000070: 3d15 9ebd 1971 f0ba 3e9e 353e 9f03 a4bd
00000080: 4110 d13c d8db 38bd 6ffc a7bc 8002 213c
00000090: a0d8 b6bd 0305 173e 33ef b13a 4059 3abd
000000a0: 918d 18be d867 903c 0c57 433d 4e15 063e
000000b0: 573e b23d 32ac 8c3d db90 ee3c 6da9 ecbd
000000c0: fd40 e43d a7f4 afbd a537 a33d 083c 1d3d
000000d0: faf5 373e 6ba8 09be 1153 8f3d 357d 0e3e
000000e0: 6ed2 413d 1f29 533c 8c17 21be cbca 3fbd
000000f0: e0ba 09be 2c2f d43d b95b cf3d d2f4 9d3d
00000100: f687 b1bc b7a0 cc3d 96e8 e73d 751e 063e
00000110: af47 ee3d 192d 303c 9282 043b 0af5 dd3d
00000120: 0753 953d 5f86 223e d0c8 e3bc 0864 cdbc
00000130: c2ba be3d c6ee 873d 13a9 1d3d 71a1 ef3c
00000140: c8e9 9ebc a2c7 3d3d 6ddd ec3c af58 d0bc
00000150: 68c6 1e3d 36ed 7d3d 2dd9 b2bd f98b c03d
00000160: 01ec 09be 1376 20bd 51ec 5e3d 2111 8bbd
00000170: 46f8 85bd ded9 06bd d756 593d 53da 583c
00000180: 4c3d 993d 4cce 23bc a4a4 71bd ce19 4abd
00000190: 692f edbd ee5f 723b ec7b 353d 7ca9 eb3c
000001a0: 77ed ffbc eea6 a93d ecaf 1b3e 3f04 1c3c
000001b0: 5f0c 19bd 7491 db3c 30cb fe3d 17ce ff3c
000001c0: e584 2d3d 8593 f33d cb46 583d 2711 1f3e
000001d0: 5c3c d73d 1171 da3a f59e 1f3e 9ecd a7bd
000001e0: c37e 783d 13ab dd3d 01f1 5e3b fa4d 873d
000001f0: d531 28bd 1872 e33d c88d 17be f488 ab3d
00000200: 98ed 72bc da7d 8ebd ebfc e8bd 848f de3d
00000210: 0ff5 9d3d 35c6 70bd 91ee 9b3b bdc6 6d3d
00000220: 2fa0 6c3d 8ed7 f3bd 01e8 e73c 656a 623d
00000230: 82cd 0a3d 45f1 c33d e539 363e 0c5f 0dbe
00000240: 960c 013c 9da4 c53d c977 9cbd fb1f 81b9
00000250: 26da 7c3e 6e56 07bd 4004 6dbd 96e8 f1bc
00000260: 4864 dc3d 3c51 80bd eda4 cebc 5211 c13b
00000270: 8e7c 103d 0143 9fbd 2a84 513d dbef 3ebe
00000280: 64ef dbbd 96d6 3fbc 2415 0ebd b848 783d
00000290: b41b 5e3d e116 11bd 2a6c 6bbd 864a dc3d
000002a0: b6ae 6ebc c309 a4bb 1807 d03d 26f0 02be
000002b0: 8a57 063e d811 883d d7d3 6a3d 8785 34bd
000002c0: 6386 203e 9c60 8abc d936 23bd 4b13 fc3c
000002d0: 0d0e d53d 9063 12bc fd49 6e3c fd21 c43d
000002e0: 5d1a 75bb ff31 003e 4667 08be 47e6 163e
000002f0: ead4 cbbc 0b35 6b3d 7284 213d 9a1f 8d3d
00000300: 26bb 99bd 723d e3bc 98c0 3bbe c0bc aa3c
00000310: e3f1 f63c b565 1abd ddff 8d3d 0300 1b3e
00000320: cb5f b73d e9c2 d03c 682b a93c a17e 203d
00000330: 54bf a43d 6bb6 cdbc 48aa 1d3e c6be e1bc
00000340: 3934 4b3d b74c 063d f467 9e3d 6079 c53d
00000350: 14a5 193c c61b c4bd f203 113e 3dfd d93d
00000360: b4bc 453e c08e 68be c41d 4d3d 9965 0d3d
00000370: c10e 363d b372 2e3e 812a 2dbc 61a4 39bc
00000380: e7c8 8fbd 731e 083d b0d8 833e e57f 7dbe
00000390: cbe2 babd 11fc c73d 20a1 b3bc c94f 83bd
000003a0: 4027 053e 0b72 6c3d f3a8 19be 58dd 8a3d
000003b0: 0a24 393e 52f7 d3bd e217 51be c3f0 a7bd
000003c0: f2fe 3e3e a7c5 09bd 6b94 e1bc f205 ad3d
000003d0: 2b2d 55bd 45ea 273e 1ff2 a53d 60e9 573d
000003e0: 62a0 f13d a072 92bc f1a3 cc3a 11e7 0dbd
000003f0: 2965 d33d da00 f53c f08d cbbc 5010 2bbd
-0.03616255 0.004277855 0.009097516 -0.12878366 0.083912686 0.14118572 -0.06591155 -0.086583145
-0.16651583 -0.06439569 -0.010875879 -0.020692827 -0.0813327 0.07631331 0.02974507 -0.04498435
-0.0036700717 0.08739365 0.045505032 -0.124783665 0.026919594 0.018412316 0.16638085 0.06004681
0.09041509 0.086741805 0.044918798 -0.1283948 -0.07718895 -0.0018344253 0.17736146 -0.08008503
0.025520446 -0.045131534 -0.020506112 0.009827256 -0.08928037 0.14748006 0.0013575315 -0.04549527
-0.14897753 0.017627642 0.047690436 0.13094065 0.08703297 0.06868781 0.029121807 -0.11555753
0.11145208 -0.085915856 0.07969598 0.03838733 0.17964926 -0.13443153 0.069982655 0.1391495
0.047319822 0.012888222 -0.15731639 -0.046824258 -0.13450193 0.1036056 0.101249166 0.077127114
-0.021671277 0.099915914 0.11323659 0.13097556 0.11634766 0.01075294 0.0020219428 0.10837753
0.07291227 0.15871571 -0.027805716 -0.025072113 0.09312965 0.06637339 0.03849132 0.029251786
-0.019398585 0.046332963 0.028914178 -0.025432913 0.038763434 0.0619938 -0.08732829 0.09401698
-0.13468935 -0.039175104 0.054424588 -0.067903765 -0.06541495 -0.032922618 0.053061333 0.013235646
0.074823946 -0.0099979155 -0.058994904 -0.049341016 -0.115813084 0.0036983448 0.044307634 0.02876734
-0.031241162 0.082837924 0.15203828 0.009522497 -0.037365314 0.026802756 0.12441099 0.031226201
0.042363066 0.118933715 0.05280189 0.15533887 0.105095595 0.0016665776 0.15587981 -0.08193515
0.060667764 0.108236454 0.0034018161 0.0660667 -0.04106315 0.11105746 -0.14800179 0.08375731
-0.014827155 -0.06957598 -0.11376365 0.10867217 0.07712757 -0.058782775 0.004758664 0.05805086
0.05776995 -0.11906348 0.02830887 0.055277247 0.033887394 0.09567503 0.17795523 -0.13805789
0.007876536 0.09650538 -0.07640035 -0.00024628625 0.24692592 -0.03304141 -0.05786538 -0.02952985
0.10761315 -0.06265494 -0.025225127 0.0058919573 0.035275035 -0.07776452 0.051151432 -0.18646185
-0.107390195 -0.011708876 -0.03468813 0.060616225 0.05422564 -0.03542221 -0.0574762 0.10756402
-0.0145680215 -0.0050060465 0.10157603 -0.12786922 0.13119331 0.066440284 0.057330932 -0.044072654
0.15676264 -0.01689177 -0.03984723 0.030770918 0.104030706 -0.00893487 0.014544007 0.09576795
-0.0037399747 0.12519072 -0.13320646 0.14736281 -0.024881799 0.057423633 0.03943295 0.06890793
-0.07506399 -0.02773926 -0.18335187 0.020841956 0.030144637 -0.03769465 0.06933568 0.15136723
0.08953818 0.025483565 0.02065058 0.039183263 0.080443054 -0.025111398 0.15396988 -0.027556788
0.04961035 0.032788005 0.07734671 0.09642291 0.009377737 -0.0957561 0.14161661 0.106440045
0.19310266 -0.22710705 0.050077215 0.03452072 0.044447664 0.17035942 -0.010569216 -0.011330695
-0.07020741 0.033232164 0.25751257 -0.24755819 -0.091252886 0.09764875 -0.021927416 -0.06411702
0.13003254 0.057725947 -0.15005855 0.06780499 0.18080154 -0.10349907 -0.20419267 -0.082002185
0.18651941 -0.03363576 -0.027536592 0.084483996 -0.05204503 0.1639796 0.081028216 0.052712798
0.11798169 -0.017876923 0.0015612823 -0.03464419 0.10322029 0.029907633 -0.024847955 -0.041763604

network_body._body_endoder.seq_layers.2.bias f4 [256]
00000000: 74c4 a5bb 7545 58bb 2970 10bc d203 08bc
00000010: b9c8 ebbb a336 57ba 506c 16bc cb97 90bb
00000020: 3ea9 5abb 3471 7cbb 1d9b 98bc 60b2 05bc
00000030: b076 2d3c b08a 2abc b69d 4f3b 0fc0 11bc
00000040: 0149 b03b 2c5d 8a3b 74e4 583b 6f34 e9bb
00000050: 0a34 ddbb 1012 693c 4b34 8fbb 93eb febb
00000060: b235 01bc 0410 28bc db6e 913a c139 fdbb
00000070: 90f3 0fbc f0f4 933b a38f 1d3c 224c 2aba
00000080: 2c37 f3bb 9dfc 4abb 0ac8 c03b 8664 5abc
00000090: 5b6e 823c 74bb 4b3c 4715 4c3b bdb8 01bc
000000a0: 0854 cb3b 1313 76bc 810f 633c 75ab f83a
000000b0: 3bb6 a13a 9f27 91ba 66f0 9abb 9bc9 4cbb
000000c0: a8c8 77bb 58a4 f7bb bcde 63bc 5c50 c23b
000000d0: 6f03 9abb d4d8 39bb f91f 943a 4b46 2f3b
000000e0: c967 c5bb aeed 07bc b2ba abbb 6e4a a33a
000000f0: dded 8bbb 62f9 f6ba 5ea7 c5bb 1022 aa3b
00000100: e094 28bc 26da 94b9 29fe a9bb d4a8 16bc
00000110: d5e6 00bc f05e ccb9 d5ab cfbb fa3a 75b9
00000120: 920b ccbb b9ed 0e3d 5e6a f4bb dcfe 533c
00000130: 1a5d 4a3c 51fb 81bb 8555 923c 7f28 bebb
00000140: 24cd debb 075d 2bbc 88eb 893c 2904 5dbb
00000150: 9065 ffbb 7bbf 07bc c2cc 1bbc b5d7 e8ba
00000160: 543e 11bc 28f9 bebb 8858 50bc c0ea acbb
00000170: 73ae 80b7 1275 52b9 24e3 40bc 9602 b23a
00000180: 874a 1bbc 3691 16bb 877b 19bc 76b4 203b
00000190: 7095 47bc 5d17 243b 7350 36bc 7436 3dbc
000001a0: eafb 90bb 1652 9fbb 3a73 fbbb 7c77 373c
000001b0: 05b6 1abc 23a1 4fbb eff1 efbb e957 e8ba
000001c0: 74e6 253c 6055 303b 0c98 23bb bd3c 31bb
000001d0: 37c5 ac3b 5c8b 58bb 245f 47bc cda1 6dbc
000001e0: ea30 4f3c 64f4 893c f74e 7bba a2dd ddbb
000001f0: 1727 013c 13d6 0fbc c0d3 cebb d87a 94bb
00000200: 653a 99ba 0dc8 3cbc 9319 d5bb 3078 a3bb
00000210: 2082 04bc 9e42 a9bb c0ed 9c3b 1199 df39
00000220: c7db eabb 7438 ddba 77cf 7ebb 95bb d5bb
00000230: eea6 5dbb 0726 1a3c 2775 43ba 4c1f 003c
00000240: 0620 b7ba 84de 413c d7e7 18bc 4e83 fb3b
00000250: 8359 d1bb 75a9 cf3a 2261 23bb ac11 b1ba
00000260: 16af c23a 78c3 16bc 7104 36bc cb53 12bc
00000270: a50d a13c a1dd 0fbc f0a7 a23b a4d0 ddbb
00000280: c80d d6bb 9317 c4bb 42e0 06bc e26d b73c
00000290: 0b2a 12bc e807 01bb 7d43 e7bb 7513 df3b
000002a0: cc04 b9ba e06f c5bb dab8 7eba ce45 1cbb
000002b0: ae5f 0bbc 9589 c9bb 6a02 55bc 5dab 2abc
000002c0: b5e2 2dbb 486b 46bb b406 883b e6a5 31bb
000002d0: 227d a9bb 2fea 66bb e67b 07bc 9505 94bb
000002e0: 3018 a9b9 3b8d 2fbc 7f19 50bc f704 27bc
000002f0: feca 373c 8298 95bb 374b 1fbc 6edd 56bc
00000300: b387 83bb c92c 723c 720e 35bc 1a0a 6fbc
00000310: 5647 b8bb 6c1e 5dbb 064a 3bbb ec17 ba3c
00000320: c385 89bb c33b b43a f8b2 25bc a1b8 c7bb
00000330: 905e bebb e767 323b d187 a4bb 0961 833b
00000340: 8e90 d6bb 42c5 20bc 5812 e5bb 6c24 b0bb
00000350: ac59 123c e980 4ebc 607a e43b ab01 a5bb
00000360: 5d2a babb 3f15 43bc ce98 a8ba 58d4 063c
00000370: 97b7 4fbb 9b7b 663b 7321 b3ba 216c 57bb
00000380: 91c1 913b 8ac4 893b 401e ebbb 6e57 feba
00000390: 39df aabb f81a 423c bdbf 93ba d4db 913c
000003a0: 4773 acbb 6053 18bc fd7b 11bc ab7d 69bb
000003b0: 419c 7dbc 7aed 73bc 59b9 cabb 96c3 ce3a
000003c0: dd4a d6bb 7373 bfbb a9af 1abc db93 323b
000003d0: 5062 0abc 515c 37bc 08bf 27bc 07de 0bbb
000003e0: dfa3 52bb 4483 8a3c ccfd ddbb b30e 3bbc
000003f0: 741a 3fbc def7 f5bb d2ef bebb 6e20 893b
-0.0050588194 -0.0033000384 -0.008815804 -0.008301692 -0.007195559 -0.00082097406 -0.009181097 -0.0044126264
-0.0033365036 -0.0038519623 -0.018628651 -0.008160204 0.010587379 -0.010409042 0.0031679696 -0.008895888
0.0053797965 0.0042225327 0.0033095153 -0.0071168463 -0.0067505883 0.014225498 -0.0043702475 -0.0077795475
-0.007886337 -0.010257725 0.001109566 -0.007727832 -0.008786097 0.004515283 0.009616765 -0.000649633
-0.0074223485 -0.0030973323 0.0058832215 -0.013329631 0.015921762 0.012434829 0.0031140612 -0.00791758
0.0062050857 -0.015019196 0.013858677 0.0018971997 0.0012337634 -0.001107443 -0.0047283648 -0.0031248096
-0.003780881 -0.007557433 -0.0139080845 0.0059299897 -0.0047001163 -0.0028358 0.0011301033 0.0026744779
-0.006024335 -0.008296413 -0.0052407617 0.0012458095 -0.004270299 -0.0018842632 -0.0060319146 0.005192049
-0.010289401 -0.00028391293 -0.005187769 -0.009195525 -0.007867535 -0.00038980646 -0.0063376226 -0.00023386991
-0.006226965 0.03489468 -0.007458969 0.012939181 0.012351299 -0.003966727 0.017863045 -0.0058031674
-0.006799357 -0.010459191 0.016835943 -0.0033724403 -0.0077940896 -0.008285399 -0.009509267 -0.0017764481
-0.008864958 -0.0058280416 -0.01271642 -0.005277008 -1.5340023e-05 -0.00020070773 -0.011772905 0.0013581093
-0.009478218 -0.0022974736 -0.00936783 0.0024521626 -0.012181625 0.002503834 -0.011127579 -0.011548627
-0.0044245617 -0.0048620803 -0.007673648 0.011197921 -0.009442811 -0.0031681738 -0.007322542 -0.0017726395
0.010125745 0.0026906356 -0.0024962453 -0.002704426 0.0052725333 -0.003304205 -0.012168679 -0.014503908
0.012645939 0.016840167 -0.0009586657 -0.0067708055 0.007882855 -0.008779067 -0.0063118637 -0.0045312457
-0.0011690377 -0.011522305 -0.006503293 -0.0049886927 -0.008087665 -0.005165412 0.004789084 0.00042647918
-0.007167313 -0.0016877786 -0.0038880983 -0.0065226057 -0.0033821422 0.0094084805 -0.0007456117 0.007819962
-0.0013971336 0.011832837 -0.009332619 0.007675565 -0.0063888445 0.0015843349 -0.0024929722 -0.0013509295
0.0014853205 -0.009201877 -0.011109457 -0.008931111 0.019659827 -0.008780868 0.0049638674 -0.0067692567
-0.0065324046 -0.0059842556 -0.008232178 0.022391263 -0.008921157 -0.001968855 -0.007057606 0.0068077394
-0.001411581 -0.0060252994 -0.0009716876 -0.0023845318 -0.0085066985 -0.0061504343 -0.013001064 -0.010416833
-0.0026532833 -0.0030276347 0.0041511897 -0.002710694 -0.0051723877 -0.00352348 -0.008269286 -0.004517267
-0.00032252213 -0.010714824 -0.012701391 -0.010194055 0.011217831 -0.0045652995 -0.009722522 -0.013114316
-0.0040139793 0.014781185 -0.011050807 -0.014589811 -0.0056237383 -0.0033740057 -0.0028578057 0.022716485
-0.004196854 0.001375072 -0.01011347 -0.0060950075 -0.0058096126 0.0027222575 -0.0050210734 0.00400937
-0.006547994 -0.009812655 -0.006990712 -0.0053754356 0.008932512 -0.012603977 0.006972596 -0.005035599
-0.0056813196 -0.011906921 -0.0012862922 0.008229338 -0.0031695121 0.003516889 -0.0013666585 -0.0032870846
0.0044481237 0.0042043375 -0.007175237 -0.0019404718 -0.0052145985 0.01184725 -0.0011272352 0.017805018
-0.0052627656 -0.009297222 -0.008879659 -0.0035627882 -0.015479148 -0.014888162 -0.006186646 0.0015774842
-0.006539686 -0.00584262 -0.009441295 0.0027248773 -0.008446291 -0.011191444 -0.0102384165 -0.0021342055
-0.0032141132 0.016908295 -0.0067746397 -0.011417079 -0.011664022 -0.0075063547 -0.0058269287 0.004184774

network_body._body_endoder.seq_layers.2.weight f4 [256, 256]
00000000: 4ebc febd e781 3bbd 45db 7fbd eb3c 22bd
00000010: fa1e 5b3d d60e 2e3d a942 9a3d 79f0 dbbd
00000020: 49c9 593d 0941 833d 2a31 a83d 9d77 38bd
00000030: 00a8 8dbc 4027 bebc 033f 86bd afac 9bbc
00000040: 061f 0ebd 7df1 393e 9094 ecbd d52e 94bd
00000050: 8739 0a3e 2a1e 883c c8bc dcbc 202e b8bc
00000060: 0dde cfbd be2b af3c cfcb 0d3c 6242 bf3c
00000070: 0994 8cbc c4de 80bd e354 dfbc f307 a3bd
00000080: 596e 9dbd 3378 303d 526d 17bd 6e9d d03b
00000090: 2b11 9e3d f2b0 0ebd b5e4 89bd 5936 24bd
000000a0: 0a20 b93c e2c2 d9bc 0115 c6bc ae2b 603d
000000b0: 738f adbd 0ab0 343b 0220 563d d3fb d8bc
000000c0: 9206 e93d 1e2b 5fbd ac44 40bd 3eb7 eebd
000000d0: c4aa 873d ea06 c93b 8db9 653c dc62 023e
000000e0: 0be4 94bb 1665 cabd c34d aebc 2f70 0abe
000000f0: 22e9 013d 93e5 d5bb 1b20 8f3d 5c06 0bbe
00000100: 851f 3b3e da6d 983d 559f 903d 805e 843d
00000110: 7e86 093d dd7a 663d 4f0c bf3c 9683 543d
00000120: 956d c73b 4036 78bd 60d6 0ebb c782 9dbd
00000130: 1b18 203b d4d1 adbd b9bc 2ebd ff6b a53d
00000140: 281c 52bd 8e6c e63d a818 3b3d a095 54bd
00000150: 200e 3bbc 1501 adbd c4d5 063d 87a1 1b3c
00000160: cfcc 273d f6c7 fcbd 1dbc 543c 3afb a9bc
00000170: 8d64 043d 7627 6b3c d8b7 aa3d 5b2f f43b
00000180: 3963 7a3d d41a 55bd 2f51 f03c b9a7 f73c
00000190: 5d84 173c a106 033c 7c90 83bd 208e af3d
000001a0: 8d66 4d3c c39d 4f3c 72f2 d8bd 2938 2b3c
000001b0: 9d6b febb 3caf b83d c611 e9bd 997e 293d
000001c0: 4cbe 803d f2f6 e9bd 6d14 c9bd cbb4 13bd
000001d0: aa75 50bd 42d4 683c 36b4 ce3d b7ef 7b3c
000001e0: e774 433d 8f54 25bd e5b6 fa3d 8d81 263d
000001f0: 7e67 1f3d 5665 a63c bdb0 553d 6971 283d
00000200: 054e 0a3d b75e 9cbd cad9 923c ab19 293d
00000210: c29c adbd 01c3 57bc 148d 533d bc69 d3bd
00000220: e90a f23d 6b2f 0bbe 5f49 41bd 9df4 463d
00000230: 0a29 8fbd 7acd 3bbd efbf 92bd 1a46 fabd
00000240: cb27 2bbd 2a31 24bd 1c7e 903c 68ad a1bc
00000250: 80d9 043e b878 b73d ba03 2d3d e8ec 05bd
00000260: 4ea8 a8bd c533 ccbc 9ac8 033d 076f 55bd
00000270: 5d42 7bbc 0157 eb3d 9093 f23d 05dd 7a3c
00000280: bf7d a3bd 35fc 3cbd c500 8c3c e633 ca3c
00000290: 80ed 243d f0d9 64bd de1d 8ebc 2872 0dbd
000002a0: f5d2 4ebd 88ae 95bd c908 ffbd f479 efbd
000002b0: 9f36 dcbc 6a09 8fbd bfb2 483c f28f 9c3d
000002c0: a102 2b3d 11ee b13c 2aa2 a039 5a20 313d
000002d0: d8b9 56bd c9c5 be3b 10e8 aa3c 1b12 0c3d
000002e0: de8e a1bc d945 92bb 65c1 f53c 6425 22bd
000002f0: abc7 213d 5c09 683b d1c2 493d 22b3 a9bd
00000300: 50d5 a13d a805 3c3d d8dc 2cbd 7d18 a73c
00000310: 97c9 7dbd 3877 7c3d b523 9f3d be26 953d
00000320: ae3f fbbc 653b 31bd a908 77bd de88 82bd
00000330: af29 363d 582f 17be b71d 4a3e d562 1bbe
00000340: 682b 88bd 63cb 6d3c 98f4 ecbd 2c5f 433c
00000350: 66c5 663d 8130 c73d 720e 9a3b 7976 21be
00000360: 9372 cc3d 218d 97bc 3274 aebb ac68 d5bc
00000370: 5b66 40bd 44df b9bd e90c 74bc 78e8 ea3c
00000380: 037b 7abd 539c 2d3d 9e98 cc3c b8ab b3bd
00000390: 3c88 2d3d 703c c6bc c213 f2bc a685 90bd
000003a0: dfa7 b2bc 56db 29ba c168 cd3a 6afc 4bbc
000003b0: 76ab c6bd 8f6a bcbd a2a4 6fbd e913 493d
000003c0: 1850 563d dd34 533c 1e84 b83c cc3e 47bd
000003d0: bb29 dc3d 67af 01be 1dac 1f3d 606f 86bd
000003e0: 940e 0d3d 5a14 4dbc 30ac 94bd 806f 94bd
000003f0: 7a10 8dbc 5e36 143b abe6 cabc d146 903d
-0.1243826 -0.04577818 -0.06246497 -0.039608877 0.05349634 0.042494617 0.07532246 -0.10739226
0.053170476 0.06408889 0.08212502 -0.045035947 -0.017292023 -0.023212075 -0.06554987 -0.01900324
-0.034697555 0.18158527 -0.115517735 -0.07235495 0.13498507 0.016615946 -0.026945487 -0.022482932
-0.10149775 0.021383163 0.008654549 0.023347083 -0.017160432 -0.06292489 -0.027262157 -0.079605006
-0.07687063 0.04308338 -0.03696949 0.0063664233 0.07718118 -0.034836717 -0.067330755 -0.040090892
0.022598285 -0.026582185 -0.024179937 0.054729156 -0.084746264 0.0027570748 0.05227662 -0.026487267
0.11378206 -0.05448448 -0.04694049 -0.116560444 0.06624368 0.0061348574 0.01402129 0.12733024
-0.0045437864 -0.09882562 -0.021277314 -0.13519357 0.031716473 -0.0065276115 0.069885455 -0.13576645
0.18273742 0.074428275 0.0706164 0.06463337 0.033575527 0.056269515 0.023321299 0.051883303
0.0060860612 -0.06059861 -0.0021795258 -0.076909594 0.002442843 -0.08487287 -0.04266045 0.08077239
-0.051296383 0.11251174 0.04567781 -0.051900506 -0.011416942 -0.08447472 0.032918707 0.00949896
0.040966805 -0.12342827 0.012984303 -0.020749677 0.032322455 0.01435267 0.08335847 0.0074519343
0.061129782 -0.05202754 0.029335586 0.030231344 0.009247866 0.007997186 -0.064240426 0.0857203
0.012536657 0.012671891 -0.10593118 0.010450401 -0.0077642933 0.09017798 -0.11380343 0.0413805
0.06286296 -0.11424054 -0.09818349 -0.03606109 -0.050893463 0.014210762 0.10092966 0.015376977
0.04771891 -0.040363844 0.122419156 0.040650893 0.038917057 0.020311993 0.052170504 0.04112378
0.03376581 -0.07635253 0.017926116 0.041284245 -0.08477165 -0.013169051 0.051648214 -0.103229016
0.11818487 -0.13592307 -0.047189113 0.048573125 -0.069902495 -0.045850255 -0.07165515 -0.12220402
-0.041785996 -0.04008595 0.017638259 -0.019736007 0.12973595 0.08958572 0.042239882 -0.032696635
-0.082352266 -0.02492703 0.03217373 -0.052107837 -0.015335646 0.11491204 0.118445516 0.015311484
-0.079829685 -0.04613896 0.01709021 0.02468295 0.04026556 -0.055871904 -0.017348226 -0.034532696
-0.050494153 -0.0730868 -0.124528475 -0.116931826 -0.026881514 -0.069842175 0.012249648 0.07644643
0.041750554 0.021719964 0.000306384 0.043243743 -0.05242333 0.0058219177 0.02086261 0.034196954
-0.019721445 -0.004463893 0.029999444 -0.03958644 0.03949706 0.003540597 0.049258057 -0.0828612
0.07902014 0.04590383 -0.0422028 0.02039742 -0.06195983 0.061637133 0.077704825 0.0728278
-0.030670013 -0.043269534 -0.060310993 -0.063737616 0.044473346 -0.14764154 0.19737898 -0.1517442
-0.06648904 0.014513823 -0.1157009 0.011924546 0.056340598 0.09726048 0.004701429 -0.1576785
0.09982791 -0.018499913 -0.00532391 -0.026050888 -0.046972614 -0.09075788 -0.014895656 0.028675303
-0.06115247 0.04238541 0.024975117 -0.08772987 0.04236625 -0.02419874 -0.029550437 -0.070567414
-0.021808563 -0.0006479522 0.0015671478 -0.012450317 -0.09700672 -0.09200012 -0.058506615 0.049091253
0.052322477 0.012891022 0.022523936 -0.048643872 0.10750147 -0.12664567 0.0389825 -0.06564212
0.03443773 -0.012517059 -0.07259405 -0.072478294 -0.01721977 0.0022615413 -0.024768194 0.07044757
