Assets/results/MLDriver/MLDriver/MLDriver-68066.onnx (onnx, 632654 bytes, 10 tensors)

96 f4 [1, 512, 128]
00000000: c028 d9bd 0cde 723d e165 d83b da61 80bc
00000010: 6b0d 82bd eed9 5e3d 36e0 19be cf3b 133e
00000020: 7306 0e3e 26f7 073d 2857 46bc 0192 a8bd
00000030: 73e5 12be 9e8c 22be f704 d93d 0277 9fbd
00000040: f809 943d 6a6e 9dbd 6b8f f53d e919 ffbd
00000050: 1912 973d ce3d ca3c 5309 263e 26da 87bc
00000060: cec2 383d 1d29 a33c 4aed c23d 51bf c0bd
00000070: be70 85bd bec6 31bd 1d05 3d3d 6920 95bd
00000080: 4a5e 683d a2a1 9e3d 7986 0d3e c325 b33d
00000090: c799 dbbd 8cb9 a5bd a7d5 5a3d 2b2b 09bd
000000a0: 80c1 113d bff3 0c3e a537 b6bd a297 43bd
000000b0: acc0 71bd cbb7 0f3e ee77 f1bd ae6b b73d
000000c0: b019 e4bd 6ec9 023e 3cd7 a3bb b0c2 2d3c
000000d0: c2b7 a6bd 0a70 f5bd 874d 10bd d3c6 c6bd
000000e0: 7bac f03c ce64 f7bc 0615 83bd 2bd5 a63c
000000f0: a23c 783d b642 073e 56ab 6f3d 5ac2 133e
00000100: f7b1 93bd b06b f0bd 029e 003e b20f 0dbd
00000110: f986 a93d a57e 1cbd fc05 5f3d fb8d 073e
00000120: 6c30 80bd 1f00 303e f161 38bb fd92 373d
00000130: 5a2f 7dbd 2409 d9bd c95a e13d 6042 173e
00000140: db83 0d3d 2d44 4ebd c09b d1ba c3b6 b83d
00000150: 9fb8 0e3e 4427 853d 807f 08bd 8d3f 5fbd
00000160: e0be 893d a9ad 8cbd 2ef4 7e3d b470 07be
00000170: 7185 c9bd 04c8 8f3d 3b63 afbc 88c9 66bd
00000180: d66b 7ebd ae96 053e 70c8 f43b 19f9 70bd
00000190: a64e 173d 8705 053e 185e c6bd 1387 f2bd
000001a0: cc6e 5e3d 3ffb f43d 4e9a ddbd 5743 78bd
000001b0: a0a8 313c 61c5 f93d 0d53 023e b33e f23d
000001c0: 4bf9 c0bd d1fb d63a 6f35 a3bd 3c57 bf3d
000001d0: 77ce b1bd 8cef ab3d cdcd 7dbd c832 843d
000001e0: b23a ea3d 1d09 18be 8460 09be 2a2a 00be
000001f0: 0903 7bbc 560b 223d a83c 693d 1a4a ffbd
00000200: 2cfa f2bd 46a7 0f3e 94f9 ca3d c30d 63bd
00000210: 59bb eb3d 557c ddbc 73a9 0ebb ac8e fb3c
00000220: 0de5 11be 9a41 edbd f7f8 cdbd e85e 11be
00000230: 5842 acbd 1324 e83d 0fda 3bbd fd80 df3d
00000240: 3384 843d 0480 c13d 293a 563d 2a8f 55bd
00000250: 9430 ee3d b9eb 17be 97b3 d6bc bd2f 71bd
00000260: 2016 c7bd 8dac 1d3c fe5d 08be 44cd 893d
00000270: 8428 213c b357 7ebc d14b dd3d cb76 c43d
00000280: bee5 ebbd 5f96 9abc 538e 85bd c198 643d
00000290: 91ef 7d3a 3e94 433d 75ce 3ebd fcc9 da3d
000002a0: 36e0 ff3d 87cc 043d b76b 223d 4179 a8bd
000002b0: d536 0c3e 82d7 08be 7e73 a33d 597d 133e
000002c0: 40de bb3d ab62 1fbd 2a03 df3d 8f91 dabd
000002d0: 0071 16be 17a8 78bd 3352 5fbc a4e9 b3bb
000002e0: d1bb 4dbd 930c 133e 2422 bebd 212d fe3d
000002f0: 7e61 a23d 1ddc 683c 504c a6bc 160d 883a
00000300: e118 493d 6551 053e 92d6 c5bd 0826 a6bd
00000310: 6340 3abd a2a5 43bc 999e bc3d 94a9 343d
00000320: 944c 10be 379d 673d 77d4 1ebd 0c0b d43d
00000330: 1fbf be3d 96c1 cd3d b54f 17bd db17 1b3e
00000340: 07b4 fb3d ba0f 94bd 9d79 143e 8eda 7c3d
00000350: 2d47 c93d eecb 5e3d 022e 3e3d ac9c 1cbe
00000360: 2032 0f3d 44c2 cf3c 5099 13be e2f1 cbbd
00000370: fae9 193e e37c 753d aa3e 1d3e 3f57 003e
00000380: 7a27 05be ce22 3c3d bc21 32bd 29d2 1bbe
00000390: a61b e8bd 46a7 453d 7217 48bd c626 1cbe
000003a0: 9221 833c 9d53 fb3b 7b04 81bd aac8 233d
000003b0: 4196 bdbd 8b46 eebd d07f e63c a425 61bd
000003c0: 7131 ef3d 2f49 91bd ca98 8f3d 05be 50bd
000003d0: 5c06 b63b 8154 dfbd 7d48 e0bd 2a3a e6bc
000003e0: ffb7 333d a15b 423d 91b9 803c e81f f7bd
000003f0: 1f98 30bd c1e9 0cbe 187a cebd c5a3 18be
-0.106034756 0.05929379 0.006603942 -0.01567166 -0.063502155 0.054407053 -0.15026936 0.14378284
0.13869648 0.033194683 -0.012105741 -0.08230973 -0.1434534 -0.15873954 0.1059665 -0.07786371
0.07228464 -0.076870754 0.119902454 -0.12456114 0.07376499 0.024687674 0.16214494 -0.016583513
0.045107655 0.019917065 0.095179155 -0.09411491 -0.065156445 -0.043402426 0.046147455 -0.07281572
0.056730546 0.07745673 0.13820828 0.08747437 -0.1072269 -0.08092031 0.05342641 -0.033488434
0.035584927 0.13764857 -0.08897332 -0.04775203 -0.059021637 0.14034955 -0.11790453 0.08956085
-0.11137712 0.12772152 -0.005000023 0.010605499 -0.08140518 -0.119842604 -0.035230186 -0.097058915
0.02937912 -0.030199435 -0.06400494 0.020365318 0.0606047 0.13209042 0.058513008 0.14429608
-0.072116785 -0.1173929 0.12560275 -0.034438796 0.08277697 -0.038206715 0.054449067 0.13237755
-0.06259236 0.17187546 -0.002813455 0.044817913 -0.061812736 -0.105974466 0.11003644 0.14771414
0.034549575 -0.050357986 -0.0015991852 0.09019234 0.13937615 0.0650163 -0.03332472 -0.054503966
0.0672586 -0.068690605 0.062244587 -0.13226587 -0.09839905 0.07020572 -0.021409621 -0.05634454
-0.06211456 0.13045761 0.007470183 -0.058831308 0.03694024 0.1299039 -0.09685916 -0.118421696
0.054304883 0.11961984 -0.10820447 -0.060611095 0.010843426 0.1219585 0.12726994 0.11828365
-0.09422549 0.0016401951 -0.07969176 0.093428105 -0.08681958 0.08395299 -0.061963845 0.06454998
0.114369765 -0.14847226 -0.13415724 -0.12516084 -0.015320548 0.039561592 0.056942612 -0.124653056
-0.11864123 0.14028654 0.099108845 -0.055433046 0.11510343 -0.027036825 -0.002176848 0.03070768
-0.14247532 -0.11584778 -0.10057252 -0.1419636 -0.084110916 0.113350056 -0.045862254 0.109132744
0.064705275 0.09448245 0.05230156 -0.052138485 0.11630359 -0.14836015 -0.026208682 -0.058883417
-0.09721017 0.009623659 -0.13317105 0.067286044 0.00983632 -0.015523839 0.108054765 0.095929705
-0.11518429 -0.01887053 -0.06521287 0.05580974 0.0009686882 0.047748797 -0.04658361 0.10683057
0.12493937 0.032421615 0.039653506 -0.08226252 0.13692792 -0.1336346 0.07981013 0.14403285
0.0917325 -0.038912456 0.10889275 -0.10672294 -0.14691544 -0.060707178 -0.013630438 -0.0054904986
-0.050227944 0.14360265 -0.092838556 0.124109514 0.079287514 0.014212635 -0.02030006 0.0010379876
0.049095992 0.13019331 -0.09660067 -0.08112723 -0.04547156 -0.011941345 0.092099376 0.044107035
-0.14091712 0.056546416 -0.03877684 0.103536695 0.09313797 0.10046689 -0.03694125 0.15145819
0.12290197 -0.07229562 0.14499517 0.061731867 0.09828029 0.0543937 0.046430595 -0.1529414
0.034959912 0.025361188 -0.14413953 -0.09958245 0.15030661 0.059933554 0.15355936 0.12533282
-0.1300334 0.04593163 -0.043489203 -0.15216888 -0.113333985 0.048255228 -0.048850484 -0.15249166
0.016007219 0.0076698796 -0.06299683 0.03998629 -0.09257174 -0.11634549 0.028137118 -0.054967538
0.11679352 -0.07094037 0.07011564 -0.050962467 0.0055549573 -0.1090479 -0.10951326 -0.028103907
0.043876644 0.047450665 0.015713485 -0.120666325 -0.043113824 -0.13761045 -0.10081881 -0.14906223

97 f4 [1, 512, 128]
00000000: 25d4 ccbd f3e9 8ebd c20a 1fbe 4ccb 8c3d
00000010: b7b3 30bd 4e56 bfbd a475 fb3d c2c1 d23d
00000020: 82ef ba3c 4c5d 82bc 0bed 023e 9446 713b
00000030: b8d2 19be de68 49bd 87dc bd3c 54ce b1bd
00000040: a169 b0bd 5275 163e 5768 98bd 0896 64bc
00000050: 736f acbd 4a9e 47bd 07c9 ff3d ef6f ebbc
00000060: 63e8 34bd cba3 b63d 22af eebd e318 953d
00000070: 24ef c8bd 56e4 29bd 0da6 4c3c 5e2f 80bd
00000080: 958b 2b3d 4fdb 0c3e d95e 9e3d f57c d23d
00000090: e263 4dbc 3709 a73d 9599 83bd 5fb3 3bbd
000000a0: 8be6 983b ffe8 05bd 4e5e b13d dd64 ae3d
000000b0: f38e 633c 2991 ff3c 5735 4c3d 2350 e33d
000000c0: 5dc2 4cbb 2244 763b 01bd 663d 844e ff3d
000000d0: 7f49 9d3c fedc ea3d 8666 bb3c 4b34 12be
000000e0: 8cc0 f23d 00ba 41bb 545c 9f3d 4a45 013d
000000f0: e065 d5bc ebc8 873d 3961 d5bd ca4c fdbc
00000100: 14cd 9ebd d81c 9f3d 2362 00be b9e3 9dbd
00000110: eca8 003e 3614 513d 2063 05bd af6b b5bd
00000120: 1b36 913c c802 0e3e 043c c23d 7f0c 1a3e
00000130: 0435 2abc 4258 0ebe 3134 063e f8f2 11be
00000140: ba57 17be ef66 a43d 780d 123c a963 04be
00000150: c72d fe3c 2ed5 093d 2237 2b3e 0c35 b83d
00000160: a3d3 21ba 141d fb3d 923a 303e 42bf ccbd
00000170: 3278 313e 1f54 e8bd 1253 8abb 9d79 003c
00000180: 3361 063e de3a 20be f932 ff3d a8c8 133e
00000190: e086 c6bd 929b 9c3d 2ec5 1d3e 3dd1 1cbe
000001a0: 732f c13c 80c6 00be 3c9f 9d3d ce09 563d
000001b0: ce31 1abd 2bcb 953d ba14 c33d 1b93 0b3e
000001c0: 9558 59bc f22e 873d da2e 933c 2766 9c3d
000001d0: 66e6 103e e1ea a33d 0b23 e0bd 3613 8739
000001e0: 5c9b 003e 4d27 92bd ae0d 11be 6aa3 ddbd
000001f0: 52d0 b83d 9bbd 1b3d 9a21 0b3e 0289 be3d
00000200: 78b5 49bd a4aa 98bd 5d74 90bd 707a e6bd
00000210: c485 4f3d b173 b6bd 528e 8c3d 793e c83d
00000220: c693 343d 4343 6b3d 6003 443d f112 e9ba
00000230: 8385 14be 377b 073e 61be 08bd 640a 0cbe
00000240: 93e4 193e 957b 1b3e 0899 bbbd 28fa cc3b
00000250: 5127 99bd 4716 51bd a71f bdbd 008d eabd
00000260: bb32 0abe 6a7a c6bc 135e 53bc 93ba 0ebb
00000270: b660 a1bc 944c 733d ca1d 6fbc 857a cdbd
00000280: c486 61bd 52e5 63bd 8319 093e 20d1 953d
00000290: b8d8 1abd 50e5 bebb 3630 ffbd 24d9 033d
000002a0: 4a4c 85bd dbc1 bcbd 1114 26bd 536b ca3d
000002b0: caa2 bfbb 372e 2d3d ac23 ab3d 09b0 0f3d
000002c0: 850c 1bbd 873a f2bd 0dae e6bc 3937 e13c
000002d0: 4266 373d f8d1 d63d d42f a1bd 0358 84bd
000002e0: 86c3 80bd 6212 ab3d d65b ec3d 71c5 d43c
000002f0: 7dbb 90bc b955 03be a4fd 483c 9b5e 433d
00000300: 08e7 c8bd ccfa 953d 3890 40bd cf16 9a3d
00000310: 5def 443d 27ea 11bd 1002 2c3d 06f9 19be
00000320: b998 a4bc 3a46 3e3c 2388 6dbd fd29 13bd
00000330: f592 d8bd 8839 edbd ecab 43bb 574e e53d
00000340: 9e49 bcbd 71b2 333b e6d5 b53d 93b8 8cbd
00000350: f9e1 38bc a852 c8bd 9b01 8c3d d908 743d
00000360: 3ce6 9abd bcf0 ae3d 964a 1a3d 3e9c cabd
00000370: 9081 d53d 0bf1 a33d 2d7d 1c3e 31fb 3a3c
00000380: fa5c 77bc 04ca 36bd 0841 a23c c84d d23d
00000390: 5017 be3d 2c33 4abd ea9a 4abd 23cc d53c
000003a0: bdb1 9ebd cb55 583d 7507 3f3d 59f5 5c3d
000003b0: ac54 cb3c f0f3 06be d566 31bd bed4 023e
000003c0: 74f6 f7bd 2082 f43d d1af 093e 686f 153e
000003d0: 8c38 ed3d 0687 233d 45c7 9f3d a110 0cbe
000003e0: 8c1a ebbd 2581 59bd 5966 d93c 6d2b d5bd
000003f0: f733 1a3e 7d5f 07bd 82d0 893c c729 9a3c
-0.10001401 -0.06978216 -0.15531448 0.06874713 -0.04314014 -0.09342633 0.122782975 0.102908626
0.022819284 -0.015913628 0.12785737 0.003681575 -0.15021789 -0.049172275 0.023176445 -0.08681932
-0.08613897 0.14693192 -0.07441776 -0.013951786 -0.08419695 -0.04873494 0.12489515 -0.028739898
-0.044166934 0.0891796 -0.11654498 0.072801374 -0.098112375 -0.041477524 0.0124907615 -0.062590346
0.041881163 0.13755535 0.077329345 0.1027774 -0.012536021 0.081560545 -0.06425778 -0.04582536
0.0046661547 -0.032692906 0.08660565 0.08515332 0.013889062 0.031197147 0.049855556 0.11099269
-0.003124378 0.0037577231 0.056332592 0.124661475 0.019200085 0.11467932 0.022876035 -0.1427776
0.11853132 -0.0029560328 0.07781282 0.03156022 -0.026049554 0.06630119 -0.104189344 -0.030920405
-0.07753959 0.077691734 -0.12537436 -0.0770945 0.12564439 0.051044665 -0.032565236 -0.0885843
0.017725995 0.13868248 0.09484103 0.1504383 -0.0103886165 -0.13900855 0.13105847 -0.14252841
-0.14779559 0.080274455 0.008914344 -0.12928642 0.031027688 0.03365057 0.1672025 0.08994493
-0.0006173199 0.122614056 0.17209843 -0.09997417 0.17331007 -0.1134417 -0.0042213285 0.007841495
0.13123016 -0.15647456 0.12460894 0.14432013 -0.09693694 0.0764686 0.1540725 -0.15314193
0.023582196 -0.12575722 0.07696387 0.052255444 -0.037645154 0.07314142 0.09525438 0.13630335
-0.0132657485 0.06600751 0.017966677 0.076366715 0.1415039 0.08003784 -0.10944184 0.0002576352
0.12559265 -0.07136402 -0.14165375 -0.108221844 0.09024109 0.03802262 0.13587037 0.09303476
-0.049245328 -0.07454422 -0.070534445 -0.11253822 0.05066468 -0.08908785 0.06863083 0.09777541
0.04408624 0.057437193 0.04785478 -0.0017782134 -0.14504056 0.13230596 -0.033384684 -0.13675839
0.150286 0.15183862 -0.09160048 0.006255407 -0.07478202 -0.051046636 -0.09234553 -0.11452675
-0.13495915 -0.024228293 -0.012900847 -0.0021778687 -0.019699436 0.059399202 -0.014594505 -0.10033134
-0.055060163 -0.05563862 0.13388638 0.07315278 -0.037804335 -0.005825676 -0.124603674 0.032189503
-0.065086916 -0.092166625 -0.04054648 0.09883752 -0.0058482634 0.042280402 0.08356413 0.03507999
-0.037853736 -0.118275695 -0.028159166 0.027492153 0.044775255 0.10489267 -0.078704506 -0.064620994
-0.06287293 0.083531156 0.11540954 0.025973054 -0.017667526 -0.1282567 0.012267504 0.047697645
-0.09809691 0.07323226 -0.047012538 0.07523882 0.048079837 -0.035623696 0.041994154 -0.15036401
-0.020092355 0.011613423 -0.05799116 -0.035928715 -0.10574905 -0.11583239 -0.0029857112 0.11196583
-0.09193729 0.0027419592 0.088786885 -0.06871142 -0.011284345 -0.097813904 0.06836244 0.05957875
-0.07563445 0.0854201 0.037668787 -0.09893082 0.10425103 0.0800496 0.15282126 0.011412428
-0.015097851 -0.04462625 0.0198064 0.10268742 0.0928179 -0.049365208 -0.049464144 0.026098317
-0.07748745 0.052816194 0.04663797 0.05394492 0.024820648 -0.13178992 -0.04331096 0.12776467
-0.12107554 0.11938882 0.13445975 0.1459328 0.11583051 0.03992369 0.078016795 -0.13678218
-0.11479673 -0.053101677 0.026538061 -0.104086734 0.15058886 -0.03305005 0.016823057 0.01881875

98 f4 [1, 1024]
00000000: 715e 713b 57c6 b7ba c909 eaba 1183 d93b
00000010: 99f6 c33b fed9 be3b 41c8 6abb b173 533c
00000020: c3e8 c43a 7505 dd3b 2953 6f3c 2e68 ec3b
00000030: 6a6f a63b 8e3f 953a dcac 003c b254 f93b
00000040: 7d57 163c 61d1 e0ba a279 36bb fedd 9a3b
00000050: f25b 51bc 1af2 eeb6 4918 e3ba a183 88b9
00000060: 5c91 433a d07e 94bb 1ad7 233c 686b e03b
00000070: d60b 5cbc 6984 b8bb 0598 7cbb 37a7 893b
00000080: 5bfe 153c 8759 d9bb 6fb1 1c3b 4757 853c
00000090: 268d d83b fb80 853c c361 ecba 3975 253c
000000a0: b123 093c 96b0 6339 cf05 913c 689b acbb
000000b0: 4177 d9bb c476 9e38 2f83 b53b 0831 a1bc
000000c0: f188 c03b 6d10 643c 16cf 99ba 1878 493b
000000d0: 1158 a43a e410 36bc b178 8dbb e222 803b
000000e0: 7e98 3c39 0bb9 833b c50b e4bb f22c 10bc
000000f0: 563a 3f3c 47a3 2f3c c6a3 063d 7a06 c5bb
00000100: a589 07bc 1775 debb 6e67 293b 9540 50bb
00000110: b232 8fbb bc1c bdbb a28d 2a3c 8ce2 11ba
00000120: 255b 4a3c 95b7 873c ba0b 1dba a4bf feba
00000130: 8d3a 17bc e611 07bc e5a9 a33b abde 6abb
00000140: 3c8d ba3a 1b98 553c e8a6 39bc e75c 90bb
00000150: b6a4 80bb 4041 0fbc eaa3 6aba 2f88 a33b
00000160: c504 97ba 1750 4b3a 4ded 1cbd fcd4 ab3c
00000170: d951 01bb 98be 843c e036 83ba 57c1 32bc
00000180: 668a 8abb 6e81 e739 41c8 1a3b 6053 153c
00000190: 0e8e 963c 5d53 a33a 7d39 823b 4856 16bb
000001a0: de2e 163b af70 b43b 8808 743c 7ecf 2ebc
000001b0: 0b68 953b 5a3e a23b 5943 863c bb7f 39ba
000001c0: c07f 363c f82b 3b3b d0e9 a93b 63a9 603b
000001d0: e3f5 97b9 7782 03bc 5f6d 36ba 8fe2 faba
000001e0: 6a6a 4f3c 9e6a 433b 31ba 023c d444 a0bb
000001f0: 7873 ce3b 8173 993b 8c1e 123b 353a 873b
00000200: 0c53 56b9 c27c ccbb 39f4 14bb 8e91 10bb
00000210: 2dd9 403c 1e6a 22bc 9c93 a63a 6471 5a3c
00000220: 4544 79bb 61cc 37bb 9a74 253c 46d3 303b
00000230: 9798 d03b 039c 28bb 5a64 b4ba 7bb4 8d3c
00000240: c2b1 8f3a 5eb8 0639 d336 d43b 9778 ea3b
00000250: b6ee 3bbb 1a3c d4ba eed1 0dbc bdf8 88bb
00000260: 3bd5 6f3b 9311 eabb 41cb b83b 29ce 053c
00000270: 69c0 d739 6f4a 7ebc 05f1 cdbb 3dfc 913a
00000280: 2343 6c3c ea77 d53b fb97 8539 0854 123c
00000290: 0735 9939 c41c 243b c095 a23b 2d17 2d3c
000002a0: 00f1 653c b2fd 6d3c 2d06 0e3a 1bea bdba
000002b0: 9c22 8f3b 6fa0 cfbb 431d d7ba 7fd3 9739
000002c0: db7c 7d3b 30dc 6b3c c610 cabb f730 22bb
000002d0: 5d21 0cbb 5948 ddba 6d01 de3b 684b 923a
000002e0: cb9e f83a 995e 5ebc a664 97ba bcb5 2d3c
000002f0: 31e6 483c d23e de3b 14c9 d93c a22f 6a3b
00000300: 4b4b ad3b 19dc 18bb c230 82bc e21b 003b
00000310: eefe 1fbc b9d1 98bb 3d51 103c c688 4fbb
00000320: f634 f23a 7b2d e83a 9f29 46bb f44f 0a3b
00000330: f105 15bb 85df 2b3b c735 323c 3145 7138
00000340: 51b8 eb3a b817 cb3b ea79 aeb9 8f04 cfbb
00000350: 7385 183b 41f9 98ba 286b 42bc 3b0c 14bc
00000360: abb2 733a e8d5 ffbb 90f9 1e3b e88e d13c
00000370: 3017 c3ba 9573 5d3c aa9a 8dbc 63e5 2d3b
00000380: 8191 8dbc 8147 b23b 4f34 a2bc 6eef 0f3c
00000390: 0d4f f83b e4e4 e1bb 3ff8 21bc 3b7c 643c
000003a0: 6792 df38 24ad 0fbb e3e0 87bc 38d8 2ebc
000003b0: 0efa 27bc 1041 adbc 6c45 533a 63e0 ac3b
000003c0: dc86 68bc 2610 2a3c d134 9b3b 55a8 40bc
000003d0: f0f3 ecbb c188 2dbb 36d7 ce3b ec82 fdba
000003e0: c6d4 41bb 1864 e9bb 47e1 b83a 683b 403b
000003f0: 90bf f33b a477 593c 6172 5e3c 88e3 a13b
0.0036829973 -0.0014020902 -0.0017855699 0.006637939 0.0059803245 0.0058243265 -0.0035824927 0.012906001
0.0015022982 0.0067450353 0.014607229 0.0072145676 0.0050791996 0.0011386739 0.007853713 0.0076089734
0.009176132 -0.0017152244 -0.0027843495 0.0047261706 -0.012778269 -7.121137e-06 -0.0017325963 -0.00026038013
0.000746032 -0.004531719 0.010000015 0.0068487413 -0.013430556 -0.005631019 -0.003854276 0.0042008418
0.009154881 -0.006632987 0.002390947 0.016276969 0.006608623 0.016296854 -0.0018034506 0.010098749
0.008370326 0.0002171419 0.017702965 -0.0052675493 -0.0066365306 7.556149e-05 0.00553932 -0.0196767
0.0058756997 0.013919932 -0.001173469 0.0030741747 0.0012538453 -0.0111124255 -0.004317366 0.0039104084
0.00017985885 0.0040198616 -0.006959411 -0.008799778 0.011671623 0.010720081 0.03287103 -0.006012735
-0.008272563 -0.0067888605 0.0025849002 -0.0031776775 -0.004370057 -0.0057712477 0.010409744 -0.0005565069
0.012350832 0.01656703 -0.0005990822 -0.0019435775 -0.009230268 -0.008244013 0.0049946182 -0.0035838287
0.0014232765 0.013036753 -0.011331297 -0.004405606 -0.003925885 -0.008743584 -0.00089508167 0.0049905996
-0.0011521807 0.000775577 -0.038312245 0.020975582 -0.0019732623 0.016204163 -0.0010010861 -0.010910354
-0.004227924 0.00044156186 0.0023617896 0.009114116 0.018378284 0.0012460757 0.0039741383 -0.0022939611
0.0022916119 0.005506597 0.014894612 -0.010669587 0.004559522 0.0049512805 0.016389536 -0.0007076223
0.011138856 0.0028560143 0.0051853433 0.003428065 -0.00028984164 -0.008026711 -0.00069590466 -0.0019141006
0.012659648 0.0029818187 0.007978962 -0.0048910175 0.006300386 0.0046829586 0.002229604 0.004126812
-0.00020439568 -0.006240458 -0.0022728576 -0.0022059414 0.011770529 -0.009912996 0.0012708786 0.0133326985
-0.0038035077 -0.0028045403 0.010098601 0.0026981398 0.0063658464 -0.0025727756 -0.0013762817 0.017297974
0.001096301 0.00012847918 0.006476262 0.0071554887 -0.0028676218 -0.0016192228 -0.008656008 -0.0041800425
0.00365956 -0.0071432083 0.005639464 0.008166828 0.00041151352 -0.015520676 -0.0062848353 0.0011137795
0.0144203035 0.006514539 0.0002548097 0.008931167 0.00029221943 0.002504156 0.0049616992 0.010564608
0.01403451 0.014525818 0.00054177904 -0.0014489325 0.0043681394 -0.006336264 -0.0016411919 0.0002895854
0.0038679156 0.0143957585 -0.0061665503 -0.0024748424 -0.002138219 -0.0016882523 0.0067750723 0.0011161389
0.0018968222 -0.0135723585 -0.0011550381 0.010602411 0.012261913 0.006782391 0.02658514 0.0035733958
0.0052885166 -0.0023324548 -0.01589239 0.001954787 -0.00976537 -0.0046636728 0.008808431 -0.0031667217
0.0018478918 0.001771375 -0.003023721 0.0021104785 -0.0022739137 0.0026225757 0.010877079 5.7523317e-05
0.0017984008 0.006197896 -0.000332787 -0.006317682 0.0023272901 -0.0011670963 -0.011866368 -0.009036119
0.0009296338 -0.007807482 0.0024257638 0.025580838 -0.001488423 0.013516326 -0.017285664 0.002653443
-0.017281296 0.005440653 -0.019800333 0.008785112 0.007577783 -0.006893741 -0.009885847 0.0139456345
0.00010660738 -0.0021923268 -0.016586727 -0.010671668 -0.010252489 -0.021149188 0.0008059356 0.0052757724
-0.014192309 0.010379827 0.004736521 -0.0117588835 -0.007231228 -0.0026479217 0.0063122762 -0.0019341386
-0.0029576286 -0.007122528 0.0014105224 0.0029332284 0.0074386075 0.013273153 0.013577075 0.004940454

action_model._continuous_distribution.log_sigma f4 [1, 3]
00000000: 8707 6cbc 0040 a1bc e207 0dbd
-0.0144060915 -0.019683838 -0.034431346

action_model._continuous_distribution.mu.bias f4 [3]
00000000: 90fb 033c 5479 f2ba 67ed 82bc
0.008055583 -0.0018499293 -0.015982343

action_model._continuous_distribution.mu.weight f4 [3, 128]
00000000: 8f7c 873c fafe ac3b 2b24 243d 7d6f 863b
00000010: e0b3 0ebc 41de 8b3c 03b5 a7bc b925 0fbc
00000020: edd0 7bbc 5087 cabb f345 b5bc a6f8 4ebc
00000030: 5d31 3abc 9515 87bc 4f7d f93b 5619 a3bc
00000040: 032a 283c 84b5 043c 9f90 02bd 7ec4 3b3d
00000050: 4ca2 fa3b 4f88 ebbc a0b8 8abc a03c 1a3c
00000060: 55aa 22bc 2ea0 1bbd ede8 db3b 6263 83bc
00000070: c7a8 ed3c dfe3 c7ba bbf0 10bc 3310 d83a
00000080: 82b3 1dbc 99ec 4fbd ae6b 1dbd 0b7c b03c
00000090: 905f ca3c c4f4 0ebc 375c 403d 3929 0f3d
000000a0: 28c5 da3c d173 153d 10d1 61bd fd27 24bd
000000b0: d1c1 70bc 56b9 97bc e45b aa3c 3940 5d3c
000000c0: 5d55 b0bc c94f d6bb c8b3 663c 3b59 5cbc
000000d0: 517a 6b3a 3fe3 d7bc ece9 353c fbd7 7fbc
000000e0: df4f cebb db95 9bbb 3ff9 03bd 57a5 273d
000000f0: 2b17 23bd 1dbf 96bc 7121 963d dc34 873c
00000100: 1fa0 793c a66c 593c 9a44 51bd dc6e debb
00000110: afd5 963b f325 34bd 4ea2 423c 26fc 53bc
00000120: 3375 003c 5908 343c 5b28 b63c 92b0 043c
00000130: 7dea 7cbc 03ee aa3c ed0e ad3c 3806 15bd
00000140: 0247 903c 593c b23c 6216 683c 49d6 e9bc
00000150: 9ddf 41bb 3172 0dbc 1c28 a23c 38fb 27bc
00000160: c947 05bd 74bd bfbc 0c4b 38bc f648 143d
00000170: f931 a33c d73b 043b 1951 b1ba ca22 8abb
00000180: 1c37 febc 170b a9bc 027a fa3c a67c c0ba
00000190: b535 193c e4f5 493b 6028 3bbd cc1e ef3c
000001a0: 8874 df3c f2e1 2e3d 05be cdbc 310c 3fbc
000001b0: a747 5dbc 18fe d4bb 764e a23b 424d d53c
000001c0: 6a2d cc3c f2bf 34bc c308 80b9 00f3 923c
000001d0: c79e 413c 5681 cfbc b15d 58bc 8eb6 8e3b
000001e0: 38e7 e43a 05e1 4f3c e24b bbbc 54e7 533c
000001f0: 4b2c b33c ce04 30bb adb5 89bd 1d83 5f3b
00000200: 0e87 12bc 727f 24bc 7550 903c a54f 0cbd
00000210: 968e 43bc 68dd 06bc 3e28 5fba c185 50bc
00000220: 436a f23c dd18 9abb b112 b5bc b2de fe3b
00000230: 7c59 233d e132 87bc 496c e83c 2217 5c3c
00000240: 30c3 903c aa8b eb3a 0541 c43c 607f c8bb
00000250: 9ebd 163d df1f 183d 981c 03bc 796b b03a
00000260: c887 03bd 723f b6bb 68a9 993c 50f2 a03a
00000270: e048 ec3c de55 823c 0788 f43c 0aec c93b
00000280: 798b 903b 2b28 91bc 5f05 85bc 99ec 113d
00000290: 40c2 e4bc a893 053d 808b f03b 3cf5 cdbb
000002a0: 836b 273c 1b7e cabc c9d2 e63c e3ad ccbc
000002b0: 0fd6 f9bc a063 d5bc 7142 543d 2b7f f53c
000002c0: 942f c73c ffc6 553c 674c c0bb 908d 663b
000002d0: 0d89 c43c b220 e4bc 1620 bebc c462 61bb
000002e0: f780 b93c f2a4 f5bb 681c 5e3d b68c b63c
000002f0: 08e9 0a3c d35b 073d 9f31 a93c 2b93 abbc
00000300: 2176 9abb fc8c 553b 9433 56bc f374 46bb
00000310: c18f 97bc c5e5 46bb 8a36 f93c b5ee aab9
00000320: df37 31bb 61cc 6b3d 829a c5bc 9d11 a6bc
00000330: 964b 06bd 2d00 eabc aab4 36bd 8902 f23c
00000340: 004e 6bbc d384 87bc 63cd e6bc cb17 aabc
00000350: 91e2 9bbc 3ebf 62bc 5eb3 633c 9eeb 463b
00000360: 0e81 72bb b8bd 80bc fd1e 87bb 81db 6dbd
00000370: 527f 70bc e166 d63b c009 403c 45bd 0dbd
00000380: 2168 e0bb 0eb3 6f3c 7b8c adbb 6b23 b33c
00000390: d12f 933b 8f15 4bbc dae4 e1bc 5c0f 8cbc
000003a0: 92fc 0a3d 2f62 13bc f9ab 663c 9453 9ebb
000003b0: 2949 103c 18a9 18bd 184a bfbc 199e d53c
000003c0: 194e 81bc 2517 5038 cbf4 b8ba 29ef 9fbb
000003d0: 0e2f 923c 6963 e23c 33e0 3a3d 7022 6dbc
000003e0: 5677 313d 95e9 a23c 6580 993a 00cd 24bd
000003f0: 3d6e 10bd b6c4 0f3c 00aa 4fbd 06d8 63bd
0.016538886 0.005279419 0.040073555 0.004102646 -0.008709878 0.017073752 -0.020472055 -0.008737021
-0.015369636 -0.0061806813 -0.022128081 -0.012632525 -0.011364308 -0.016489783 0.007613815 -0.019909542
0.010263923 0.008099917 -0.031876203 0.045841686 0.007648742 -0.02875152 -0.01693374 0.009413868
-0.009928306 -0.037994556 0.0067111165 -0.0160386 0.029011143 -0.0015250406 -0.008846457 0.001648432
-0.0096253175 -0.050762746 -0.03843277 0.021543523 0.02470377 -0.008725349 0.046962943 0.034951422
0.02670534 0.036487404 -0.05513102 -0.0400772 -0.014694647 -0.018520992 0.02079577 0.013504081
-0.02152508 -0.006540273 0.014080949 -0.013449009 0.0008982765 -0.026353477 0.011103135 -0.015615459
-0.0062961425 -0.004748089 -0.03222012 0.040929165 -0.039817017 -0.018401677 0.07330597 0.016504698
0.01523593 0.013270533 -0.051090814 -0.006788118 0.00460311 -0.043981504 0.011879517 -0.012938535
0.0078404425 0.010988318 0.02223604 0.008098738 -0.015436766 0.020865446 0.021125281 -0.036382884
0.017611984 0.021757292 0.014165493 -0.028544562 -0.0029582747 -0.008633182 0.019794516 -0.010252766
-0.032539163 -0.023405768 -0.011248361 0.036202393 0.01992129 0.002017727 -0.0013528197 -0.004215573
-0.031032138 -0.02063517 0.030575756 -0.0014685586 0.009351184 0.0030816728 -0.0456928 0.02918949
0.027277246 0.042695947 -0.025115022 -0.0116606215 -0.013505853 -0.006500017 0.004953201 0.026037816
0.024923999 -0.011032091 -0.0002442059 0.017938137 0.011817641 -0.025330227 -0.0132059315 0.0043552583
0.0017463928 0.012687926 -0.022863332 0.012933571 0.021871706 -0.0026858333 -0.06724105 0.003410525
-0.008943332 -0.010040151 0.01761649 -0.034255642 -0.011935851 -0.008231498 -0.00085127715 -0.012727202
0.029591685 -0.004702671 -0.02210364 0.007778012 0.03988026 -0.016503753 0.028371947 0.01343325
0.017671198 0.00179707 0.023956785 -0.0061187 0.036801927 0.03713977 -0.008002423 0.0013459764
-0.032111913 -0.0055617625 0.018757537 0.0012279246 0.028843343 0.015910085 0.02985002 0.0061621713
0.0044111577 -0.017719349 -0.016237913 0.035626028 -0.027924657 0.03261152 0.0073408484 -0.0062853377
0.010218504 -0.024718335 0.028176682 -0.02498526 -0.030497579 -0.026048481 0.051821176 0.029967865
0.02431468 0.013047933 -0.005868483 0.0035179593 0.023991132 -0.027847622 -0.02320866 -0.0034391144
0.022644503 -0.0074964697 0.05422631 0.022283893 0.008478411 0.033046555 0.020653544 -0.020944199
-0.004713789 0.0032585254 -0.013073821 -0.003028211 -0.018501164 -0.0030349356 0.030421514 -0.00032602777
-0.0027041358 0.057567958 -0.024121527 -0.02027207 -0.032786928 -0.028564537 -0.04460589 0.029542224
-0.014361858 -0.016542828 -0.028174108 -0.020763298 -0.019028934 -0.013839541 0.013897745 0.003035284
-0.0037003192 -0.015715465 -0.004123567 -0.058070663 -0.014678793 0.006543026 0.011721075 -0.03460433
-0.0068483506 0.014630092 -0.0052962876 0.021867475 0.004491784 -0.012395277 -0.027574945 -0.017097168
0.033932276 -0.008995577 0.014079087 -0.0048317406 0.008806505 -0.037270635 -0.02335076 0.026076363
-0.01578431 4.961262e-05 -0.001411104 -0.004880805 0.017844703 0.027635293 0.04562397 -0.014473543
0.0433267 0.019886771 0.0011711238 -0.040234566 -0.03526138 0.008774927 -0.050699234 -0.055625938

network_body._body_endoder.seq_layers.0.bias f4 [128]
00000000: 1eaf 26bc 325c adbb 678e 61ba 2271 15bb
00000010: 6dd5 6c3b aff1 1bbc b992 e3bb ace2 b8bb
00000020: d6ec 1ebc 4378 50bc cfa8 4ab9 9e14 c53b
00000030: 6627 ed3b e801 c73c ffcc 39b8 8a18 eeb8
00000040: 3d3e c5bb 1ea3 f33c ac8c 89bb 1d9c c1b9
00000050: 7ac5 96ba c23b b43a 80f3 b73a 321e e1bb
00000060: f099 7e3c b225 0cbc 69db 5e3c 99a0 413c
00000070: 7d89 953c b321 da3a 4cb0 823b 2cba 25bb
00000080: b91d d63b 3a9d 2f3a 3178 bdb9 cbc7 913a
00000090: 86c6 76bb e90f 44bc 5638 153c d9fc 1abb
000000a0: 7151 06bb be9b 893c 5d36 93bb 65c5 633b
000000b0: 0866 583b 908e 25bc 7c11 91ba fe35 d5bb
000000c0: e083 6ebb d7ab 16bc b9be 51bb c3e7 d9bb
000000d0: 1002 993c 3b54 dbba 5eb1 debb 443d 1e3b
000000e0: 9d61 0db9 27bf 77bb 5eff 7bbb 7c5c 78bc
000000f0: 2377 e4bb cec2 9e3c db43 e9b9 c803 7439
00000100: 4219 ca3b da37 06bc 39f3 0ebc 4fdd 403c
00000110: de73 5eba d39f af3b 188f 52bb b299 2ebc
00000120: b42b 0839 88e1 8ebc f99c 373c b907 2f3b
00000130: 1940 2b3c 34ad 81bc edd8 77ba 5cdf 653b
00000140: 0c94 f5bb e6a3 0e3b e4eb a93b 91fd fc3a
00000150: 8188 b0bb bb74 943b 6888 3abc f50f 8fbb
00000160: d459 bc3c 3cef a23b 79ba c5bb 68bb 663b
00000170: 0f9c 803b d106 fa3a 8f9b 17b9 a200 2b3c
00000180: 8748 753b 2056 34bc df4b 75bb 2c0c 473c
00000190: 85fe 733b 39cb 2cbb aaf7 143b a4fb b33a
000001a0: 8bad 13b9 0b8e 3d3c 3434 9abb aa44 4abc
000001b0: 5991 413b 39ee a6bb eb83 9b39 512a aabb
000001c0: 5f6c 913b 26f4 babc 76de ad3b 75c9 243c
000001d0: 2c9b fc3b bbd8 cbbb fe99 a03b 2ef9 56bb
000001e0: 4f71 8639 71d5 30bc 9335 5fbb e44d 4b3b
000001f0: 007a 893c fa3b 03bc 8956 443c 10ab 263a
-0.010173587 -0.0052905316 -0.00086042885 -0.0022803028 0.0036137954 -0.009518071 -0.006944981 -0.005642256
-0.009700021 -0.012723985 -0.00019327107 0.0060144207 0.0072373627 0.024292901 -4.4298355e-05 -0.00011353295
-0.0060193823 0.029740866 -0.0041976776 -0.00036928142 -0.0011502944 0.0013750719 0.0014034361 -0.0068700546
0.015539631 -0.008553909 0.013602116 0.011818075 0.018254036 0.0016642123 0.0039883014 -0.002528797
0.006534305 0.0006699149 -0.0003613844 0.0011122165 -0.003765495 -0.011966684 0.00910767 -0.0023649244
-0.002049532 0.016797896 -0.0044925646 0.0034755107 0.00330198 -0.01010479 -0.0011067833 -0.0065066805
-0.0036394522 -0.009196243 -0.0032004549 -0.0066499426 0.018677741 -0.0016733477 -0.006796046 0.0024145404
-0.00013483172 -0.0037803145 -0.0038451771 -0.015158769 -0.00697221 0.01938 -0.0004449178 0.00023271062
0.0061675617 -0.008192027 -0.008724981 0.011771514 -0.00084858935 0.0053596287 -0.0032128748 -0.010656761
0.00012986251 -0.017441526 0.011206859 0.0026707484 0.010452294 -0.01582966 -0.00094546267 0.003507576
-0.007494455 0.0021765172 0.005185591 0.0019301643 -0.0053873663 0.004530517 -0.011385061 -0.004365916
0.022992052 0.0049723666 -0.006034192 0.0035206918 0.0039248536 0.0019075518 -0.00014458432 0.010437163
0.0037427263 -0.011006862 -0.0037429256 0.012148898 0.0037230563 -0.0026366247 0.0022730627 0.0013731611
-0.00014083662 0.01156951 -0.00470593 -0.012345472 0.0029536097 -0.0050943163 0.0002966219 -0.005193033
0.0044379677 -0.022821497 0.0053060604 0.010057797 0.0077089276 -0.0062209046 0.00490117 -0.0032802331
0.00025642893 -0.010793076 -0.0034059032 0.0031021768 0.016781807 -0.008009905 0.011983522 0.0006357888

network_body._body_endoder.seq_layers.0.weight f4 [128, 65]
00000000: 7b1d ea3d b205 21bd 8904 29bd 2368 5ebe
00000010: 89f3 643d 5bf1 5d3c e177 afbd cc31 72bd
00000020: 2d61 82bd 53fb 1fbd 3b79 06be be6b 173d
00000030: 5b7d afbd 4fc4 5ebe 15ae 7b3c eb77 efbd
00000040: e43f 153d 1a88 ce3d e205 84bd 0105 503d
00000050: a06a a03c ad30 6ebe 82f0 47bd ebf4 9b3d
00000060: cf34 abbd fe79 e5bd 7e9a fdbd a9e6 ac3d
00000070: 9ca6 79bd 0839 cf3d 7fbc a6bd 60b5 3c3e
00000080: 924e 293d 1b3d 37be 9a1c b8bc 83ea 3f3e
00000090: 3cb3 763d 3707 0bbe 7951 0d3e dd4d a13d
000000a0: a231 99bd e7f9 a03e 4cd8 e9bd c678 343d
000000b0: fb5a aa3a f2f7 143d 3288 d2bc c4bc 9cbd
000000c0: f379 013e 86fd 7ebe fafb 5c3e 6970 cb3d
000000d0: 9c59 223d d007 03be 2200 ca3d 43a7 183e
000000e0: 65c7 823e 5fb3 013e 790b 9c3a 1a29 0bbc
000000f0: 9178 3d3e cbac 24bd 9d2f f13c d8cb e83d
00000100: d4c8 a23c f1b9 9fbe 0233 63bd 4aba 83be
00000110: 8ed3 cbbd 12df 473e a13c d13d 43b3 6a3e
00000120: 7f6b 103c 551c 883e d9f7 1d3e 0242 adbd
00000130: f484 07bd f98d 30be 5c47 043e 4547 463c
00000140: 2534 6e3e 7315 60be 115d 653b 0a99 f53d
00000150: de4c 32be e450 13be 8043 e5bd 3368 9a3d
00000160: dd99 c63d de10 ed3d 8654 20be 069b 6dbc
00000170: dc0a f0bb fe63 423d fbd2 efbc 93a2 7cbd
00000180: f03f fb3c d506 32be 352d 43be 9578 b1bb
00000190: 04ef 68be 26ad 80bd 85e3 e1bd 1dab f5bc
000001a0: 9a90 5bbe 5524 b1bc ccbd c83e 8dc6 26bd
000001b0: add5 6f3a db8e 9b3e 5dcb 3a3e c42f 3f3d
000001c0: b18a e1bd ce66 9ebc 7bb5 e1bd e9a2 c13d
000001d0: 726f 61be eda6 a1bd 3ddb e33c ba97 16be
000001e0: c489 1b3c 966e 71be cf90 d9bd f441 483d
000001f0: c10f 6abe 83e0 d4bd 638e 30be 3c83 253d
00000200: bfc3 b33d 5ec2 2abe a1a8 9c3d b659 0f3e
00000210: b2e7 753d 6bab 83bd 8829 d2bd 3c1a 21be
00000220: d4de 1ebd 5493 12bd 8e3d 81bd c330 4dbd
00000230: ff29 e53c 6f0c 2ebe d419 a43d 59f3 2cbc
00000240: 4c7e 1c3e 4c6a 803d cc41 5b3e c054 fa3d
00000250: 934f 4abd a27e e83d ba40 f03d c2e6 47ba
00000260: c92c a7bc 9cba de3d a3bb 013e f629 953c
00000270: 07a8 2abd e33f 40bd 30bd cebc 451c 093e
00000280: e938 6f3d af43 d2bc 1359 92bd 97e7 43bd
00000290: b182 8c3e be4d 3b3d 3686 23be fd64 d73d
000002a0: 4143 d3bd ed07 bfbd a192 673b 60b5 783e
000002b0: 5fed 423e fb77 c7bb 87d1 613d 85c2 65be
000002c0: b293 bbbc 2b6e c9bc ca91 e33d 9f06 90be
000002d0: f87f 14bb 94b5 8bbb 154d d3bd 1318 babc
000002e0: de32 293d 410a 543e a892 c63d a113 2ebc
000002f0: 9e47 0bbe 7a24 ea3d dc0a 27be 6ec1 1bbd
00000300: b143 103e 8de4 6e3d 1496 adbd f8b4 d63c
00000310: 0f53 0dbd 3d79 2c3e 4b54 6a3e b087 083d
00000320: 5c33 6f3d 456d 1e3e 19c8 883a a44c 5cbd
00000330: 4a8d 193e d20b 61be 5cd6 3d3d 3968 673d
00000340: e53d 51bd 3151 49be 2abf 483c 95b6 77bd
00000350: a26f 48bd 5f40 c73c ce0c 2a3e 7096 cfbd
00000360: b13f 57be a1e5 fcbc 3ac0 543d 6b36 61bc
00000370: 2951 313e 678a 97bc ff3b b43c 1201 88bd
00000380: ead2 57bd 1a58 053e 0227 1fbe 025b 2a3c
00000390: b2d7 7bbd 88ac 29be 5d7b c73c f789 9b3d
000003a0: cbc0 8ebd cd51 e5ba 0e41 863d 1ed4 603d
000003b0: 9e62 01be 7bfd 04bd 911f e7bd b35d 883d
000003c0: 1df3 9e3d a14d ecbd 33a5 d43d fa0e 333e
000003d0: c0a1 dfbd a8f6 42be 3062 4f3e bf9a 4fbe
000003e0: f162 abbd 5824 85bd aa41 6ebd 4cc6 e9bc
000003f0: 591a f3bd 5d16 b0be 159f c73c bbb4 213d
0.11431404 -0.039312072 -0.04126409 -0.21719413 0.055896316 0.013546313 -0.08567787 -0.05912952
-0.06366191 -0.03905804 -0.13132183 0.036967985 -0.085688315 -0.21754573 0.015361329 -0.116927944
0.036437884 0.10084553 -0.064464346 0.050786022 0.019582093 -0.23260756 -0.04881335 0.07615074
-0.08359682 -0.11204909 -0.12382983 0.084424324 -0.060949907 0.101183 -0.081414215 0.18428564
0.041334696 -0.17894404 -0.022474576 0.18741803 0.060229525 -0.13576971 0.1380061 0.07876179
-0.0748017 0.3144066 -0.114182085 0.04406049 0.0012997085 0.03636927 -0.025699709 -0.07653192
0.12644176 -0.24901399 0.21580496 0.0993355 0.03963624 -0.12795949 0.098633066 0.14907555
0.2554275 0.12666081 0.0011905275 -0.008493686 0.18503024 -0.04020385 0.02944165 0.11367005
0.019871153 -0.3119655 -0.055468567 -0.25728065 -0.0995246 0.19518688 0.10216642 0.22919945
0.008814692 0.26584116 0.15426578 -0.084598556 -0.03308578 -0.17241658 0.12917846 0.012101953
0.23262079 -0.21883182 0.00349981 0.119920805 -0.17412135 -0.14386326 -0.11194515 0.07539406
0.09697316 0.11575483 -0.15657243 -0.0145022925 -0.0073255133 0.04745864 -0.029275408 -0.06167848
0.030670136 -0.17385419 -0.19060214 -0.005415986 -0.22747427 -0.062830254 -0.11029724 -0.02998882
-0.2144188 -0.02162377 0.39207304 -0.040716697 0.00091489666 0.30382428 0.1824164 0.046676412
-0.110127814 -0.01933613 -0.11020943 0.09454901 -0.2201517 -0.07893167 0.027814502 -0.14706317
0.009493295 -0.23577341 -0.10623323 0.048891023 -0.22857572 -0.10394385 -0.17241816 0.040408358
0.0877757 -0.16675708 0.07649351 0.13999066 0.060035415 -0.0642918 -0.10261828 -0.15732664
-0.038786724 -0.035785034 -0.06310569 -0.05009533 0.027974127 -0.1699693 0.08012739 -0.0105560655
0.15282553 0.062702745 0.21411818 0.12223196 -0.049392294 0.11352278 0.117310956 -0.0007625633
-0.020407097 0.10875437 0.12669234 0.018208485 -0.04166415 -0.046935927 -0.025236696 0.1338969
0.058403883 -0.02566704 -0.07145896 -0.047828283 0.2744346 0.045728438 -0.15969166 0.10517309
-0.10315562 -0.093276836 0.00353352 0.24287939 0.19035862 -0.006087301 0.05513146 -0.22437485
-0.022897575 -0.024588665 0.111117914 -0.28130051 -0.0022659283 -0.004263589 -0.103174366 -0.022716558
0.041308276 0.20707037 0.09695941 -0.010624797 -0.13601539 0.114327386 -0.16312736 -0.038026266
0.14088322 0.05832343 -0.08475891 0.02620934 -0.03450304 0.16843124 0.22883718 0.033332527
0.05839859 0.1547137 0.001043561 -0.053784028 0.14995304 -0.21977165 0.046347007 0.05649588
-0.051084418 -0.19659878 0.012252608 -0.06047686 -0.048934586 0.024322687 0.16606447 -0.101361156
-0.2102039 -0.030871214 0.051941134 -0.013745884 0.17316116 -0.018498613 0.022001265 -0.06640829
-0.052691378 0.1302189 -0.15542224 0.0103976745 -0.061485 -0.16569722 0.024350816 0.07594674
-0.06970366 -0.0017495692 0.06555377 0.05488979 -0.12635276 -0.0324683 -0.11285318 0.06658497
0.07761214 -0.11538244 0.10383072 0.17486182 -0.10919523 -0.19039404 0.202523 -0.20273875
-0.08368481 -0.06501073 -0.05816809 -0.028536938 -0.1187026 -0.34392062 0.024367848 0.039479

network_body._body_endoder.seq_layers.2.bias f4 [128]
00000000: a7c1 8a3c 3789 c93b 0629 0e3a 8f6c 203c
00000010: 9738 1bbb 38d5 adbb 5c7f 23bc 6971 a0ba
00000020: 0726 a33b 91b0 05bb 4b9e 88bb f783 9bbb
00000030: 8bcf 953b 1b5c a039 19d8 66bb ceb6 bcbb
00000040: 4f95 2dbb 1396 72bb 1ab5 c2bb ba34 233b
00000050: 334c 563b eb00 8b3a 37fd beba ed46 c63a
00000060: c3df 2fbc d261 333b ee14 203c 3f49 8a3b
00000070: 1fca d0b9 c3b3 2dbc 30c5 5ebb b2a4 ecbb
00000080: 01d7 a5bb c034 283c fb77 82bb 7402 c9bb
00000090: 14ed c339 0cf5 70bb bb10 f3ba 52ce b73a
000000a0: f9c6 153b 9a3b 26bc 4f37 03bc 84a1 583a
000000b0: 3baf 9e3a b6dc 58bc 5610 ec39 b7da 353c
000000c0: 1a5d 34bc 3352 1d3c 45dc c9bb d503 0ebc
000000d0: 75ae 7f3c 2b04 03bc b715 2aba b7c3 43bb
000000e0: 9a09 7ebb 24ac 23bb 78f1 693b 7c40 15bc
000000f0: fcd2 d9ba d4f7 32bb 2ef3 8fbb 1208 aeb8
00000100: dee8 1eba b49e 5eba 66f0 c6bb 7cb8 a23a
00000110: 87fa a8bb 80e6 c0bb b38f b93c 27d3 b5bb
00000120: 7f0b 743c 1a81 50ba 3637 f9bb e886 53bb
00000130: 63a0 76bb 5038 40bc cf67 08ba e2c2 1cbc
00000140: ebf0 6b3c c294 163c 8014 67bc ff46 803a
00000150: f9f0 e339 1603 17bc 9f2d 62b9 1c13 773c
00000160: 0ba5 a93b ef31 10bc 2791 133b 2d53 9cbb
00000170: daaa 023c c4f5 fab9 974f a23b 40fe 49bc
00000180: 903d 9438 7b62 573b f14b 08bc 8df9 08bb
00000190: 011e c9bb ac4d 86bb 2eba 58bb a631 cc3b
000001a0: e6aa 123c 0a6a 15bc d067 0839 e876 4f3b
000001b0: f2e2 aebc d564 903a 1934 d03c f797 373c
000001c0: 217d 2e3c 8cb9 cd3a 6f92 553c afd5 ddbb
000001d0: dca1 66ba ce1f 523b 9899 a2bb f75a 9dbb
000001e0: 8043 d2bb f83c 273c 813f 91bb e8c7 98bb
000001f0: 4f0b 623c 79e7 d9bb 3d81 4ebb 0f89 0ebc
0.016938044 0.0061503905 0.0005422983 0.009791507 -0.0023684853 -0.0053049587 -0.009979095 -0.001224083
0.0049788984 -0.0020399431 -0.0041692606 -0.004745956 0.00457186 0.00030586202 -0.003522402 -0.0057590967
-0.00264867 -0.003701572 -0.005941999 0.0024903254 0.0032699227 0.0010605132 -0.0014571314 0.0015127339
-0.010734501 0.0027371538 0.009770615 0.0042201574 -0.00039823444 -0.010601941 -0.0033992045 -0.0072217816
-0.005061031 0.010266483 -0.003981588 -0.0061343256 0.00037369935 -0.0036767153 -0.0018544415 0.001402328
0.0022854193 -0.010146046 -0.008008792 0.0008263814 0.0012106666 -0.013236215 0.000450256 0.011099509
-0.011008525 0.009602117 -0.0061602914 -0.008667906 0.015605559 -0.007996599 -0.0006488221 -0.0029871294
-0.0038763047 -0.002497443 0.0035696905 -0.009109613 -0.0016618664 -0.0027308362 -0.004393003 -8.29847e-05
-0.00060619216 -0.00084922765 -0.006071138 0.00124146 -0.0051568183 -0.0058868527 0.022651529 -0.005548853
0.014895319 -0.0007953808 -0.0076054586 -0.0032276455 -0.003763222 -0.011732176 -0.0005203457 -0.009567948
0.014400701 0.00919074 -0.014104009 0.0009786783 0.00043476353 -0.009217044 -0.00021570035 0.01508024
0.0051771454 -0.008800968 0.0022516937 -0.0047706575 0.0079753045 -0.00047866825 0.0049533355 -0.012328684
7.068657e-05 0.0032865095 -0.008318887 -0.0020900697 -0.00613761 -0.0040986147 -0.0033069956 0.0062315045
0.008951878 -0.00911952 0.00013008644 0.0031656567 -0.02134845 0.0011016378 0.025415467 0.011205665
0.01064995 0.0015695556 0.013035401 -0.006769858 -0.00087979226 0.0032062414 -0.0049621575 -0.0048021036
-0.006416738 0.010207407 -0.004432619 -0.0046625026 0.0137966415 -0.006649908 -0.0031510137 -0.0086996695

network_body._body_endoder.seq_layers.2.weight f4 [128, 128]
00000000: adf3 c4bc 39f3 02be 4e39 003e e630 a1bc
00000010: a772 583c 885e 9ebd 7ae5 2c3e 4686 f43c
00000020: 488b 943d 34e4 653e 657a ecbd 5a25 1a3d
00000030: c8d0 23bd 104f 41bc 5730 a2bd 2e29 72bd
00000040: a8ef 51bd 6ccd d6bc 2660 27be ca8c 013e
00000050: 0425 cc3c f2e9 b93d 880c 763d 2490 803d
00000060: b73b 1e3d 291c 42be 36d6 c43d e2fd f8bc
00000070: d3fd 43be f8a0 b0bd ab6a bcbd ae10 c03b
00000080: 0529 3dbe 0896 eb3d f9b6 b63d 180e 2bbe
00000090: d198 5bbd bc17 c5bd d0d5 d4bd 1aee 8bbb
000000a0: 54af d63d 18f7 90bc fbb2 a0bd f110 ce3d
000000b0: 58c8 253e 1a32 2fbc 059e be3d 0946 18bc
000000c0: 3d4d 12be df43 77bd 7397 fcbd 7720 80bd
000000d0: 627f 273e fc20 dfbd ff58 bebd e5e2 033c
000000e0: 16b2 18bd 0259 aa3c 3eee d2bc 8c59 a23c
000000f0: f9de 60bd 9916 323d d1f5 6c3e 3ced 183d
00000100: b2ef 353c 643e 78bd df8a 843d 92b9 0fbd
00000110: 365b 793c 82cb be3d 3be4 7d3e e92a e6bd
00000120: 9307 08be be02 3ebd 54de 933e ede3 153e
00000130: 4029 a4bd eef2 813d c318 78bc 9145 d739
00000140: 3413 f43b a036 3ebd 692e d63d c716 bfbd
00000150: 792f f3bd 669d 273d 697a f5bc b93b e5bd
00000160: 4f89 72bd 107d afbd 3729 5e3d bfef dbbd
00000170: 84c8 f23d b15b ea3c e9f5 5fbd 644a 9d3b
00000180: ce40 293c b9f6 353e b8f6 ff3b e761 683d
00000190: 4760 c5bd b17d 9f3c bdb2 023d 5b26 083d
000001a0: b66d 7cbd 58f2 a73d 6f22 813d f5e4 013e
000001b0: ffca 0ebd e926 a4bc 9330 79bd 9905 69bd
000001c0: 2546 a4bb 5b53 f4bd 2f75 70bc f556 1b3e
000001d0: 0380 6c3d 1b58 433d 4334 583d 370e e13d
000001e0: 4c9d 30bc c2be 6e3d f70a 0f3d 9375 22be
000001f0: a17c 953d 6919 473d 8a36 3dbd da6e e6bd
00000200: a395 143d 5ed9 ccbd 837b 98bd 59b4 773c
00000210: f1ec 753d 831c e8bd 3707 5a3c e58d a8bc
00000220: c066 773c 81fe f63d 408a 12be b1b8 bf3d
00000230: 0ffe 9c3d f142 f03d 4c46 24be f9ae 12be
00000240: 363d 62bd 84da 103d 245e 6cbd 3d6a d53d
00000250: eb33 8d3d 32e8 0a3e 2a63 b4bd 9b48 ad3d
00000260: f175 1d3d b5dd 1cbe ac81 94bd d4f4 6abb
00000270: 57ad f6bc 0903 b1bd 7630 143e 41f5 7a3d
00000280: 237c 023e 4b7a 2ebd ed96 463e db5e 123d
00000290: 795b b3bd 1eea 833d 3b1f ebbc 8c6d 3c3d
000002a0: 6d3f fa3d b8a1 4c3d 924d 603d 85b0 65bd
000002b0: c967 a93d b656 79bd 29e8 bc3c 531a 683d
000002c0: 46cc 0b3e cecd a33d 2869 783d 568e ed3d
000002d0: 1ed1 213e 0f16 033e 5f30 cd3d aa3f 583e
000002e0: 78dd 70bd 5c0b 1ebd 3145 d53d 225c 013d
000002f0: 6386 83bd 1895 bcbd 8ef8 a93c 84bb 6ebb
00000300: 7149 2cbd 10a4 cf3d 38e0 d93c 4c9f b23d
00000310: a945 e83d 63c7 903d f9ec 083e 183c 6c3d
00000320: dd60 933d 2098 8db9 1e53 85be 4cb1 dc3d
00000330: cf40 9e3a da72 0cbe fdb7 d8bc dc38 babc
00000340: c596 01bd d3f1 06bd 9eac 3fbd 0770 583b
00000350: 007b 193e 3561 af3d e71b 8dbe c61b 3bbe
00000360: b0dc 39bb 8614 ca3d 3c26 2d3e ad7f 413c
00000370: 0d61 f7bc db2c 3dbd 25b6 b83c f717 e13d
00000380: 8056 60be 93da c03b d080 efbd adfa acbd
00000390: 0c25 0d3d ca1d 1f3e 5586 32bc 9ee8 9d3d
000003a0: 5547 393e 8907 273e a489 21be 5950 cabc
000003b0: b1b8 0b3e 1727 9a3e 5741 913d a965 be3d
000003c0: 3781 89bd 7ef2 4e3b 36ba 05be 6bf4 3c3c
000003d0: 565a 803c cd67 2ebd 8b1b e2bd 7918 5b3d
000003e0: 8e04 f93b c53b 34be bea5 0bbd ac3f 88bd
000003f0: 91f7 8abc f1fd 813d df5a f5bd 9585 4bbc
-0.024041975 -0.12788095 0.1252186 -0.019676637 0.013210929 -0.07732874 0.16884413 0.029849183
0.07253128 0.22450334 -0.115467824 0.037633277 -0.03999403 -0.011798635 -0.07919376 -0.059121303
-0.051253945 -0.026221 -0.16345271 0.12651363 0.024919994 0.09077825 0.060070544 0.06277493
0.038631167 -0.18956055 0.0961117 -0.030394498 -0.19139795 -0.08624452 -0.09200033 0.0058613634
-0.18472679 0.115032256 0.08921618 -0.16704595 -0.053612534 -0.096236676 -0.10392344 -0.0042703273
0.1048266 -0.017695948 -0.07846638 0.10061825 0.16189706 -0.0106930975 0.093074836 -0.009294041
-0.14287277 -0.06036746 -0.12333574 -0.06256192 0.16357186 -0.10894963 -0.092943184 0.008049701
-0.03727921 0.020794395 -0.025748368 0.01981809 -0.054900143 0.043478582 0.23140647 0.03733562
0.011104511 -0.060606375 0.064718 -0.035089083 0.0152195 0.0931616 0.24794094 -0.11238653
-0.1328414 -0.046389334 0.2888056 0.14637728 -0.0801568 0.06345163 -0.015142622 0.00041059827
0.0074485783 -0.046438813 0.10458071 -0.09330516 -0.11874289 0.04092159 -0.029965596 -0.11193032
-0.05921298 -0.08568776 0.054238524 -0.10739087 0.118546516 0.028608175 -0.054677878 0.004800128
0.010330392 0.17769898 0.0078113936 0.056733992 -0.09637504 0.019469114 0.03190874 0.033239704
-0.061628066 0.0820052 0.06305396 0.12684996 -0.03486156 -0.020038085 -0.06083734 -0.056890104
-0.0050132447 -0.11929961 -0.014676376 0.1516989 0.05773927 0.047691446 0.052784216 0.109890394
-0.01077969 0.05828739 0.034922566 -0.15865164 0.07299162 0.048608217 -0.04619459 -0.11251612
0.036275517 -0.10002397 -0.07445433 0.015118682 0.060040418 -0.11333563 0.013307384 -0.020575473
0.015100181 0.120602615 -0.1431055 0.09361399 0.07665645 0.11731518 -0.16042441 -0.1432456
-0.055234157 0.035364643 -0.057706967 0.10420654 0.06894668 0.13565138 -0.088079765 0.08461114
0.038442556 -0.1531895 -0.072512954 -0.0035851495 -0.030111952 -0.08643157 0.14471611 0.06126905
0.12742667 -0.042597096 0.19393511 0.035734992 -0.087576814 0.06441139 -0.028701415 0.04600291
0.12219129 0.049958915 0.054761477 -0.056076545 0.082717486 -0.06087371 0.023059921 0.05666573
0.13652143 0.079982385 0.06064716 0.11599414 0.15802428 0.12801383 0.10018992 0.21118036
-0.05880496 -0.038585052 0.10413588 0.031582005 -0.064221166 -0.09208125 0.020748403 -0.0036427686
-0.042062227 0.10138714 0.026596174 0.0872179 0.113414116 0.0706928 0.13371648 0.057674497
0.071962096 -0.00027006958 -0.26039976 0.10776004 0.0012073758 -0.13715687 -0.02645492 -0.02273219
-0.031637926 -0.032945465 -0.04679548 0.0033025758 0.14988327 0.08563463 -0.2756035 -0.18272313
-0.00283603 0.09867196 0.16909117 0.011810225 -0.030197645 -0.046185356 0.02254779 0.10990899
-0.21907997 0.005885431 -0.11694491 -0.0844625 0.03445916 0.15538707 -0.010896285 0.07710384
0.18093617 0.16311468 -0.15775162 -0.024696516 0.13644673 0.30107948 0.07092541 0.09296734
-0.06714099 0.0031577642 -0.13059315 0.011532883 0.015668076 -0.04257946 -0.1104041 0.053490136
0.00759942 -0.17600925 -0.03409361 -0.066527694 -0.016963752 0.063472636 -0.11980223 -0.012421985
