Assets/results/MLDriver/MLDriver/MLDriver-36014.onnx (onnx, 632654 bytes, 10 tensors)

96 f4 [1, 512, 128]
-0.112288386 0.051012423 -0.007246698 -0.026200283 -0.05602198 0.0549671 -0.12684773 0.14036229
0.1276516 0.034957707 -0.02388274 -0.09110077 -0.15177412 -0.14684917 0.10916153 -0.079582505
0.07569037 -0.074608564 0.11237534 -0.13226789 0.0568236 0.012917582 0.14962883 -0.01692426
0.036127314 0.013308271 0.08442418 -0.111786135 -0.07369006 -0.039720885 0.037494548 -0.0728345
0.058506444 0.068227835 0.12948245 0.08809475 -0.11750792 -0.083716616 0.053466097 -0.03847871
0.03277353 0.13454446 -0.09222927 -0.05724087 -0.06720965 0.14266662 -0.12764 0.070064135
-0.12029324 0.12802184 -0.008498291 0.010579212 -0.09446161 -0.12497436 -0.04023579 -0.11123397
0.02163637 -0.035060335 -0.07851607 0.018439595 0.062437654 0.14882219 0.06345352 0.13345514
-0.08347613 -0.13059388 0.12270797 -0.028522758 0.064463094 -0.042547606 0.035870675 0.13049327
-0.067604676 0.1638489 -0.003447221 0.0374507 -0.07326549 -0.103976846 0.09550614 0.14809328
0.033630423 -0.063458234 -0.0020611088 0.08496163 0.1254041 0.061589863 -0.023393298 -0.07243823
0.06518821 -0.063910946 0.056113612 -0.14511093 -0.112326376 0.07987923 -0.024204947 -0.05798629
-0.06357166 0.11168064 -5.3986296e-05 -0.07032021 0.015028564 0.12579411 -0.10296962 -0.13599801
0.051519044 0.11258324 -0.11254512 -0.06533494 -0.0041945246 0.12377768 0.11425861 0.11055927
-0.10893141 -0.0095290635 -0.0589177 0.09625991 -0.10773514 0.06839676 -0.053576827 0.057616558
0.1036498 -0.14740787 -0.13335185 -0.12353601 -0.02666015 0.032883346 0.04250772 -0.119758084
-0.11850549 0.14007065 0.09883719 -0.05647067 0.11517269 -0.026983665 -0.0021243736 0.030750336
-0.1429048 -0.11673915 -0.10058695 -0.14202003 -0.0843133 0.113260545 -0.045999795 0.10901478
0.06481646 0.09276832 0.052027825 -0.052978195 0.11625407 -0.14859857 -0.026269326 -0.058595255
-0.09732608 0.009445496 -0.13343555 0.06708689 0.009903889 -0.015651753 0.107981294 0.095942885
-0.11521836 -0.019133726 -0.06529454 0.055780113 0.00080861634 0.04769574 -0.046955552 0.10671075
0.124819405 0.032241534 0.039662417 -0.0824605 0.13675733 -0.13365166 0.07935133 0.14332083
0.091763675 -0.038996145 0.10881347 -0.10675992 -0.1478135 -0.06113067 -0.01398157 -0.0057993154
-0.05039084 0.14316002 -0.09385899 0.123796836 0.07929742 0.014264171 -0.020277672 0.00077905384
0.048752706 0.13007438 -0.09683579 -0.08132982 -0.045794018 -0.01255589 0.08728263 0.043870308
-0.14140272 0.055614408 -0.03875803 0.10255707 0.09282111 0.1004815 -0.037391543 0.15160896
0.12277553 -0.07242857 0.14495108 0.061257046 0.096656844 0.0543886 0.046421677 -0.15322024
0.03506175 0.025036998 -0.14435017 -0.09933591 0.15020467 0.060231376 0.15356508 0.12522069
-0.1299891 0.04534375 -0.044170342 -0.15231551 -0.1135119 0.047969114 -0.04885023 -0.1531238
0.015952518 0.0074162767 -0.062886566 0.03981238 -0.092814036 -0.116326444 0.027764155 -0.055142887
0.11635329 -0.07116479 0.07014779 -0.051024728 0.0047058663 -0.109349996 -0.10934975 -0.028206509
0.043685373 0.047474142 0.015733084 -0.121148564 -0.04322674 -0.13781768 -0.10093964 -0.1491212
00000000: 74f7 e5bd 67f2 503d b575 edbb faa1 d6bc
00000010: 4e77 65bd 2f25 613d 5fe4 01be 22bb 0f3e
00000020: 1ab7 023e d02f 0f3d bca5 c3bc 0a93 babd
00000030: ad6a 1bbe a15f 16be 1590 df3d 27fc a2bd
00000040: 8d03 9b3d 60cc 98bd 0b25 e63d 3c71 07be
00000050: ddbf 683d 44a4 533c 4d38 193e bfa4 8abc
00000060: 3cfa 133d ef0a 5a3c 96e6 ac3d 21f0 e4bd
00000070: d0ea 96bd 5eb2 22bd e293 193d 412a 95bd
00000080: 74a4 6f3d 09bb 8b3d 0c97 043e 056b b43d
00000090: fea7 f0bd 9e73 abbd 44ff 5a3d da9b 1dbd
000000a0: 893d 063d 06c6 093e b3e2 bcbd 6775 6abd
000000b0: 37a5 89bd 3317 123e 0fb4 02be c97d 8f3d
000000c0: 4d5c f6bd 2818 033e 6a3c 0bbc 6e54 2d3c
000000d0: 1775 c1bd 8ff2 ffbd 49ce 24bd a3ce e3bd
000000e0: c23e b13c 6d9b 0fbd 09cd a0bd a20e 973c
000000f0: a0be 7f3d d864 183e ebf3 813d 77a8 083e
00000100: 89f5 aabd 67ba 05be 514e fb3d 8fa8 e9bc
00000110: 3a05 843d 6646 2ebd 21ed 123d 07a0 053e
00000120: 5274 8abd 02c8 273e c5ea 61bb e865 193d
00000130: 380c 96bd d0f1 d4bd b998 c33d c4a5 173e
00000140: 0ec0 093d 64f6 81bd ab13 07bb 5d00 ae3d
00000150: ef69 003e a745 7c3d 4da3 bfbc 7f5a 94bd
00000160: 6581 853d bee3 82bd 63d7 653d f697 14be
00000170: 5f0b e6bd b997 a33d 7449 c6bc 0883 6dbd
00000180: dc31 82bd d2b8 e43d 586f 62b8 0b04 90bd
00000190: 5e3a 763c 2cd0 003e bce1 d2bd 1043 0bbe
000001a0: a205 533d 0b92 e63d 0e7e e6bd 53ce 85bd
000001b0: 3972 89bb 277f fd3d 6b00 ea3d e66c e23d
000001c0: 6e17 dfbd ca1f 1cbc b053 71bd ea23 c53d
000001d0: 3ea4 dcbd 9a13 8c3d 6073 5bbd 57ff 6b3d
000001e0: 5946 d43d 17f2 16be 638d 08be 7300 fdbd
000001f0: 6366 dabc b0b0 063d 931c 2e3d ba43 f5bd
00000200: 02b3 f2bd ae6e 0f3e 276b ca3d ca4d 67bd
00000210: a9df eb3d d90c ddbc 1339 0bbb 21e8 fb3c
00000220: a355 12be ef14 efbd 8800 cebd b36d 11be
00000230: 74ac acbd 25f5 e73d 486a 3cbd 2443 df3d
00000240: 7ebe 843d 51fd bd3d 211b 553d aaff 58bd
00000250: 9d16 ee3d 392a 18be c532 d7bc 9401 70bd
00000260: e552 c7bd 48c1 1a3c 54a3 08be da64 893d
00000270: ec43 223c 1b38 80bc 4c25 dd3d b47d c43d
00000280: 9bf7 ebbd 55be 9cbc 25b9 85bd b079 643d
00000290: 53f9 533a 9c5c 433d 7754 40bd 2a8b da3d
000002a0: 51a1 ff3d b30f 043d 0f75 223d 0de1 a8bd
000002b0: 1d0a 0c3e fbdb 08be f382 a23d b2c2 123e
000002c0: 98ee bb3d 6cba 1fbd 99d9 de3d f2a4 dabd
000002d0: 6c5c 17be 2764 7abd f412 65bc 2f08 bebb
000002e0: a066 4ebd 8a98 123e 2439 c0bd 3289 fd3d
000002f0: b066 a23d 45b4 693c 5c1d a6bc 6b39 4c3a
00000300: ebb0 473d 3832 053e d851 c6bd 4090 a6bd
00000310: 8292 3bbd 38b7 4dbc 3cc1 b23d 5ab1 333d
00000320: e0cb 10be efcb 633d bdc0 1ebd 7109 d23d
00000330: fe18 be3d 3fc9 cd3d e027 19bd 613f 1b3e
00000340: bd71 fb3d 6e55 94bd 0e6e 143e abe8 7a3d
00000350: 06f4 c53d 95c6 5e3d a824 3e3d c4e5 1cbe
00000360: e99c 0f3d 641a cd3c 88d0 13be a070 cbbd
00000370: 41cf 193e 2db5 763d 2a40 1d3e da39 003e
00000380: dd1b 05be 5eba 393d f6eb 34bd 99f8 1bbe
00000390: ed78 e8bd 437b 443d 2e17 48bd 7ccc 1cbe
000003a0: dbae 823c 3d04 f33b acca 80bd 4e12 233d
000003b0: 4915 bebd 8f3c eebd a771 e33c 82dd 61bd
000003c0: a24a ee3d d8be 91bd a5a9 8f3d 4eff 50bd
000003d0: ab33 9a3b e4f2 dfbd c3f2 dfbd 5611 e7bc
000003e0: 6fef 323d 3f74 423d abe2 803c bd1c f8bd
000003f0: 860e 31bd 1420 0dbe 71b9 cebd 3ab3 18be

97 f4 [1, 512, 128]
-0.08901469 -0.06976512 -0.15227176 0.072795406 -0.038902882 -0.107000776 0.11904069 0.119801015
0.027734254 -0.015270744 0.11961023 -0.014765894 -0.13566574 -0.049284246 0.040670544 -0.10545697
-0.06792894 0.15096602 -0.068652615 -0.008134932 -0.080701955 -0.04889851 0.124885336 -0.02132474
-0.048101235 0.083825886 -0.12224295 0.09116105 -0.09607977 -0.02290599 0.020595973 -0.053713925
0.022192258 0.13891271 0.09532193 0.10247045 -0.0051812297 0.08100923 -0.06401769 -0.069712535
0.022353115 -0.039693117 0.09199301 0.08498326 0.018040933 0.030977482 0.055192735 0.09757603
0.005420458 0.014501967 0.056317102 0.101669155 0.0018267572 0.12090457 0.041567992 -0.11640168
0.120147996 0.0090264 0.077792995 0.03154554 -0.028473072 0.071070194 -0.12320143 -0.043960415
-0.096120596 0.07304571 -0.13444741 -0.077268235 0.12358083 0.05045965 -0.024863228 -0.08865489
0.028835554 0.13488722 0.09556603 0.13289034 -0.021987658 -0.13893469 0.14551331 -0.16289641
-0.15020557 0.051432047 -0.011589284 -0.13965347 0.03143987 0.05142063 0.16720212 0.10995672
-0.000686133 0.10829576 0.16849811 -0.09829748 0.154378 -0.12284433 -0.021999544 0.0054189507
0.12860852 -0.14562765 0.10274462 0.1359235 -0.11408958 0.076925255 0.15481003 -0.1582975
0.021506183 -0.12261124 0.08748224 0.052047446 -0.029800765 0.081958964 0.085288346 0.14647238
-0.01960062 0.065976955 0.02593837 0.076342426 0.14197853 0.08007003 -0.099203624 0.00025753287
0.11380565 -0.05430244 -0.14433683 -0.10820929 0.09002476 0.052654322 0.1485331 0.108738944
-0.048544392 -0.074546345 -0.0705481 -0.112531856 0.050246455 -0.08914897 0.06790387 0.09830953
0.044109598 0.057335984 0.04770328 -0.0029886535 -0.14365554 0.13230555 -0.032843586 -0.13670589
0.15105271 0.15183862 -0.09110907 0.006250487 -0.07475824 -0.051021356 -0.09234554 -0.1145257
-0.13559338 -0.02428645 -0.012905243 -0.0017656387 -0.019692283 0.059640326 -0.013967053 -0.09973338
-0.056570604 -0.05556225 0.13356462 0.073153235 -0.03807495 -0.0059561105 -0.12457095 0.03212597
-0.06464132 -0.094189934 -0.04053002 0.09882934 -0.0057881484 0.042296074 0.08399257 0.03497658
-0.038292624 -0.11802897 -0.02815169 0.026984263 0.04480662 0.104890026 -0.077901736 -0.06396416
-0.06284901 0.08359666 0.11540939 0.02597279 -0.017771976 -0.12910023 0.007567458 0.046910707
-0.098425835 0.0732127 -0.04726301 0.075054884 0.048089456 -0.035681065 0.042284913 -0.15036371
-0.018568382 0.011596892 -0.057980224 -0.036487363 -0.10575067 -0.115765415 -0.0027353663 0.111932784
-0.092051476 0.0026459827 0.088369906 -0.06878927 -0.011477557 -0.09751882 0.06836061 0.0627995
-0.07562781 0.08538575 0.03743046 -0.09893087 0.10457185 0.07929157 0.1527963 0.011377235
-0.015162274 -0.043045666 0.019752733 0.10265201 0.09217541 -0.049418148 -0.0508021 0.025172539
-0.07765008 0.05301701 0.046502285 0.053944025 0.027027102 -0.13213834 -0.04335601 0.12853435
-0.121054284 0.119407125 0.13540702 0.14593539 0.115836315 0.039928056 0.07801567 -0.13678218
-0.11862113 -0.05308824 0.026535198 -0.10408676 0.1512686 -0.033438623 0.016867353 0.018656116
00000000: 554d b6bd 04e1 8ebd 21ed 1bbe c215 953d
00000010: a158 1fbd 3923 dbbd 9bcb f33d 3c5a f53d
00000020: f232 e33c 2532 7abc 35f6 f43d a6ec 71bc
00000030: f6eb 0abe 47de 49bd 2896 263d d3f9 d7bd
00000040: 541e 8bbd d696 1a3e be99 8cbd 6148 05bc
00000050: 1147 a5bd ce49 48bd e2c3 ff3d 39b1 aebc
00000060: cd05 45bd e8ac ab3d 835a fabd a5b2 ba3d
00000070: 78c5 c4bd 58a5 bbbc e3b8 a83c 2203 5cbd
00000080: 8acc b53c 223f 0e3e 2538 c33d 07dc d13d
00000090: 4ec7 a9bb 2be8 a53d b51b 83bd 72c5 8ebd
000000a0: e11d b73c 4095 22bd d566 bc3d b40b ae3d
000000b0: 94ca 933c 7dc4 fd3c c711 623d f1d5 c73d
000000c0: 199e b13b a899 6d3c c3ac 663d eb37 d03d
000000d0: cd6f ef3a d19c f73d 3343 2a3d 0164 eebd
000000e0: 2710 f63d 77e3 133c ef51 9f3d e535 013d
000000f0: 5c40 e9bc 408d 913d 0851 fcbd d60f 34bd
00000100: e0da c4bd fd98 953d 95ac 09be cf3e 9ebd
00000110: f217 fd3d c7ae 4e3d f8ad cbbc b290 b5bd
00000120: 8a38 ec3c e01f 0a3e 1fb8 c33d 6814 083e
00000130: 761f b4bc e544 0ebe 7101 153e 51ce 26be
00000140: 7dcf 19be 69aa 523d fbe0 3dbc 5201 0fbe
00000150: 18c7 003d 709e 523d 0837 2b3e fd30 e13d
00000160: 9bdd 33ba 2bca dd3d c58a 2c3e 3050 c9bd
00000170: 4415 1e3e cf95 fbbd 6338 b4bc 7491 b13b
00000180: f4b1 033e 6a1f 15be c56b d23d 882f 0b3e
00000190: cca7 e9bd fd8a 9d3d 8586 1e3e bd18 22be
000001a0: bc2d b03c 9a1b fbbd e329 b33d b42f 553d
000001b0: bc20 f4bc 1ada a73d a8ab ae3d dbfc 153e
000001c0: 7b91 a0bc ed1e 873d b47c d43c 6b59 9c3d
000001d0: d262 113e c2fb a33d 452b cbbd 7a05 8739
000001e0: f012 e93d 3c6c 5ebd 09cd 13be d59c ddbd
000001f0: e75e b83d 0fac 573d 1019 183e 86b2 de3d
00000200: 7cd6 46bd c1ab 98bd 867b 90bd 1a77 e6bd
00000210: 3acf 4d3d bc93 b6bd 2f11 8b3d 8256 c93d
00000220: 44ac 343d 23d9 6a3d 8464 433d 49dd 43bb
00000230: 701a 13be 1b7b 073e ff86 06bd a1fc 0bbe
00000240: 90ad 1a3e 957b 1b3e 6497 babd e3d0 cc3b
00000250: d91a 99bd c5fb 50bd a91f bdbd 738c eabd
00000260: fed8 0abe 61f4 c6bc 8370 53bc 016d e7ba
00000270: b651 a1bc 6a49 743d 11d6 64bc 0441 ccbd
00000280: 94b6 67bd 3e95 63bd 2ac5 083e 5dd1 953d
00000290: 7bf4 1bbd 7a2b c3bb 0e1f ffbd 8596 033d
000002a0: ab62 84bd a7e6 c0bd ce02 26bd 0967 ca3d
000002b0: 82aa bdbb a63e 2d3d 4c04 ac3d 9a43 0f3d
000002c0: bad8 1cbd 2cb9 f1bd 5f9e e6bc 1a0e dd3c
000002d0: 2587 373d 95d0 d63d f28a 9fbd a4ff 82bd
000002e0: fbb6 80bd ba34 ab3d c25b ec3d e3c4 d43c
000002f0: 8996 91bc da32 04be 70f8 f73b 7125 403d
00000300: 7c93 c9bd 8af0 953d dc96 41bd 60b6 993d
00000310: 73f9 443d 4f26 12bd f232 2d3d f2f8 19be
00000320: b81c 98bc e400 3e3c ac7c 6dbd c673 15bd
00000330: cf93 d8bd 6b16 edbd d543 33bb 043d e53d
00000340: 7c85 bcbd 3968 2d3b 48fb b43d 64e1 8cbd
00000350: 5d0c 3cbc f2b7 c7bd a600 8c3d 069d 803d
00000360: c1e2 9abd b9de ae3d af50 193d 459c cabd
00000370: c429 d63d 9e63 a23d a276 1c3e 9567 3a3c
00000380: 306b 78bc a750 30bd 7cd0 a13c 383b d23d
00000390: 76c6 bc3d af6a 4abd dd15 50bd a436 ce3c
000003a0: 0107 9fbd 5d28 593d 2e79 3e3d 69f4 5c3d
000003b0: f167 dd3c 464f 07be 1296 31bd 829e 033e
000003c0: 4feb f7bd b98b f43d 23a8 0a3e 1670 153e
000003d0: 973b ed3d 9a8b 233d aec6 9f3d a110 0cbe
000003e0: a3ef f2bd 0e73 59bd 5860 d93c 702b d5bd
000003f0: 28e6 1a3e f0f6 08bd 672d 8a3c b6d4 983c

98 f4 [1, 1024]
-0.003964556 -0.0016481667 -0.0017178018 0.0055011 -0.001310508 0.0019795494 -0.0021668717 0.0036708554
0.0006228711 0.008031305 0.011144063 0.0028912881 0.004683756 0.0011293453 0.007440181 0.009778301
0.0060897483 -0.0017325007 -0.0005430275 0.0047025685 -0.0023255514 0.00035697245 -0.0017164161 -0.0001865564
0.0005773398 0.00068187184 0.000974441 0.0043300726 -0.009724009 -0.00877336 -0.0013595958 0.0024811588
0.007878267 -0.007149465 0.0049604136 0.0019644382 -0.0010361962 0.014800731 0.008898865 0.0012892942
0.008539994 0.010130283 6.804548e-05 -0.0051907175 -0.012479205 0.00056189543 0.0032374472 -0.01614045
0.0018158815 0.0052228267 -0.0011945076 0.0008745233 -0.0052502197 -0.009829727 -0.0060092076 0.00044129466
0.0012947477 0.004029188 -0.005942992 -0.009594729 0.007793829 0.011272377 0.013424372 -0.0018909221
-0.012631173 -0.0069960183 0.0058771786 -0.002904329 -0.0049217762 0.00050102605 0.010477585 -0.001357207
0.012008118 0.004075372 -0.0008180403 -0.006612024 -0.006685412 -0.006880054 0.007978077 -0.0004805857
0.00033372463 0.0011533415 -0.008804298 -0.0043898937 0.005216193 0.0053008543 -0.0037912854 0.0055106296
-0.00084925315 0.0009025891 -0.00029538813 0.006658396 -0.0009809015 0.012592024 -0.0072817137 -0.007059445
-0.0036988377 0.0007386597 0.0019454827 0.0035301214 0.0077454303 0.0012639485 0.007365247 -0.0015461697
-0.0041335025 0.0032150887 0.0075562764 -0.010666831 0.006635789 0.0051996103 -0.0028209398 -0.0050574243
0.011213191 0.002940699 0.004234819 0.0034435298 -0.0003231407 -0.007673645 0.0015457306 -0.001963635
0.010834731 0.0030194393 0.0083513865 -0.004881346 0.0072048674 0.00052351743 -5.96498e-06 0.0037903532
3.9331786e-05 -0.0057353573 -0.005250448 -0.00803468 0.0072672763 -0.008710858 0.0018228237 0.002843068
-0.0024363722 0.004171478 0.0064172707 0.0016372314 0.0031599381 -0.0020732584 0.00082735845 0.006785082
0.0015440735 0.00010482872 0.0032524706 -0.0065664714 -0.0056732055 -0.002442088 -0.008824717 -0.0041581737
0.0026673737 -0.0064772763 0.006768749 0.008062007 0.00040782255 -0.0070952727 -0.0049061044 0.0062168264
0.013313831 0.0058629634 0.00012382395 6.0764756e-05 -0.005368739 0.0061998595 0.0049677915 0.0017142597
0.015072847 0.0125099225 -0.002777396 -0.0013788666 0.00355377 -0.005519148 -0.00012323471 -0.0015986809
0.0027553895 0.005734623 -0.006178041 -0.00213244 -0.004002137 -0.0021428855 0.0024613878 0.0049135815
0.0017385622 -0.006621734 -0.0013010522 0.0106019955 0.010275913 0.012290499 0.023246294 0.003112839
0.005286952 -0.0018877699 0.0003133362 0.002317477 -0.009589087 0.0020507837 0.002703974 -0.0040101833
0.002181346 -0.002355449 -0.0016550769 0.0017872645 -0.002412927 0.00041526344 0.0088275075 7.530459e-05
-0.00013983632 0.00036905508 0.0011440777 -0.0038797152 0.01111853 -0.0010188891 -0.010221206 -0.0020201816
0.005522839 -0.0057888036 0.002771256 0.002081191 -0.0020023903 0.011363397 -0.009293187 0.0032565717
-0.0119996 0.004223893 -0.01041122 -0.008182453 0.005915297 -0.0035134845 0.0012133805 0.011379337
-0.0032369501 -0.00133991 0.004691233 -0.010670292 0.0008688892 -0.004333544 0.004728014 0.0022806358
-0.0037300906 0.010381728 0.0045438856 -0.0120777795 -0.0070740595 -0.0026487957 -0.0007645941 -0.001976922
0.010914627 -0.0042186137 0.0014516929 0.0029421127 -0.00074344757 0.0026797107 0.00056385354 0.006460443
00000000: 1be9 81bb 4c07 d8ba dd27 e1ba 9242 b43b
00000010: 5ac5 abba 54bb 013b 1302 0ebb bc92 703b
00000020: 2c48 233a bc95 033c 9795 363c c47b 3d3b
00000030: 317a 993b 8a06 943a c3cc f33b 2b35 203c
00000040: 838c c73b 1415 e3ba f559 0eba 0118 9a3b
00000050: 4768 18bb 0828 bb39 5ef9 e0ba 5a9e 43b9
00000060: 9e58 173a a5bf 323a a171 7f3a 48e3 8d3b
00000070: 7351 1fbc 24be 0fbc 7734 b2ba f09a 223b
00000080: d913 013c 0f46 eabb f78a a23b cebd 003b
00000090: fad0 87ba c47e 723c 8ccc 113c 89fd a83a
000000a0: 55eb 0b3c 7df9 253c a4b3 8e38 e516 aabb
000000b0: 9475 4cbc 2a4c 133a 5a2b 543b fa38 84bc
000000c0: df02 ee3a 3f24 ab3b 0691 9cba 4440 653a
000000d0: 090a acbb dd0c 21bc e3e8 c4bb 915d e739
000000e0: 86b4 a93a 4707 843b 6ebd c2bb 3633 1dbc
000000f0: 6063 ff3b c7af 383c e6f1 5b3c d1d8 f7ba
00000100: fbf2 4ebc db3e e5bb 5995 c03b 8e56 3ebb
00000110: da46 a1bb 4a57 033a 2daa 2b3c 4fe4 b1ba
00000120: b3bd 443c b38a 853b c171 56ba ada9 d8bb
00000130: 4d11 dbbb 1372 e1bb 7bb6 023c 1ff7 fbb9
00000140: c3f7 ae39 b82b 973a e73f 10bc 19d9 8fbb
00000150: 99ec aa3b cab2 ad3b 3777 78bb 8392 b43b
00000160: 6aa0 5eba bb9b 6c3a 53de 9ab9 ad2e da3b
00000170: 9891 80ba c74e 4e3c 719b eebb eb52 e7bb
00000180: 3368 72bb 9da2 413a 91ff fe3a 9c59 673b
00000190: 61cd fd3b 13ab a53a 2b58 f13b d9a8 caba
000001a0: 5572 87bb 3db4 523b a49a f73b efc3 2ebc
000001b0: 0871 d93b 7e61 aa3b 84df 38bb c0b8 a5bb
000001c0: 88b7 373c beb8 403b 3dc4 8a3b d8ac 613b
000001d0: 366b a9b9 3373 fbbb 1d9a ca3a 54b0 00bb
000001e0: 2884 313c c9e1 453b 41d4 083c b3f3 9fbb
000001f0: cf16 ec3b a93c 093a ca26 c8b6 9367 783b
00000200: 2ff8 2438 aaef bbbb f30b acbb e4a3 03bc
00000210: 5522 ee3b fdb7 0ebc d0eb ee3a c452 3a3b
00000220: 8bab 1fbb e5b0 883b f847 d23b 5f98 d63a
00000230: f716 4f3b 81df 07bb 16e3 583a 6555 de3b
00000240: 8262 ca3a 7ed7 db38 6727 553b 8e2b d7bb
00000250: 4ce6 b9bb 700b 20bb 8c95 10bc 4a41 88bb
00000260: 1bcf 2e3b 553f d4bb 62cc dd3b 8216 043c
00000270: 04d1 d539 767f e8bb 63c3 a0bb 85b6 cb3b
00000280: 4122 5a3c 1a1e c03b bdd6 0139 a9dd 7e38
00000290: 3fec afbb 3128 cb3b dbc8 a23b 03b1 e03a
000002a0: 1af4 763c 6bf6 4c3c f904 36bb 16bb b4ba
000002b0: 5ee6 683b f8d9 b4bb 9138 01b9 d48a d1ba
000002c0: c493 343b 81e9 bb3b 2a71 cabb 68c0 0bbb
000002d0: 5c24 83bb a76f 0cbb 3c4f 213b 1c02 a13b
000002e0: 78e0 e33a 21fb d8bb 1188 aaba feb3 2d3c
000002f0: 4e5c 283c 175e 493c 036f be3c c600 4c3b
00000300: 2b3e ad3b 0c6f f7ba 4647 a439 d0e0 173b
00000310: 8c1b 1dbc 7166 063b 2835 313b db67 83bb
00000320: eaf4 0e3b e05d 1abb 2aef d8ba a542 ea3a
00000330: 3322 1ebb b7b7 d939 40a1 103c d8ec 9d38
00000340: 07a1 12b9 bc7d c139 e1f4 953a d242 7ebb
00000350: 7f2a 363c 3f8c 85ba d876 27bc 0665 04bb
00000360: eef8 b43b 01b0 bdbb f69d 353b 9764 083b
00000370: 893a 03bb 8b2d 3a3c 7442 18bc 356c 553b
00000380: f899 44bc 9568 8a3b d293 2abc b20f 06bc
00000390: 1cd5 c13b 7d42 66bb 4b0a 9f3a 6670 3a3c
000003a0: 0323 54bb eb9f afba eab8 993b 73d2 2ebc
000003b0: 2bc6 633a 6700 8ebb 75ed 9a3b b876 153b
000003c0: 8974 74bb 2018 2a3c e0e4 943b e1e1 45bc
000003d0: 83cd e7bb 6b97 2dbb 0b6f 48ba 3f8f 01bb
000003e0: 44d3 323c 4c3c 8abb bb46 be3a 76d0 403b
000003f0: ece3 42ba 169e 2f3b 92cf 133a 20b2 d33b

action_model._continuous_distribution.log_sigma f4 [1, 3]
-0.0045138868 -0.010558826 -0.022670217
00000000: 3ae9 93bb edfe 2cbc e4b6 b9bc

action_model._continuous_distribution.mu.bias f4 [3]
-0.0052995845 0.0015129712 -0.0093877055
00000000: 23a8 adbb e44e c63a e4ce 19bc

action_model._continuous_distribution.mu.weight f4 [3, 128]
0.015437992 0.005375516 0.03570294 0.004603001 -0.010085611 0.017220546 -0.019848958 0.005938179
-0.008173143 -0.013230154 -0.015536316 -0.023984278 0.0058385273 -0.016665682 0.020942586 -0.024964856
0.023860436 0.0080841305 -0.011948158 0.038633008 0.0060807625 -0.029023807 -0.016880361 0.009417383
-0.010806171 -0.040727958 0.01528704 -0.0028271675 0.028329661 0.013663013 -0.018647635 0.006891391
-0.02283412 -0.046457805 -0.026997305 0.017666101 0.01067897 -0.015111583 0.03738192 0.013992971
0.044480912 0.030952064 -0.024690038 -0.040067647 -0.014126305 -0.018525857 0.025550919 0.0105175525
-0.014448683 0.0033124012 0.014076629 -0.01271179 0.0038719326 -0.026455961 0.030154651 -0.006050514
-0.00623053 0.0034808132 -0.00926927 0.040888548 -0.019753074 -0.025746172 0.0539053 0.017445961
0.0008706325 0.013254258 -0.047709025 -0.0070930794 0.0062046833 -0.054152194 0.01224595 -0.012631073
0.020734584 0.0002903027 0.021644736 -0.0042793085 -0.0013836613 0.020732082 -0.0009388921 -0.024663288
0.02668953 0.0192515 -0.00113098 -0.019801434 -0.011490316 -0.0033991996 0.013621501 0.0035188058
-0.034003522 -0.022716042 -0.010999999 0.00857168 0.019487873 -0.007927227 -0.012131991 -0.017423056
-0.03590394 -0.010577533 0.01619939 -0.0018289586 -0.003757361 -0.0022887657 -0.043522257 0.027020441
0.0163007 0.02538756 -0.009390875 -0.011660292 -0.0111979395 -0.00759176 -0.010560585 0.027835779
0.020858701 -0.011014742 0.003724712 0.018010816 0.011845155 -0.025441123 0.0022169347 0.0038800216
-0.01395838 0.014816107 -0.02289478 0.012930604 0.03307876 0.0056481496 -0.030425591 -0.0049323733
-0.014007433 -0.011257829 0.016230324 -0.03384199 -0.008926555 -0.008514836 -0.0015482348 -0.015668072
0.021262648 -0.00838269 -0.02406946 0.010717285 0.029557467 -0.016529711 0.025188923 0.016408317
0.014691314 0.0017690596 0.012540949 -0.014557704 0.032854326 0.03680701 -0.007998931 0.0014654736
-0.031434145 -0.005829866 0.0034213827 -0.0034340601 0.029702092 0.018655438 0.031934973 0.009333675
0.0079970285 -0.02165829 -0.016303044 0.007504482 -0.013013974 0.0331327 0.012485499 0.0033225976
0.0040363837 -0.023230491 0.027508775 -0.025011895 -0.029053813 -0.026230838 0.04903101 0.028337331
0.01849031 0.006418357 -0.005878573 0.0009104135 0.028662482 -0.026489224 -0.024008488 -0.013309196
0.02404231 -0.017014133 0.02235558 0.022265138 -0.013131775 0.037627224 0.024945676 -0.017133532
-0.0011874716 0.003241515 -0.01661634 -0.0015834995 -0.019156987 -0.0057358677 0.024161745 -6.9238435e-05
0.0014004532 0.0507161 -0.024380628 -0.016531372 -0.04153061 -0.029186714 -0.03659811 0.026536148
-0.014501381 -0.020627264 -0.023519406 -0.020871855 -0.026987767 -0.014008067 0.016612243 0.00034585092
-0.0032042842 -0.009527717 -0.004423059 -0.013108036 -0.015468981 0.010182165 0.0061944085 -0.036951747
-0.0036169903 0.005229687 -0.0044596456 -0.004273212 0.0073369886 -0.015174258 -0.023941694 -0.011621276
0.027160177 -0.0027875046 -0.0033730865 -0.004832332 0.01453393 -0.035764474 -0.01811338 0.032273572
-0.01607346 6.3188476e-05 -0.0013988003 -0.004775847 0.017839018 0.027548822 0.027481027 -0.014316158
0.046622347 0.02286688 0.001024135 -0.040242463 -0.036953773 0.0023197634 -0.024031932 -0.039786775
00000000: a2ef 7c3c 1925 b03b 3f3d 123d c5d4 963b
00000010: 1e3e 25bc 1a12 8d3c 489a a2bc 0e95 c23b
00000020: a5e8 05bc 4ac3 58bc 088c 7ebc ad7a c4bc
00000030: 1e51 bf3b 7886 88bc c98f ab3c 1983 ccbc
00000040: f676 c33c 4d73 043c 35c2 43bc a53d 1e3d
00000050: 2241 c73b 56c3 edbc af48 8abc 5e4b 1a3c
00000060: 5e0c 31bc 5cd2 26bd 7e76 7a3c 0048 39bb
00000070: 9b13 e83c d4da 5f3c edc2 98bc 2dd1 e13b
00000080: 9f0e bbbc 8a4a 3ebd 7429 ddbc 80b8 903c
00000090: d9f6 2e3c 9396 77bc c91d 193d c642 653c
000000a0: 9e31 363d 2f8f fd3c c342 cabc f91d 24bd
000000b0: 0472 67bc 8ac3 97bc 2950 d13c d051 2c3c
000000c0: 2bba 6cbc df14 593b a9a1 663c 1d45 50bc
000000d0: 40c0 7d3b 2cba d8bc e306 f73c 6443 c6bb
000000e0: 7929 ccbb 5b1e 643b 23de 17bc c07a 273d
000000f0: 33d1 a1bc a3e9 d2bc cecb 5c3d d5ea 8e3c
00000100: 283b 643a 6328 593c 8a6a 43bd 106d e8bb
00000110: a850 cb3b b1ce 5dbd 3da3 483c 8ff2 4ebc
00000120: 93db a93c c533 9839 4d50 b13c 7139 8cbb
00000130: f85b b5ba 54d6 a93c fb1f 76ba aa0a cabc
00000140: 00a4 da3c 52b5 9d3c 643d 94ba 9e36 a2bc
00000150: e141 3cbc 1bc5 5ebb b72c 5f3c c49b 663b
00000160: 4747 0bbd fe16 babc 5739 34bc 3b70 0c3c
00000170: 08a5 9f3c 33e1 01bc 42c5 46bc ccba 8ebc
00000180: 0310 13bd 644d 2dbc 95b4 843c abb9 efba
00000190: 0f3e 76bb 1eff 15bb 6544 32bd f959 dd3c
000001a0: 0c89 853c 92f9 cf3c 2fdc 19bc cf0a 3fbc
000001b0: 9077 37bc 4cc4 f8bb 4e06 2dbc dc07 e43c
000001c0: dedf aa3c 2d77 34bc 4c1a 743b 6b8b 933c
000001d0: 2e12 423c e769 d0bc fe49 113b f647 7e3b
000001e0: b0b1 64bc 42bf 723c d58d bbbc e2da 533c
000001f0: 987d 073d 1d14 b93b 173f f9bc bf9f a1bb
00000200: 6f7f 65bc c272 38bc 75f5 843c e69d 0abd
00000210: af40 12bc d081 0bbc 24ee caba 545a 80bc
00000220: 012f ae3c 8d57 09bc 512d c5bc 8d97 2f3c
00000230: 8022 f23c 5169 87bc 0059 ce3c bc6a 863c
00000240: d6b3 703c cadf e73a 8d78 4d3c 7083 6ebc
00000250: 4292 063d f3c2 163d f30d 03bc 2215 c03a
00000260: 17c1 00bd 7608 bfbb 4739 603b f80d 61bb
00000270: cd51 f33c 4ad3 983c 3fce 023d 45ec 183c
00000280: f805 033c ba6c b1bc f68d 85bc 28e8 f53b
00000290: 9038 55bc 27b6 073d fa8f 4c3c f0bf 593b
000002a0: a443 843b df4d bebc 155a e13c bfe5 ccbc
000002b0: 4302 eebc 0ee2 d6bc bed4 483d b123 e83c
000002c0: fe78 973c 1551 d23b 0ba1 c0bb d1a8 6e3a
000002d0: 95cd ea3c eeff d8bc 73ad c4bc d00e 5abc
000002e0: 61f4 c43c 3961 8bbc 0d23 b73c 6165 b63c
000002f0: a826 57bc 011f 1a3d e05a cc3c 9f5b 8cbc
00000300: efa4 9bba 996f 543b fe1e 88bc 6d8d cfba
00000310: 1def 9cbc f2f3 bbbb daee c53c 1a34 91b8
00000320: 698f b73a afbb 4f3d e2b9 c7bc cd6c 87bc
00000330: 001c 2abd fa18 efbc e6e7 15bd 5662 d93c
00000340: 3397 6dbc 82fa a8bc c5ab c0bc 74fb aabc
00000350: 7315 ddbc 1782 65bc 6616 883c 5353 b539
00000360: f8fe 51bb 241a 1cbc 4fef 90bb 16c3 56bc
00000370: 9c71 7dbc 18d3 263c 77fa ca3b b75a 17bd
00000380: 070b 6dbb cb5d ab3b 3822 92bb 4d06 8cbb
00000390: 1f6b f03b 739d 78bc 5f21 c4bc 2a67 3ebc
000003a0: 057f de3c 91ae 36bb 000f 5dbb 8a58 9ebb
000003b0: b91f 6e3c c57d 12bd 8362 94bc 4b31 043d
000003c0: 7dac 83bc 0e84 8438 f357 b7ba b57e 9cbb
000003d0: 2223 923c 11ae e13c e41f e13c 528e 6abc
000003e0: 13f7 3e3d 5353 bb3c 453c 863a 48d5 24bd
000003f0: d75c 17bd 2c07 183b 9dde c4bc 75f7 22bd

network_body._body_endoder.seq_layers.0.bias f4 [128]
-0.007505125 -0.00160117 -0.003559929 0.0014681647 0.0033239524 -0.0031844778 0.0007700979 -0.00016230246
-0.0011459986 -0.0084988205 0.003209999 0.0013213234 0.004804674 0.013643366 -0.0029699926 0.00040726972
-0.006085305 0.003326275 -0.0046488126 -0.0031569481 -0.004572277 0.0072918925 -0.00017300675 0.0005304182
0.008077865 -0.0042757303 0.010828671 0.014211839 0.0076269386 -0.0036696773 0.0040790713 -0.007446635
0.0062943357 0.010769112 -0.00034607627 -0.0034392024 0.0009030293 -0.008053708 0.00904679 -0.0030953214
0.004949889 0.0056978 0.00077953376 0.002577953 0.0054490226 -0.010844484 0.00076902594 -0.0035730663
-0.0037422762 -0.010010739 -0.0074831666 -0.0071894675 0.011021134 -0.0018488481 -0.006293947 -0.0026793354
0.00035435404 -0.002719752 -0.003554352 -0.010199741 -0.0029203338 0.0064733075 0.002382791 -0.00081834395
0.0050668535 -0.0034702055 0.00030445636 0.009108802 -0.0010964626 0.00088 -0.003684119 -0.005377516
0.005306715 -0.0076858164 0.016582765 0.00443302 0.007739888 -0.009911773 0.0043670046 -0.007977418
-0.007981479 5.757834e-05 0.004494231 0.0057254857 0.0027184703 0.0030027146 -0.004428189 -0.0036241685
0.033225115 -0.0013053156 -0.005188518 -0.0049759815 -0.0011798858 0.0001964342 0.00031769287 0.00592518
-0.0048967316 -0.0089866165 0.0010653193 0.014269562 0.0014278674 -0.00516641 -0.0027988844 0.009410244
-0.003589392 0.0065665655 -0.0009792511 -0.011694748 -0.0011969729 0.008272538 0.0015540044 -0.005783734
-0.0030342035 -0.011798042 -0.0027896233 0.009692727 0.00060544506 0.0023234698 0.0052922843 0.00040817773
0.005363978 -0.004220464 -0.0054267514 0.006066375 0.007772635 -0.003992019 0.0040795696 -0.004565824
00000000: 8ded f5bb 5ade d1ba b34d 69bb 6f6f c03a
00000010: abd6 593b acb2 50bb 65e0 493a bc2f 2ab9
00000020: 5535 96ba a33e 0bbc d95e 523b 4230 ad3a
00000030: 8770 9d3b 6d88 5f3c 35a4 42bb d186 d539
00000040: 3d67 c7bb a2fd 593b 1155 98bb cde4 4ebb
00000050: 0ad3 95bb d4f0 ee3b 2569 35b9 c30b 0b3a
00000060: 0559 043c 6d1b 8cbb bd6a 313c c6d8 683c
00000070: 66eb f93b f87e 70bb bba9 853b e702 f4bb
00000080: b740 ce3b ee70 303c 9271 b5b9 3e64 61bb
00000090: 45b9 6c3a b3f3 03bc fd38 143c e0da 4abb
000000a0: ae32 a23b 9cb4 ba3b a059 4c3a e0f2 283b
000000b0: b78d b23b 10ad 31bc 7598 493a 1b2a 6abb
000000c0: fa40 75bb 1504 24bc 5a35 f5bb a095 ebbb
000000d0: fd91 343c 0c55 f2ba 743d cebb ca97 2fbb
000000e0: 98c8 b939 de3d 32bb 22f0 68bb d11c 27bc
000000f0: 1263 3fbb 0a1e d43b 9928 1c3b 2286 56ba
00000100: d907 a63b 636c 63bb 719f 9f39 163d 153c
00000110: 2eb7 8fba cdaf 663a 4371 71bb e035 b0bb
00000120: f4e3 ad3b 4dd9 fbbb 94d8 873c de42 913b
00000130: e39e fd3b fd64 22bc 1719 8f3b b7b3 02bc
00000140: c0c4 02bc 4680 7138 5844 933b db9c bb3b
00000150: 5d28 323b 31c9 443b 571a 91bb 7583 6dbb
00000160: 0f17 083d 2017 abba 7204 aabb 8f0d a3bb
00000170: 66a6 9aba e7f9 4d39 0490 a639 0328 c23b
00000180: c374 a0bb 9a3c 13bc 2fa2 8b3a e2ca 693c
00000190: 4827 bb3a fd4a a9bb 7d6d 37bb 6d2d 1a3c
000001a0: 013c 6bbb 582c d73b 375a 80ba 549b 3fbc
000001b0: bfe3 9cba 8a89 073c bcaf cb3a 7a85 bdbb
000001c0: 7dd9 46bb 934c 41bc 1dd2 36bb 3ece 1e3c
000001d0: bbb6 1e3a 5b45 183b e66a ad3b b000 d639
000001e0: 4fc4 af3b d14b 8abb e4d2 b1bb 71c8 c63b
000001f0: 97b1 fe3b 7ccf 82bb e9ad 853b e89c 95bb

network_body._body_endoder.seq_layers.0.weight f4 [128, 65]
0.11770973 -0.037007924 -0.0389573 -0.21381184 0.05821308 0.016972315 -0.083368465 -0.055684257
-0.06135666 -0.035600595 -0.12901945 0.03523791 -0.08395794 -0.21404095 0.019697588 -0.111703835
0.039950337 0.105200976 -0.06088226 0.05514567 0.023196783 -0.22824822 -0.045159787 0.080512024
-0.08815971 -0.10748485 -0.12144396 0.08911552 -0.057542395 0.103626065 -0.07669426 0.18678658
0.046045844 -0.1764291 -0.017779041 0.18996873 0.064920634 -0.14131673 0.14355464 0.08304393
-0.070793115 0.31773734 -0.1098037 0.048102457 0.005713295 0.04036867 -0.021299707 -0.072591275
0.13087758 -0.24510118 0.21168403 0.10345757 0.04045405 -0.12495296 0.096666306 0.1499449
0.25841558 0.12748197 0.00423137 -0.007734104 0.18810594 -0.039477687 0.03254091 0.111001685
0.02253993 -0.3122609 -0.05393101 -0.26094222 -0.0997816 0.19680989 0.10196936 0.23090127
0.008648817 0.26760608 0.15412264 -0.08273951 -0.033316646 -0.17218582 0.12822428 0.013887616
0.23003842 -0.21975031 0.005375839 0.11907554 -0.17217222 -0.1446664 -0.10993517 0.07462099
0.09907179 0.11498327 -0.15580045 -0.017147887 -0.0046786782 0.045125686 -0.031862196 -0.058943965
0.028146803 -0.1710472 -0.19309631 -0.0025499917 -0.22994167 -0.059879035 -0.11263058 -0.027654305
-0.21604803 -0.019481841 0.38884115 -0.042305402 0.0031533716 0.30229118 0.18474019 0.04517652
-0.10773443 -0.020816416 -0.10772148 0.09313968 -0.21874188 -0.08309946 0.034806337 -0.14953844
0.005346927 -0.22863902 -0.11032921 0.056126345 -0.23264144 -0.0966318 -0.17646006 0.04782237
0.0840863 -0.16306657 0.06879632 0.13699237 0.05156322 -0.072040424 -0.105667174 -0.165183
-0.041850876 -0.043671124 -0.06618573 -0.05791374 0.024884544 -0.16590475 0.0760605 -0.017041672
0.15177289 0.05604641 0.2075378 0.12117669 -0.056088753 0.112438 0.11058261 -0.0018668883
-0.027094454 0.1076366 0.1293095 0.015589928 -0.048143666 -0.04798613 -0.031889692 0.12732391
0.057340566 -0.03234757 -0.072545566 -0.054546636 0.2733288 0.039053045 -0.16080947 0.10778579
-0.10576964 -0.09975046 0.0024855274 0.23623066 0.18379411 -0.0071470463 0.04845836 -0.22545816
-0.029609062 -0.025691612 0.104449354 -0.2824154 0.00034219777 -0.006873122 -0.110410735 -0.023825364
0.034292404 0.19973817 0.09585746 -0.018064713 -0.1371387 0.106851555 -0.16426827 -0.045451526
0.1397324 0.061022963 -0.08745982 0.026701326 -0.034089696 0.16441298 0.22925286 0.033804003
0.058808573 0.15530254 0.0014677964 -0.053104356 0.15038034 -0.21896327 0.047832616 0.05500784
-0.05556107 -0.19184893 0.012159047 -0.064860746 -0.044147026 0.020095129 0.17093515 -0.10546031
-0.20527728 -0.034851942 0.056955934 -0.017987687 0.17740563 -0.025674675 0.028436162 -0.061450526
-0.059718717 0.13669777 -0.1622748 0.016944557 -0.068219446 -0.15908203 0.017738022 0.082615905
-0.07685677 0.005407398 0.05945484 0.060766857 -0.12150386 -0.03838302 -0.10692503 0.060801364
0.08359599 -0.12107002 0.10986358 0.16928531 -0.10312173 -0.19673683 0.20886898 -0.20586929
-0.07909447 -0.06289658 -0.061235014 -0.023888351 -0.12170455 -0.33922827 0.021406692 0.044212688
00000000: cd11 f13d 9f95 17bd b191 1fbd 7ef1 5abe
00000010: d770 6e3d 8609 8b3c 16bd aabd 2d15 64bd
00000020: 1f51 7bbd eed1 11bd ad1d 04be a055 103d
00000030: 24f2 abbd 8d2d 5bbe d65c a13c fbc4 e4bd
00000040: f7a2 233d 9c73 d73d ad5f 79bd 6de0 613d
00000050: 2e07 be3c e7b9 69be 78f9 38bd 7de3 a43d
00000060: 148d b4bd 0421 dcbd 9cb7 f8bd 3382 b63d
00000070: 93b1 6bbd e739 d43d e111 9dbd fb44 3f3e
00000080: 919a 3c3d d4a9 34be 5aa5 91bc 2a87 423e
00000090: 1cf5 843d 55b5 10be fdff 123e f012 aa3d
000000a0: fbfb 90bd 78ae a23e c3e0 e0bd 1507 453d
000000b0: 9836 bb3b 9e59 253d b97c aebc bcaa 94bd
000000c0: c604 063e cefb 7abe b3c3 583e 90e1 d33d
000000d0: 25b3 253d 56e7 ffbd fcf8 c53d 288b 193e
000000e0: 0c4f 843e a28a 023e 4ea7 8a3b 5e6e fdbb
000000f0: d89e 403e 5bb3 21bd 9e49 053d da54 e33d
00000100: a9a5 b83c a9e0 9fbe c3e6 5cbd 389a 85be
00000110: 4c5a ccbd 8888 493e 50d5 d03d 6271 6c3e
00000120: c5b3 0d3c aa03 893e 53d2 1d3e 5573 a9bd
00000130: 0977 08bd 7b51 30be 3a4d 033e e288 633c
00000140: 318f 6b3e 3a06 61be ce27 b03b e0dd f33d
00000150: ea4d 30be 6e23 14be b125 e1bd e4d2 983d
00000160: 27e6 ca3d 597c eb3d 278a 1fbe ba79 8cbc
00000170: 994f 99bb b6d5 383d ef81 02bd 3a6f 71bd
00000180: 2094 e63c ff26 2fbe 0abb 45be c31d 27bb
00000190: d475 6bbe b843 75bd ddaa e6bd 488b e2bc
000001a0: b23b 5dbe 6298 9fbc 3016 c73e 6e48 2dbd
000001b0: cca8 4e3b e9c5 9a3e 882c 3d3e 040b 393d
000001c0: dea3 dcbd 3087 aabc 149d dcbd 04c0 be3d
000001d0: dffd 5fbe 0d30 aabd 1791 0e3d 9b20 19be
000001e0: 4635 af3b 5920 6abe 48f4 e1bd bde4 653d
000001f0: 8f39 6ebe e5e6 c5bd f2b1 34be 64e1 433d
00000200: 7035 ac3d ecfa 26be 16e5 8c3d ba47 0c3e
00000210: f433 533d ee89 93bd 0868 d8bd bb25 29be
00000220: d36b 2bbd 7ee0 32bd 628c 87bd f536 6dbd
00000230: acda cb3c efe2 29be 9cc5 9b3d fa9a 8bbc
00000240: 5a6a 1b3e ec90 653d ca84 543e 7c2b f83d
00000250: 52bd 65bd e545 e63d 2379 e23d 60b2 f4ba
00000260: 30f5 ddbc 9470 dc3d b669 043e e66c 7f3c
00000270: 4b32 45bd 1b8d 44bd c49e 02bd 3361 023e
00000280: f1dd 6a3d e37e 04bd c592 94bd 4b6c 5fbd
00000290: c1f1 8b3e 16f6 1f3d 3dab 24be ccbe dc3d
000002a0: c19d d8bd f849 ccbd 3be4 223b 73e6 713e
000002b0: 8634 3c3e c531 eabb 467c 463d 81de 66be
000002c0: b48e f2bc 3777 d2bc 8be9 d53d c098 90be
000002d0: 0269 b339 ed37 e1bb 061f e2bd 692d c3bc
000002e0: 3176 0c3d 2a88 4c3e ea50 c43d 73fc 93bc
000002f0: 166e 0cbe fdd4 da3d f135 28be 612b 3abd
00000300: 0316 0f3e 37f3 793d 221e b3bd bdbc da3c
00000310: a3a1 0bbd e05b 283e 43c1 6a3e 1176 0a3d
00000320: 42e1 703d a107 1f3e 1363 c03a f483 59bd
00000330: 4efd 193e e837 60be 22ec 433d e74f 613d
00000340: 0194 63bd 0c74 44be bd36 473c b6d5 84bd
00000350: 83d3 34bd 8a9e a43c a009 2f3e 93fb d7bd
00000360: 3534 52be e9c0 0ebd a04a 693d ea5a 93bc
00000370: d2a9 353e b253 d2bc f4f2 e83c 8cb3 7bbd
00000380: 9d9b 74bd 80fa 0b3e 5d2b 26be 50cf 8a3c
00000390: a3b6 8bbd 66e6 22be 544f 913c 8732 a93d
000003a0: 1567 9dbd 8b30 b13b eb86 733d abe6 783d
000003b0: 04d7 f8bd 8337 1dbd 83fb dabd da0a 793d
000003c0: 6034 ab3d 8ff3 f7bd 2800 e13d 2159 2d3e
000003d0: 7c31 d3bd 6175 49be c0e1 553e 66cf 52be
000003e0: 48fc a1bd eccf 80bd 91d1 7abd 81b1 c3bc
000003f0: 3c40 f9bd 54af adbe 165d af3c 5d18 353d

network_body._body_endoder.seq_layers.2.bias f4 [128]
0.020159088 0.004447565 0.0052279863 0.012227462 -0.0021275468 -0.002711414 -0.009985791 -0.0011261785
0.008332522 0.0044447114 -0.002930223 -0.003906339 0.004208423 0.002606495 -0.00727117 -0.0060846377
-0.0029167384 0.00015387322 -0.0013406575 0.0046793586 -0.0053983214 -0.0069749486 0.0011540723 0.0021952325
-0.0041856705 0.00028266595 0.005480653 -0.00852042 -0.008309653 -0.0077314656 -0.0052091544 -0.0066285064
-0.006392867 0.010162528 -0.0054754065 -0.0032439986 -0.0060022785 -0.0048800195 -0.001490588 0.0055786856
0.00063434493 -0.004940651 -0.006923073 0.0024493232 0.0008273787 -0.01158155 0.004079614 0.007911578
0.0042424886 0.00046446806 -0.006689605 -0.0074313465 0.012514691 -0.0032287864 0.00022911729 0.0007183504
-0.004377275 0.00073978107 0.002294539 -0.0071955654 0.0014702445 -0.005317557 -0.004889171 0.00024077212
-0.0009121633 -0.004811886 0.0026062771 0.009226392 -0.005320277 -0.004607279 0.013918955 0.0012458347
0.012818331 0.0008766146 -0.007292196 -0.001323257 -0.006532122 -0.008488263 0.003979963 -0.005048269
0.005919745 0.007902664 -0.0044988226 0.0039995336 -0.002575294 -0.008989393 0.003822498 0.0033658345
0.0012072851 -0.0062428764 -0.0067289225 -9.975054e-05 -0.004049343 0.003935281 0.0039574686 -0.00818125
0.00084311876 0.004767503 -0.00043331154 0.0007908385 -0.0021874297 -0.00014384359 -0.005546122 0.0065353015
0.0030282645 6.033095e-05 -0.0015390601 0.0030778488 -0.00702987 0.0019037063 0.014423008 -0.0018413429
0.008731492 0.0010544336 -0.0053610425 -0.003178988 -0.0008423254 0.0022610605 -0.005391922 -0.0012216339
-0.00017871778 -0.0015073473 -0.0031436235 8.4151834e-05 0.00410688 -0.002413049 -0.0035651126 -0.006484905
00000000: ac24 a53c e1bc 913b 874f ab3b b155 483c
00000010: 506e 0bbb fab1 31bb 719b 23bc 489c 93ba
00000020: 2185 083c f1a4 913b fc08 40bb bf00 80bb
00000030: d0e6 893b bbd1 2a3b ff42 eebb a461 c7bb
00000040: c026 3fbb 0759 2139 00b9 afba 4e55 993b
00000050: 67e4 b0bb 1c8e e4bb 3e44 973a e4dd 0f3b
00000060: f327 89bb c832 9439 0d97 b33b 3b99 0bbc
00000070: 3625 08bc 3c58 fdbb 8eb1 aabb f133 d9bb
00000080: 417b d1bb bb80 263c 0a6b b3bb 4499 54bb
00000090: c3ae c4bb 92e8 9fbb d55f c3ba 68cd b63b
000000a0: 2b4a 263a 2fe5 a1bb f2da e2bb d384 203b
000000b0: 72e4 583a 8bc0 3dbc 48ae 853b 909f 013c
000000c0: 9304 8b3b d983 f339 7934 dbbb a782 f3bb
000000d0: 6b0a 4d3c 0c9a 53bb 343f 7039 ae4f 3c3a
000000e0: 3e6f 8fbb deed 413a fa5f 163b c7c8 ebbb
000000f0: 38b5 c03a e73e aebb 5735 a0bb c677 7c39
00000100: 3e1e 6fba 07ad 9dbb 13ce 2a3b 4b2a 173c
00000110: b855 aebb a8f8 96bb 540c 643c 474b a33a
00000120: fa03 523c 9ccc 653a 60f3 eebb 2371 adba
00000130: 690b d6bb 5b12 0bbc 596a 823b f36b a5bb
00000140: 6cfa c13b 2d7a 013c dc6a 93bb 850e 833b
00000150: 44c6 28bb 3f48 13bc e082 7a3b 5595 5c3b
00000160: c43d 9e3a 0b91 ccbb 4b7e dcbb 2a31 d1b8
00000170: 5ab0 84bb 88f3 803b a7ad 813b a60a 06bc
00000180: be04 5d3a b738 9c3b 172e e3b9 4650 4f3a
00000190: fb5a 0fbb b8d4 16b9 3ebc b5bb 1526 d63b
000001a0: d975 463b dd0b 7d38 4aba c9ba bcb5 493b
000001b0: d35a e6bb c985 f93a 7b4e 6c3c 3759 f1ba
000001c0: 880e 0f3c ec34 8a3a afab afbb 9156 50bb
000001d0: 80cf 5cba 4d2e 143b b8ae b0bb 3b1f a0ba
000001e0: 3066 3bb9 2f92 c5ba 4005 4ebb ac7a b038
000001f0: 0293 863b 3f24 1ebb aaa4 69bb 537f d4bb

network_body._body_endoder.seq_layers.2.weight f4 [128, 128]
-0.0231529 -0.12355846 0.12516671 -0.02445826 0.020742014 -0.070792496 0.16899587 0.03830107
0.07881874 0.23097448 -0.11512933 0.04380897 -0.04224972 -0.010235149 -0.07783736 -0.059089158
-0.059394322 -0.0073245266 -0.15344308 0.12149096 0.026040522 0.10146752 0.06474943 0.07229607
0.04466882 -0.18279222 0.10530349 -0.037825942 -0.17888711 -0.08506555 -0.08388079 0.012227813
-0.18258059 0.12077021 0.08924454 -0.1557698 -0.04467474 -0.09593182 -0.106794775 0.010218495
0.103197955 0.005349008 -0.08351926 0.109395646 0.16921131 -0.011247067 0.10120367 -0.0012157
-0.14094584 -0.05873871 -0.12285766 -0.060107697 0.16185972 -0.10008544 -0.08889847 0.011451541
-0.032538168 0.022620656 -0.02595438 0.026576163 -0.05470661 0.043658763 0.23501074 0.044720445
0.014423458 -0.060406156 0.07259897 -0.027121058 0.023896966 0.09925355 0.25336915 -0.11052055
-0.13015783 -0.04183998 0.29326472 0.1537684 -0.074982785 0.062353697 -0.015319426 0.0019652992
0.008580502 -0.04646166 0.10452108 -0.09370271 -0.117883466 0.043468203 -0.029507235 -0.10214209
-0.044156622 -0.076306716 0.05958243 -0.10188646 0.12435167 0.027436819 -0.0473466 0.011544128
0.020000974 0.17778383 0.015358259 0.058163222 -0.08990158 0.020675497 0.034810133 0.03459656
-0.05957515 0.081982575 0.06821765 0.12213156 -0.036221173 -0.018446146 -0.054746736 -0.05498477
0.0022612517 -0.11857265 -0.013847341 0.15938056 0.058554422 0.047969397 0.060422257 0.11125022
-0.0040583266 0.05832458 0.022322522 -0.1504644 0.08367004 0.06087489 -0.042706855 -0.11130573
0.04217663 -0.09769856 -0.08217142 0.020428501 0.061207082 -0.109865785 0.017342867 -0.021251736
0.016247237 0.1251989 -0.14229353 0.09713112 0.0776242 0.12015555 -0.16395235 -0.14094564
-0.054102793 0.02378976 -0.05614369 0.10383413 0.0728731 0.1438165 -0.08611005 0.08446523
0.03666026 -0.15739502 -0.07307944 0.008966294 -0.034430243 -0.082952455 0.14597555 0.0599042
0.13090834 -0.044079717 0.19393317 0.036689572 -0.08940706 0.06485516 -0.028674532 0.03648794
0.12600572 0.05399091 0.0508567 -0.057517033 0.08262409 -0.05695392 0.0259565 0.063319005
0.1354453 0.07998594 0.05976908 0.11643303 0.16150586 0.12648612 0.088388465 0.21484895
-0.060588673 -0.031841364 0.104136534 0.029191922 -0.06294442 -0.09451703 0.020517977 -0.0038072504
-0.041567326 0.10127574 0.026135609 0.08324308 0.11051202 0.06764043 0.13886648 0.058355294
0.07868172 -0.002099308 -0.25948223 0.11107148 0.00153853 -0.13883817 -0.028585684 -0.02169348
-0.036238447 -0.028127164 -0.048573144 0.008479235 0.15694563 0.08728979 -0.27216694 -0.18570952
-0.00930957 0.09543927 0.16994968 0.013643987 -0.030592637 -0.04537147 0.027235609 0.11280069
-0.21937013 0.005153918 -0.11608802 -0.085622735 0.03651193 0.15741327 -0.009771607 0.077225834
0.18389687 0.16569018 -0.16024934 -0.026703598 0.13395488 0.3049866 0.070111595 0.102324784
-0.06946861 0.006752974 -0.13597487 0.0105032325 0.01854772 -0.039409574 -0.10974517 0.060473107
0.011197986 -0.1788865 -0.035302673 -0.068128504 -0.029655142 0.06432306 -0.12097692 -0.007027586
00000000: 27ab bdbc 380c fdbd b42b 003e b05c c8bc
00000010: 28eb a93c a8fb 90bd 410d 2d3e 95e1 1c3d
00000020: b86b a13d 9384 6c3e edc8 ebbd 0971 333d
00000030: 0b0e 2dbd 54b1 27bc 3269 9fbd 7907 72bd
00000040: 7647 73bd 9502 f0bb 2f20 1dbe 41d0 f83d
00000050: ef52 d53c 34ce cf3d 599b 843d f60f 943d
00000060: a7f6 363d e22d 3bbe 5ba9 d73d 60ef 1abd
00000070: 2f2e 37be d936 aebd b1c9 abbd 2a57 483c
00000080: 68f6 3abe 5f56 f73d d7c5 b63d 1e82 1fbe
00000090: dcfc 36bd e777 c4bd 38b7 dabd 796b 273c
000000a0: 7359 d33d bb46 af3b 250c abbd d30a e03d
000000b0: bb45 2d3e 9e45 38bc df43 cf3d 1f58 9fba
000000c0: 1b54 10be 0098 70bd cc9c fbbd 7d33 76bd
000000d0: 8ebe 253e 98f9 ccbd 6710 b6bd 3f9f 3b3c
000000e0: be46 05bd f44e b93c 489e d4bc 41b6 d93c
000000f0: 0a14 60bd 88d3 323d a8a6 703e c92c 373d
00000100: 5e50 6c3c 726c 77bd c5ae 943d fb2c debc
00000110: 92c3 c33c 7245 cb3d 9ab9 813e 9958 e2bd
00000120: 1848 05be 6660 2bbd cb26 963e 7775 1d3e
00000130: 9390 99bd 9766 7f3d 54fe 7abc 40cc 003b
00000140: 3c95 0c3c 954e 3ebd 260f d63d 35e7 bfbd
00000150: e36c f1bd b70b 323d 28b9 f1bc df2f d1bd
00000160: 93dd 34bd b246 9cbd b50c 743d d9a9 d0bd
00000170: 17ac fe3d 2ec3 e03c 82ee 41bd 9523 3d3c
00000180: 15d9 a33c f70c 363e 35a1 7b3c 8f3c 6e3d
00000190: 521e b8bd a95f a93c 1295 0e3d 1fb5 0d3d
000001a0: 1305 74bd 7be6 a73d b2b5 8b3d 1d20 fa3d
000001b0: a75c 14bd 5f1c 97bc 1d3e 60bd b637 61bd
000001c0: 8231 143b 38d6 f2bd f5df 62bc a834 233e
000001d0: c3d6 6f3d 8f7b 443d 547d 773d 28d7 e33d
000001e0: b6fb 84bb c1e5 6e3d b9dd b63c 5713 1abe
000001f0: 335b ab3d f357 793d 62ed 2ebd 42f4 e3bd
00000200: 67c1 2c3d 2f16 c8bd 7d49 a8bd ac59 a73c
00000210: 47b4 7a3d 5001 e1bd a112 8e3c 1f18 aebc
00000220: ed18 853c 2434 003e 65b5 11be aeec c63d
00000230: 70f9 9e3d 1d14 f63d 20e3 27be 0e54 10be
00000240: e49a 5dbd bee2 c23c edf6 65bd fda6 d43d
00000250: 7e3e 953d a244 133e 775a b0bd 1bfc ac3d
00000260: 1229 163d 292c 21be acaa 95bd 5de7 123c
00000270: ba06 0dbd fae2 a9bd 9d7a 153e 1b5e 753d
00000280: d60c 063e ef8c 34bd 6b96 463e ce47 163d
00000290: 0c1b b7bd c8d2 843d dae6 eabc 6174 153d
000002a0: a507 013e 9325 5d3d 1d4f 503d fb96 6bbd
000002b0: d236 a93d 8348 69bd baa2 d43c 65ad 813d
000002c0: 2cb2 0a3e abcf a33d 6cd0 743d 7174 ee3d
000002d0: cb61 253e 9485 013e 0305 b53d 5d01 5c3e
000002e0: d42b 78bd 176c 02bd 8945 d53d e623 ef3c
000002f0: 01e9 80bd 2592 c1bd 5115 a83c 1083 79bb
00000300: 8042 2abd a869 cf3d 581a d63c 597b aa3d
00000310: 2054 e23d 1187 8a3d 0433 0e3e f605 6f3d
00000320: e223 a13d 8b94 09bb dbda 84be 7279 e33d
00000330: 80a8 c93a 982b 0ebe 862c eabc 86b6 b1bc
00000340: c46e 14bd f06a e6bc a2f4 46bd 7dec 0a3c
00000350: 5bb6 203e fdc4 b23d 7759 8bbe a32a 3ebe
00000360: 2b87 18bc aa75 c33d 4a07 2e3e 078b 5f3c
00000370: 699d fabc 6fd7 39bd 361d df3c 0c04 e73d
00000380: 90a2 60be 33e2 a83b 8ebf edbd f95a afbd
00000390: 898d 153d f230 213e 1719 20bc 9428 9e3d
000003a0: 764f 3c3e b0aa 293e 6718 24be 81c1 dabc
000003b0: 782b 093e 3427 9c3e ab96 8f3d a88f d13d
000003c0: 8f45 8ebd 0d48 dd3b ff3c 0bbe c015 2c3c
000003d0: 63f1 973c ef6b 21bd 13c2 e0bd a6b2 773d
000003e0: c277 373c 062e 37be 8999 10bd f586 8bbd
000003f0: 57ef f2bc cfbb 833d bfc2 f7bd aa47 e6bb
